AlphaGo/foersterrobert_MuZero/Environments/CartPole/Models/model_12.pt (torch, 84274 bytes, 20 tensors)

predictionFunction.startBlock.0.weight f4 [64, 32]
000000 9b 66 dd bd 86 3f 0b 3f ff 1e a7 be 95 88 95 be
       -0.10810586 0.54393804 -0.32640836 -0.29205766
000010 2f 1f ac be 27 6a 9b bd d9 38 a9 bd 03 09 85 3e
       -0.3361754 -0.07588606 -0.08262796 0.25983438
000020 65 76 c9 3d 48 f3 32 be d5 bb 92 be 94 17 99 be
       0.09837035 -0.17475617 -0.2865893 -0.299008
000030 ac 8e cf be 49 05 a9 3e f6 fa 67 3d 1d bd 65 be
       -0.40538538 0.33011845 0.05663582 -0.22435422
000040 01 61 ff bd a3 60 82 3e 99 91 05 bf 3a bc 97 3e
       -0.12469674 0.25464353 -0.5217529 0.29635793
000050 e7 f8 ec 3e 80 bd 3d 3f fc 07 52 3d cb 81 3c 3d
       0.46283647 0.7411728 0.051277146 0.046022218
000060 f4 13 ec bc 19 55 f3 3d d9 81 c0 3c 84 c1 f2 3c
       -0.028818108 0.118814655 0.023499416 0.029633291
000070 4e 93 16 3e 0f a5 17 3e f7 59 92 be 21 8a cc 3c
       0.1470463 0.14809059 -0.28584263 0.024968209
000080 96 16 39 be 85 54 31 be 99 fb 70 be e2 d1 f1 bd
       -0.18075022 -0.17317398 -0.23533477 -0.1180761
000090 90 df 7c be bc 08 8e 3d 17 27 53 be 53 17 5e 3e
       -0.24694657 0.0693526 -0.2062038 0.21688585
0000a0 28 e8 7a bc c9 3a 75 be 09 d7 72 be 8e 95 b8 bc
       -0.015314139 -0.23948206 -0.23714842 -0.02253225
0000b0 63 a2 6b 3d 3c ce 6d 3d 41 cf 19 3d e8 52 a4 3d
       0.05752791 0.05805801 0.03755117 0.080236256
0000c0 ed 50 cf be a5 19 14 be 54 d6 b3 3d 9d de 1b 3e
       -0.4049143 -0.14462908 0.08781114 0.15221639
0000d0 48 81 8f 3e 74 64 97 3d a5 c2 3a 3e b9 b3 fc be
       0.2802832 0.07392207 0.18238313 -0.49355868
0000e0 57 25 31 3d e2 ba e1 3c 3b f4 3e bd af 33 e9 bb
       0.0432485 0.027554933 -0.046619635 -0.007116757
0000f0 67 91 c4 bc 26 90 c8 3e 28 88 22 bf d8 64 41 be
       -0.023995114 0.39172477 -0.6348901 -0.18886125
000100 d1 12 af be 36 76 06 3e d8 0c d9 bf d4 77 90 3d
       -0.34194043 0.13131031 -1.6957045 0.070541054
000110 11 62 40 3d 3a 4d 1c 3f ed 68 a5 bd 31 77 a7 be
       0.046968523 0.6105534 -0.08076654 -0.32708123
000120 cc 44 ac be 04 eb b6 3d b8 d6 de be 5c ea 2d 3e
       -0.33646238 0.089315444 -0.43523192 0.16983932
000130 ff 08 25 3f 8a f2 84 3d 8e 63 78 3e 90 99 8e 3e
       0.6446685 0.06491573 0.24256727 0.27851534
000140 f3 63 17 bf 8c 82 96 3e 20 4c 7c 3d 10 9a e0 bd
       -0.59136885 0.29396474 0.061596036 -0.10966885
000150 f8 7e 98 3e df ec ce 3d 4c 98 8f 3f 43 00 3b 3e
       0.2978437 0.10103773 1.1218352 0.18261819
000160 93 0f 80 3e e6 15 a3 3e 2c 4f f7 3e ba d2 7c 3e
       0.25011882 0.31852645 0.4830259 0.24689761
000170 8c 2d 35 3e 2d d1 f6 3f 2b a6 8f bf 22 d5 b8 3e
       0.17693156 1.9282585 -1.1222585 0.36100107
000180 96 24 39 3d c0 2b c8 3e d6 4b 18 bf f3 bc a4 bd
       0.045200907 0.3909588 -0.59490716 -0.08043852
000190 4b 70 9e bc 35 bb 07 3f cf 6f a5 bd 3c aa 94 be
       -0.019340655 0.5302003 -0.080779664 -0.2903613
0001a0 93 d9 a9 be 82 e5 82 3d 25 06 09 bd cd 21 ae be
       -0.33173808 0.063914314 -0.033453126 -0.34010163
0001b0 14 5c 6e 3e 67 9f 3b bd 8d 93 bb 3c 13 69 d1 3e
       0.23277313 -0.045806315 0.022897506 0.40900478
0001c0 44 e5 a6 bc 85 15 69 3e 20 59 96 be 04 2f dd bb
       -0.020372994 0.22762115 -0.29364872 -0.0067499895
0001d0 43 3b 22 bd 87 f3 bc 3e b6 38 35 3e bf 28 b9 3e
       -0.039607298 0.36904547 0.17697415 0.361639
0001e0 02 12 91 3e de 27 03 3c a7 cc a1 3d 52 ef 88 3e
       0.2833405 0.008005111 0.079003625 0.26745087
0001f0 79 75 44 3e da 69 bb 3d 16 d7 e1 be 56 cb ff 3e
       0.19185437 0.09151049 -0.4410941 0.4995982
000200 9f b7 be be 3e 18 50 bf bf e2 5a be 9a 49 b5 3e
       -0.37249467 -0.8128699 -0.2137556 0.35407716
000210 87 2b 8d bd f3 91 c4 bd 28 96 6c be 2c d8 32 be
       -0.06893068 -0.0959815 -0.23104155 -0.17465276
000220 67 df 34 3d 20 80 e3 bd 2c 29 31 3d 28 5c 58 3f
       0.044158366 -0.11108422 0.043252155 0.8451562
000230 7f 28 25 3f 03 24 09 3f 9d 9c 20 be 9f c8 88 be
       0.6451492 0.53570575 -0.15684743 -0.26715562
000240 44 99 06 bf 14 ec 2d bf 71 cf 1f bc d6 5e d6 bd
       -0.52577615 -0.6793835 -0.009754048 -0.10467307
000250 29 82 83 3c 16 07 60 bd 2f d8 83 3d a6 06 ce be
       0.016053276 -0.054694258 0.06437718 -0.40239447
000260 a0 44 07 3e 96 bf 27 3f a6 8b 07 bd ac 0c 9a 3c
       0.13209772 0.6552671 -0.033092164 0.01880487
000270 b7 db a7 be 83 c1 b7 3e ae d9 7c bf aa 71 17 3e
       -0.32784817 0.35889825 -0.9876965 0.14789453
000280 8f 1a f5 bd 09 81 34 be 02 d8 ba bb 21 df 7f be
       -0.11967956 -0.17627348 -0.0057020197 -0.2498746
000290 ac 6c d4 3d a6 d4 0f bf 1a b7 8f bb 21 fa a4 3e
       0.1037229 -0.5618385 -0.004385841 0.32222083
0002a0 8d 25 96 bd 00 4e 20 be 56 d8 89 bd 0d 65 4b 3e
       -0.07331381 -0.15654755 -0.06730716 0.19862767
0002b0 b3 fa 91 3e 43 20 2f 3d 9b 42 9c bd 3e 41 0d 3d
       0.2851158 0.042755377 -0.076298915 0.034486048
0002c0 93 99 02 be c1 6c a3 bd 23 c9 f9 3e 19 bc d8 bc
       -0.12753896 -0.079797275 0.48786268 -0.02645688
0002d0 3e 3d 6d bc b4 82 b6 bd c4 c2 84 3e 55 e7 a6 bd
       -0.014479933 -0.089116484 0.25929844 -0.08149592
0002e0 fc e3 1a bd f2 3c 07 3d cd 65 9f bd 53 e1 6c be
       -0.03781508 0.033017106 -0.07783089 -0.2313283
0002f0 12 27 20 bf 7f fd 25 3e 42 c4 14 3e bb 44 09 3e
       -0.62559617 0.16209982 0.14527991 0.13405125
000300 f4 7a 34 be 52 e1 77 bd 7d ce 5d bd 1c 99 39 be
       -0.17625028 -0.060517617 -0.054152 -0.18124813
000310 62 3e 00 be ca d4 27 3e ac 4c ff be 83 6a a9 3e
       -0.12523797 0.16389766 -0.49863183 0.33089074
000320 1c 73 c8 bc 6e 53 c8 3e 6f 5e 20 bf 14 ab 0f be
       -0.02446895 0.39126152 -0.62644094 -0.14030105
000330 f8 15 02 bd ff 83 b9 3c 01 a1 84 3e 2d ab 3a 3e
       -0.031759232 0.022645948 0.25904086 0.18229361
000340 d7 a9 3c 3b 2d fc af bd 45 4b 7e 3e 5d 24 d7 3d
       0.0028787756 -0.085930206 0.248334 0.105049826
000350 d3 d5 e4 3c a2 b7 7f 3d c9 eb b7 3d 93 ce 0c be
       0.02793399 0.062430985 0.08980519 -0.13750677
000360 10 7e 71 be c2 40 eb 3d 01 ad 9c bd 05 c0 dc be
       -0.23583245 0.11486961 -0.076501854 -0.4311525
000370 2f 57 64 be 16 84 64 3e d3 6d 99 bd 7b 9d 43 3d
       -0.22298883 0.22316012 -0.074916504 0.047757607
000380 79 4a 45 be 6a c7 0f 3e 99 fa 3d bf 65 fc 4f 3e
       -0.1926669 0.14040914 -0.74210507 0.20311125
000390 5f 19 e9 bd 7d fb 12 bd 6e 4e eb 3c 1a cd 2d 3e
       -0.11381792 -0.03588437 0.028723922 0.16972771
0003a0 40 61 af 3d 00 2f c7 3d 80 f7 38 3e 3f 25 08 be
       0.08563471 0.097257614 0.18063164 -0.13295458
0003b0 e1 71 94 3e 1f e0 ea bd 2d 0d 5a be ad ef df 3e
       0.28993133 -0.11468529 -0.21294089 0.43737546
0003c0 52 36 0b 3d f8 86 33 3e 9e 21 05 bd aa e5 06 3e
       0.03398735 0.17531955 -0.032502763 0.13173547
0003d0 a7 7c 96 3e f4 c2 9a 3d f8 26 3c 3f dc a3 b8 bd
       0.29391977 0.075567156 0.7349696 -0.09015629
0003e0 06 f2 7b 3e 33 5f 25 3e 61 9c a0 3e f6 46 c8 3e
       0.24604043 0.16149597 0.31369308 0.3911664
0003f0 52 9b 33 3e 87 7f 01 3f 59 d3 0e bf 23 21 74 be
       0.17539719 0.50585216 -0.5579124 -0.23840766

predictionFunction.startBlock.0.bias f4 [64]
000000 d0 33 cb bc 8e 5b 80 be 7d 7b 8e be 4a 2f 09 3d
       -0.02480498 -0.2506985 -0.2782859 0.033492364
000010 19 4d 65 be 2c d2 a2 bb ff b1 d2 3d 1d 58 84 bd
       -0.22392692 -0.004968902 0.10287856 -0.06462119
000020 6d 75 12 3e bc aa a3 3d 8c 35 72 be 78 4e 07 be
       0.14302607 0.079915494 -0.23653239 -0.13213527
000030 00 a4 3e be 2a 5c 7a bd a1 51 e1 bd a7 91 32 be
       -0.18617249 -0.06112305 -0.110018976 -0.17438374
000040 a8 f4 20 be 21 40 99 3d 10 48 7a be 08 58 8e bd
       -0.15718329 0.07482935 -0.24441552 -0.069503844
000050 52 9f 75 be 7b 99 f2 bd 9e 26 3c bd fa 7e 1b be
       -0.23986557 -0.1184568 -0.045935266 -0.15185156
000060 45 61 4a bd 4e 30 eb bd b9 60 34 3d cc 48 d8 bd
       -0.04940917 -0.11483823 0.044037554 -0.1056076
000070 1f 18 b7 bd 86 6e 33 be 75 d0 d0 bd 3f f1 3b be
       -0.089401476 -0.1752263 -0.1019601 -0.18353747
000080 ac d7 b1 3d 23 de 8d be 63 db 0b be ec 5b 2d bc
       0.08683714 -0.2770854 -0.13657908 -0.010580998
000090 d7 a1 c2 bd 9c 07 84 be 6b 14 0a be 1d b3 5a be
       -0.09503525 -0.25787055 -0.13484351 -0.21357389
0000a0 a7 9c c4 bd 7a cb 47 be 9f b6 a1 be 36 73 f4 bd
       -0.096001916 -0.19511214 -0.3158464 -0.11936037
0000b0 bd d8 6d bb 48 a5 84 be 7b 80 5a 3c b9 31 44 be
       -0.0036292516 -0.2590735 0.013336296 -0.19159593
0000c0 96 c9 24 be b2 63 09 3e d6 ba 07 be dc af d0 bc
       -0.16092524 0.13416937 -0.13254866 -0.025474481
0000d0 bf 2a 08 be 04 7e 3d be 78 50 92 be 9b 3d 02 3e
       -0.13297556 -0.18505102 -0.28577018 0.12718813
0000e0 eb 58 1e bc 5e 94 de 3d f5 7b 0c be ac 11 c7 3c
       -0.009664754 0.108681425 -0.13719161 0.024300419
0000f0 e3 97 da 3d f0 43 4d 3e 81 00 2a be c8 9e c5 3d
       0.10673501 0.20045447 -0.16601755 0.09649426

predictionFunction.startBlock.2.weight f4 [64, 64]
000000 63 49 11 be 20 28 5b be a0 91 9f 3e 28 ac 9e be
       -0.14188151 -0.21402025 0.3116579 -0.3099072
000010 f3 56 c1 bd c2 8b 0d bf 8f c6 96 3e 2e e7 38 3e
       -0.09440412 -0.5529138 0.29448363 0.18056938
000020 5c f6 26 bf ec f8 6b 3d d0 6b 1c be f7 b1 e0 bc
       -0.65219665 0.057610437 -0.15275502 -0.02742861
000030 13 40 0c 3e fe 3f 00 3f 3f 4a d4 3d 80 d8 ed 3d
       0.13696317 0.50097644 0.10365724 0.1161356
000040 a1 8b 08 3e 63 15 e0 bd a2 aa 0d bf 73 78 99 be
       0.13334514 -0.10941579 -0.5533849 -0.29974708
000050 57 8e bd bd f2 ce 11 3d 12 37 c6 3e 39 4b 37 3e
       -0.09255665 0.03559775 0.3871389 0.17899789
000060 23 8c 10 bf d0 74 4d be 4e 0d 68 3f c2 4e 20 be
       -0.5646383 -0.20064092 0.906453 -0.15655044
000070 25 dd 2e be b2 73 84 3d 1a 48 7f be 1b f5 56 3d
       -0.17076547 0.0646738 -0.24929848 0.052479845
000080 4b 89 db be a5 5b b1 3e 75 7f c5 3d eb 17 a3 be
       -0.42878184 0.34640232 0.09643451 -0.31854185
000090 b0 f4 27 bd dc fd a8 3e 76 5a 6e bd a2 3d 9e 3d
       -0.041004837 0.3300618 -0.05819174 0.07726599
0000a0 4f 82 9b 3c 37 13 f8 3c 19 e2 25 3e 1f 4f dd 3d
       0.018983034 0.0302826 0.1619953 0.10806107
0000b0 ff 83 10 3c f1 8a 64 be 13 82 a3 be e6 d2 78 bd
       0.008820533 -0.22318627 -0.31935176 -0.060748003
0000c0 86 14 98 3d a4 d0 15 bf 2d 40 59 be be bc bf be
       0.074257895 -0.58521485 -0.21215887 -0.37448686
0000d0 33 6d eb 3c 60 dc 53 be 4f 3c e0 3e 2e 84 8f be
       0.028738594 -0.20689535 0.43796012 -0.28030533
0000e0 43 79 b5 be eb 7d c5 bd 71 3b f9 bd 52 38 b2 3e
       -0.35444078 -0.096431576 -0.12169541 0.34808594
0000f0 6c 96 1e 3e 25 1e 46 be 62 e0 a4 3b a4 bc c7 be
       0.15487069 -0.19347437 0.0050316313 -0.3901111
000100 48 0c 32 be 20 48 88 be f4 c3 62 3e 49 a6 2f be
       -0.17387497 -0.26617527 0.22145063 -0.17153277
000110 84 5c ef 3e 6f c9 02 3d ee 59 d7 3e 26 a5 d0 3e
       0.4675027 0.031930383 0.42060798 0.40750998
000120 a0 bf 17 bf 69 e2 67 3e 12 3d e4 3c 2d d2 a9 bd
       -0.5927677 0.22644962 0.027861152 -0.08292041
000130 8e 39 10 3f 53 68 e9 3e 8b 01 d2 3e ae ac f6 bb
       0.5633782 0.45587406 0.41016802 -0.0075279092
000140 d3 76 4f 3e b4 19 a3 bd bd b1 21 bf ce 37 80 3c
       0.20260172 -0.07963887 -0.6316183 0.01565161
000150 1d 52 3a bd dc 29 2a bd 54 d3 fa 3d d2 2e 94 3e
       -0.045488466 -0.041543826 0.12247339 0.2894197
000160 ca a1 98 be a4 50 2d be c9 6d 0d 3f 53 94 7e be
       -0.29810935 -0.16925293 0.55245644 -0.24861269
000170 1d ab ce be e2 51 f3 3d c3 73 7e 3d 60 30 34 3c
       -0.40364924 0.11880852 0.062122118 0.010997862
000180 3b 75 ad be f4 b0 ba 3e 29 57 f2 3e 65 b9 8c bd
       -0.33878502 0.3646313 0.47332123 -0.06871299
000190 50 61 e4 3e 06 b5 da bd ae ed 8f be 2e 45 1b 3e
       0.44605494 -0.10679059 -0.28111023 0.15163109
0001a0 af 7b ab 3e 64 6b 7e 3e ee fd 08 3d d1 db 13 3e
       0.334928 0.24845654 0.03344529 0.14439322
0001b0 e8 60 80 3e 65 de 01 3e df 4c 9e be 9e 03 6c bd
       0.25073934 0.12682493 -0.30918023 -0.057620637
0001c0 5a 0e 9d bc 10 9b 6f be a7 58 1d be 8e 1a fd bd
       -0.019171882 -0.23398995 -0.1536585 -0.123585805
0001d0 60 a0 8d 3e 64 57 03 3e 00 3c 36 be d4 7b 60 be
       0.2766142 0.12826306 -0.17796326 -0.21922237
0001e0 31 98 cd be 5b 77 dc 3d 3a f6 11 bd 95 94 3a 3f
       -0.40155175 0.10764953 -0.03563521 0.7288297
0001f0 79 6a af 3e 5b 3f 21 bd 63 32 a6 3c 0a 2b 65 be
       0.3426092 -0.03936706 0.020287698 -0.223797
000200 aa 1c 3a 3a 2c 57 cd bd b3 67 b6 3e 44 48 3a 3c
       0.0007099608 -0.10026392 0.3562599 0.0113697685
000210 df b6 c2 be c8 88 11 bf d8 6f 58 3e d2 ee 1e bd
       -0.38030145 -0.56849337 0.21136415 -0.038801976
000220 e5 3a 3f be 70 f1 9a be 53 5f 67 3d ec 05 1b 3f
       -0.1867481 -0.30262327 0.056487393 0.6055591
000230 c5 a7 ef 3d 5d 95 d1 3d 07 4d 6c bc f6 15 86 3c
       0.117019214 0.10233567 -0.014422662 0.016367894
000240 be eb 1c 3c e9 ef f1 3d a0 98 39 be d4 52 f3 bc
       0.00957769 0.11813337 -0.18124628 -0.029702581
000250 ed e5 42 3d 4d 05 87 be 8f 45 c7 3d 50 87 e9 3c
       0.047582556 -0.26371232 0.09730064 0.028506905
000260 37 b5 5c 3d 04 af 8f be 84 53 2d 3d 8a 91 44 bd
       0.053883757 -0.28063214 0.042315975 -0.04799036
000270 bc e3 91 be 77 3c 10 be b0 88 b1 3e 32 5e 9e 3d
       -0.2849406 -0.14085566 0.34674597 0.0773281
000280 cc 75 1f be 62 18 ea bc dd 3c 52 3e bf 79 3a 3e
       -0.1557228 -0.02857608 0.2053103 0.18210505
000290 40 74 5d 3e f9 72 35 be 50 fc d6 bd 24 72 c0 bd
       0.21626377 -0.1771964 -0.104973435 -0.093967706
0002a0 29 c9 42 3e 8c 7b cb bd ea d1 bd bd c5 5e af be
       0.19022049 -0.09935674 -0.092685536 -0.3425199
0002b0 7e 2f be 3e 23 08 d5 be 23 af ec be c1 77 89 be
       0.3714561 -0.4160777 -0.4622737 -0.26849177
0002c0 a1 01 29 be a1 85 98 be 79 23 8b bb bb 13 a5 be
       -0.16504528 -0.2978945 -0.004246172 -0.32241616
0002d0 09 22 f7 3c 55 27 4b 3d 6f 8d a4 3b e0 5c 43 be
       0.030167596 0.049598057 0.005021743 -0.19078398
0002e0 e9 cb cf 3d 3f e0 11 bd c6 f6 04 3f 33 86 22 be
       0.10146315 -0.03561425 0.51939046 -0.15871505
0002f0 a5 63 ec 3b 27 98 7d be c4 43 ea bd 2e 9a 07 3d
       0.007214027 -0.24765073 -0.114387065 0.03310602
000300 2d 1a c0 be 2c b7 4c 3d 10 66 e9 3d d7 9e 9f 3e
       -0.3751997 0.049979374 0.1139642 0.31175873
000310 4a b3 4d 3e 0a 39 0c 3d b7 ac 4b be 25 9d 56 3c
       0.20087925 0.034234084 -0.19890104 0.01309899
000320 4c 5c 9b be 98 1c 64 3e 3c 7e b2 be 84 b0 d0 bc
       -0.30343854 0.22276533 -0.34861934 -0.025474794
000330 34 8e f5 3c c8 c4 1a bd 8b 95 28 3e 53 46 75 3e
       0.029975034 -0.03778532 0.16463296 0.23952608
000340 d3 28 15 3e cb 55 63 bd 5f 84 2e be 58 5e 07 be
       0.14566354 -0.05550174 -0.17042683 -0.13219583
000350 5f c6 a2 bd f4 78 bd be f0 80 cd bd 6b cc 66 3e
       -0.079479925 -0.37006342 -0.100343585 0.22538917
000360 b8 25 86 bc 0c 59 f8 3d 2c 63 e8 3d ce aa 5a be
       -0.016375408 0.12126359 0.113470405 -0.2135422
000370 1a 4f 3b 3e 3f ff ff bd 3e 72 08 be 1a 3a 8f be
       0.18291894 -0.12499856 -0.1332483 -0.27974015
000380 21 14 76 3e 35 8c a8 3d 6f ca 5b 3e 47 c9 a5 be
       0.24031116 0.08229867 0.21463941 -0.32380125
000390 53 b6 c0 3d 40 81 c0 bd 47 d2 6c bf ba 75 01 3e
       0.094097756 -0.093996525 -0.9250836 0.12642565
0003a0 f1 ad de 3e 24 5c d7 be eb be f2 bc 80 69 a3 3e
       0.43492082 -0.42062485 -0.029632052 0.31916428
0003b0 a9 c9 64 3e 8a d6 99 be 65 dc 63 bd db 26 22 bf
       0.22342552 -0.30046493 -0.055630106 -0.6334054
0003c0 cd 3a ef 3e cf 8d 1d c0 37 39 b0 3c c5 5c 17 be
       0.4672455 -2.4617803 0.021511657 -0.14781483
0003d0 72 56 a4 3e 3d 17 86 3e 13 b8 3d 3e 24 bc 47 bd
       0.32097203 0.26189604 0.1852725 -0.04876341
0003e0 6a c9 16 be fe f9 8c 3e 1f c5 3e bd 4f 79 85 be
       -0.14725271 0.2753448 -0.046574708 -0.26069114
0003f0 da 9f c1 be 01 99 db bd d2 4b 0d 3e 90 d7 d2 bb
       -0.3781727 -0.107225426 0.13798454 -0.0064343885

predictionFunction.startBlock.2.bias f4 [64]
000000 af 1f 11 be e9 4d 2d be f0 21 d4 bd 84 d5 27 3d
       -0.14172243 -0.16924252 -0.103580356 0.04097511
000010 bb d4 ae be 20 5c 8f be 7c 73 43 bd 06 b7 b3 be
       -0.34146675 -0.27999973 -0.047717556 -0.35100573
000020 2f fc 12 be 09 4c ae bc e6 00 32 be 10 91 ff bc
       -0.14354013 -0.02127649 -0.17383155 -0.0311971
000030 55 70 18 3e c4 81 31 3e 74 fd 9d 3e 44 44 63 3b
       0.14886601 0.17334658 0.30857432 0.003467814
000040 54 03 89 bd 08 6e 2b be d6 9e e3 be e8 8d 8e 3c
       -0.06690088 -0.16741192 -0.4445712 0.01740165
000050 4a 14 ee bd 21 b2 0c be c2 eb ab bd f4 ba 00 3e
       -0.116249636 -0.13739826 -0.083945766 0.12571317
000060 1f 7e 00 be c0 f6 33 be 83 59 a6 bd 84 97 32 be
       -0.12548111 -0.17574596 -0.08122542 -0.17440611
000070 98 19 f4 bd e9 e6 57 3d d9 a3 01 be 12 49 89 bd
       -0.11918944 0.052710447 -0.12660159 -0.0670339
000080 2c 0e 14 be 94 3a e7 bc cc 29 67 bc 98 95 e6 ba
       -0.14458531 -0.028226174 -0.014109086 -0.001759219
000090 52 dd 5b bd 51 10 15 be 4c 5c 31 be d5 f1 24 3c
       -0.053677864 -0.14557005 -0.17320365 0.010067423
0000a0 df e1 96 be 3c 35 1c 3e be 2d 4e 3e ff 4a 44 be
       -0.294692 0.15254682 0.20134637 -0.19169234
0000b0 54 73 e8 3d 66 61 e9 bd 86 58 cd 3d de 48 ef be
       0.11350122 -0.113955304 0.1002665 -0.4673528
0000c0 39 75 04 be 0c 95 60 be 0a 57 ce bd 45 83 01 be
       -0.12935342 -0.21931857 -0.10075195 -0.12647732
0000d0 e3 d3 b8 3d 05 8e 29 be b2 5b 9e be bd 2d d8 3e
       0.09024789 -0.16558082 -0.30929333 0.42222396
0000e0 77 b0 47 3d a6 a6 63 be 5f 60 1b 3e cf 43 04 3e
       0.048752274 -0.2223154 0.15173481 0.12916492
0000f0 c3 5c 09 3e 7f d8 1f 3d 90 95 14 be 9a f0 74 bd
       0.13414292 0.039024826 -0.14510179 -0.059799768

predictionFunction.policy_head.0.weight f4 [2, 64]
000000 e2 d6 3f bc 66 eb 43 bd 2c e7 cc 3c 3c af 4d 3e
       -0.011708947 -0.047831915 0.025012575 0.20086378
000010 47 29 71 be 74 d4 a8 3a ab 1d 2d 3e 68 92 01 3f
       -0.23550902 0.0012880699 0.16905849 0.50614023
000020 5d 2d 92 be 73 45 f3 3c 6a 75 d5 3d 6d a9 14 3e
       -0.28550234 0.029696202 0.104227856 0.14517756
000030 7f ff 0f bd bd b0 e7 bd 58 3d 45 bc 49 31 63 3c
       -0.03515577 -0.11313007 -0.012038551 0.013866731
000040 45 1e 80 bc 97 99 14 3e 70 de c4 be be e8 8f bd
       -0.015639434 0.14511715 -0.38450956 -0.07026814
000050 85 1b 8c 3e 76 0c 7d 3c 01 db 43 3d 5b d3 ef 3d
       0.27364746 0.015444865 0.04781628 0.11710235
000060 87 e3 bc 3d b7 fa 93 be b0 db a3 3d c9 ec d6 be
       0.09223085 -0.28902218 0.080008864 -0.41977528
000070 50 54 6a 3d 3d b8 ca be 72 f6 71 3b 78 77 04 3e
       0.057209313 -0.39593688 0.0036920574 0.12936199
000080 71 f9 91 3d 29 d6 a1 3a 66 88 49 be 8f 31 86 bd
       0.07127655 0.001234715 -0.19680938 -0.06552421
000090 ee f7 c4 bd f7 5e a5 3e a7 13 78 be 1b b9 23 3d
       -0.09617601 0.32299015 -0.24226247 0.039971452
0000a0 4a 26 28 3f 85 a9 94 3e 20 85 1a 3e f8 b6 0c bf
       0.65683424 0.29035583 0.15089846 -0.5496669
0000b0 23 18 94 bd 73 17 27 bd 22 2d 52 be 75 7d 81 3e
       -0.07231166 -0.040793847 -0.2052503 0.2529103
0000c0 90 15 e5 3e e1 eb ac 3e ce 44 b1 bd 70 bf 75 bb
       0.44743013 0.3377371 -0.086557016 -0.003749814
0000d0 aa 99 ca be 27 55 f5 3c 61 88 aa 3e 51 c4 53 bd
       -0.3957036 0.02994783 0.33307174 -0.051700894
0000e0 38 6f 8a 3d ba ca 0a be be 41 c5 3d 65 aa dc bd
       0.067594945 -0.13553897 0.0963168 -0.10774688
0000f0 40 22 fc 3d 49 e9 9c bc 0c 8f a9 3d fb 1d a9 3d
       0.1231122 -0.019154208 0.08279237 0.082576714
000100 58 ab 23 3d ef 17 10 be d8 ba b1 bc d4 66 67 be
       0.039958328 -0.1407163 -0.02169554 -0.2259782
000110 a9 98 dc 3c a5 48 0d 3e 95 2f 9b 3c 5b e0 c7 be
       0.026928263 0.13797243 0.018943587 -0.39038357
000120 fb 95 a4 3e f9 28 fb bc 7e 78 f7 bc 04 c7 08 be
       0.32145676 -0.030659186 -0.030208822 -0.13357168
000130 ba 96 26 3e 0c 97 17 3e 30 b6 29 3d 71 e0 b1 3d
       0.16268435 0.14803714 0.041433513 0.08685387
000140 8b cc 7a 3d 47 9b a3 be 42 dd bf 3e 5d ec 0a bd
       0.061230224 -0.31954405 0.37473494 -0.03391682
000150 13 6e 26 be 7f a7 cb 3d 65 d7 52 bd 7e 8f e1 bd
       -0.16252927 0.09944057 -0.051474947 -0.11013697
000160 83 ad a6 3d 14 ad 92 3e 38 c8 6b 3d d6 e1 d4 3e
       0.081385635 0.28647673 0.05756399 0.4157855
000170 95 a3 b6 3b cc f3 e5 3e c1 66 c2 3d ae 8d 33 bd
       0.0055736997 0.44912565 0.09492255 -0.04383629
000180 87 03 1c be 3e a7 f0 bd 2e 4c 58 3e 5a 4f 90 3c
       -0.1523572 -0.11750649 0.2112281 0.017615963
000190 82 57 fb 3c f5 7c 94 be 58 f7 b3 3e 4c 3e c6 3d
       0.030681375 -0.29001585 0.35149646 0.09679851
0001a0 16 26 28 bf 3f 16 54 be 9e 03 8b bd c6 b7 f1 3e
       -0.65683115 -0.20711611 -0.06787799 0.4721052
0001b0 85 a6 b8 bd ec 64 d9 bc 63 18 d2 3d 90 f5 91 be
       -0.09016136 -0.026537381 0.10258558 -0.28507662
0001c0 0d 4d 04 bf 79 a9 99 be 51 a3 82 3d 5b cc 52 3d
       -0.5168007 -0.3001211 0.063788064 0.05146442
0001d0 9b 83 91 3e b2 f8 28 3e d8 05 88 be b8 7a d7 3c
       0.2842072 0.1650112 -0.26566958 0.026303634
0001e0 23 2f ca 3c 6d 5c 88 bc 0d 85 7b be d1 c1 71 bd
       0.02468068 -0.016645635 -0.24562474 -0.05902273
0001f0 c0 66 03 3b 6d 68 75 3e ef 7d d8 bd ce 17 0e 3d
       0.0020050257 0.23965617 -0.10570895 0.03469067

predictionFunction.policy_head.0.bias f4 [2]
000000 f9 cc 94 bc b0 9d 83 3b
       -0.018164145 0.0040166005

predictionFunction.value_head.0.weight f4 [64, 64]
000000 ac b8 99 bd 33 ba ac bc a3 0e 0a bc f5 e6 6a 3d
       -0.075059265 -0.02108488 -0.008426341 0.057349164
000010 09 0f 07 3d 99 e3 5f bd df 56 61 3d 11 34 9c bd
       0.032973323 -0.054660413 0.055014487 -0.076271184
000020 a7 f8 69 bd c3 b8 0f be 27 f2 13 3d e6 38 0a bd
       -0.0571219 -0.14035325 0.036119606 -0.03374567
000030 6c d7 d4 bd a4 9e eb bd 6b a8 90 bd 5f 31 cc bd
       -0.10392651 -0.11504868 -0.07063373 -0.09970354
000040 84 a5 50 bd fd 99 d8 bd 6a 51 b9 bd 8f d8 0a 3d
       -0.050939098 -0.10576246 -0.090487316 0.033897933
000050 73 2d a2 bd 00 67 50 3d d0 7b 0b 3c 88 f3 9c bd
       -0.07918825 0.05087948 0.008513406 -0.076636374
000060 0b 5f ad 3c 40 0a 9c 3d 1e b4 73 bc 90 03 5e 3c
       0.021163484 0.076191425 -0.014874486 0.013550654
000070 20 cd cf 3d 42 67 3c bd 20 14 e1 3c 0a 19 52 3d
       0.10146546 -0.04599691 0.027475417 0.05129341
000080 3e bc 12 be 7e 29 97 3d c3 84 ca bd a0 60 d2 bb
       -0.14329621 0.07380961 -0.098886035 -0.00642021
000090 4a 7a ba bd cc 15 ce 3c ac e6 cd bd cb fd 99 bd
       -0.09105356 0.025156878 -0.10053763 -0.0751911
0000a0 80 ed b0 3c 97 9f be bd 3d 80 ef bc 0b 83 98 3d
       0.021597624 -0.09307783 -0.029235953 0.074468695
0000b0 7e 39 22 be 16 57 a6 bd fe 1f f0 bd 0b 23 ab 3d
       -0.15842244 -0.08122079 -0.11724852 0.08356293
0000c0 a7 15 9a 3b 12 ca d6 bd 29 6a 0f be 38 4d 84 3d
       0.004702288 -0.104877606 -0.1400534 0.06460041
0000d0 ab b4 55 3d 9c 88 dc bd f5 58 ca bb c8 24 7a bd
       0.05217425 -0.10768244 -0.0061751553 -0.061070234
0000e0 ff c1 82 3c 08 c1 f0 bd a4 88 04 3d 1f 4e a4 3d
       0.015961645 -0.11755568 0.032356873 0.08022713
0000f0 32 04 b4 3b 13 c1 99 bd 2c 04 5e bc 04 eb 5c 3d
       0.005493664 -0.07507529 -0.013550799 0.053935066
000100 c1 74 20 be f0 c8 fb bd 40 ff d4 bd 9c d3 51 3c
       -0.15669538 -0.12294185 -0.104002476 0.012806799
000110 42 17 14 be 0d ca a5 bd 85 86 64 bd d3 d1 cb be
       -0.14461997 -0.08095179 -0.05579235 -0.3980852
000120 3d 82 50 3d af c9 1d 3d 53 b3 02 be e8 bd 94 bd
       0.050905455 0.03852242 -0.1276372 -0.07262784
000130 cf 1f 02 be f9 f2 27 be 90 d7 3f be 8d 3f 63 bd
       -0.12707447 -0.1640128 -0.18734574 -0.05548053
000140 d8 f9 92 be 10 b8 c9 be 52 8d ad bd 8c 08 0b bd
       -0.2870624 -0.3939824 -0.0847422 -0.033943698
000150 7e 53 0d bb 7c d6 2f 3d e8 59 2e bd e9 e2 03 be
       -0.0021564658 0.042929158 -0.04256621 -0.12879528
000160 ed 34 d8 3e f7 7f 7a 3e c9 c4 88 3d d0 95 ad bc
       0.4222788 0.24462877 0.06678159 -0.0211896
000170 5c f0 e4 3d 00 09 29 be 2f 55 25 be 48 23 d0 bd
       0.111786574 -0.1650734 -0.16145776 -0.10162979
000180 ba ce f2 be ac 5a 94 be e3 c7 d1 bd 70 39 f4 3c
       -0.47423345 -0.28975427 -0.102432035 0.029812545
000190 40 22 5c 3d 64 be 88 3b 35 ba 65 bc 07 53 54 3e
       0.0537436 0.004173087 -0.014021446 0.20734797
0001a0 15 af 5c be 31 32 75 bd b7 f5 fc bd ad 30 bc be
       -0.21551163 -0.05986232 -0.12351554 -0.36755887
0001b0 51 8a c1 be 5a 4c eb 3d 93 a1 6f be 75 c8 18 be
       -0.3780084 0.11489172 -0.2340148 -0.14920218
0001c0 6a 6f 63 3e 9a d8 52 bd da c7 fc bd c7 4d 0e 3d
       0.2221047 -0.0514761 -0.12342806 0.034742143
0001d0 75 38 c6 bd c6 99 b0 be 2e 97 c3 bd 52 4c 39 3e
       -0.09678737 -0.3449232 -0.095503196 0.1809552
0001e0 c3 b3 74 bd cc 31 e2 bb e9 68 0b 3e 40 23 60 3d
       -0.059741747 -0.006902909 0.13614239 0.054721117
0001f0 dd d6 e3 bd f4 25 ff 3d 51 4d 81 be 30 5f 97 bd
       -0.11124966 0.12458411 -0.252543 -0.073912024
000200 b4 06 4c 3e 05 0e 17 be be b4 16 3e ac 82 70 bd
       0.19924432 -0.14751442 0.14717385 -0.05871837
000210 4a 5a a0 3d bc 42 0b be ba 08 98 3d c3 70 85 be
       0.07829721 -0.13599676 0.074235395 -0.26062593
000220 d2 7d d8 3c 32 7e 3e 3e 6b b5 2b be 4b 68 8c bd
       0.026427183 0.18602827 -0.16768424 -0.0685583
000230 cc b0 98 be c8 dc 1a be 65 95 ba be ce 11 20 3d
       -0.29822385 -0.15123284 -0.36442104 0.03907948
000240 a5 5f 5d bd c2 44 1b bf 8d 6b 5a 3d c4 46 a6 3e
       -0.05404629 -0.6065179 0.053325225 0.32475865
000250 22 aa 21 bf 6f 40 df 39 cb e4 b8 bd 1d 08 26 be
       -0.6315023 0.0004258188 -0.09028014 -0.16214032
000260 36 ce 90 3e f5 f3 36 be b0 a2 2c 3c 8c 82 35 3b
       0.28282326 -0.178665 0.010536835 0.002769622
000270 ad b5 11 3e 81 4e 8f be ad 7f 47 bd b7 d8 0b 3e
       0.1422946 -0.2798958 -0.048705745 0.13656889
000280 b6 b2 ef bd 4a 70 d8 be 86 4d b7 be 4c 5d e4 bd
       -0.11704008 -0.4227317 -0.35801333 -0.111506075
000290 e4 fe dc 3e b6 9b 4f 3e a1 8f c0 be 25 83 30 3e
       0.43163216 0.20274243 -0.3760958 0.17237528
0002a0 bd a3 5a 3e ae 85 fc bd 5a 99 5f 3e 4f da cc bd
       0.21351524 -0.12330185 0.21835843 -0.100025766
0002b0 43 1a f6 be e8 85 ec bd 88 10 2e be 46 6d 08 bf
       -0.4806691 -0.11548978 -0.16998494 -0.5329174
0002c0 69 dc 69 be 0b 01 f5 3e 95 66 81 3c 97 75 dd 3d
       -0.22837986 0.47852358 0.015795985 0.10813444
0002d0 79 b9 a0 3e 0e 9b d5 be b4 d8 cf bc e8 2a 64 be
       0.31391504 -0.4171986 -0.025371887 -0.22281992
0002e0 cf dd 98 3e 73 70 4b be 7a e2 39 be c4 21 12 3d
       0.29856727 -0.19867115 -0.181528 0.035676733
0002f0 50 a4 4b 3d 0e 8b 3d bd 0c ed 0a 3e da 81 9a 3d
       0.049717247 -0.04627519 0.13566989 0.075442985
000300 e8 56 11 3d 73 68 b2 3e da 06 19 be 0a b4 d7 bd
       0.03548327 0.34845313 -0.1494402 -0.105323866
000310 a4 8b 93 3e ad 1c fc 3d a6 0e f3 bd 59 9b 0f 3d
       0.28817475 0.12310157 -0.11868028 0.03506026
000320 36 71 80 be 48 ed ae 3d 4b 3c c0 be a7 ca 04 be
       -0.25086373 0.085413516 -0.37546 -0.1296793
000330 5a 89 0a bf 04 dd 6f bc 85 db 01 bd d7 10 0b be
       -0.5411583 -0.014640097 -0.03170349 -0.13580643
000340 6f 63 2a 3f 8e 07 8c 3e 87 51 ee be ef 61 e0 be
       0.66557974 0.27349514 -0.46546575 -0.43824717
000350 37 64 43 3d 8f ee 37 3c d5 2d da bd 97 06 42 bd
       0.047702994 0.01122631 -0.10653273 -0.047369566
000360 a9 82 b1 bd 24 91 0b 3e bd d2 a3 bc af 37 17 be
       -0.086674996 0.13629586 -0.019997949 -0.14767335
000370 4e 11 c2 bd 2c e2 3a 3e ce 7f d1 3d 92 91 79 bd
       -0.09475957 0.1825034 0.10229455 -0.060929842
000380 4b 68 64 3e f1 89 1d bf d1 5a 63 3e c2 cb 11 bd
       0.2230541 -0.61538607 0.22202612 -0.03559471
000390 be f8 dd 3e 3d be cd 3d 9c 0c 42 bd 2d 0a 20 bd
       0.43353838 0.10046051 -0.047375306 -0.039072204
0003a0 4d 4f 1d 3f 05 1a 32 3e 4c 6c ad 3d be da 3a be
       0.6144913 0.17392738 0.084679216 -0.18247506
0003b0 df 35 a4 3e 1e 58 99 3d 5c 4c 31 bf 04 97 10 3d
       0.3207235 0.0748751 -0.6925714 0.03530027
0003c0 82 45 65 3e 03 4f a7 bd 76 3a 65 3c f1 4e 90 3e
       0.22389796 -0.08169367 0.013990989 0.28185228
0003d0 65 80 80 be 2f d5 ff be e4 9b 89 3e 35 7f 4e be
       -0.25097957 -0.49967334 0.26876748 -0.20165713
0003e0 5e 33 3e 3e ed 12 ce 3d 45 d2 9b be 84 4e ee 3d
       0.18574283 0.100622036 -0.3043386 0.116360694
0003f0 ef 72 67 be 9e 92 4a be 27 61 87 3e 9d a3 a4 bd
       -0.22602437 -0.19782493 0.2644131 -0.08039019

predictionFunction.value_head.0.bias f4 [64]
000000 f7 ad 14 be f5 dd 2e be 8d 01 9b bd fd 71 4b bd
       -0.14519487 -0.17076857 -0.07568655 -0.049669255
000010 48 a8 cf bc f7 37 83 bd 7f 88 58 3d 5c d9 a9 be
       -0.025348797 -0.06407159 0.052864548 -0.33173645
000020 62 58 02 3d be 0f 8d bd aa f0 9f bd cf eb 79 be
       0.03182257 -0.06887768 -0.07809575 -0.2440636
000030 4d b5 1a bd f4 29 64 be 21 a2 c2 bd 08 b5 8c be
       -0.03777056 -0.22281629 -0.0950358 -0.27481866
000040 45 42 fc bc 64 99 8e bd 33 74 c4 bd 35 d9 aa 3e
       -0.030793319 -0.06962851 -0.09592476 0.3336884
000050 0a 1a 89 bd b3 7c 46 bd 12 5d ac 3e fc 36 5a be
       -0.0669442 -0.048458766 0.33664757 -0.21310037
000060 dc 2f 48 be c9 ba 33 be d8 07 06 be 81 f1 c3 bd
       -0.19549507 -0.17551722 -0.1308893 -0.095675476
000070 0f 39 0a bd de b5 2b be 6d b8 17 bd 63 53 08 bd
       -0.03374582 -0.16768596 -0.037041117 -0.03328265
000080 68 ba 0d be 78 68 17 3e e2 f5 ce 3e c2 8b 55 be
       -0.1384064 0.14785945 0.4042197 -0.20854095
000090 5e e8 93 be 15 6b 87 bd 39 e8 70 3c ef e6 25 be
       -0.2888822 -0.06612221 0.014703804 -0.16201375
0000a0 75 c9 42 be 63 15 f8 bd e6 4e 1f be 0c 35 07 be
       -0.19022162 -0.12113454 -0.15557441 -0.1320383
0000b0 24 03 dc 3c e8 5f 02 3e 3e 05 59 be 45 c6 0d be
       0.026856966 0.12731898 -0.21193406 -0.13845165
0000c0 84 a7 2d be 5a c6 e3 bd ad db 9a bd 5b 78 0e 3d
       -0.16958433 -0.11121817 -0.07561431 0.03478275
0000d0 99 f6 2b be 8e 30 86 bc ca 8b 4e be 95 ad c2 3e
       -0.16793288 -0.016380575 -0.20170513 0.38023058
0000e0 61 09 10 3e 74 0a 48 3e 22 2b 0f be 6a 8c d1 be
       0.14066078 0.19535238 -0.13981298 -0.4092744
0000f0 76 a3 c6 3e d4 9e 8d 3d 46 13 8f 3e 25 23 97 be
       0.38796586 0.0691506 0.27944392 -0.29519

predictionFunction.value_head.2.weight f4 [41, 64]
000000 47 72 9b bd 25 48 2d bf 0f 2b 95 be af cd e0 be
       -0.07590156 -0.6768821 -0.29134414 -0.43906924
000010 07 45 92 bf 77 42 40 bf 5e d0 cf bf 5e 9c 45 bf
       -1.1427315 -0.7510142 -1.6235464 -0.7719172
000020 0b de e8 bf 3b b2 b7 be 80 af 0e 3d c8 a1 15 be
       -1.8192762 -0.35878167 0.03483534 -0.14612496
000030 9b bd 33 bf ba c8 00 bf f8 c8 a3 bf cc ae ed bf
       -0.7021119 -0.50306284 -1.2795706 -1.8568969
000040 22 89 b0 be d2 e8 64 be 3d ce 98 bf a6 1f 06 c0
       -0.34479624 -0.22354439 -1.1937939 -2.0956817
000050 cf f7 ea bd ec 4d fb be 76 9e d4 bf 80 3c 6f bf
       -0.11473047 -0.49082887 -1.6610858 -0.9345169
000060 01 86 21 bf 94 4a 9c 3d 11 b4 21 3b 50 55 3d bd
       -0.630951 0.07631412 0.0024673978 -0.04622394
000070 e5 56 38 be b7 bd 59 bf 32 83 c1 bf 05 7d e3 bf
       -0.18001898 -0.85055107 -1.5118163 -1.7772528
000080 9f b8 df be f5 9b 53 bf 40 5b 0f c0 35 73 18 bf
       -0.43695542 -0.82659847 -2.2399445 -0.5955079
000090 d6 8d 1d bf 93 1a a2 be c9 1d fc bf e4 54 8d be
       -0.6154455 -0.316609 -1.969659 -0.2760383
0000a0 32 49 93 be 1f 4a 57 bf 53 2b bf bd 91 c0 11 bf
       -0.2876678 -0.84097475 -0.09334435 -0.5693446
0000b0 41 3f ec bf bf 19 b7 bf 82 20 1f be 9f 32 a7 3d
       -1.8456804 -1.4304732 -0.15539744 0.08163952
0000c0 6b b4 35 3c fc 2d b0 bf d9 34 b2 bf 1d 5e 7b bf
       0.011090378 -1.3764033 -1.3922378 -0.9819048
0000d0 bf 67 04 bd 12 07 67 bf e7 7a da be fe fe f4 bf
       -0.032325502 -0.90245163 -0.42671892 -1.9140317
0000e0 5c a3 c1 bf a7 4a 59 bf ca 22 e9 bd ed 78 b1 bf
       -1.5127978 -0.84879535 -0.113835886 -1.3865029
0000f0 b1 90 e3 bf 33 39 c5 be af dc db bf f0 9e f3 be
       -1.7778531 -0.38520202 -1.7176722 -0.47582197
000100 70 25 b1 bc ef a6 3e bf dc 2a 02 be 0b 6c db be
       -0.021624297 -0.7447347 -0.12711662 -0.42855868
000110 e6 02 90 bf 0a 48 4e bf f9 cd c1 bf 5c 43 2b bf
       -1.1250885 -0.8057867 -1.5140983 -0.6689966
000120 ec 94 e6 bf b4 f7 e3 be 3d 33 87 bd 89 46 a1 be
       -1.8014197 -0.4452492 -0.0660157 -0.31499127
000130 ec 93 66 bf 4c c6 0a bf 9f 3e 9e bf 2e 5e f2 bf
       -0.9006946 -0.54208827 -1.236286 -1.8934991
000140 74 93 43 be 5e 84 3a be d4 c4 ac bf 49 4c 03 c0
       -0.19099218 -0.18214557 -1.3497567 -2.051531
000150 aa c1 8a bd 29 bf e5 be 37 56 e3 bf d7 d7 71 bf
       -0.0677522 -0.44872406 -1.7760686 -0.9446997
000160 38 a0 03 bf e7 45 42 3d 51 89 0e bc eb 0b 7d 3c
       -0.5141635 0.047429945 -0.008699731 0.015444736
000170 23 7f 97 bd 7b 3b 2a bf 70 45 bf bf f8 d7 d9 bf
       -0.07397296 -0.6649701 -1.4943066 -1.7019033
000180 40 24 7f be 0a bc 5e bf 64 a1 0f c0 57 76 11 bf
       -0.24916172 -0.87005675 -2.2442255 -0.568212
000190 b0 05 3b bf d5 8b db be 99 20 f4 bf 9c d6 14 be
       -0.73055553 -0.4288012 -1.9072448 -0.14534992
0001a0 25 c1 2b be fc d8 2b bf 2d 2e 16 bd be 56 21 bf
       -0.16772898 -0.67127967 -0.03666513 -0.63022983
0001b0 f8 b8 e9 bf 9d 54 c2 bf c5 27 f6 be e7 39 97 bd
       -1.8259573 -1.5182072 -0.48077217 -0.07384091
0001c0 71 87 c0 3c 05 de c1 bf eb 52 b1 bf 69 99 66 bf
       0.023502083 -1.514588 -1.385343 -0.90077835
0001d0 2e 52 b7 3c 2d 6d 2f bf 88 99 14 bf f2 4e f6 bf
       0.022378054 -0.68525964 -0.5804677 -1.9242842
0001e0 48 a8 c4 bf f0 c7 59 bf 77 aa 36 be b0 3d ab bf
       -1.5363855 -0.85070705 -0.17838465 -1.33782
0001f0 a2 46 e9 bf a7 c4 bd be f2 c8 e3 bf 79 4d c5 be
       -1.822468 -0.37064096 -1.7795699 -0.3853567
000200 30 11 7a bd d4 7a 46 bf 24 74 43 be 98 39 e8 be
       -0.061051548 -0.7753117 -0.19087273 -0.4535644
000210 02 40 a0 bf 70 06 43 bf 8e eb cb bf 9b 7d 1e bf
       -1.2519534 -0.761817 -1.593126 -0.6191041
000220 75 ea e1 bf ac a1 db be 96 cc 69 3d 87 6c 6c be
       -1.7649676 -0.42896783 0.057079874 -0.23088275
000230 07 59 4a bf fe 7f f0 be 35 96 ab bf fa 23 f5 bf
       -0.79042095 -0.4697265 -1.3405215 -1.9151604
000240 43 e9 af be 7c 84 90 bd fc a0 a1 bf 99 b3 f8 bf
       -0.34357652 -0.070565194 -1.2627254 -1.9429809
000250 6e e2 b6 3c 4e 52 ae be 60 db e6 bf dd b8 7a bf
       0.022324767 -0.34047168 -1.8035698 -0.9793833
000260 62 2e 11 bf 00 2e c1 3d a3 54 81 3c c8 6b b0 bd
       -0.567114 0.09432602 0.015787428 -0.08614308
000270 8c b8 2e be 7b 4d 53 bf e7 9e c8 bf 4c e8 d3 bf
       -0.17062587 -0.825401 -1.5673493 -1.6555266
000280 25 e4 73 be 47 74 75 bf b6 a4 0d c0 cb dd e0 be
       -0.23817499 -0.9588055 -2.2131782 -0.43919215
000290 97 89 2a bf 4b 1e ca be 32 90 fb bf a1 de fb bd
       -0.66616195 -0.39476237 -1.965338 -0.122983225
0002a0 07 01 41 be ba 99 40 bf e6 86 8c bd 40 c5 40 bf
       -0.18848048 -0.7523457 -0.06861667 -0.7530098
0002b0 4a 6e e6 bf 8b f9 c5 bf 96 f8 6a be b1 3c b5 3d
       -1.8002408 -1.546678 -0.2294639 0.088494666
0002c0 15 a8 84 bd 28 07 b2 bf c7 27 c7 bf 5a 29 71 bf
       -0.064773716 -1.3908434 -1.5559014 -0.9420372
0002d0 5b 85 e3 3d e9 40 39 bf 71 ed 00 bf f4 22 f3 bf
       0.1110942 -0.7236467 -0.50362307 -1.8995042
0002e0 98 89 bc bf 22 b6 52 bf 34 b9 65 be 1c 9e b0 bf
       -1.472949 -0.8230916 -0.2243393 -1.3798251
0002f0 08 91 ec bf fa c8 00 bf e3 d3 e1 bf c5 46 05 bf
       -1.848176 -0.50306666 -1.7642788 -0.5206111
000300 3b d5 94 bd 6f 64 1e bf 7b d0 a6 be a4 a6 e1 be
       -0.07267233 -0.61872 -0.32580933 -0.4407245
000310 2e 3a 91 bf 8f ee 52 bf 92 a5 bd bf a8 ac 25 bf
       -1.134588 -0.8239526 -1.4816153 -0.6471658
000320 7c 93 de bf 84 60 d7 be e3 d2 15 bc e7 20 0a be
       -1.7388759 -0.42065823 -0.009144518 -0.13489114
000330 c2 dc 4c bf 4a 58 f5 be 86 e4 9f bf bd bf 07 c0
       -0.8002435 -0.47918922 -1.2491615 -2.1210778
000340 f7 d1 57 be f6 5c 05 be e1 dd af bf a4 e8 fe bf
       -0.21076189 -0.13023743 -1.3739587 -1.9914746
000350 b7 40 b7 bd 89 b2 cc be b3 de e4 bf 90 f6 5b bf
       -0.0894789 -0.39979962 -1.7880462 -0.859231
000360 f9 b8 e1 be cd 87 20 bd 1f 92 0d 3d d9 55 60 3b
       -0.44086435 -0.03919201 0.03456318 0.0034230857
000370 a1 dc 2e be 23 6c 42 bf 70 94 b0 bf 94 de e7 bf
       -0.17076351 -0.75946254 -1.37953 -1.81148
000380 c1 e1 8b be 63 9e 46 bf 9a e6 0f c0 d6 3d 09 bf
       -0.27320674 -0.7758543 -2.2484498 -0.5360998
000390 7c 2e 31 bf c0 6e 5f be c8 c5 01 c0 2b 28 12 be
       -0.69211555 -0.21819592 -2.0276966 -0.14273135
0003a0 2f 01 ad be 8f 61 55 bf 41 02 c1 3d da c1 25 bf
       -0.33789966 -0.8335199 0.09424258 -0.6474892
0003b0 b2 fa ee bf 7c ba b7 bf 86 4e ed be 07 a8 d8 3d
       -1.8670256 -1.4353786 -0.4634897 0.10578924
0003c0 28 64 86 bd d3 39 c1 bf 72 12 b6 bf 36 4e 7e bf
       -0.06562072 -1.5095772 -1.4224379 -0.9933809
0003d0 00 8f eb b9 54 b2 5e bf f1 e9 e2 be 0c 22 f2 bf
       -0.00044929236 -0.8699086 -0.44319108 -1.891664
0003e0 f2 49 c9 bf 23 7e 5a bf 43 b9 7d be e6 d1 a2 bf
       -1.5725691 -0.8534872 -0.24777703 -1.2720306
0003f0 bb 7e ee bf e1 22 0a bf c5 ad db bf 30 37 c8 be
       -1.8632425 -0.5395947 -1.7162405 -0.39104605

predictionFunction.value_head.2.bias f4 [41]
000000 75 fb fa bf ff c7 ff bf 28 3d f1 bf bc 31 f8 bf
       -1.9607989 -1.9982909 -1.8846788 -1.9390178
000010 a6 cd fe bf 1b 22 00 c0 0d bf f3 bf e2 a1 ee bf
       -1.9906509 -2.0020816 -1.9042679 -1.8643153
000020 e5 9e fe bf e8 d0 ed bf 56 31 f0 bf f4 43 f5 bf
       -1.9892241 -1.8579378 -1.8765056 -1.9161363
000030 f5 c7 f5 bf cf 47 03 c0 a4 7c 01 c0 fe e6 ff bf
       -1.9201647 -2.0512578 -2.0232325 -1.9992368
000040 67 28 ec bf e6 b3 fb bf a4 2a 04 c0 11 cf 03 c0
       -1.844983 -1.9664276 -2.0651026 -2.0595133
000050 cd b5 58 bf 65 d2 28 bf 84 1b ca be 68 df 70 bf
       -0.84652406 -0.65946037 -0.39474118 -0.9409089
000060 1a df bf bd 6e 6a 91 be 4a ea b1 be 98 ed 05 bf
       -0.09368725 -0.28401512 -0.3474906 -0.52315664
000070 54 79 c3 be 9b b7 9d be 8c d9 d6 bc 98 29 c4 3a
       -0.38178504 -0.30804142 -0.026226781 0.0014966009
000080 8d 88 bb be 9d 4c fa bf 38 d6 03 c0 c4 06 ff bf
       -0.36627617 -1.955463 -2.0599499 -1.992394
000090 09 a6 00 c0 fa 2e 01 c0 33 87 fb bf 35 a8 02 c0
       -2.010134 -2.0184922 -1.9650635 -2.0415165
0000a0 22 89 ff bf
       -1.9963725

dynamicsFunction.startBlock.0.weight f4 [64, 34]
000000 cb ed 4e 3e 66 c6 a6 3e f7 41 95 bd 93 23 ee 3d
       0.20207898 0.3257324 -0.072879724 0.11627879
000010 e2 53 16 3e 9f dd 55 3e 40 d5 12 bc 8a b6 8c bd
       0.14680436 0.20885323 -0.008961976 -0.06870754
000020 3d 89 4a bd d7 ed 50 be 5e 2f 9e 3e 3a 87 90 3d
       -0.049447287 -0.20403229 0.30895513 0.070570424
000030 f4 7a d7 3c dd 68 26 3e 29 84 2f bd 05 58 ab 3e
       0.026303746 0.1625094 -0.042850647 0.3346559
000040 be 6f 15 3e ed 27 9a 3d 14 ba fb bc 0a 93 7f 3e
       0.14593408 0.075271465 -0.030728377 0.24958435
000050 7a 18 67 3e bd 9f 5e 3e 5f 65 09 be 7a 6c d1 3d
       0.22567931 0.21740623 -0.13417576 0.102257684
000060 99 19 83 3e b7 64 02 3e 71 3c 6a 3e f0 fb 42 3d
       0.25605467 0.12733732 0.22874619 0.047603548
000070 9a 8d 7d 3e 54 c9 f5 bb 0f 12 25 be e4 94 2b 3e
       0.24761048 -0.007500807 -0.1612017 0.16756016
000080 19 d0 9f 3e 9b f2 c2 be 2d d0 b7 be 2c 05 20 3e
       0.31213453 -0.38075718 -0.35901013 0.15626973
000090 a9 34 2a be 27 6f 71 bd ef ca d1 bd 11 be c1 3e
       -0.16621651 -0.058943894 -0.10243785 0.37840322
0000a0 ea db 87 be 2e f5 d4 bd 05 2e 8d bd 6f ca b8 3e
       -0.2653497 -0.10398327 -0.06893543 0.36091945
0000b0 26 d5 44 be f0 2e 8f 3d 8d 36 7e 3e 22 c4 ac 3e
       -0.19221935 0.069913745 0.24825497 0.33743387
0000c0 7a 4f 6f 3e a4 c7 b1 3d 01 62 18 bd e3 ba f4 3d
       0.23370162 0.086806566 -0.03720284 0.11949708
0000d0 3e 19 6e be 59 fd 65 bd af 34 52 bd af e1 eb 3c
       -0.23251817 -0.056149814 -0.051319774 0.028794138
0000e0 d1 b2 69 3d 52 cf 04 3e 55 07 6d 3e c3 35 ef 3d
       0.0570553 0.12969711 0.23147328 0.11680176
0000f0 92 af 81 3d 69 29 c6 3e f6 78 f2 bd 28 ae ee ba
       0.063323155 0.38703468 -0.11839478 -0.0018209862
000100 e0 a3 e0 bd 43 a7 ef 3d 84 72 a3 3e de 3d eb be
       -0.10968757 0.117018245 0.31923306 -0.45945638
000110 bd da 06 3e d9 02 80 be 95 58 05 3f f5 ca 8f be
       0.1316938 -0.25002173 0.5208829 -0.2808453
000120 74 dc 7d 3d 95 81 00 be e3 e4 c5 3d e7 21 98 bd
       0.06197782 -0.12549432 0.09662797 -0.07428341
000130 2b 01 b5 3d d5 17 62 be ef 5b 05 3e 54 a8 12 3e
       0.088381134 -0.22079404 0.13023351 0.14322025
000140 64 dc 9b be 6c 5e 86 be c2 e2 82 bc fc 93 68 be
       -0.30441582 -0.26243913 -0.015977267 -0.22712702
000150 3a cf 15 be e8 d9 03 bc 0f 1d 27 be 25 be f1 3d
       -0.14629832 -0.008047558 -0.16319679 0.11803845
000160 e9 07 14 3e d4 26 69 be d6 8f 97 be ed ee 21 be
       0.14456142 -0.22768718 -0.29601926 -0.15813799
000170 0b 23 a3 be f9 45 6e be 94 8e 88 be 6d ea 08 bf
       -0.31862673 -0.2326888 -0.26671278 -0.53482705
000180 7f a1 de 3d 9a 3b dd be 42 a4 23 3f 56 36 1f 3e
       0.10870647 -0.43209535 0.6392251 0.15548071
000190 8a b2 6e be 53 22 86 3e b7 72 c8 3c 5a 1e 88 be
       -0.23310295 0.26198062 0.024468763 -0.26585656
0001a0 b7 a8 48 3d b7 97 e8 3e 96 28 45 3f 3f f5 16 be
       0.048989024 0.4542825 0.77015054 -0.14741991
0001b0 33 71 e4 3d 7b 44 eb bd bc ba e6 3e 3b 6f dd 3d
       0.111544035 -0.11487671 0.45064342 0.10812231
0001c0 f9 35 0b bc 90 98 c0 3e 5e c6 5c be ce 54 6a bd
       -0.008496755 0.37616396 -0.21560046 -0.057209782
0001d0 72 e6 3a bd 23 b6 1d bf 11 98 2a bd 73 67 7e be
       -0.045629926 -0.61606044 -0.041648928 -0.2484415
0001e0 1b df 51 3e 72 60 32 bf 5f a9 39 be bb d7 bf be
       0.20495264 -0.69678414 -0.18131016 -0.37469277
0001f0 83 42 e2 3d a5 03 5c bd a9 a4 7c 3c 6a a8 cf 3b
       0.11047842 -0.053714413 0.015420117 0.006337215
000200 cf f6 b0 be b8 d4 19 3e 94 dc c6 be 14 ec 7f 3e
       -0.345633 0.15022552 -0.38840163 0.249924
000210 d5 da 7a bd 8c d9 a5 be 41 30 d2 bc 73 b6 9e bd
       -0.06124385 -0.32392538 -0.025657775 -0.07749643
000220 d8 ba b0 bd 4e 7b 75 bd 71 ba a4 be bc 11 19 3f
       -0.086293876 -0.059932046 -0.32173494 0.59792686
000230 d9 02 ea 3e 86 e0 d4 bd d0 55 aa 3d 8e 02 1b bf
       0.45705298 -0.10394387 0.08317149 -0.60550773
000240 92 7c 18 be d8 a5 81 bb cb 34 25 3c 60 94 b7 bb
       -0.1489127 -0.0039565377 0.010083388 -0.0056024045
000250 49 bc 9c 3d be d2 54 bc b3 90 08 bf 3f 47 2f 3e
       0.076531 -0.012989698 -0.53345793 0.17117022
000260 a3 0c a9 bc 07 fe 02 bd 08 81 57 be e3 e4 5e be
       -0.020635908 -0.03198054 -0.21045315 -0.21767001
000270 7b 35 82 be 54 0e 01 3d 19 b9 14 3c 04 9d 9b ba
       -0.25431427 0.031507805 0.009077334 -0.0011872356
000280 7c 58 02 3f a8 25 50 3e 31 69 54 3e 34 f1 c8 3e
       0.50916266 0.20326865 0.20743252 0.39246523
000290 61 fa 9c 3d d1 9a 54 bd eb 04 46 3e 24 43 36 be
       0.076649435 -0.051905457 0.19337814 -0.1779905
0002a0 d8 e1 49 be eb 9b b2 bd 85 ba 80 bd b1 67 82 be
       -0.19715059 -0.08721145 -0.06285576 -0.25469735
0002b0 3c 0a 2f 3e 0c e9 99 3c 46 6d 4e bd 39 74 c0 bd
       0.17093748 0.018787883 -0.05039718 -0.09397168
0002c0 92 0a f3 bc e6 b9 ff bd a6 27 3f 3d a3 05 a5 3d
       -0.029668126 -0.12486629 0.04666867 0.08057716
0002d0 d8 35 08 3d fd dc 3b 3e 09 0c 67 3e 03 9d c2 3c
       0.033254474 0.18346019 0.22563185 0.02375651
0002e0 e6 1f d5 3d fa 58 2a be 3d 86 6c be 86 a9 9c 3e
       0.10406475 -0.16635504 -0.23098083 0.30598086
0002f0 53 39 a9 bd 0c c7 04 bf f4 c5 f0 bd 04 f0 7f be
       -0.08262887 -0.5186622 -0.117565066 -0.24993902
000300 c2 20 67 3d 0b c0 27 be 7a d5 1b be 1c 4a 4e be
       0.056427725 -0.16381852 -0.15218154 -0.20145458
000310 2e 4a 7f 3b bc 05 95 3e 8c b0 08 3d 7f 0e 49 3e
       0.0038954127 0.29105937 0.033371493 0.19634436
000320 11 bd 89 3e 6c 47 3f 3c 4b df 8a bd 1a 17 31 bb
       0.2690206 0.011674743 -0.06780871 -0.0027021826
000330 69 95 a1 3e ed 9b 80 3c 71 42 13 3d e4 0e 1d bd
       0.31559303 0.015699351 0.035952035 -0.03834428
000340 be ad 7b 3e cd ac 60 be b6 fa 14 be 82 e4 83 be
       0.24577996 -0.21940918 -0.14548764 -0.25760275
000350 c6 dc 1d 3e 12 8f 99 3d 9b 24 30 bc 2a 7a 16 3e
       0.1541625 0.074979916 -0.010750915 0.1469504
000360 5f 21 ad be f4 1f a3 be 0b a9 fe bd 56 08 f8 bd
       -0.33814523 -0.31860316 -0.12434586 -0.12110965
000370 bf 62 0a 3e 75 34 c5 bd 10 ba 2a be 6b 63 1d bb
       0.13514231 -0.09629146 -0.1667254 -0.0024015557
000380 22 91 c8 3d ac 7d 46 3e 6d 1d 93 be 3e 49 2e 3d
       0.09793307 0.19383878 -0.28733388 0.042550318
000390 27 87 b4 3d f8 b1 75 be 52 54 f2 bd 52 ec 36 be
       0.08814841 -0.23993671 -0.11832489 -0.17863587
0003a0 46 64 38 3e cb b5 69 bd 63 0c 79 3c 15 83 59 be
       0.18007001 -0.057058137 0.015200707 -0.2124141
0003b0 d2 33 16 bf 81 3f 16 3f 1a 6b 51 3d b0 d7 5b bd
       -0.5867282 0.5869065 0.05112753 -0.053672493
0003c0 17 2d 56 3e f8 01 ca 3c 7d 64 96 bd ec 99 a2 3d
       0.20915638 0.024659142 -0.07343385 0.079395145
0003d0 a0 bf 1f be 92 2d f9 bd 0e 91 50 3d f4 d0 f8 bd
       -0.15600443 -0.12166895 0.050919585 -0.1214923
0003e0 59 7c 8a bd 5c 60 0c bb 10 a5 48 3d c7 60 ec bd
       -0.06761999 -0.002141974 0.04898554 -0.11541896
0003f0 96 3a b0 bd 51 ab b6 3d 4d e2 26 3e 65 4d d1 3d
       -0.086049244 0.08919395 0.16297264 0.1021984

dynamicsFunction.startBlock.0.bias f4 [64]
000000 b0 d0 8b 3d e9 af b3 3d d0 97 ba 3d fe 1f 51 be
       0.06826913 0.087737866 0.09110987 -0.2042236
000010 7a 9f 36 be 06 45 15 be a4 be 56 3e 4b b4 71 bc
       -0.17834273 -0.14577112 0.20971161 -0.014752458
000020 48 a2 39 3e ee e5 85 3b f5 d6 d1 bd 0f 73 18 3e
       0.18128312 0.0040862476 -0.10246078 0.14887641
000030 cc 97 b3 3c 11 15 38 3e f9 74 57 3d 74 08 51 be
       0.021922968 0.17976786 0.05260179 -0.20413381
000040 52 b3 78 be f0 04 8f 3e f1 a8 aa bd 70 75 89 be
       -0.24287155 0.27933455 -0.08333004 -0.2684741
000050 d9 87 fb bd e0 16 5c 3d a8 88 38 be f0 6d bb bd
       -0.1228177 0.053732753 -0.1802088 -0.09151828
000060 63 46 77 bd 9f 17 eb 3d 86 20 91 3e 96 82 07 be
       -0.06036986 0.11479115 0.28345126 -0.13233408
000070 0d c5 63 be d0 be 08 3e 29 e6 a7 bc 82 8f db bd
       -0.22243138 0.13354039 -0.020495491 -0.10720731
000080 0d 04 09 3e 2d 58 01 3d 19 20 04 3e fa dd c1 3d
       0.13380452 0.03157823 0.1290287 0.09466167
000090 53 86 0c 3d 67 aa 9a bd 8a a5 30 3b f0 61 7d be
       0.03430779 -0.07552033 0.0026954138 -0.24744391
0000a0 ee 7a fd 3c f3 ee 33 3d ec 6c 30 be 7c c8 74 3e
       0.030942407 0.04392905 -0.1722905 0.23904604
0000b0 66 c0 ae bd 67 af ad 3d 71 ea 89 bd c9 67 e4 bd
       -0.08532791 0.08480721 -0.06734169 -0.11152608
0000c0 67 f0 15 3e 7b dc 2f 3e 52 ac e7 3a 68 5e 38 be
       0.14642487 0.1717395 0.0017675257 -0.18004763
0000d0 b9 b2 8d 3b e3 9d 8c bc 8b f0 2c bd 80 7f d6 bd
       0.004324284 -0.01716513 -0.042221587 -0.104735374
0000e0 dc 64 51 3b 96 cb 07 3e 99 f1 12 bd 54 86 21 3e
       0.0031950986 0.13261256 -0.035874937 0.15773898
0000f0 79 cd 3c 3e 2f 6a 08 3d 12 5b 04 3e e4 0a d0 3d
       0.18437757 0.03330439 0.12925366 0.10158327
