AlphaGo/foersterrobert_MuZero/Environments/CartPole/Models/model_16.pt (torch, 84274 bytes, 20 tensors)

predictionFunction.startBlock.0.weight f4 [64, 32]
-0.096948385 0.6566662 -0.3106824 -0.31718838 -0.38308603 -0.09817496 -0.024167739 0.22778891
0.11312055 -0.19411841 -0.25571546 -0.30274284 -0.43803856 0.4064285 0.068379484 -0.24852745
-0.15748347 0.27669752 -0.58590084 0.30713993 0.5262738 0.76860946 0.04441491 0.0055287485
-0.03395304 0.107585736 0.018759945 0.051606346 0.17736997 0.14100638 -0.2719019 0.0189908
-0.023083664 -0.2761033 -0.21511263 -0.08891094 -0.25647002 -0.122635596 -0.122886404 0.22938374
0.11744832 -0.29848036 -0.061663255 -0.043261316 0.012545928 -0.046380673 -0.102113694 0.0717538
-0.29304734 -0.13031241 0.11356675 0.15822445 0.32441247 0.110260494 0.15142414 -0.5737275
0.028308665 -0.09614241 0.06900004 0.071570136 -0.0026373214 0.3608621 -0.65306634 -0.35504583
-0.37273407 0.1274127 -1.8079255 0.10516706 0.048278123 0.6338489 -0.063434966 -0.3542001
-0.3407521 0.0854576 -0.48270163 0.18483411 0.7138399 0.07530229 0.23100284 0.33790636
-0.594617 0.27415326 0.0654078 -0.087773554 0.30245343 0.098419264 1.2666976 0.20559286
0.28551272 0.3880902 0.5145738 0.26770025 0.16204278 2.0994837 -1.1778934 0.39409655
0.05845286 0.4064288 -0.5951987 -0.025817245 -0.015893292 0.5439084 -0.031839658 -0.26474577
-0.32254857 0.013431112 -0.082099214 -0.33578333 0.22884457 -0.057463426 -0.014614537 0.376347
0.02175237 0.1870309 -0.3230409 0.0014553504 -0.03816889 0.3564382 0.15387082 0.3577425
0.30120826 -0.012080766 0.081487484 0.17694059 0.2685868 0.09999026 -0.39605993 0.5740851
-0.36735913 -0.82115704 -0.24280612 0.3777786 -0.06941536 -0.06157233 -0.16984048 -0.2242613
-0.081503116 -0.07551449 0.023075443 0.7363064 0.792445 0.55940264 -0.16108522 -0.22622764
-0.50451785 -0.62613744 -0.020721376 -0.16619268 -0.012362776 -0.12483183 0.11974535 -0.5774449
0.15166019 0.5718726 0.016565632 0.0776073 -0.22075272 0.43987548 -0.9812728 0.15864176
-0.15352944 -0.19398454 -0.0067082006 -0.28935882 0.13029365 -0.58978045 -0.09018955 0.2555942
-0.08654953 -0.12844945 -0.11470397 0.2998051 0.30501732 0.022643948 -0.12198513 0.06372727
-0.057524323 -0.116705604 0.49841088 -0.02230359 -0.0461973 -0.07410054 0.24725859 -0.07159147
-0.03820656 0.04850125 -0.13247353 -0.23784134 -0.58913857 0.17042252 0.11282966 0.13147782
-0.16129547 -0.09503872 -0.05156228 -0.18212122 -0.098541066 0.16281398 -0.49542063 0.34653842
-0.024202855 0.37979528 -0.6439828 -0.11535513 -0.034904253 0.0022027753 0.25938073 0.18189125
0.06832859 -0.11815608 0.2974649 0.10547988 0.014401505 0.091234766 0.08986039 -0.16140899
-0.23604533 0.18007164 -0.1251921 -0.44262412 -0.27461123 0.20089051 -0.060362116 0.034338214
-0.19396347 0.10751999 -0.7107419 0.27711344 -0.11277641 -0.043700226 0.024449915 0.13943172
0.098873086 0.06293192 0.16784336 -0.11254512 0.3531761 -0.12531954 -0.24577199 0.42495984
0.015927803 0.15995811 -0.019007107 0.115198165 0.29097065 0.040778846 0.7278644 -0.14855437
0.25450426 0.19258724 0.30639416 0.38701233 0.15802734 0.5544286 -0.6159398 -0.22015972
00000000: e08c c6bd 471b 283f c311 9fbe 8466 a2be
00000010: da23 c4be f40f c9bd 6cfb c5bc 7f41 693e
00000020: bfab e73d fac6 46be 23ed 82be 1c01 9bbe
00000030: 9746 e0be 6517 d03e 8b0a 8c3d fb7d 7ebe
00000040: 5943 21be 4cab 8d3e 99fd 15bf 7241 9d3e
00000050: e1b9 063f 97c3 443f 69ec 353d 812a b53b
00000060: 5812 0bbd e955 dc3d 75ae 993c 2d61 533d
00000070: 79a0 353e fa63 103e ba36 8bbe 9892 9b3c
00000080: f419 bdbc 695d 8dbe 7c46 5cbe f016 b6bd
00000090: 0a50 83be 5f28 fbbd deab fbbd 92e3 6a3e
000000a0: bf88 f03d 6bd2 98be 9c92 7cbd c732 31bd
000000b0: 708d 4d3c a9f9 3dbd fc20 d1bd a8f3 923d
000000c0: 4d0a 96be 9e70 05be af95 e83d 9705 223e
000000d0: 6419 a63e 41d0 e13d ee0e 1b3e cedf 12bf
000000e0: 93e7 e73c 50e6 c4bd e54f 8d3d 5d93 923d
000000f0: e9d6 2cbb ebc2 b83e 5b2f 27bf 91c8 b5be
00000100: 00d7 bebe 7a78 023e 1a6a e7bf d461 d73d
00000110: 48bf 453d ec43 223f 31ea 81bd b759 b5be
00000120: 0f77 aebe 6504 af3d ab24 f7be 2745 3d3e
00000130: 36be 363f 1638 9a3d 028c 6c3e 1002 ad3e
00000140: d238 18bf d15d 8c3e 86f4 853d 9fc2 b3bd
00000150: 2ddb 9a3e 0a90 c93d 2623 a23f ef86 523e
00000160: b92e 923e c2b3 c63e 1cbb 033f 0210 893e
00000170: 8bee 253e f15d 0640 36c5 96bf 06c7 c93e
00000180: 446c 6f3d 7017 d03e f15e 18bf b07e d3bc
00000190: a632 82bc 953d 0b3f 4d6a 02bd c28c 87be
000001a0: 1625 a5be 2b0e 5c3c a223 a8bd cbeb abbe
000001b0: 3b56 6a3e c55e 6bbd d071 6fbc 8eb0 c03e
000001c0: 0732 b23c 0785 3f3e 9e65 a5be 75c1 be3a
000001d0: fb56 1cbd 117f b63e 5090 1d3e 062a b73e
000001e0: f837 9a3e 68ee 45bc e9e2 a63d ea2f 353e
000001f0: 3684 893e b2c7 cc3d 5ec8 cabe 3ef7 123f
00000200: 7f16 bcbe 5937 52bf 2ba2 78be 326c c13e
00000210: a429 8ebd 4433 7cbd aaea 2dbe c1a4 65be
00000220: 1beb a6bd 57a7 9abd b608 bd3c 947e 3c3f
00000230: addd 4a3f 0335 0f3f 86f3 24be 38a8 67be
00000240: 1528 01bf 8b4a 20bf e0bf a9bc 6a2e 2abe
00000250: 3e8d 4abc d5a7 ffbd 0d3d f53d 6ed3 13bf
00000260: cf4c 1b3e 3e66 123f a6b4 873c 93f0 9e3d
00000270: 000d 62be 5c37 e13e b234 7bbf fc72 223e
00000280: d236 1dbe e2a3 46be 77d0 dbbb d726 94be
00000290: b36b 053e dafb 16bf 4cb5 b8bd 3edd 823e
000002a0: e140 b1bd 4188 03be eae9 eabd 0e80 993e
000002b0: 3b2b 9c3e cd7f b93c 57d3 f9bd 7183 823d
000002c0: a09e 6bbd 5903 efbd b62f ff3e 05b6 b6bc
000002d0: 6139 3dbd 06c2 97bd 5b31 7d3e 8c9e 92bd
000002e0: 7b7e 1cbd 3fa9 463d 24a7 07be ae8c 73be
000002f0: c9d1 16bf 3e83 2e3e 3d13 e73d 1fa2 063e
00000300: a42a 25be a9a3 c2bd f832 53bd fc7d 3abe
00000310: e6cf c9bd b5b8 263e c6a7 fdbe 7c6d b13e
00000320: 1145 c6bc 8774 c23e 0fdc 24bf 4f3f ecbd
00000330: c3f7 0ebd 705c 103b 8dcd 843e b341 3a3e
00000340: dcef 8b3d d1fb f1bd 524d 983e d605 d83d
00000350: 4af4 6b3c 4bd9 ba3d b908 b83d 6648 25be
00000360: deb5 71be b364 383e 5c32 00be a19f e2be
00000370: d899 8cbe 3eb6 4d3e 443e 77bd 3aa6 0c3d
00000380: 5c9e 46be 7133 dc3d 2ef3 35bf d0e1 8d3e
00000390: 52f7 e6bd 02ff 32bd 304b c83c 30c7 0e3e
000003a0: f97d ca3d 73e2 803d 21df 2b3e 0e7e e6bd
000003b0: 7fd3 b43e c453 00be a7ab 7bbe 5694 d93e
000003c0: 067b 823c 0fcc 233e cbb4 9bbc 04ed eb3d
000003d0: 1bfa 943e b807 273d 5255 3a3f a31e 18be
000003e0: 624e 823e 9735 453e b2df 9c3e 7b26 c63e
000003f0: ebd1 213e 08ef 0d3f 3bae 1dbf 8d71 61be

predictionFunction.startBlock.0.bias f4 [64]
-0.009688012 -0.2286923 -0.29954454 0.027595606 -0.2566628 -0.011361426 0.10304205 -0.0876846
0.13775618 0.06610811 -0.2524502 -0.10687629 -0.1802514 -0.015804656 -0.150592 -0.1960782
-0.14807256 0.08266431 -0.2228462 -0.11045712 -0.31393498 -0.10382184 -0.055406097 -0.19601217
-0.08700499 -0.17201541 0.029744368 -0.110137306 -0.10991185 -0.116022974 -0.1193742 -0.22347914
0.09118227 -0.31646776 -0.15697788 -0.03809659 -0.06771422 -0.25794244 -0.14644589 -0.23917522
-0.106099844 -0.23815373 -0.34229028 -0.13811685 -0.022841215 -0.26723543 0.019900827 -0.2596744
-0.14498802 0.12398315 -0.11862973 -0.04946202 -0.12180764 -0.19514844 -0.28591067 0.12781912
-0.018804437 0.061708663 -0.14185907 0.020820685 0.09532168 0.20126037 -0.18862686 0.10029156
00000000: 78ba 1ebc 502e 6abe e75d 99be 2e10 e23c
00000010: 4e69 83be 4625 3abc b607 d33d fc93 b3bd
00000020: f50f 0d3e b063 873d 2741 81be f5e1 dabd
00000030: d393 38be c478 81bc ca34 1abe b9c8 48be
00000040: 55a0 17be e84b a93d cb31 64be 5837 e2bd
00000050: 16bc a0be 8ba0 d4bd 81f1 62bd 6ab7 48be
00000060: ac2f b2bd cf24 30be 76aa f33c ab8f e1bd
00000070: 7719 e1bd 749d edbd 767a f4bd b7d7 64be
00000080: c5bd ba3d 1008 a2be cfbe 20be 2c0b 1cbd
00000090: c1ad 8abd 0811 84be e9f5 15be 59ea 74be
000000a0: e04a d9bd 92de 73be ac40 afbe 816e 0dbe
000000b0: 801d bbbc 15d3 88be 0f07 a33c 0bf4 84be
000000c0: bd77 14be e1ea fd3d 25f4 f2bd b098 4abd
000000d0: 4976 f9bd fed4 47be e262 92be 04e3 023e
000000e0: c30b 9abc 39c2 7c3d 8143 11be 2490 aa3c
000000f0: 0338 c33d 3317 4e3e 6627 41be a965 cd3d

predictionFunction.startBlock.2.weight f4 [64, 64]
-0.036103245 -0.21402025 0.3116579 -0.22649726 -0.2412334 -0.5784858 0.26272127 0.3188125
-0.5687369 -0.050530426 -0.15275502 -0.02742861 0.2851722 0.5477712 0.10991473 0.336107
0.10188589 -0.08064973 -0.57695955 -0.32811835 -0.09255665 0.122376755 0.41436008 0.23450834
-0.6032801 -0.14775002 0.9397669 -0.15655044 -0.18143544 0.16103324 -0.28101417 -0.0044208355
-0.5531932 0.24153031 0.064703725 -0.31854185 -0.041004837 0.3300618 -0.09829022 0.06744928
0.027492236 -0.026225314 0.1619953 0.06820828 -0.16572672 -0.22318627 -0.30486372 -0.13056967
-0.21592703 -0.47318178 -0.22207712 -0.36471528 0.04166997 -0.20689535 0.43796012 -0.24793887
-0.35444078 -0.08214307 -0.12583591 0.3692177 0.010713056 -0.17765385 0.0050316313 -0.35814494
-0.295744 -0.33809844 0.24979964 -0.17776409 0.3750393 -0.03190294 0.38212723 0.36399916
-0.65557444 0.18592916 0.16595525 -0.096467234 0.48114187 0.39922097 0.299364 -0.19486125
0.17193036 -0.13903835 -0.59853864 -0.002449347 -0.0652323 -0.11725829 0.038411517 0.24897304
-0.35817805 -0.20854071 0.44540077 -0.14814347 -0.3922828 0.012485726 -0.11954991 -0.16237447
-0.39899153 0.37364867 0.2984439 -0.117640704 0.2911141 -0.10669637 -0.24276407 0.14552422
0.29307142 0.13567764 0.024613783 0.14095378 0.27701035 0.11181794 -0.34447843 -0.11855526
-0.15802585 -0.33944902 -0.1547666 -0.11411689 0.25015166 0.13642359 -0.1778139 -0.27305996
-0.44967937 0.11379249 -0.05806098 0.6922942 0.5434842 -0.09581331 -0.11661529 -0.18364148
-0.04300084 0.0988731 0.357345 0.0559264 -0.4196229 -0.5444371 0.2180536 -0.019525573
-0.17366037 -0.2084611 0.069292404 0.63986474 0.117019214 0.10233567 -0.014422662 -0.1648295
0.16005552 0.039037894 0.0051594437 -0.003519624 0.010781974 -0.3830505 0.09730064 0.028506905
0.11903652 -0.28063214 -0.024745822 -0.17391168 -0.15281723 -0.050532363 0.38590184 0.073215045
0.00304687 0.03673583 0.11790845 -0.004316994 0.18157634 -0.1771964 -0.092043854 -0.025091212
0.31094152 -0.09935674 -0.092685536 -0.15611742 0.47702867 -0.5846029 -0.64558285 -0.29412904
-0.0949636 -0.31696796 0.081841476 -0.55675447 -0.011633698 -0.037846364 0.005021743 -0.23915456
0.070433274 -0.077114575 0.37747818 -0.15871505 0.029958459 -0.13438359 -0.110437505 0.066298515
-0.30590624 -0.04275386 0.1139642 0.2884579 0.16179106 0.020755222 -0.04182693 0.011277971
-0.31493327 0.36915484 -0.42893836 -0.18207306 0.1779658 -0.1159281 0.098873325 0.21662845
0.14450619 0.013457848 -0.20721412 -0.094844915 -0.02271842 -0.41535893 -0.056994986 0.14139378
-0.057654787 0.050505873 0.118808664 -0.28418466 0.24739115 -0.09387363 -0.21168195 -0.101420775
0.23553504 0.08229867 0.20170951 -0.34631208 0.0624998 -0.093892805 -0.898478 0.12805746
0.4516178 -0.4515058 -0.044078365 0.31468055 0.21812283 -0.29247868 -0.07623115 -0.55341136
0.41253847 -2.9772172 -0.011634639 -0.13254958 0.1461182 0.2197081 0.18542336 -0.08685517
-0.22916193 0.24455555 -0.0849495 -0.48049176 -0.5080227 -0.11760372 0.13798454 0.060422886
00000000: ffe0 13bd 2028 5bbe a091 9f3e e6ee 67be
00000010: e305 77be a517 14bf 6783 863e 643b a33e
00000020: be98 11bf fef8 4ebd d06b 1cbe f7b1 e0bc
00000030: 1702 923e bc3a 0c3f f91a e13d 3716 ac3e
00000040: 8da9 d03d b02b a5bd 9fb3 13bf 21ff a7be
00000050: 578e bdbd aaa0 fa3d 0127 d43e f422 703e
00000060: 9170 1abf c84b 17be 9094 703f c24e 20be
00000070: 36ca 39be e6e5 243e 17e1 8fbe a8dc 90bb
00000080: 129e 0dbf b953 773e 6383 843d eb17 a3be
00000090: b0f4 27bd dcfd a83e 624c c9bd d922 8a3d
000000a0: 6637 e13c 78d6 d6bc 19e2 253e c8b0 8b3d
000000b0: 44b4 29be f18a 64be 1917 9cbe 0eb4 05be
000000c0: fa1b 5dbe e244 f2be 2f68 63be f6bb babe
000000d0: 21ae 2a3d 60dc 53be 4f3c e03e b0e3 7dbe
000000e0: 4379 b5be a03a a8bd 21db 00be 1a0a bd3e
000000f0: d085 2f3c e4ea 35be 62e0 a43b c65e b7be
00000100: c26b 97be 3d1b adbe 7acb 7f3e ca07 36be
00000110: 2705 c03e a8ac 02bd 2ea6 c33e 195e ba3e
00000120: bad3 27bf 3764 3e3e 2cf0 293e 9d90 c5bd
00000130: 3a58 f63e b166 cc3e 3d46 993e b589 47be
00000140: 830e 303e 1260 0ebe d439 19bf 3985 20bb
00000150: 8398 85bd 1d25 f0bd 6555 1d3d caf2 7e3e
00000160: 1d63 b7be b28b 55be 920b e43e ecb2 17be
00000170: 4bd9 c8be ee90 4c3c 95d6 f4bd 7e45 26be
00000180: 9e48 ccbe e14e bf3e a4cd 983e 9ced f0bd
00000190: e80c 953e a083 dabd 2597 78be 4d04 153e
000001a0: 750d 963e 14ef 0a3e d8a2 c93c 3056 103e
000001b0: 4dd4 8d3e ce00 e53d 7a5f b0be 1acd f2bd
000001c0: 87d1 21be 43cc adbe 237b 1ebe 1eb6 e9bd
000001d0: e113 803e a0b2 0b3e d914 36be 84ce 8bbe
000001e0: 603c e6be 090c e93d 5ad1 6dbd 313a 313f
000001f0: c821 0b3f c539 c4bd ffd3 eebd 830c 3cbe
00000200: a621 30bd fb7d ca3d edf5 b63e 1513 653d
00000210: d0d8 d6be 3b60 0bbf 7149 5f3e 18f4 9fbc
00000220: 06d4 31be d476 55be 2de9 8d3d 2dce 233f
00000230: c5a7 ef3d 5d95 d13d 074d 6cbc 10c9 28be
00000240: 98e5 233e 33e6 1f3d 8d10 a93b 7ea9 66bb
00000250: e0a6 303c 321f c4be 8f45 c73d 5087 e93c
00000260: 6bc9 f33d 04af 8fbe c0b7 cabc e715 32be
00000270: 1f7c 1cbe 06fb 4ebd ed94 c53e c5f1 953d
00000280: ffad 473b 4f78 163d fc79 f13d 9275 8dbb
00000290: 26ef 393e f972 35be 7d81 bcbd 168c cdbc
000002a0: ba33 9f3e 8c7b cbbd ead1 bdbd 3fdd 1fbe
000002b0: 1a3d f43e 89a8 15bf eb44 25bf 1598 96be
000002c0: 477c c2bd a049 a2be 819c a73d 7687 0ebf
000002d0: 449b 3ebc ca04 1bbd 6f8d a43b efe4 74be
000002e0: 523f 903d 3fee 9dbd d244 c13e 3386 22be
000002f0: 716b f53c da9b 09be 0f2d e2bd 84c7 873d
00000300: be9f 9cbe ac1e 2fbd 1066 e93d c1b0 933e
00000310: 8eac 253e db06 aa3c b752 2bbd 3dc7 383c
00000320: ef3e a1be dd01 bd3e cf9d dbbe 5c71 3abe
00000330: ab3c 363e b66b edbd 197e ca3d d9d3 5d3e
00000340: 6ef9 133e 4e7e 5c3c f02f 54be 0d3e c2bd
00000350: fb1b babc eda9 d4be 9373 69bd 88c9 103e
00000360: 6d27 6cbd 3fdf 4e3d f551 f33d a780 91be
00000370: 1b54 7d3e d140 c0bd 27c3 58be b2b5 cfbd
00000380: 1930 713e 358c a83d f08c 4e3e d14f b1be
00000390: caff 7f3d df4a c0bd a702 66bf 7f21 033e
000003a0: 733a e73e c52b e7be 848b 34bd cf1d a13e
000003b0: 975b 5f3e c4bf 95be 141f 9cbd 5eac 0dbf
000003c0: 3e38 d33e ba8a 3ec0 379f 3ebc 14bb 07be
000003d0: 02a0 153e 29fb 603e 9fdf 3d3e 20e1 b1bd
000003e0: 6da9 6abe c56c 7a3e 01fa adbd 0403 f6be
000003f0: c70d 02bf 38da f0bd d24b 0d3e fd7d 773d

predictionFunction.startBlock.2.bias f4 [64]
-0.1290801 -0.21888037 -0.107487984 0.049870923 -0.34851667 -0.29256555 -0.047717556 -0.36757055
-0.17598999 -0.02127649 -0.12897184 -0.09409999 0.07722788 0.21039407 0.29330832 -0.016766772
-0.16553836 -0.1542176 -0.4706691 0.024519742 -0.11681431 -0.16754203 -0.083945766 0.1489548
-0.12548111 -0.1825416 -0.08122542 -0.17570762 -0.11918944 0.06524194 -0.12660159 -0.08179183
-0.08333456 -0.07485502 -0.037355304 -0.001759219 -0.101393454 -0.12565081 -0.14361928 0.010067423
-0.30499533 0.15593293 0.2090269 -0.203873 0.12583795 -0.113955304 0.09747408 -0.47753477
-0.1479369 -0.23693888 -0.06400542 -0.17635283 0.045041654 -0.16070522 -0.32343644 0.44124588
0.046755377 -0.25768307 0.17445736 0.14852276 0.15451834 0.038004633 -0.13413066 -0.059799768
00000000: 932d 04be 2d22 60be a922 dcbd 7445 4c3d
00000010: c770 b2be 27cb 95be 7c73 43bd 3532 bcbe
00000020: b836 34be 094c aebc 3211 04be 7fb7 c0bd
00000030: a729 9e3d 8b71 573e 822c 963e 785a 89bc
00000040: e382 29be 38eb 1dbe 8afb f0be a0dd c83c
00000050: 573c efbd 2390 2bbe c2eb abbd 9b87 183e
00000060: 1f7e 00be 2fec 3abe 8359 a6bd b3ec 33be
00000070: 9819 f4bd 919d 853d d9a3 01be 7a82 a7bd
00000080: 4fab aabd 974d 99bd e001 19bd 9895 e6ba
00000090: 5fa7 cfbd 9baa 00be ef10 13be d5f1 243c
000000a0: 5928 9cbe e2ac 1f3e 260b 563e 15c4 50be
000000b0: aadb 003e 6661 e9bd 7ea0 c73d 707f f4be
000000c0: c57c 17be 1ba0 72be 4615 83bd d695 34be
000000d0: 997d 383d e98f 24be 7699 a5be fbea e13e
000000e0: 9182 3f3d 09ef 83be f3a4 323e 5a16 183e
000000f0: 0e3a 1e3e bfaa 1b3d 8c59 09be 9af0 74bd

predictionFunction.policy_head.0.weight f4 [2, 64]
0.04674791 -0.030733777 0.2600337 0.2566342 -0.17831822 -0.04593667 0.16905849 0.50525767
-0.2699089 0.029696202 0.05297198 0.23476836 -0.1386123 -0.11981953 0.016923102 -0.07050068
0.12295225 0.16036244 -0.40474665 -0.0897096 0.22888876 0.3148283 0.04781628 0.1279896
0.09223085 -0.3427344 0.080008864 -0.46870953 0.057209313 -0.32515177 0.0036920574 0.08256397
0.13695666 0.0012189801 -0.22640504 -0.06552421 -0.16316377 0.39034623 -0.3071867 0.039971452
0.56814593 0.27340648 0.16497852 -0.618727 -0.12106972 -0.040793847 -0.20621684 0.33688894
0.44502538 0.37526467 -0.10566802 0.008729889 -0.3717729 0.013836072 0.34899196 -0.053448275
0.04047514 -0.25656843 0.059016548 -0.1465446 0.11355125 0.027057657 0.16116697 0.082576714
-0.01849853 -0.15781431 -0.25671607 -0.28174862 -0.030262435 0.18519746 0.018943587 -0.38950238
0.3058637 -0.030659186 0.021046983 -0.22316262 0.26614088 0.15472396 0.012469224 0.17121957
-0.07736163 -0.33478707 0.39497203 -0.01447803 -0.11777102 -0.1999432 -0.051474947 -0.12102683
0.081385635 0.340189 0.05756399 0.4647213 0.0055736997 0.37834036 0.09492255 0.0029594642
-0.21803713 -0.11749051 0.24082527 0.017615963 0.09766856 -0.35736978 0.4164208 0.09679851
-0.56814265 -0.19016877 -0.08195877 0.54116565 -0.041405406 -0.026537381 0.10354927 -0.36905536
-0.5143963 -0.33764714 0.08289901 0.038984794 0.2602763 0.18112282 -0.2815879 0.028048117
0.05179721 0.10438372 -0.20832703 -0.020227257 0.011562728 0.19344473 -0.18408404 0.03469067
00000000: bd7a 3f3d 67c5 fbbc 2323 853e 8f65 833e
00000010: 0d99 36be 1728 3cbd ab1d 2d3e 9158 013f
00000020: 8031 8abe 7345 f33c 26f9 583d 1e67 703e
00000030: 62f0 0dbe f163 f5bd 51a2 8a3c a962 90bd
00000040: 64ce fb3d 0d36 243e f43a cfbe abb9 b7bd
00000050: d161 6a3e 2d31 a13e 01db 433d b50f 033e
00000060: 87e3 bc3d e27a afbe b0db a33d b2fa efbe
00000070: 5054 6a3d 4b7a a6be 72f6 713b 4c17 a93d
00000080: 5e3e 0c3e 2fc6 9f3a b9d6 67be 8f31 86bd
00000090: 6714 27be 76db c73e 9347 9dbe 1bb9 233d
000000a0: 0372 113f effb 8b3e 21f0 283e e564 1ebf
000000b0: 67f3 f7bd 7317 27bd 822a 53be b57c ac3e
000000c0: 5eda e33e b122 c03e 7a68 d8bd cf07 0f3c
000000d0: 0459 bebe b1b0 623c 13af b23e 94ec 5abd
000000e0: 43c9 253d f05c 83be 56bb 713d ca0f 16be
000000f0: 8f8d e83d 05a8 dd3c f408 253e fb1d a93d
00000100: 3b8a 97bc 139a 21be 4a70 83be 5b41 90be
00000110: ede8 f7bc 67a4 3d3e 952f 9b3c db6c c7be
00000120: 2b9a 9c3e f928 fbbc b96a ac3c be84 64be
00000130: 9e43 883e f56f 1e3e b74b 4c3c 2f54 2f3e
00000140: c66f 9ebd 3669 abbe c639 ca3e 4235 6dbc
00000150: ef31 f1bd e9bd 4cbe 65d7 52bd eadc f7bd
00000160: 83ad a63d 412d ae3e 38c8 6b3d f3ef ed3e
00000170: 95a3 b63b d4b5 c13e c166 c23d 92f3 413b
00000180: 2045 5fbe dd9e f0bd e69a 763e 5a4f 903c
00000190: 7406 c83d 2cf9 b6be 1b35 d53e 4c3e c63d
000001a0: cc71 11bf 9abb 42be 00da a7bd d589 0a3f
000001b0: b798 29bd ec64 d9bc a411 d43d d3f4 bcbe
000001c0: 7aaf 03bf 16e0 acbe f5c6 a93d 85ae 1f3d
000001d0: ef42 853e 4378 393e 4a2c 90be 2ac5 e53c
000001e0: 5029 543d 22c7 d53d ae53 55be a2b3 a5bc
000001f0: 9971 3d3c 6016 463e 8780 3cbe ce17 0e3d

predictionFunction.policy_head.0.bias f4 [2]
-0.032525077 0.018374817
00000000: 0439 05bd c986 963c

predictionFunction.value_head.0.weight f4 [64, 64]
-0.075059265 -0.02108488 -0.008426341 0.057349164 0.032973323 -0.054660413 0.055014487 -0.076271184
-0.0571219 -0.14035325 0.036119606 -0.03374567 -0.10392651 -0.11504868 -0.07063373 -0.09970354
-0.050939098 -0.10576246 -0.090487316 0.033897933 -0.07918825 0.05087948 0.008513406 -0.076636374
0.021163484 0.076191425 -0.014874486 0.013550654 0.10146546 -0.04599691 0.027475417 0.05129341
-0.14329621 0.07380961 -0.098886035 -0.00642021 -0.09105356 0.025156878 -0.10053763 -0.0751911
0.021597624 -0.09307783 -0.029235953 0.074468695 -0.15842244 -0.08122079 -0.11724852 0.08356293
0.004702288 -0.104877606 -0.1400534 0.06460041 0.05217425 -0.10768244 -0.0061751553 -0.061070234
0.015961645 -0.11755568 0.032356873 0.08022713 0.005493664 -0.07507529 -0.013550799 0.053935066
-0.15669538 -0.12294185 -0.104002476 0.012806799 -0.14461997 -0.08095179 -0.05579235 -0.3980852
0.050905455 0.03852242 -0.1276372 -0.07262784 -0.12707447 -0.1640128 -0.18734574 -0.05548053
-0.2870624 -0.3939824 -0.0847422 -0.033943698 -0.0021564658 0.042929158 -0.04256621 -0.12879528
0.4222788 0.24462877 0.06678159 -0.0211896 0.111786574 -0.1650734 -0.16145776 -0.10162979
-0.47423345 -0.28975427 -0.102432035 0.029812545 0.0537436 0.004173087 -0.014021446 0.20734797
-0.21551163 -0.05986232 -0.12351554 -0.36755887 -0.3780084 0.11489172 -0.2340148 -0.14920218
0.2221047 -0.0514761 -0.12342806 0.034742143 -0.09678737 -0.3449232 -0.095503196 0.1809552
-0.059741747 -0.006902909 0.13614239 0.054721117 -0.11124966 0.12458411 -0.252543 -0.073912024
0.19924432 0.04128276 0.0748465 -0.077106215 0.08727766 -0.121234074 0.074235395 -0.22019224
-0.16807356 0.18602827 -0.16903025 -0.106712766 -0.3066367 0.08451341 -0.29292923 0.2026984
-0.27509278 -0.6123834 0.056675233 0.36681572 -0.6902852 0.3332925 -0.09028014 -0.248406
0.28282326 -0.22298245 0.010536835 0.04195806 0.1422946 -0.5121418 -0.048705745 0.025584932
-0.2653652 -0.23876126 -0.10894214 -0.111506075 0.5157363 0.2600317 -0.5530983 0.17237528
0.2499292 -0.12543306 0.0055086426 -0.082228445 -0.3416848 -0.11548978 -0.14578214 -0.45771185
-0.5605695 0.52920777 0.055475876 0.11452724 0.32868809 -0.770733 -0.098837696 -0.010350265
0.23633663 -0.19867115 -0.043575812 0.2303464 0.22805631 -0.10226916 -0.06398967 0.075442985
-0.01689046 0.28415853 -0.124554075 -0.0936281 0.14675812 0.028469402 -0.11868028 0.037950434
-0.5839997 0.085413516 -0.407697 -0.14694692 -0.7271502 0.0391559 -0.108603746 -0.13412474
0.68574303 0.18593624 -0.5033823 -0.45627984 0.056709833 0.01122631 -0.10653273 -0.07973108
-0.086674996 0.056855947 -0.019997949 -0.2884875 -0.09475957 0.1604762 0.10229455 0.047130268
0.12042911 -0.676025 0.16831684 -0.03559471 0.4890532 -0.026452022 -0.10116775 -0.039072204
0.5869019 0.12247516 0.14068824 -0.21507736 0.30477446 0.0748751 -0.69189936 0.17043272
0.22657333 -0.24378799 -0.06020998 0.3030163 -0.30145702 -0.45497254 0.24941333 -0.4150979
0.1639873 0.21031581 -0.5398572 0.08084451 -0.18878028 -0.1378888 0.18045518 -0.08039019
00000000: acb8 99bd 33ba acbc a30e 0abc f5e6 6a3d
00000010: 090f 073d 99e3 5fbd df56 613d 1134 9cbd
00000020: a7f8 69bd c3b8 0fbe 27f2 133d e638 0abd
00000030: 6cd7 d4bd a49e ebbd 6ba8 90bd 5f31 ccbd
00000040: 84a5 50bd fd99 d8bd 6a51 b9bd 8fd8 0a3d
00000050: 732d a2bd 0067 503d d07b 0b3c 88f3 9cbd
00000060: 0b5f ad3c 400a 9c3d 1eb4 73bc 9003 5e3c
00000070: 20cd cf3d 4267 3cbd 2014 e13c 0a19 523d
00000080: 3ebc 12be 7e29 973d c384 cabd a060 d2bb
00000090: 4a7a babd cc15 ce3c ace6 cdbd cbfd 99bd
000000a0: 80ed b03c 979f bebd 3d80 efbc 0b83 983d
000000b0: 7e39 22be 1657 a6bd fe1f f0bd 0b23 ab3d
000000c0: a715 9a3b 12ca d6bd 296a 0fbe 384d 843d
000000d0: abb4 553d 9c88 dcbd f558 cabb c824 7abd
000000e0: ffc1 823c 08c1 f0bd a488 043d 1f4e a43d
000000f0: 3204 b43b 13c1 99bd 2c04 5ebc 04eb 5c3d
00000100: c174 20be f0c8 fbbd 40ff d4bd 9cd3 513c
00000110: 4217 14be 0dca a5bd 8586 64bd d3d1 cbbe
00000120: 3d82 503d afc9 1d3d 53b3 02be e8bd 94bd
00000130: cf1f 02be f9f2 27be 90d7 3fbe 8d3f 63bd
00000140: d8f9 92be 10b8 c9be 528d adbd 8c08 0bbd
00000150: 7e53 0dbb 7cd6 2f3d e859 2ebd e9e2 03be
00000160: ed34 d83e f77f 7a3e c9c4 883d d095 adbc
00000170: 5cf0 e43d 0009 29be 2f55 25be 4823 d0bd
00000180: bace f2be ac5a 94be e3c7 d1bd 7039 f43c
00000190: 4022 5c3d 64be 883b 35ba 65bc 0753 543e
000001a0: 15af 5cbe 3132 75bd b7f5 fcbd ad30 bcbe
000001b0: 518a c1be 5a4c eb3d 93a1 6fbe 75c8 18be
000001c0: 6a6f 633e 9ad8 52bd dac7 fcbd c74d 0e3d
000001d0: 7538 c6bd c699 b0be 2e97 c3bd 524c 393e
000001e0: c3b3 74bd cc31 e2bb e968 0b3e 4023 603d
000001f0: ddd6 e3bd f425 ff3d 514d 81be 305f 97bd
00000200: b406 4c3e 1d18 293d 1f49 993d dde9 9dbd
00000210: a1be b23d 9249 f8bd ba08 983d 137a 61be
00000220: 7a1b 2cbe 327e 3e3e 4416 2dbe 398c dabd
00000230: 7cff 9cbe 5e15 ad3d d2fa 95be 2b90 4f3e
00000240: f6d8 8cbe 29c5 1cbf 4a24 683d 45cf bb3e
00000250: 88b6 30bf 51a5 aa3e cbe4 b8bd 245e 7ebe
00000260: 36ce 903e 8355 64be b0a2 2c3c 37dc 2b3d
00000270: adb5 113e ba1b 03bf ad7f 47bd 7e97 d13c
00000280: f3dd 87be d57d 74be 0f1d dfbd 4c5d e4bd
00000290: 4b07 043f e022 853e da97 0dbf 2583 303e
000002a0: 71ed 7f3e 8671 00be d881 b43b 6367 a8bd
000002b0: 4ff1 aebe e885 ecbd ea47 15be 3559 eabe
000002c0: 7c81 0fbf 297a 073f ac3a 633d 428d ea3d
000002d0: ce49 a83e c24e 45bf 6b6b cabd 2894 29bc
000002e0: 3b02 723e 7370 4bbe 8d7c 32bd eddf 6b3e
000002f0: 9887 693e 7e72 d1bd 040d 83bd da81 9a3d
00000300: dd5d 8abc 3a7d 913e 3516 ffbd 17c0 bfbd
00000310: c347 163e aa38 e93c a60e f3bd ea71 1b3d
00000320: 0181 15bf 48ed ae3d a9bd d0be 4179 16be
00000330: 8426 3abf f061 203d a46b debd ff57 09be
00000340: db8c 2f3f 1266 3e3e aadd 00bf 839d e9be
00000350: 9248 683d 8fee 373c d52d dabd 0c4a a3bd
00000360: a982 b1bd c8e1 683d bdd2 a3bc a2b4 93be
00000370: 4e11 c2bd df53 243e ce7f d13d ab0b 413d
00000380: 8aa3 f63d f90f 2dbf 405b 2c3e c2cb 11bd
00000390: 2e65 fa3e e9b1 d8bc 0a31 cfbd 2d0a 20bd
000003a0: 343f 163f 42d4 fa3d 9410 103e 3d3d 5cbe
000003b0: 660b 9c3e 1e58 993d 5120 31bf ea85 2e3e
000003c0: d702 683e 8fa3 79be bd9e 76bd f424 9b3e
000003d0: 9358 9abe 29f2 e8be 3566 7f3e b687 d4be
000003e0: 49ec 273e 075d 573e 1534 0abf ce91 a53d
000003f0: 9e4f 41be b932 0dbe 3ec9 383e 9da3 a4bd

predictionFunction.value_head.0.bias f4 [64]
-0.14519487 -0.17076857 -0.019039698 -0.069527365 -0.11495096 -0.12159554 0.0947497 -0.33173645
0.06994134 -0.11915619 -0.07809575 -0.28905785 -0.0036181048 -0.2544715 -0.14445196 -0.34589225
-0.062221725 -0.06962851 -0.11386214 0.38929653 -0.0669442 0.024465347 0.27430016 -0.27780646
-0.26694426 -0.17551722 -0.1308893 -0.095675476 -0.03374582 -0.21250917 -0.10192674 -0.10726901
-0.16699599 0.076812476 0.42103696 -0.2917689 -0.2658693 -0.06612221 0.066386834 -0.16201375
-0.23702866 -0.12115305 -0.15557441 -0.1636335 0.07081308 0.07016978 -0.22673711 -0.13845165
-0.20027609 -0.07874779 -0.11951742 -0.0044250875 -0.16793288 0.025813747 -0.20170513 0.41063341
0.14831904 0.18887575 -0.13981298 -0.38984346 0.4203393 0.110180065 0.31387222 -0.3241952
00000000: f7ad 14be f5dd 2ebe 24f9 9bbc 5d64 8ebd
00000010: 696b ebbd 1507 f9bd 210c c23d 5cd9 a9be
00000020: 683d 8f3d 2908 f4bd aaf0 9fbd 64ff 93be
00000030: ba1d 6dbb 174a 82be 37eb 13be ca18 b1be
00000040: 35dc 7ebd 6499 8ebd 8e30 e9bd e051 c73e
00000050: 0a1a 89bd 8d6b c83c 1271 8c3e a63c 8ebe
00000060: ebac 88be c9ba 33be d807 06be 81f1 c3bd
00000070: 0f39 0abd 019c 59be f7be d0bd dbaf dbbd
00000080: ff00 2bbe dc4f 9d3d 2892 d73e bc62 95be
00000090: 0520 88be 156b 87bd d2f5 873d efe6 25be
000000a0: a4b7 72be 171f f8bd e64e 1fbe 8a8f 27be
000000b0: 7306 913d 2cb5 8f3d c62d 68be 45c6 0dbe
000000c0: 2d15 4dbe 8546 a1bd 8dc5 f4bd 5300 91bb
000000d0: 99f6 2bbe 5a77 d33c ca8b 4ebe 8b3e d23e
000000e0: f2e0 173e a568 413e 222b 0fbe 9099 c7be
000000f0: b636 d73e 16a6 e13d dcb3 a03e eafc a5be

predictionFunction.value_head.2.weight f4 [41, 64]
-0.07590156 -0.6768821 -0.29158914 -0.67165136 -1.1427319 -0.7572075 -1.6664829 -0.7719172
-1.8222337 -0.40724394 0.03483534 -0.1462421 -0.89742154 -0.50306284 -1.4506499 -1.8570437
-0.34617954 -0.22354439 -1.1966035 -2.2977185 -0.11473047 -0.55519265 -1.7704616 -0.9345169
-0.6351492 0.07631412 0.0024673978 -0.04622394 -0.18001898 -0.85055184 -1.5119606 -1.7772992
-0.45038158 -1.1064407 -2.4125948 -0.6094112 -0.6160528 -0.316609 -1.9989709 -0.2760383
-0.29119894 -0.84097475 -0.09334435 -0.5693446 -1.9532309 -1.459375 -0.1951981 0.08163952
0.011090378 -1.4689716 -1.75881 -1.1744357 -0.032325502 -0.9237724 -0.42671892 -2.1972795
-1.8878253 -0.92468023 -0.113835886 -1.4318497 -2.0699203 -0.38872245 -1.722265 -0.47582197
-0.021624297 -0.7447347 -0.12731534 -0.6530441 -1.1250885 -0.8117763 -1.5576277 -0.6689966
-1.8040586 -0.49124444 -0.0660157 -0.31509838 -1.0773379 -0.54208827 -1.4033788 -1.8935764
-0.19248246 -0.18214557 -1.3520657 -2.2355096 -0.0677522 -0.5095097 -1.8785487 -0.9446997
-0.51866055 0.047429945 -0.008699731 0.015444736 -0.07397296 -0.66497076 -1.494447 -1.7019347
-0.26263362 -1.1393102 -2.413826 -0.5822427 -0.73118544 -0.4288012 -1.9362078 -0.14534992
-0.17135526 -0.67127967 -0.03666513 -0.63022983 -1.9287368 -1.540823 -0.50404805 -0.07384091
0.023502083 -1.603875 -1.7321365 -1.0891562 0.022378054 -0.7064961 -0.5804677 -2.1963484
-1.8886526 -0.9279631 -0.17838465 -1.3804315 -2.1048756 -0.3741669 -1.7838333 -0.3853567
-0.061051548 -0.7753117 -0.19111942 -0.6766503 -1.2519537 -0.7673856 -1.636147 -0.6191041
-1.768355 -0.47394687 0.057079874 -0.2310305 -0.9722084 -0.4697265 -1.5017489 -1.9152709
-0.34468254 -0.070565194 -1.2650943 -2.136655 0.022324767 -0.40045437 -1.9063915 -0.9793833
-0.57099706 0.09432602 0.015787428 -0.08614308 -0.17062587 -0.8254013 -1.5674694 -1.6555893
-0.2550764 -1.228558 -2.3826852 -0.4564527 -0.66686046 -0.39476237 -1.994542 -0.122983225
-0.19181438 -0.7523457 -0.06861667 -0.7530098 -1.89945 -1.5709305 -0.2603505 0.088494666
-0.064773716 -1.4843014 -1.9129068 -1.1335682 0.1110942 -0.745769 -0.50362307 -2.1757545
-1.8400944 -0.9007493 -0.2243393 -1.4211127 -2.1373353 -0.50602174 -1.76876 -0.5206111
-0.07267233 -0.61872 -0.32600287 -0.67430156 -1.1345884 -0.8296035 -1.524728 -0.6471658
-1.7414404 -0.47257736 -0.009144518 -0.13499072 -0.98371285 -0.47918922 -1.4161398 -2.1211548
-0.21216124 -0.13023743 -1.3761445 -2.183662 -0.0894789 -0.46845964 -1.8930074 -0.859231
-0.44570664 -0.03919201 0.03456318 0.0034230857 -0.17076351 -0.7594634 -1.3796674 -1.8115149
-0.2859087 -1.0538232 -2.4160771 -0.54953855 -0.69275343 -0.21819592 -2.0547888 -0.14273135
-0.3414608 -0.8335199 0.09424258 -0.6474892 -1.9745407 -1.4589251 -0.48949215 0.10578924
-0.06562072 -1.5963833 -1.7773389 -1.1785283 -0.00044929236 -0.89008975 -0.44319108 -2.167394
-1.9306486 -0.92650765 -0.24777703 -1.3206573 -2.1432402 -0.54261065 -1.720427 -0.39104605
00000000: 4772 9bbd 2548 2dbf 2c4b 95be 58f1 2bbf
00000010: 0a45 92bf 5ad8 41bf 504f d5bf 5e9c 45bf
00000020: f43e e9bf 4782 d0be 80af 0e3d 7dc0 15be
00000030: 6bbd 65bf bac8 00bf e5ae b9bf 9cb3 edbf
00000040: 723e b1be d2e8 64be 4e2a 99bf d20d 13c0
00000050: cff7 eabd 1b21 0ebf 7c9e e2bf 803c 6fbf
00000060: 2399 22bf 944a 9c3d 11b4 213b 5055 3dbd
00000070: e556 38be c4bd 59bf ed87 c1bf 8a7e e3bf
00000080: 6a98 e6be d99f 8dbf f467 1ac0 5f02 1cbf
00000090: a3b5 1dbf 931a a2be 47de ffbf e454 8dbe
000000a0: 0718 95be 1f4a 57bf 532b bfbd 91c0 11bf
000000b0: 7803 fabf cdcc babf 03e2 47be 9f32 a73d
000000c0: 6bb4 353c 4307 bcbf b020 e1bf e953 96bf
000000d0: bf67 04bd 597c 6cbf e77a dabe 3aa0 0cc0
000000e0: 42a4 f1bf d8b7 6cbf ca22 e9bd da46 b7bf
000000f0: 9379 04c0 a106 c7be 2e73 dcbf f09e f3be
00000100: 7025 b1bc efa6 3ebf f45e 02be e62d 27bf
00000110: e602 90bf 92d0 4fbf 5860 c7bf 5c43 2bbf
00000120: 64eb e6bf 6484 fbbe 3d33 87bd 9354 a1be
00000130: 35e6 89bf 4cc6 0abf eba1 b3bf b660 f2bf
00000140: 1f1a 45be 5e84 3abe 7d10 adbf 9712 0fc0
00000150: aac1 8abd 3a6f 02bf 4974 f0bf d7d7 71bf
00000160: f0c6 04bf e745 423d 5189 0ebc eb0b 7d3c
00000170: 237f 97bd 863b 2abf 0a4a bfbf ffd8 d9bf
00000180: ea77 86be ebd4 91bf 207c 1ac0 dc0d 15bf
00000190: f82e 3bbf d58b dbbe a8d5 f7bf 9cd6 14be
000001a0: c177 2fbe fcd8 2bbf 2d2e 16bd be56 21bf
000001b0: d9e0 f6bf b039 c5bf 4b09 01bf e739 97bd
000001c0: 7187 c03c c74b cdbf a6b6 ddbf 7869 8bbf
000001d0: 2e52 b73c eedc 34bf 8899 14bf f990 0cc0
000001e0: 5ebf f1bf fd8e 6dbf 77aa 36be fbb1 b0bf
000001f0: 48b6 06c0 ce92 bfbe a654 e4bf 794d c5be
00000200: 3011 7abd d47a 46bf cfb4 43be f438 2dbf
00000210: 0540 a0bf 6273 44bf 446d d1bf 9b7d 1ebf
00000220: 7559 e2bf 2aa9 f2be 96cc 693d 4293 6cbe
00000230: a6e2 78bf fe7f f0be 4f39 c0bf 9927 f5bf
00000240: 3b7a b0be 7c84 90bd 9cee a1bf f5be 08c0
00000250: 6ee2 b63c 5b08 cdbe a304 f4bf ddb8 7abf
00000260: dd2c 12bf 002e c13d a354 813c c86b b0bd
00000270: 8cb8 2ebe 804d 53bf d6a2 c8bf 5aea d3bf
00000280: 6099 82be 6341 9dbf ea7d 18c0 2bb4 e9be
00000290: 5eb7 2abf 4b1e cabe 274d ffbf a1de fbbd
000002a0: fd6a 44be ba99 40bf e686 8cbd 40c5 40bf
000002b0: 2d21 f3bf 4014 c9bf a94c 85be b13c b53d
000002c0: 15a8 84bd 97fd bdbf 21da f4bf c318 91bf
000002d0: 5b85 e33d b8ea 3ebf 71ed 00bf 903f 0bc0
000002e0: 3788 ebbf 8297 66bf 34b9 65be 05e7 b5bf
000002f0: 1aca 08c0 a48a 01bf ba66 e2bf c546 05bf
00000300: 3bd5 94bd 6f64 1ebf d9e9 a6be 079f 2cbf
00000310: 313a 91bf e560 54bf 492a c3bf a8ac 25bf
00000320: 85e7 debf a9f5 f1be e3d2 15bc 023b 0abe
00000330: 9bd4 7bbf 4a58 f5be 1244 b5bf 00c1 07c0
00000340: cc40 59be f65c 05be 8125 b0bf 1ec1 0bc0
00000350: b740 b7bd f1d9 efbe 114e f2bf 90f6 5bbf
00000360: a933 e4be cd87 20bd 1f92 0d3d d955 603b
00000370: a1dc 2ebe 326c 42bf f198 b0bf b8df e7bf
00000380: a062 92be aee3 86bf 02a1 1ac0 8fae 0cbf
00000390: 4a58 31bf c06e 5fbe a981 03c0 2b28 12be
000003a0: f3d3 aebe 8f61 55bf 4102 c13d dac1 25bf
000003b0: c0bd fcbf 0fbe babf b79e fabe 07a8 d83d
000003c0: 2864 86bd 4a56 ccbf d77f e3bf 04da 96bf
000003d0: 008f ebb9 ecdc 63bf f1e9 e2be 95b6 0ac0
000003e0: 7e1f f7bf 9b2f 6dbf 43b9 7dbe 4c0b a9bf
000003f0: d92a 09c0 88e8 0abf f436 dcbf 3037 c8be

predictionFunction.value_head.2.bias f4 [41]
-2.3500178 -2.3748417 -2.2722373 -2.31827 -2.357598 -2.3777287 -2.275417 -2.255717
-2.367284 -2.2252245 -2.2501493 -2.2790015 -2.30013 -2.431022 -2.4051337 -2.3857868
-2.2159302 -2.3391135 -2.4387774 -2.4323413 -0.89852214 -0.67521816 -0.43591303 -0.98960614
-0.21751676 -0.21699305 -0.41321698 -0.51356024 -0.33391973 -0.2985873 -0.015590625 0.049864136
-0.3621429 -2.3198934 -2.4268327 -2.35471 -2.367945 -2.405049 -2.3468106 -2.4128406
-2.3745778
00000000: b166 16c0 68fd 17c0 566c 11c0 895e 14c0
00000010: e3e2 16c0 b52c 18c0 6fa0 11c0 ab5d 10c0
00000020: 9581 17c0 146a 0ec0 7202 10c0 29db 11c0
00000030: 5435 13c0 dd95 1bc0 b6ed 19c0 bbb0 18c0
00000040: cdd1 0dc0 09b4 15c0 ee14 1cc0 7bab 1bc0
00000050: 8c05 66bf 19db 2cbf fe2f dfbe d456 7dbf
00000060: b7bc 5ebe 6d33 5ebe 2d91 d3be af78 03bf
00000070: 87f7 aabe 6fe0 98be d26f 7fbc 563e 4c3d
00000080: cb6a b9be 2279 14c0 3a51 1bc0 92b3 16c0
00000090: 698c 17c0 53ec 19c0 2532 16c0 fb6b 1ac0
000000a0: 15f9 17c0

dynamicsFunction.startBlock.0.weight f4 [64, 34]
0.21999958 0.33614102 -0.057156943 0.10045769 0.14573789 0.1984996 -0.0059360475 -0.083288655
-0.064357564 -0.18818276 0.306122 0.08312727 0.06634227 0.15170574 -0.026126854 0.36423993
0.18826693 0.10198186 0.006223347 0.28140935 0.20733963 0.27821988 -0.14810006 0.107552186
0.25036857 0.09196705 0.28898257 0.03418014 0.21493654 -0.019112987 -0.15211698 0.24404286
0.336921 -0.39321712 -0.35776868 0.1262743 -0.1743236 -0.033501185 -0.10082636 0.40070096
-0.25586846 -0.1122732 -0.07185797 0.38662493 -0.20044716 0.0682136 0.27793625 0.3367423
0.21602644 0.106969275 -0.07150813 0.11789966 -0.24659143 -0.061261516 -0.06879621 0.020393945
0.073899575 0.13396038 0.23767897 0.1442559 0.057987895 0.38892856 -0.11513308 0.0077192
-0.10690649 0.064344 0.3456189 -0.51082975 0.18641223 -0.310019 0.5402528 -0.2930798
0.05094399 -0.13038017 0.072747625 -0.036096677 0.09135551 -0.23842886 0.13417995 0.13814138
-0.30229598 -0.29125348 -0.035465073 -0.22506993 -0.14951731 -0.0046956115 -0.17161892 0.12929894
0.12830232 -0.24678367 -0.3179449 -0.14823358 -0.31287107 -0.23495282 -0.2641436 -0.53910846
0.11838659 -0.4625159 0.6323221 0.08783249 -0.29801422 0.29837847 0.009394343 -0.29184276
0.03766445 0.48774344 0.7981926 -0.13294949 0.14399713 -0.13518779 0.47006303 0.10286991
-0.020730125 0.4015748 -0.23977788 -0.044880442 -0.06259611 -0.64075124 -0.042755842 -0.3268028
0.22150399 -0.78816915 -0.17838699 -0.43136656 0.122898765 -0.08397738 0.025195867 0.01453306
-0.38150057 0.16249986 -0.39532185 0.26282868 -0.066487 -0.33004555 -0.043743595 -0.10440094
-0.08025969 -0.0675855 -0.28602558 0.65447944 0.45164645 -0.12693386 0.08995052 -0.6310713
-0.115649104 -0.05182428 0.026814321 -0.063252494 0.055036314 -0.015756236 -0.577999 0.15194046
-0.052378953 -0.046724647 -0.28876245 -0.22614047 -0.27763173 -0.013189282 -0.012928716 -0.040092878
0.47774053 0.19027989 0.19389163 0.42351237 0.080081835 -0.08136844 0.20415251 -0.26879147
-0.18793859 -0.103850394 -0.040509213 -0.2532299 0.18292508 -0.011909665 -0.07702933 -0.09900826
-0.0738337 -0.12472784 0.023235234 0.061238352 0.03749394 0.21669848 0.21657707 0.0073390463
0.11337931 -0.19033605 -0.23143578 0.30575413 -0.122063465 -0.545652 -0.10237656 -0.22314751
0.057325173 -0.16424091 -0.17306423 -0.18980356 -0.019513847 0.27894825 0.0361056 0.20802043
0.29101285 0.049850095 -0.049703773 0.0074250023 0.31591183 0.01610777 0.041212935 -0.039304104
0.24935874 -0.22651182 -0.16501352 -0.27947113 0.16122475 0.09711717 -0.015823908 0.14508319
-0.35659423 -0.33580303 -0.14483882 -0.13538457 0.09640435 -0.11367208 -0.16923903 -0.012466421
0.08686781 0.19642855 -0.29933617 0.066441014 0.101173036 -0.24179032 -0.121694 -0.17894842
0.1983628 -0.060503658 0.01534476 -0.20463835 -0.6493051 0.64440024 0.056806553 -0.07966781
0.19970739 0.04544315 -0.07077082 0.060527097 -0.093427785 -0.16170606 0.10266596 -0.07086576
-0.023718718 -0.05587986 0.038868453 -0.1277878 -0.0516129 0.120534025 0.1347298 0.15787971
00000000: 9247 613e ad1a ac3e 661d 6abd c3bc cd3d
00000010: 503c 153e 7b43 4b3e 2d83 c2bb 3e93 aabd
00000020: e6cd 83bd fbb2 40be 06bc 9c3e a13e aa3d
00000030: 75de 873d c058 1b3e fc07 d6bc a87d ba3e
00000040: 0cc9 403e dedb d03d 38ed cb3b e314 903e
00000050: d750 543e d672 8e3e 8ba7 17be 5244 dc3d
00000060: 4f30 803e 3959 bc3d 86f5 933e 7900 0c3d
00000070: 5318 5c3e d792 9cbc 8ec4 1bbe 5fe6 793e
00000080: e980 ac3e c153 c9be 752d b7be 0d4e 013e
00000090: e381 32be 8a38 09bd 0d7e cebd ad28 cd3e
000000a0: 3101 83be 7eef e5bd 452a 93bd b4f3 c53e
000000b0: 0542 4dbe 92b3 8b3d a94d 8e3e 7d69 ac3e
000000c0: 0936 5d3e b512 db3d db72 92bd 6075 f13d
000000d0: 7782 7cbe 5bed 7abd 07e5 8cbd 3411 a73c
000000e0: a958 973d e92c 093e 1e62 733e d2b7 133e
000000f0: b784 6d3d a521 c73e e4ca ebbd 58f1 fc3b
00000100: caf1 dabd c9c6 833d f6f4 b03e bdc5 02bf
00000110: d9e2 3e3e cfba 9ebe 024e 0a3f 8e0e 96be
00000120: a5aa 503d 6182 05be b5fc 943d 1cda 13bd
00000130: 9918 bb3d b226 74be 7866 093e ef74 0d3e
00000140: 8ac6 9abe 2d1f 95be d343 11bd bb78 66be
00000150: 111b 19be a5dd 99bb dfbc 2fbe f166 043e
00000160: af61 033e dcb4 7cbe adc9 a2be 8bca 17be
00000170: a330 a0be 7997 70be d43d 87be 0303 0abf
00000180: ab74 f23d e2ce ecbe dcdf 213f 85e1 b33d
00000190: 5295 98be 10c5 983e bbea 193c 6a6c 95be
000001a0: 0a46 1a3d 82b9 f93e 5a56 4c3f e923 08be
000001b0: fc73 133e ab6e 0abe 1aac f03e 76ad d23d
000001c0: 39d2 a9bc 369b cd3e 5588 75be 8ed4 37bd
000001d0: 6432 80bd 4608 24bf c020 2fbd b252 a7be
000001e0: f1d1 623e 74c5 49bf 14ab 36be 14dc dcbe
000001f0: 59b2 fb3d 55fc abbd 9067 ce3c 121c 6e3c
00000200: 0b54 c3be 5d66 263e a067 cabe 7b91 863e
00000210: 562a 88bd bbfb a8be 7c2c 33bd 29d0 d5bd
00000220: 315f a4bd 446a 8abd f271 92be f78b 273f
00000230: 343e e73e f3fa 01be fa37 b83d e48d 21bf
00000240: 70d9 ecbd b245 54bd b5a9 db3c 868a 81bd
00000250: c26d 613d 3913 81bc bef7 13bf 4896 1b3e
00000260: 508b 56bd 5862 3fbd acd8 93be 5e91 67be
00000270: bf25 8ebe dc17 58bc f7d2 53bc 6e38 24bd
00000280: 689a f43e bbd8 423e 878b 463e 9dd6 d83e
00000290: f201 a43d 7fa4 a6bd 5b0d 513e 099f 89be
000002a0: f972 40be 84af d4bd fdec 25bd 59a7 81be
000002b0: b650 3b3e c120 43bc 8ec1 9dbd d8c4 cabd
000002c0: 1f36 97bd 4f71 ffbd d157 be3c 11d5 7a3d
000002d0: 3f93 193d 35e6 5d3e 61c6 5d3e 627c f03b
000002e0: 6933 e83d 74e7 42be 80fd 6cbe ce8b 9c3e
000002f0: 69fc f9bd d9af 0bbf cdaa d1bd c880 64be
00000300: cdcd 6a3d c52e 28be c037 31be dd5b 42be
00000310: 81db 9fbc 4ed2 8e3e 77e3 133d 4f03 553e
00000320: a3ff 943e 9d2f 4c3d 2f96 4bbd 6f4d f33b
00000330: 32bf a13e 71f4 833c e5ce 283d 57fd 20bd
00000340: e657 7f3e b7f2 67be 4ef9 28be d716 8fbe
00000350: 1a18 253e 5ee5 c63d 24a1 81bc b090 143e
00000360: 8593 b6be 60ee abbe a150 14be 41a2 0abe
00000370: a56f c53d e8cc e8bd ff4c 2dbe f63f 4cbc
00000380: c0e7 b13d 9124 493e 9742 99be 3a12 883d
00000390: cf33 cf3d e297 77be b43a f9bd 413e 37be
000003a0: 9e1f 4b3e afd2 77bd 9768 7b3c b78c 51be
000003b0: dc38 26bf 6af7 243f fdad 683d e028 a3bd
000003c0: 1880 4c3e 9922 3a3d 4bf0 90bd 43eb 773d
000003d0: 1157 bfbd 4696 25be 8842 d23d 1122 91bd
000003e0: c24d c2bc 48e2 64bd 8734 1f3d ceda 02be
000003f0: 0c68 53bd 8bda f63d 9cf6 093e 38ab 213e

dynamicsFunction.startBlock.0.bias f4 [64]
0.0816246 0.06760996 0.10119239 -0.22979446 -0.17955272 -0.12973164 0.21091734 -0.016898938
0.19618025 0.002596018 -0.105604194 0.14174739 0.016871987 0.18517035 0.054092832 -0.2052716
-0.2520616 0.2661641 -0.10681704 -0.24049366 -0.12518333 0.062405493 -0.16186878 -0.099388234
-0.05353179 0.11911201 0.29814938 -0.13929111 -0.22522351 0.15502292 -0.023216639 -0.11697739
0.10791352 0.042434424 0.10036251 0.09295307 0.021302793 -0.08229824 0.0002589872 -0.26701647
0.0352114 0.038435828 -0.17185692 0.2388829 -0.09676407 0.086596064 -0.057648223 -0.12103909
0.13638298 0.18416195 0.0040459093 -0.20359153 0.0035614301 -0.025785958 -0.048503727 -0.1030112
0.0024280504 0.14328533 -0.029494695 0.16155611 0.18371752 0.035553847 0.13959974 0.10661712
00000000: cc2a a73d 1777 8a3d f53d cf3d 3d4f 6bbe
00000010: abdc 37be 5fd8 04be b7fa 573e a46f 8abc
00000020: 7ae3 483e f421 2a3b 0347 d8bd 3a26 113e
00000030: 1f37 8a3c 4c9d 3d3e 7290 5d3d b832 52be
00000040: 380e 81be a946 883e e4c2 dabd f843 76be
00000050: 0f30 00be e79c 7f3d eec0 25be 0f8c cbbd
00000060: 2644 5bbd fff0 f33d 09a7 983e 54a2 0ebe
00000070: fea0 66be 54be 1e3e d230 bebc d891 efbd
00000080: c301 dd3d b8cf 2d3d dc8a cd3d 2e5e be3d
00000090: 3283 ae3c fb8b a8bd acc8 8739 62b6 88be
000000a0: d439 103d e36e 1d3d 43fb 2fbe b89d 743e
000000b0: 3e2c c6bd 4759 b13d 8b20 6cbd 58e3 f7bd
000000c0: fba7 0b3e f394 3c3e 8c93 843b 4c7a 50be
000000d0: e266 693b 133d d3bc d8ab 46bd 89f7 d2bd
000000e0: ed1f 1f3b 64b9 123e dc9e f1bc f76e 253e
000000f0: 7220 3c3e e9a0 113d 3cf3 0e3e 145a da3d

dynamicsFunction.startBlock.2.weight f4 [32, 64]
-0.039436717 -0.2660505 0.10075309 -0.080488645 -0.22768354 -0.094685115 0.3388401 -0.027719837
0.26302835 -0.0021588278 -0.3372882 0.06362941 0.13512126 0.3031921 -0.0121293375 -0.11903512
-0.1563105 0.002257263 0.0115556 -0.21375696 -0.17201117 -0.06946034 0.14109729 -0.10910257
-0.1271614 0.21054578 0.29050717 -0.014187579 0.115642585 -0.16838598 0.035457503 -0.025822472
-0.07410448 -0.049079146 0.14310724 -0.4801269 -0.2674081 -0.03964669 0.25145012 -0.20164533
-0.034992695 -0.19175893 0.21799812 0.019850098 -0.34625098 -0.09007223 0.03624881 0.08031397
-0.041094072 0.21030553 -0.19014825 0.22390419 0.028539237 -0.07374001 -0.19803801 -0.21429108
-0.25878626 0.090541855 0.36157632 0.19429919 0.25077525 -0.12080081 -0.028773993 -0.3274341
0.15434644 0.22643189 -0.38930464 0.035709802 0.0025522667 -0.31131983 -0.43145517 -0.09303635
-0.32053417 -0.06473935 0.26745385 -0.20631878 -0.10917286 -0.7858708 -0.15151533 0.05662624
1.5891784 -0.1726912 0.034951985 0.26035294 0.14630142 -0.048901908 0.07520643 0.12869519
0.18939215 0.34251702 -1.1532415 0.117491156 0.05205577 -0.18300888 -0.036881622 0.3642756
-0.013608377 0.5405473 -0.17327987 -0.0034645796 0.29962975 0.048785284 -0.093311414 0.25921115
-0.040822178 0.36343893 0.073432714 -0.21139282 0.5458165 0.066860795 0.15829417 0.20568584
0.14992605 -1.3091774 -0.10433443 -0.08775512 0.47713065 0.15056874 0.15442269 0.30333152
-0.29473478 -0.0067742937 0.15823266 0.04874915 -0.8104052 -0.8477865 0.008634309 -0.2700679
0.030205594 -0.30477157 0.2673672 -0.25576055 -0.050690208 0.14845769 -0.008290289 -0.106317125
0.027039051 -0.007886805 -0.16593799 0.08905626 0.16055337 0.30101612 -0.009246285 0.07197552
-0.17178442 0.34612775 -0.19217569 -0.10480926 -0.027305532 0.22436047 0.15467459 0.054111447
0.09507702 0.0833698 0.6738582 0.05188463 -0.05867804 0.14529908 -0.19951417 -0.20806476
0.086219124 0.16130336 -0.36195394 -0.020401303 -0.363445 -0.12116954 -0.07542978 -0.038450416
-0.06835665 -0.0579624 0.055883944 -0.06805474 -0.49754456 0.05020678 -0.3635355 -0.25880015
-0.27806476 -0.19813265 0.056525905 0.16877072 0.4546241 0.0020308262 -0.16482057 -0.12603267
-0.35483932 0.04993651 -0.14137846 0.109523796 0.1402195 -0.11329124 0.17559545 0.03255524
-0.08046003 0.11381419 -0.21553783 -0.15189809 0.40187314 -0.008114769 -0.0048090434 0.037862282
-0.4113169 0.098013766 0.084033884 0.01747227 -0.17919555 -0.20659082 -0.39228797 -0.010557358
0.008444814 -0.5497576 0.6170274 0.034636088 0.037094895 -0.09169702 -0.047258705 0.068718076
-0.26814792 0.050905492 0.02145641 0.043119222 0.015597409 -0.21609616 0.27139074 0.12537196
-0.1008084 -0.04954874 0.30653656 -0.1954638 0.021212148 0.4086541 0.20519292 0.13223612
0.04897336 -0.014901916 0.04519698 0.11440842 0.31555316 -0.27405897 -0.59748363 0.454272
0.03278443 0.01455514 0.020583099 -0.06774054 0.19140272 0.09067702 0.016210366 0.1819638
-0.03052255 -0.0062648775 0.026104407 -0.117597304 0.01483888 -0.063492924 -0.15182726 0.26400796
00000000: 6588 21bd c537 88be a357 ce3d 3bd7 a4bd
00000010: e025 69be 45ea c1bd 737c ad3e b614 e3bc
00000020: a7ab 863e 1f7b 0dbb 0ab1 acbe 2350 823d
00000030: 3a5d 0a3e ff3b 9b3e 21ba 46bc afc8 f3bd
00000040: dc0f 20be 97ee 133b b353 3d3c 1be3 5abe
00000050: b223 30be 3941 8ebd cf7b 103e 2b71 dfbd
00000060: 9936 02be 5099 573e 5bbd 943e 0573 68bc
00000070: 05d6 ec3d 606d 2cbe e33b 113d a689 d3bc
00000080: 17c4 97bd 3707 49bd b48a 123e 31d3 f5be
00000090: b7e9 88be 9164 22bd 12be 803e 1d7c 4ebe
000000a0: 8054 0fbd 745c 44be e63a 5f3e ac9c a23c
000000b0: cf47 b1be ca77 b8bd a279 143d a77b a43d
000000c0: 4252 28bd 555a 573e 39b6 42be 2447 653e
000000d0: 1ecb e93c 0105 97bd 7aca 4abe 1f6f 5bbe
000000e0: a27f 84be 026e b93d 8820 b93e 5ef6 463e
000000f0: 9d65 803e 6a66 f7bd 70b7 ebbc 71a5 a7be
00000100: fe0c 1e3e c3dd 673e f052 c7be 7144 123d
00000110: ee43 273b 5065 9fbe b1e7 dcbe d889 bebd
00000120: 0e1d a4be 1096 84bd b6ef 883e 3b45 53be
00000130: 0596 dfbd d42e 49bf d626 1bbe ebf0 673d
00000140: 336a cb3f f6d5 30be d029 0f3d fb4c 853e
00000150: 0ad0 153e 5e4d 48bd d405 9a3d acc8 033e
00000160: 04f0 413e 645e af3e 6b9d 93bf 349f f03d
00000170: 6e38 553d ae66 3bbe 2f11 17bd 5582 ba3e
00000180: acf5 5ebc 4f61 0a3f 4770 31be 000e 63bb
00000190: 1269 993e 14d3 473d 0e1a bfbd 53b7 843e
000001a0: 2835 27bd ab14 ba3e e463 963d 5c77 58be
000001b0: a1ba 0b3f 50ee 883d de17 223e 4f9f 523e
000001c0: 3786 193e 2093 a7bf 4aad d5bd f5b8 b3bd
000001d0: 784a f43e b12e 1a3e fb20 1e3e 454e 9b3e
000001e0: 7ae7 96be e5fa ddbb be07 223e 30ad 473d
000001f0: b776 4fbf 8908 59bf eb76 0d3c 5746 8abe
00000200: b971 f73c 050b 9cbe 5be4 883e 0cf3 82be
00000210: 89a0 4fbd 4b05 183e fed3 07bc cbbc d9bd
00000220: 0081 dd3c a837 01bc a6eb 29be 2163 b63d
00000230: 1a68 243e c91e 9a3e bb7d 17bc e767 933d
00000240: 41e8 2fbe a837 b13e b4c9 44be 3da6 d6bd
00000250: daaf dfbc c0be 653e 0463 1e3e f7a3 5d3d
00000260: beb7 c23d c9bd aa3d f981 2c3f fa84 543d
00000270: 6258 70bd 48c9 143e 714d 4cbe ee0e 55be
00000280: a793 b03d b52c 253e 0752 b9be a220 a7bc
00000290: 7715 babe bc27 f8bd ee7a 9abd 2f7e 1dbd
000002a0: 92fe 8bbd fb69 6dbd 90e6 643d 4960 8bbd
000002b0: 29be febe a0a5 4d3d 5321 babe 7481 84be
000002c0: 815e 8ebe 49e3 4abe b587 673d 3bd2 2c3e
000002d0: 7dc4 e83e 9c17 053b b9c6 28be b50e 01be
000002e0: 80ad b5be 3a8a 4c3d 84c5 10be 034e e03d
000002f0: b395 0f3e 3d05 e8bd 4bcf 333e a558 053d
00000300: 3ac8 a4bd 6a17 e93d f3b5 5cbe 2c8b 1bbe
00000310: 51c2 cd3e cff3 04bc 2e95 9dbb 7b15 1b3d
00000320: 2198 d2be 71bb c83d f519 ac3d 0222 8f3c
00000330: 0a7f 37be 8b8c 53be f8d9 c8be c5f8 2cbc
00000340: 1e5c 0a3c eabc 0cbf 82f5 1d3f 92de 0d3d
00000350: d1f0 173d a6cb bbbd 5892 41bd 10bc 8c3d
00000360: af4a 89be 4782 503d 5ac5 af3c c89d 303d
00000370: 468c 7f3c 5048 5dbe baf3 8a3e 8261 003e
00000380: a274 cebd 9ff3 4abd 5cf2 9c3e aa27 48be
00000390: 19c5 ad3c 1c3b d13e 181e 523e e868 073e
000003a0: 4a98 483d 2a27 74bc 7820 393d f64e ea3d
000003b0: 2f90 a13e 7551 8cbe b0f4 18bf 5796 e83e
000003c0: f748 063d af78 6e3c e39d a83c 8dbb 8abd
000003d0: 13ff 433e e0b4 b93d 9acb 843c b854 3a3e
000003e0: 6d0a fabc 9a49 cdbb e9d8 d53c dbd6 f0bd
000003f0: c61e 733c 9408 82bd 9b78 1bbe 0d2c 873e

dynamicsFunction.startBlock.2.bias f4 [32]
0.04211485 -0.43883082 0.09302343 -0.18595047 -0.05929643 0.03287181 0.036386896 0.033522137
-0.21711448 0.17095006 0.17777123 -0.12257508 0.18240285 -0.022470538 0.08505225 0.28499916
0.18714091 0.09645066 0.02996471 0.10803564 -0.18460433 -0.1607959 -0.2004286 0.19711739
-0.12497493 -0.1322178 0.18030493 -0.15567778 0.09785627 -0.010381824 0.12762535 0.052672062
00000000: 9f80 2c3d 6fae e0be 1183 be3d cd69 3ebe
00000010: d0e0 72bd 97a4 063d 6d0a 153d 824e 093d
00000020: 4253 5ebe 880d 2f3e a909 363e a508 fbbd
00000030: d0c7 3a3e 2214 b8bc e02f ae3d 69eb 913e
00000040: dea1 3f3e ec87 c53d 8d78 f53c ca41 dd3d
00000050: eb08 3dbe aea7 24be 283d 4dbe 24d9 493e
00000060: dbf2 ffbd 1a64 07be dba1 383e ff69 1fbe
00000070: de68 c83d 8718 2abc 38b0 023e a9be 573d
