AlphaGo/foersterrobert_MuZero/Environments/CartPole/Models/model_14.pt (torch, 84274 bytes, 20 tensors)

predictionFunction.startBlock.0.weight f4 [64, 32]
0	0xbdd188a1	-0.10231138
1	0x3f14319f	0.57888216
2	0xbea32483	-0.31863794
3	0xbe9c8335	-0.30568853
4	0xbec31ba8	-0.38107038
5	0xbdab34d8	-0.083596885
6	0xbdd58715	-0.104261555
7	0x3e89f8a0	0.26947498
8	0x3dd77e83	0.10522177
9	0xbe44e14c	-0.19226569
10	0xbe8e8e26	-0.27842826
11	0xbe9d7a24	-0.30757248
12	0xbed8408d	-0.42236748
13	0x3eb9103b	0.36145195
14	0x3d9709c3	0.07374909
15	0xbe6d6404	-0.23182684
16	0xbe0eed64	-0.13957745
17	0x3e8b3191	0.27186254
18	0xbf13cc02	-0.57733166
19	0x3ead6f55	0.33874002
20	0x3ef2d124	0.47425187
21	0x3f4802a9	0.7812906
22	0x3d397929	0.045281563
23	0x3d65fd05	0.0561495
24	0xbd2a8abd	-0.041636217
25	0x3de73f71	0.11291397
26	0x3d2467b4	0.04013796
27	0x3d5642d1	0.052309815
28	0x3e353d48	0.17699158
29	0x3e103f37	0.14086615
30	0xbe92aacd	-0.28645936
31	0x3d269a43	0.04067446
32	0xbd5affe6	-0.0534667
33	0xbe8a1993	-0.26972637
34	0xbe55c95c	-0.20877594
35	0xbdccfca9	-0.100091286
36	0xbe766aad	-0.24064131
37	0xbd76835d	-0.06018387
38	0xbe27fafd	-0.16404338
39	0x3e67f259	0.22651042
40	0x3d709be6	0.058742426
41	0xbe922dc1	-0.28550532
42	0xbe136971	-0.14395691
43	0x3d5993f2	0.053119607
44	0x3db93a79	0.09044356
45	0x3bb6e2e6	0.0055812476
46	0xbd20bbd6	-0.039241634
47	0x3d6f8db6	0.058484755
48	0xbec919a4	-0.39277375
49	0xbe3607b2	-0.17776373
50	0x3de81987	0.11332994
51	0x3e11f1c1	0.14252378
52	0x3e98043c	0.2969073
53	0x3d1c3fd2	0.0381468
54	0x3e1bd4bb	0.15217869
55	0xbf11f7f5	-0.5701898
56	0x3d45f6af	0.04833096
57	0xbd125c09	-0.035732303
58	0x3c8378fb	0.016048899
59	0x3c455de4	0.012046311
60	0xbdb3b667	-0.08775025
61	0x3ed9ff76	0.42577714
62	0xbf377cee	-0.71675
63	0xbe92af24	-0.28649247
64	0xbeac263e	-0.33622926
65	0x3e00a69d	0.12563558
66	0xbfde12bf	-1.7349471
67	0x3daad394	0.083411366
68	0x3d4cc877	0.049995866
69	0x3f197ddc	0.5995767
70	0xbd8435b3	-0.06455555
71	0xbeaf17da	-0.34197885
72	0xbea6311f	-0.3245935
73	0x3d970b88	0.07375246
74	0xbede17c7	-0.43377516
75	0x3e3ac693	0.18239813
76	0x3f27b1dd	0.6550577
77	0x3d6d2daf	0.057904895
78	0x3e6b398f	0.22971176
79	0x3e96491a	0.29352647
80	0xbf134a4c	-0.57535243
81	0x3e8e12a0	0.27748585
82	0x3d8da8bb	0.069169484
83	0xbdc48aa3	-0.09596755
84	0x3e96cd8a	0.2945369
85	0x3dca23c1	0.09870101
86	0x3f93af29	1.153783
87	0x3e487b6c	0.19578332
88	0x3e883e5e	0.26610082
89	0x3eaf6efa	0.34264356
90	0x3eff1620	0.49821568
91	0x3e84134b	0.2579597
92	0x3e284568	0.16432726
93	0x3ffc129f	1.9693183
94	0xbf92d2f6	-1.147063
95	0x3eba42ae	0.36378998
96	0x3da808ec	0.08204827
97	0x3ec5589a	0.3854416
98	0xbf110dce	-0.5666169
99	0xbd4297f3	-0.04750819
100	0xbd38a5cd	-0.045079995
101	0x3f07506f	0.52857107
102	0xbe07d9fb	-0.13266747
103	0xbe8c2616	-0.27372807
104	0xbeb5e505	-0.3552629
105	0x3cfcb3f5	0.030847529
106	0xbdf1dd1e	-0.11809753
107	0xbebdbe54	-0.3705927
108	0x3e8337fb	0.25628647
109	0xbd6588cf	-0.056038674
110	0x3c8209e5	0.015873859
111	0x3ed27afe	0.4110946
112	0x3cdc5796	0.026897233
113	0x3e593f16	0.21215472
114	0xbe8c1b3e	-0.27364534
115	0x3c968ed0	0.018378645
116	0xbd6f7d58	-0.058469146
117	0x3ee775a5	0.45206943
118	0x3e06ba94	0.13157111
119	0x3ec1cdeb	0.37852415
120	0x3e96a6e7	0.2942421
121	0x3c747728	0.014920987
122	0x3d93aba9	0.07210476
123	0x3e30715d	0.17230745
124	0x3e6579f1	0.22409798
125	0x3d97415c	0.07385513
126	0xbed84e22	-0.4224711
127	0x3f0ad33a	0.54228556
128	0xbec4ddf1	-0.38450578
129	0xbf51a6c3	-0.81895083
130	0xbe7553d8	-0.23957765
131	0x3ebae756	0.3650462
132	0xbd809f65	-0.06280402
133	0xbd7ec7c5	-0.062202234
134	0xbe45e1ee	-0.19324467
135	0xbe4d43d9	-0.20045413
136	0xbd38f5df	-0.045156356
137	0xbda348c2	-0.07972862
138	0x3cbc011b	0.022949746
139	0x3f372163	0.7153532
140	0x3f47a72a	0.7798945
141	0x3f0e1725	0.55504066
142	0xbe1c72e3	-0.15278201
143	0xbe595425	-0.21223505
144	0xbf069e11	-0.5258494
145	0xbf113be6	-0.5673202
146	0xbc700371	-0.014649258
147	0xbe2df05d	-0.16986223
148	0x3d05be7a	0.032652356
149	0xbdbd400f	-0.09240734
150	0x3decdd8c	0.11565694
151	0xbf0fe013	-0.56201285
152	0x3e06720c	0.13129443
153	0x3f140839	0.57825047
154	0x3c9163cf	0.017747788
155	0x3d8f7234	0.070042044
156	0xbe4cb1c4	-0.19989687
157	0x3edf819d	0.43653575
158	0xbf7d51f1	-0.9895316
159	0x3e045ebb	0.12926762
160	0xbe174da3	-0.1477571
161	0xbe3fe846	-0.18740949
162	0xbb64cd45	-0.003491239
163	0xbe95b02e	-0.29235977
164	0x3e003456	0.12519965
165	0xbf1600d8	-0.5859504
166	0xbd7101e1	-0.058839682
167	0x3e8ed0be	0.27893633
168	0xbd95e678	-0.07319349
169	0xbe243046	-0.1603404
170	0xbd45afbe	-0.048263304
171	0x3e672087	0.22571002
172	0x3e94024a	0.28907996
173	0x3cc2dbb6	0.023786407
174	0xbe052a13	-0.13004331
175	0x3d3c91ba	0.046037413
176	0xbcaa9fac	-0.02082809
177	0xbdda4b9d	-0.10658953
178	0x3ef71584	0.48258603
179	0xbccfefe3	-0.025382942
180	0xbd12764e	-0.035757355
181	0xbd81b475	-0.063332476
182	0x3e76a34c	0.2408573
183	0xbd84388c	-0.06456098
184	0xbd36ef66	-0.044661902
185	0x3ca5d25b	0.020241907
186	0xbddff735	-0.10935823
187	0xbe70fccf	-0.23533939
188	0xbf1a921b	-0.6037919
189	0x3e2dda9b	0.16977923
190	0x3d96830f	0.07349216
191	0x3e042e5e	0.12908313
192	0xbe1bbf5f	-0.15209721
193	0xbd875bf0	-0.066093326
194	0xbd3fd5ff	-0.046834942
195	0xbe4a2efb	-0.19744484
196	0xbdeba8a6	-0.115067765
197	0x3e4fef1e	0.2030606
198	0xbef5cb9e	-0.4800691
199	0x3eafd9e6	0.3434593
200	0xbcfc92dc	-0.030831747
201	0x3ec3cf44	0.3824407
202	0xbf277f5c	-0.6542871
203	0xbe1c7c2f	-0.15281747
204	0xbd27bcf0	-0.04095167
205	0x3c3de365	0.01158986
206	0x3e87cece	0.26524967
207	0x3e3aefd2	0.18255547
208	0x3c3c2968	0.011484481
209	0xbdc2b62c	-0.09507403
210	0x3e7f9d23	0.24962287
211	0x3de226e9	0.11042578
212	0x3cf51abb	0.029919973
213	0x3daa20fc	0.083070725
214	0x3da964a2	0.08271147
215	0xbe1a9316	-0.15095171
216	0xbe7cfc8d	-0.24705715
217	0x3e11f08c	0.14251918
218	0xbdbf15f4	-0.09330359
219	0xbedf9c1e	-0.43673795
220	0xbe4d9206	-0.20075235
221	0x3e54c97a	0.20779982
222	0xbd59bc97	-0.05315837
223	0x3d0d5cad	0.03451221
224	0xbe1c5aa4	-0.15268952
225	0x3dfdc3fb	0.12390896
226	0xbf21192c	-0.62929034
227	0x3e7e39fe	0.2482681
228	0xbdaf91e2	-0.08572747
229	0xbdad5391	-0.08463205
230	0x3d8800ee	0.06640802
231	0x3dd42165	0.10357932
232	0x3df0d4c3	0.11759331
233	0x3ddec6c3	0.108777545
234	0x3e4b1252	0.19831207
235	0xbe025150	-0.12726331
236	0x3e7af370	0.24506927
237	0xbe1d1ec6	-0.1534377
238	0xbe7c4e5a	-0.24639264
239	0x3ec64695	0.38725725
240	0x3d904275	0.07043926
241	0x3e307aa2	0.1723428
242	0xbc682945	-0.014169996
243	0x3d540b0a	0.05176834
244	0x3e9806e5	0.2969276
245	0x3d70868c	0.058722064
246	0x3f2c1f21	0.67235
247	0xbe37bc8e	-0.17943022
248	0x3e7b12f9	0.24518956
249	0x3e11aa2a	0.14225069
250	0x3e8e695e	0.27814764
251	0x3ebc2b4a	0.36751777
252	0x3e2deb97	0.16984402
253	0x3ee1ae27	0.4407818
254	0xbef4757c	-0.47745883
255	0xbe82da02	-0.25556952

predictionFunction.startBlock.0.bias f4 [64]
0	0xbc3a757c	-0.0113805495
1	0xbe814dec	-0.25254762
2	0xbe952593	-0.2913023
3	0x3d759788	0.059958965
4	0xbe7ba568	-0.24574816
5	0xbb255d91	-0.0025232772
6	0x3dfbbd72	0.12291993
7	0xbd8dee0a	-0.06930168
8	0x3e1bd7f9	0.15219106
9	0x3d72781d	0.05919658
10	0xbe8122e6	-0.25221938
11	0xbe0dd68c	-0.13851374
12	0xbe6b2f87	-0.22967349
13	0xbd1e3833	-0.038627815
14	0xbddd62ce	-0.10809861
15	0xbe41fc9e	-0.18944022
16	0xbe13b2f3	-0.14423732
17	0x3dcb12e4	0.099157125
18	0xbe7592be	-0.23981759
19	0xbdda815a	-0.10669203
20	0xbea0bc12	-0.31393486
21	0xbddcfd73	-0.10790529
22	0x3c794b47	0.015215701
23	0xbe2f494e	-0.17117807
24	0xbd6b7546	-0.057484888
25	0xbe1c2a5c	-0.15250534
26	0x3ac7217c	0.0015192474
27	0xbdfda1f5	-0.123844065
28	0xbd9a526d	-0.07535253
29	0xbe27ae38	-0.16375053
30	0xbdafe346	-0.08588271
31	0xbe4b5fea	-0.19860807
32	0x3dda15a9	0.106486626
33	0xbe9308e4	-0.2871772
34	0xbe1a1ac1	-0.15049268
35	0xbcdbd731	-0.02683601
36	0xbd9954b6	-0.074868605
37	0xbe841108	-0.25794244
38	0xbe13038c	-0.14356822
39	0xbe71ff5e	-0.23632571
40	0xbdcc9a0a	-0.09990318
41	0xbe82c5d1	-0.25541547
42	0xbeaf40ac	-0.34229028
43	0xbe070775	-0.13186438
44	0xb9d07e02	-0.00039766735
45	0xbe8bb3ee	-0.27285713
46	0x3c27348a	0.010205397
47	0xbe5ef258	-0.21772134
48	0xbe091f3a	-0.13390818
49	0x3e067729	0.13131393
50	0xbde7347b	-0.11289307
51	0xbcd2b9cc	-0.02572336
52	0xbe064f72	-0.13116243
53	0xbe5a2500	-0.21303177
54	0xbe9262e2	-0.28591067
55	0x3dfdbc51	0.12389434
56	0xbc8c4eef	-0.017127482
57	0x3dd37a15	0.1032602
58	0xbe1eeeb2	-0.15520743
59	0x3c54b31d	0.012982157
60	0x3dc1f9cf	0.09471475
61	0x3e503b79	0.20335187
62	0xbe4d8508	-0.20070279
63	0x3dbfc2a6	0.09363298

predictionFunction.startBlock.2.weight f4 [64, 64]
0	0xbd157015	-0.036483843
1	0xbe5b2820	-0.21402025
2	0x3e9f91a0	0.3116579
3	0xbe68c669	-0.22731937
4	0xbe7705d1	-0.24123313
5	0xbf13d131	-0.57741076
6	0x3e868457	0.26272842
7	0x3ea2da2c	0.31807077
8	0xbf11adc5	-0.56905776
9	0xbd528ea6	-0.05140557
10	0xbe1c6bd0	-0.15275502
11	0xbce0b1f7	-0.02742861
12	0x3e8faabc	0.28059947
13	0x3f0c2335	0.5474122
14	0x3de07790	0.10960305
15	0x3eac9cce	0.33713382
16	0x3dd0a98d	0.10188589
17	0xbda691ae	-0.08133255
18	0xbf13acfa	-0.57685816
19	0xbea7f474	-0.3280369
20	0xbdbd8e57	-0.09255665
21	0x3df9cb5c	0.12196991
22	0x3ed35085	0.4127237
23	0x3e6fb9b3	0.23410682
24	0xbf1a596d	-0.602927
25	0xbe181910	-0.1485331
26	0x3f707622	0.93930256
27	0xbe204ec2	-0.15655044
28	0xbe39b94c	-0.18137091
29	0x3e2101ac	0.15723294
30	0xbe8fe028	-0.28100705
31	0xbbc930b2	-0.006139838
32	0xbf0eaa71	-0.5572882
33	0x3e775517	0.24153553
34	0x3d848728	0.064710915
35	0xbea317eb	-0.31854185
36	0xbd27f4b0	-0.041004837
37	0x3ea8fddc	0.3300618
38	0xbdc2ee4d	-0.095181085
39	0x3d89e5a2	0.06733252
40	0x3cf0adc6	0.029379737
41	0xbcda2937	-0.02663098
42	0x3e25e219	0.1619953
43	0x3d8d62a7	0.06903582
44	0xbe21ab8c	-0.15788096
45	0xbe648af1	-0.22318627
46	0xbe9d695c	-0.30744445
47	0xbe05b37d	-0.1305675
48	0xbe5a07c1	-0.2129202
49	0xbef2805a	-0.4736355
50	0xbe66569c	-0.22493976
51	0xbebacc84	-0.36484158
52	0x3d20408a	0.03912405
53	0xbe53dc60	-0.20689535
54	0x3ee03c4f	0.43796012
55	0xbe7ecf17	-0.24883686
56	0xbeb57943	-0.35444078
57	0xbdb048d5	-0.086076416
58	0xbe00cc7d	-0.12578006
59	0x3ebbe7da	0.36700326
60	0x3c30edfc	0.010798927
61	0xbe35e06b	-0.1776139
62	0x3ba4e062	0.0050316313
63	0xbebae602	-0.36503607
64	0xbe89ae77	-0.2689092
65	0xbe9f1f8f	-0.31078765
66	0x3e887d5c	0.26658142
67	0xbdecb5c0	-0.115581036
68	0x3ed78382	0.4209252
69	0xbc00052c	-0.007813733
70	0x3ee587e8	0.4483025
71	0x3eb12e03	0.34605417
72	0xbf20d88e	-0.62830436
73	0x3e39b9a6	0.18137226
74	0x3d13dc57	0.036098804
75	0xbdfdb8d9	-0.123887725
76	0x3ef84eab	0.4849752
77	0x3ed419c9	0.41425923
78	0x3ea92cd6	0.3304202
79	0xbe427984	-0.18991667
80	0x3e353c99	0.17698897
81	0xbe2b6937	-0.16739355
82	0xbf12072b	-0.5704219
83	0x3c85f4f9	0.016352164
84	0xbd859883	-0.0652323
85	0xbdddd5a3	-0.108317636
86	0x3dc1e87d	0.09468172
87	0x3e8ab90a	0.270943
88	0xbe9fe6b1	-0.3123069
89	0xbe44cd22	-0.19218877
90	0x3ee66105	0.44995895
91	0xbe5189ff	-0.20462798
92	0xbec87941	-0.3915501
93	0x3d23e712	0.040015288
94	0xbe1af2ed	-0.15131731
95	0xbdf59701	-0.11991692
96	0xbec6ba45	-0.38813987
97	0x3eb08f46	0.3448431
98	0x3ea36271	0.31911042
99	0xbdb153e1	-0.08658577
100	0x3ed10e40	0.40831184
101	0xbdda83a0	-0.10669637
102	0xbe9685d9	-0.29398993
103	0x3e02857a	0.1274623
104	0x3e8e6bbf	0.2781658
105	0x3e492a76	0.19645104
106	0x3cc9a2d8	0.024613783
107	0x3e0dd76f	0.13851713
108	0x3e862720	0.26201725
109	0x3d81f92c	0.06346354
110	0xbe98e234	-0.2986008
111	0xbde02e79	-0.10946364
112	0xbdf402e0	-0.11914611
113	0xbea2736b	-0.31728682
114	0xbdda5656	-0.106609985
115	0xbda7aed8	-0.08187646
116	0x3e91eb6d	0.28499928
117	0x3df58727	0.11988669
118	0xbe3614d9	-0.1778139
119	0xbe5ed011	-0.21759059
120	0xbf05d9e8	-0.52285624
121	0x3deabd1f	0.11461853
122	0xbe051745	-0.12997158
123	0x3f3cfa78	0.73819685
124	0x3ec5f7d1	0.3866563
125	0xbd724dcf	-0.059156235
126	0x3c715d7e	0.014731763
127	0xbe41166d	-0.18856211
128	0x3c667ded	0.014068109
129	0x3d612c7e	0.05497407
130	0x3e9d4124	0.3071376
131	0x3c5c6bd8	0.013453446
132	0xbed6ee05	-0.4197847
133	0xbf0adec8	-0.5424619
134	0x3e41a105	0.1890908
135	0xbd5165a8	-0.051122338
136	0xbdee9d12	-0.116510525
137	0xbe8754f2	-0.26431996
138	0x3d68db21	0.056849603
139	0x3f28559e	0.6575564
140	0x3defa7c5	0.117019214
141	0x3dd1955d	0.10233567
142	0xbc6c4d07	-0.014422662
143	0xbe5d5b4b	-0.21616857
144	0x3d2412ab	0.040056866
145	0x3da4ca66	0.08046417
146	0x3c45478f	0.012040987
147	0x3c142320	0.009041578
148	0x3c30a6e0	0.010781974
149	0xbe96aff0	-0.29431105
150	0x3dc7458f	0.09730064
151	0x3ce98750	0.028506905
152	0x3e2d57a6	0.16927966
153	0xbe8faf04	-0.28063214
154	0xbccab7c4	-0.02474583
155	0xbda9be2e	-0.08288227
156	0xbe5ebe8e	-0.21752378
157	0xbe2bc330	-0.16773677
158	0x3ec53c57	0.38522598
159	0x3d04f59d	0.032460798
160	0xbcd81a99	-0.02637987
161	0xbd754c7d	-0.059887398
162	0x3e19ed34	0.15031892
163	0x3da74606	0.08167653
164	0x3e5b2f40	0.21404743
165	0xbe3572f9	-0.1771964
166	0xbe15389b	-0.14572375
167	0xbc92f5be	-0.017939445
168	0x3e512c0f	0.20426963
169	0xbdcb7b8c	-0.09935674
170	0xbdbdd1ea	-0.092685536
171	0xbe855965	-0.26044765
172	0x3ebb32d6	0.36562222
173	0xbf1d066d	-0.6133793
174	0xbf088234	-0.53323674
175	0xbe62bed3	-0.22143106
176	0xbc975ead	-0.018477762
177	0xbe82c236	-0.25538796
178	0x3d5db83b	0.054130774
179	0xbea6c596	-0.3257262
180	0x3d517fce	0.051147275
181	0xbd1b04ca	-0.037846364
182	0x3ba48d6f	0.005021743
183	0xbe3f3c1f	-0.18675278
184	0x3dd6937b	0.104773484
185	0xbda32669	-0.079663105
186	0x3ec19d20	0.3781519
187	0xbe228633	-0.15871505
188	0x3d0e26ff	0.03470516
189	0xbdf4f14d	-0.11960087
190	0xbe1d199a	-0.15341797
191	0x3d6ea3ce	0.058261685
192	0xbeb78783	-0.35845575
193	0xbca5243b	-0.020158878
194	0x3de96610	0.1139642
195	0x3e8c603a	0.27417165
196	0x3e27630b	0.16346376
197	0x3d2ebfdf	0.04266345
198	0xbd3b5246	-0.04573276
199	0x3c38c73d	0.011277971
200	0xbea5b531	-0.323648
201	0x3e91794c	0.28412855
202	0xbece9817	-0.4035041
203	0xbe0794ee	-0.13240406
204	0x3e23489a	0.15945664
205	0xbdf76497	-0.12079733
206	0x3dcabc01	0.0989914
207	0x3e377aca	0.17917934
208	0x3e141efc	0.14464945
209	0xbc801c0b	-0.015638372
210	0xbe5863cc	-0.2113182
211	0xbdea0827	-0.11427336
212	0xbcba1bfb	-0.02271842
213	0xbedf4a69	-0.43611458
214	0xbd53df68	-0.05172673
215	0x3e3407ea	0.17581144
216	0xbd7586f6	-0.059943162
217	0x3db426c9	0.0879646
218	0x3df351f5	0.118808664
219	0xbe2de5e1	-0.16982223
220	0x3e2cd03d	0.16876312
221	0x3d0e76fe	0.03478145
222	0xbe214a5c	-0.15751022
223	0xbe3d6ebc	-0.18499273
224	0x3e8e9602	0.27848822
225	0x3da88c35	0.08229867
226	0x3ea7c425	0.32766834
227	0xbe887edd	-0.2665929
228	0x3d7fffca	0.0624998
229	0xbdc04adf	-0.093892805
230	0xbf69b93e	-0.9129828
231	0x3de7b3b3	0.11313572
232	0x3eef00d5	0.46680322
233	0xbec4290d	-0.3831257
234	0xbd348b84	-0.044078365
235	0x3ea7d66e	0.32780784
236	0x3e632ec2	0.22185805
237	0xbe92c84a	-0.28668433
238	0xbd92502f	-0.071442
239	0xbf1326ba	-0.5748097
240	0x3ed4a4f6	0.41532105
241	0xc03283ec	-2.7893019
242	0xbc51ef0e	-0.012813343
243	0xbe104aeb	-0.14091079
244	0x3e6c2529	0.2306105
245	0x3e60fb29	0.2197081
246	0x3e3ddf9f	0.18542336
247	0xbd6f87be	-0.058479063
248	0xbe15719f	-0.14594124
249	0x3e80afe0	0.25134182
250	0xbe0d2387	-0.13783084
251	0xbece4ad2	-0.40291458
252	0xbebf41ac	-0.3735479
253	0xbdf61c8e	-0.12017165
254	0x3e0d4bd2	0.13798454
255	0x3c86c894	0.016453065

predictionFunction.startBlock.2.bias f4 [64]
0	0xbe064478	-0.13112056
1	0xbe2e1684	-0.17000777
2	0xbdcfaed3	-0.10140767
3	0x3d2332c1	0.039843325
4	0xbe9d2d28	-0.30698514
5	0xbe973030	-0.29528952
6	0xbd43737c	-0.047717556
7	0xbebcdc07	-0.36886618
8	0xbe3c4d2b	-0.18388812
9	0xbcae4c09	-0.02127649
10	0xbe0b3733	-0.13595276
11	0xbd3e7a9e	-0.046503656
12	0x3ddfab02	0.10921289
13	0x3e437300	0.19086838
14	0x3e9b3c93	0.30319652
15	0xbcb38086	-0.02191187
16	0xbdd145cb	-0.1021839
17	0xbe2dc258	-0.16968668
18	0xbef1658c	-0.47147787
19	0x3ca27292	0.019830022
20	0xbe1120d7	-0.14172684
21	0xbe085a10	-0.13315606
22	0xbdabebc2	-0.083945766
23	0x3e05eb83	0.13078122
24	0xbe007e1f	-0.12548111
25	0xbe156bd0	-0.14591908
26	0xbda65983	-0.08122542
27	0xbe244870	-0.16043258
28	0xbdf41998	-0.11918944
29	0x3d4bb3da	0.049732067
30	0xbe01a3d9	-0.12660159
31	0xbd9a208c	-0.07525739
32	0xbd7b8d92	-0.06141431
33	0xbdb4c79d	-0.08827136
34	0xbc54e2bb	-0.01299351
35	0xbae69598	-0.001759219
36	0xbd916818	-0.070999324
37	0xbdfaf28a	-0.12253292
38	0xbe31287d	-0.17300601
39	0x3c24f1d5	0.010067423
40	0xbe9bceef	-0.30431315
41	0x3e1c7f70	0.15282989
42	0x3e4ba1ed	0.19885989
43	0xbe45fa6d	-0.19333811
44	0x3ddf582f	0.109054916
45	0xbde96166	-0.113955304
46	0x3dc17907	0.09446912
47	0xbefb50f2	-0.49085194
48	0xbe051db4	-0.12999612
49	0xbe761501	-0.2403145
50	0xbd9022a9	-0.07037861
51	0xbe353889	-0.17697348
52	0x3d28f534	0.04124947
53	0xbe258bb5	-0.16166575
54	0xbea6ff6e	-0.32616752
55	0x3ed94dba	0.42442113
56	0x3d3d7a6e	0.046259336
57	0xbe721a43	-0.2364283
58	0x3e28aa90	0.16471314
59	0x3e275b1b	0.16343348
60	0x3e232dce	0.15935442
61	0x3cde2369	0.027116494
62	0xbe03e87a	-0.12881652
63	0xbd74f09a	-0.059799768

predictionFunction.policy_head.0.weight f4 [2, 64]
0	0x3d50260f	0.050817546
1	0xbd62486b	-0.055244844
2	0x3e128131	0.14307095
3	0x3e7ad5a5	0.24495561
4	0xbe5afd9c	-0.21385807
5	0xbbe9e507	-0.007137898
6	0x3e2d1dab	0.16905849
7	0x3efe6633	0.49687347
8	0xbe88431e	-0.26613706
9	0x3cf34573	0.029696202
10	0x3d84b6c5	0.06480173
11	0x3e4e2a3e	0.20133302
12	0xbd9da31a	-0.07697125
13	0xbdf6cd7b	-0.12050911
14	0x3cadd740	0.021220803
15	0x3b324784	0.0027203271
16	0x3e51b7dc	0.20480293
17	0x3e21c1c5	0.15796573
18	0xbed1cd41	-0.4097691
19	0xbdd3b488	-0.10337168
20	0x3e8acc4c	0.2710899
21	0x3e23f67f	0.16012
22	0x3d43db01	0.04781628
23	0x3da6df24	0.081480294
24	0x3dbce387	0.09223085
25	0xbea8d7e9	-0.32977226
26	0x3da3dbb0	0.080008864
27	0xbed9b70f	-0.42522475
28	0x3d6a5450	0.057209313
29	0xbeb0ab20	-0.34505558
30	0x3b71f672	0.0036920574
31	0x3df5b92b	0.119982086
32	0x3e421d86	0.18956575
33	0x3bc72f83	0.006078662
34	0xbe612ea0	-0.21990442
35	0xbd86318f	-0.06552421
36	0xbdd0cfa1	-0.10195852
37	0x3ebc06d5	0.36723962
38	0xbe896417	-0.26834175
39	0x3d23b91b	0.039971452
40	0x3f231843	0.63708895
41	0x3e8faeef	0.2806315
42	0x3e1af529	0.15132584
43	0xbf1d3b17	-0.6141829
44	0xbdc73cb5	-0.09728376
45	0xbd271773	-0.040793847
46	0xbe49f156	-0.19720969
47	0x3ea2be11	0.31785634
48	0x3ec6e1bb	0.38844094
49	0x3ec35ad9	0.3815525
50	0xbda8d5e8	-0.082439244
51	0x3c095058	0.008380972
52	0xbeab2cb5	-0.33432546
53	0x3d19e40b	0.037570994
54	0x3ea0cc6e	0.31405967
55	0xbd3e3b3e	-0.046443217
56	0x3d00c175	0.031434495
57	0xbe76e6b5	-0.24111445
58	0x3d97b17f	0.074069016
59	0xbdf954b8	-0.12174362
60	0x3df95801	0.121749885
61	0xbca7c90a	-0.020481605
62	0x3e264cf3	0.16240291
63	0x3da91dfb	0.082576714
64	0xbcb8e0d7	-0.02256815
65	0xbe0880a9	-0.1333033
66	0xbe0f1b9d	-0.13975377
67	0xbe8a4691	-0.27006963
68	0x3bacedf8	0.0052773915
69	0x3e15e97b	0.14639847
70	0x3c9b2f95	0.018943587
71	0xbec321d5	-0.3811175
72	0x3e9aabbf	0.30209157
73	0xbcfb28f9	-0.030659186
74	0x3c1703c0	0.009217203
75	0xbe4247d7	-0.18972717
76	0x3e51688b	0.20450036
77	0x3e1f2523	0.1554151
78	0x3c05e85d	0.0081730755
79	0x3dc8b417	0.097999744
80	0xbe230899	-0.15921248
81	0xbeaa2f42	-0.3323918
82	0x3ecccc11	0.3999944
83	0xba558605	-0.00081452756
84	0xbe23cf90	-0.15997148
85	0xbd394801	-0.045234684
86	0xbd52d765	-0.051474947
87	0xbd989bc3	-0.07451584
88	0x3da6ad83	0.081385635
89	0x3ea78a46	0.32722682
90	0x3d6bc838	0.05756399
91	0x3ed7ac2b	0.4212354
92	0x3bb6a395	0.0055736997
93	0x3ecbe6a7	0.3982441
94	0x3dc266c1	0.09492255
95	0xbd0d2349	-0.03445748
96	0xbe8a9227	-0.2706463
97	0xbdfa92c6	-0.12235026
98	0x3e6ff280	0.2343235
99	0x3c904f5a	0.017615963
100	0x3d155ad8	0.03646359
101	0xbeab24b2	-0.33426434
102	0x3ec15198	0.37757564
103	0x3dc63e4c	0.09679851
104	0xbf23180e	-0.6370858
105	0xbe4a2163	-0.19739299
106	0xbd8be3db	-0.06830569
107	0x3f096006	0.53662145
108	0xbd858280	-0.065190315
109	0xbcd964ec	-0.026537381
110	0x3dc19fed	0.094543315
111	0xbeb3362e	-0.35002273
112	0xbeea666b	-0.45781264
113	0xbeb0185a	-0.3439358
114	0x3d7468bc	0.059670195
115	0x3d211c56	0.039333664
116	0x3e642d38	0.22282875
117	0x3e212a51	0.15738799
118	0xbe7c9393	-0.2466567
119	0x3cac65ef	0.0210447
120	0x3d793308	0.060839683
121	0x3db620be	0.08892964
122	0xbe64bd18	-0.22337759
123	0xbd386e3d	-0.045027006
124	0x3b5c94c5	0.003365801
125	0x3e76c43a	0.24098292
126	0xbe3dc475	-0.18531974
127	0x3d0e17ce	0.03469067

predictionFunction.policy_head.0.bias f4 [2]
0	0xbcd94b8d	-0.026525283
1	0x3c4ac745	0.012376611

predictionFunction.value_head.0.weight f4 [64, 64]
0	0xbd99b8ac	-0.075059265
1	0xbcacba33	-0.02108488
2	0xbc0a0ea3	-0.008426341
3	0x3d6ae6f5	0.057349164
4	0x3d070f09	0.032973323
5	0xbd5fe399	-0.054660413
6	0x3d6156df	0.055014487
7	0xbd9c3411	-0.076271184
8	0xbd69f8a7	-0.0571219
9	0xbe0fb8c3	-0.14035325
10	0x3d13f227	0.036119606
11	0xbd0a38e6	-0.03374567
12	0xbdd4d76c	-0.10392651
13	0xbdeb9ea4	-0.11504868
14	0xbd90a86b	-0.07063373
15	0xbdcc315f	-0.09970354
16	0xbd50a584	-0.050939098
17	0xbdd899fd	-0.10576246
18	0xbdb9516a	-0.090487316
19	0x3d0ad88f	0.033897933
20	0xbda22d73	-0.07918825
21	0x3d506700	0.05087948
22	0x3c0b7bd0	0.008513406
23	0xbd9cf388	-0.076636374
24	0x3cad5f0b	0.021163484
25	0x3d9c0a40	0.076191425
26	0xbc73b41e	-0.014874486
27	0x3c5e0390	0.013550654
28	0x3dcfcd20	0.10146546
29	0xbd3c6742	-0.04599691
30	0x3ce11420	0.027475417
31	0x3d52190a	0.05129341
32	0xbe12bc3e	-0.14329621
33	0x3d97297e	0.07380961
34	0xbdca84c3	-0.098886035
35	0xbbd260a0	-0.00642021
36	0xbdba7a4a	-0.09105356
37	0x3cce15cc	0.025156878
38	0xbdcde6ac	-0.10053763
39	0xbd99fdcb	-0.0751911
40	0x3cb0ed80	0.021597624
41	0xbdbe9f97	-0.09307783
42	0xbcef803d	-0.029235953
43	0x3d98830b	0.074468695
44	0xbe22397e	-0.15842244
45	0xbda65716	-0.08122079
46	0xbdf01ffe	-0.11724852
47	0x3dab230b	0.08356293
48	0x3b9a15a7	0.004702288
49	0xbdd6ca12	-0.104877606
50	0xbe0f6a29	-0.1400534
51	0x3d844d38	0.06460041
52	0x3d55b4ab	0.05217425
53	0xbddc889c	-0.10768244
54	0xbbca58f5	-0.0061751553
55	0xbd7a24c8	-0.061070234
56	0x3c82c1ff	0.015961645
57	0xbdf0c108	-0.11755568
58	0x3d0488a4	0.032356873
59	0x3da44e1f	0.08022713
60	0x3bb40432	0.005493664
61	0xbd99c113	-0.07507529
62	0xbc5e042c	-0.013550799
63	0x3d5ceb04	0.053935066
64	0xbe2074c1	-0.15669538
65	0xbdfbc8f0	-0.12294185
66	0xbdd4ff40	-0.104002476
67	0x3c51d39c	0.012806799
68	0xbe141742	-0.14461997
69	0xbda5ca0d	-0.08095179
70	0xbd648685	-0.05579235
71	0xbecbd1d3	-0.3980852
72	0x3d50823d	0.050905455
73	0x3d1dc9af	0.03852242
74	0xbe02b353	-0.1276372
75	0xbd94bde8	-0.07262784
76	0xbe021fcf	-0.12707447
77	0xbe27f2f9	-0.1640128
78	0xbe3fd790	-0.18734574
79	0xbd633f8d	-0.05548053
80	0xbe92f9d8	-0.2870624
81	0xbec9b810	-0.3939824
82	0xbdad8d52	-0.0847422
83	0xbd0b088c	-0.033943698
84	0xbb0d537e	-0.0021564658
85	0x3d2fd67c	0.042929158
86	0xbd2e59e8	-0.04256621
87	0xbe03e2e9	-0.12879528
88	0x3ed834ed	0.4222788
89	0x3e7a7ff7	0.24462877
90	0x3d88c4c9	0.06678159
91	0xbcad95d0	-0.0211896
92	0x3de4f05c	0.111786574
93	0xbe290900	-0.1650734
94	0xbe25552f	-0.16145776
95	0xbdd02348	-0.10162979
96	0xbef2ceba	-0.47423345
97	0xbe945aac	-0.28975427
98	0xbdd1c7e3	-0.102432035
99	0x3cf43970	0.029812545
100	0x3d5c2240	0.0537436
101	0x3b88be64	0.004173087
102	0xbc65ba35	-0.014021446
103	0x3e545307	0.20734797
104	0xbe5caf15	-0.21551163
105	0xbd753231	-0.05986232
106	0xbdfcf5b7	-0.12351554
107	0xbebc30ad	-0.36755887
108	0xbec18a51	-0.3780084
109	0x3deb4c5a	0.11489172
110	0xbe6fa193	-0.2340148
111	0xbe18c875	-0.14920218
112	0x3e636f6a	0.2221047
113	0xbd52d89a	-0.0514761
114	0xbdfcc7da	-0.12342806
115	0x3d0e4dc7	0.034742143
116	0xbdc63875	-0.09678737
117	0xbeb099c6	-0.3449232
118	0xbdc3972e	-0.095503196
119	0x3e394c52	0.1809552
120	0xbd74b3c3	-0.059741747
121	0xbbe231cc	-0.006902909
122	0x3e0b68e9	0.13614239
123	0x3d602340	0.054721117
124	0xbde3d6dd	-0.11124966
125	0x3dff25f4	0.12458411
126	0xbe814d51	-0.252543
127	0xbd975f30	-0.073912024
128	0x3e4c06b4	0.19924432
129	0x3d5383af	0.051639255
130	0x3d6939d3	0.05693991
131	0xbd580ce4	-0.05274667
132	0x3db2bea1	0.08727766
133	0xbdf84992	-0.121234074
134	0x3d9808ba	0.074235395
135	0xbe62d522	-0.22151616
136	0xbd32f5c1	-0.0436914
137	0x3e3e7e32	0.18602827
138	0xbe1a8d45	-0.15092953
139	0xbdc53eb8	-0.09631103
140	0xbe0de5b6	-0.13857159
141	0x3dc4a1ae	0.096011505
142	0xbe9dbec0	-0.30809593
143	0x3e9b8f45	0.30382743
144	0xbe471bc5	-0.19444187
145	0xbf148a3c	-0.5802343
146	0x3d68244a	0.056675233
147	0x3f03dd3c	0.5150945
148	0xbf30c825	-0.69055396
149	0x3eb525d4	0.35380423
150	0xbdb8e4cb	-0.09028014
151	0xbe343833	-0.17599563
152	0x3e90ce36	0.28282326
153	0xbe645583	-0.22298245
154	0x3c2ca2b0	0.010536835
155	0x3d97bf21	0.07409502
156	0x3e11b5ad	0.1422946
157	0xbef79b94	-0.48360884
158	0xbd477fad	-0.048705745
159	0x3d7828a5	0.060585637
160	0xbe504df3	-0.20342235
161	0xbe595e74	-0.21227437
162	0xbd9b630c	-0.07587251
163	0xbde45d4c	-0.111506075
164	0x3f06f967	0.5272431
165	0x3e852383	0.26003656
166	0xbf0c55aa	-0.54818213
167	0x3e308325	0.17237528
168	0x3e7fc914	0.24979049
169	0xbdc9c65d	-0.09852288
170	0x3d0c017a	0.034181096
171	0xbda86763	-0.082228445
172	0xbe91faa8	-0.28511548
173	0xbdec85e8	-0.11548978
174	0xbcadc1a9	-0.021210508
175	0xbef181eb	-0.47169432
176	0xbf090442	-0.5352212
177	0x3f077998	0.5291991
178	0x3e2367b7	0.15957533
179	0x3de849c0	0.11342192
180	0x3ef83239	0.48475817
181	0xbf2d59bf	-0.67715067
182	0xbdb708fe	-0.08937262
183	0x3be39145	0.0069448077
184	0x3e94afa4	0.29040253
185	0xbe4b7073	-0.19867115
186	0x3dd5c2f8	0.10437578
187	0x3e4b98df	0.19882534
188	0x3e984ff5	0.29748502
189	0xbdee8da0	-0.116481066
190	0xbccbd24f	-0.024880556
191	0x3d9a81da	0.075442985
192	0xbc75bcc3	-0.014998618
193	0x3eae5bdb	0.34054455
194	0xbdff1635	-0.124554075
195	0xbd7f41b8	-0.062318534
196	0x3e18d27d	0.14924045
197	0xbd20ea91	-0.0392862
198	0xbdf30ea6	-0.11868028
199	0x3d1b71ea	0.037950434
200	0xbf0aadde	-0.5417155
201	0x3daeed48	0.085413516
202	0xbecf973e	-0.40545076
203	0xbda4cba5	-0.080466546
204	0xbf0e345b	-0.5554864
205	0x3c6b7a68	0.014372446
206	0xbdbba2df	-0.091619246
207	0xbe095b3c	-0.1341371
208	0x3f2f8cdb	0.68574303
209	0x3e939d62	0.2883101
210	0xbf0e5e98	-0.5561309
211	0xbeda7ba1	-0.42672446
212	0x3e26e41e	0.16297957
213	0x3c37ee8f	0.01122631
214	0xbdda2dd5	-0.10653273
215	0xbc592cfd	-0.013255355
216	0xbdb182a9	-0.086674996
217	0x3d8c2019	0.0684206
218	0xbca3d2bd	-0.019997949
219	0xbe92ecc1	-0.28696254
220	0xbdc2114e	-0.09475957
221	0x3e3afec7	0.18261252
222	0x3dd17fce	0.10229455
223	0x3dc798bd	0.097459294
224	0x3e1627cc	0.14663619
225	0xbf1bfc3f	-0.6093177
226	0x3e3e6368	0.18592608
227	0xbd11cbc2	-0.03559471
228	0x3efa652e	0.4890532
229	0x3a49bfe3	0.0007696135
230	0xbdaee8b7	-0.085404806
231	0xbd200a2d	-0.039072204
232	0x3f163f34	0.5869019
233	0x3e3ac303	0.18238454
234	0x3e411e7e	0.18859288
235	0xbe8e3e3c	-0.27781856
236	0x3e9c0b66	0.30477446
237	0x3d99581e	0.0748751
238	0xbf4a0859	-0.7891899
239	0x3e01018e	0.1259825
240	0x3e6802d7	0.22657333
241	0xbe1c2373	-0.15247898
242	0xbdfad7ee	-0.122482166
243	0x3e9b24f4	0.3030163
244	0xbeac9e68	-0.33714604
245	0xbee5f712	-0.44915062
246	0x3e7f6635	0.24941333
247	0xbeec4fae	-0.4615454
248	0x3e58d7d2	0.21176079
249	0x3e1d4b18	0.15360677
250	0xbf0a1ad0	-0.5394716
251	0x3e08c5f6	0.13356766
252	0xbe552882	-0.20816234
253	0xbe913c74	-0.28366435
254	0x3e660600	0.22463226
255	0xbda4a39d	-0.08039019

predictionFunction.value_head.0.bias f4 [64]
0	0xbe14adf7	-0.14519487
1	0xbe2eddf5	-0.17076857
2	0x3d2b5daf	0.04183739
3	0xbca15803	-0.019695288
4	0xbd0936e3	-0.03349961
5	0xbdc3ab5e	-0.0955417
6	0x3d64b06d	0.055832315
7	0xbea9d95c	-0.33173645
8	0x3d609fe7	0.054839995
9	0xbdd3a645	-0.10334448
10	0xbd9ff0aa	-0.07809575
11	0xbea0793c	-0.31342494
12	0x3da637f7	0.08116143
13	0xbe824a17	-0.2544715
14	0xbdba630f	-0.09100925
15	0xbe97b1f9	-0.2962797
16	0xbdb1508f	-0.086579435
17	0xbd8e9964	-0.06962851
18	0xbe1b59f8	-0.15171039
19	0x3ebdf377	0.3709981
20	0xbd891a0a	-0.0669442
21	0xbd2300bd	-0.039795626
22	0x3e9f4865	0.3110992
23	0xbe5a3701	-0.21310045
24	0xbe82fa20	-0.25581455
25	0xbe33bac9	-0.17551722
26	0xbe0607d8	-0.1308893
27	0xbdc3f181	-0.095675476
28	0xbd0a390f	-0.03374582
29	0xbe59a37d	-0.21253772
30	0xbd6ab952	-0.05730564
31	0xbdb0a972	-0.08626069
32	0xbe277caf	-0.16356157
33	0x3d9da558	0.076975524
34	0x3eca1cd8	0.3947513
35	0xbe885060	-0.2662382
36	0xbe850e96	-0.2598769
37	0xbd876b15	-0.06612221
38	0x3c85b717	0.016322656
39	0xbe25e6ef	-0.16201375
40	0xbe42160c	-0.18953723
41	0xbdf81f17	-0.12115305
42	0xbe1f4ee6	-0.15557441
43	0xbe07350c	-0.1320383
44	0x3d278379	0.040896866
45	0x3dd7f92b	0.10545572
46	0xbe413a27	-0.1886984
47	0xbe0dc645	-0.13845165
48	0xbe2da784	-0.16958433
49	0xbdc9e089	-0.0985728
50	0xbdae746d	-0.085183
51	0x3ca94547	0.020662917
52	0xbe2bf699	-0.16793288
53	0x3d45ca57	0.04828867
54	0xbe4e8bca	-0.20170513
55	0x3ed168ff	0.40900418
56	0x3e5c199e	0.21494147
57	0x3e3b7311	0.18305613
58	0xbe0f2b22	-0.13981298
59	0xbebac05e	-0.3647489
60	0x3ec96cd5	0.39340845
61	0x3dd9fb05	0.10643581
62	0x3e46f107	0.19427882
63	0xbea5fcea	-0.3241952

predictionFunction.value_head.2.weight f4 [41, 64]
0	0xbd9b7247	-0.07590156
1	0xbf2d4825	-0.6768821
2	0xbe954b05	-0.29158798
3	0xbf2a07ab	-0.6641795
4	0xbf92450a	-1.1427319
5	0xbf4141ba	-0.75490916
6	0xbfd45371	-1.6587964
7	0xbf459c5e	-0.7719172
8	0xbfe93858	-1.822032
9	0xbed07f96	-0.4072234
10	0x3d0eaf80	0.03483534
11	0xbe15a490	-0.14613557
12	0xbf64e9e7	-0.89419407
13	0xbf00c8ba	-0.50306284
14	0xbfb866ea	-1.4406407
15	0xbfedb384	-1.8570409
16	0xbeb13cc4	-0.34616673
17	0xbe64e8d2	-0.22354439
18	0xbf98e009	-1.194337
19	0xc0129b2a	-2.2907205
20	0xbdeaf7cf	-0.11473047
21	0xbf0e185b	-0.55505913
22	0xbfe1e355	-1.7647501
23	0xbf6f3c80	-0.9345169
24	0xbf2287e8	-0.63488626
25	0x3d9c4a94	0.07631412
26	0x3b21b411	0.0024673978
27	0xbd3d5550	-0.04622394
28	0xbe3856e5	-0.18001898
29	0xbf59bdc4	-0.85055184
30	0xbfc187ed	-1.5119606
31	0xbfe37e71	-1.7772962
32	0xbee18404	-0.44046032
33	0xbf8c7b37	-1.0975102
34	0xc018bc94	-2.38651
35	0xbf19d302	-0.600876
36	0xbf1da8a4	-0.6158545
37	0xbea21a93	-0.316609
38	0xbfff8b60	-1.9964409
39	0xbe8d54e4	-0.2760383
40	0xbe95176d	-0.29119435
41	0xbf574a1f	-0.84097475
42	0xbdbf2b53	-0.09334435
43	0xbf11c091	-0.5693446
44	0xbff970ac	-1.948751
45	0xbfba7edd	-1.4569966
46	0xbe47288b	-0.1944906
47	0x3da7329f	0.08163952
48	0x3c35b46b	0.011090378
49	0xbfb9dae3	-1.4519924
50	0xbfdf1df2	-1.7431014
51	0xbf927df9	-1.1444694
52	0xbd0467bf	-0.032325502
53	0xbf6b1131	-0.91823107
54	0xbeda7ae7	-0.42671892
55	0xc00b5a09	-2.1773703
56	0xbfeb7472	-1.8394911
57	0xbf66be2f	-0.9013395
58	0xbde922ca	-0.113835886
59	0xbfb74554	-1.4318032
60	0xc00136e6	-2.0189757
61	0xbec704bf	-0.38870808
62	0xbfdc5849	-1.7214442
63	0xbef39ef0	-0.47582197
64	0xbcb12570	-0.021624297
65	0xbf3ea6ef	-0.7447347
66	0xbe025e66	-0.12731323
67	0xbf253b10	-0.6454325
68	0xbf9002e6	-1.1250885
69	0xbf4f4761	-0.8096829
70	0xbfc65632	-1.5495055
71	0xbf2b435c	-0.6689966
72	0xbfe6e512	-1.8038657
73	0xbefb81ef	-0.4912257
74	0xbd87333d	-0.0660157
75	0xbea147eb	-0.31500182
76	0xbf89845c	-1.0743518
77	0xbf0ac64c	-0.54208827
78	0xbfb24640	-1.3927689
79	0xbff260a8	-1.8935747
80	0xbe4515f0	-0.1924665
81	0xbe3a845e	-0.18214557
82	0xbfaccdfc	-1.3500361
83	0xc00ea31f	-2.2287061
84	0xbd8ac1aa	-0.0677522
85	0xbf026751	-0.509389
86	0xbfefbe4f	-1.8729953
87	0xbf71d7d7	-0.9446997
88	0xbf04b2c7	-0.5183529
89	0x3d4245e7	0.047429945
90	0xbc0e8951	-0.008699731
91	0x3c7d0beb	0.015444736
92	0xbd977f23	-0.07397296
93	0xbf2a3b86	-0.66497076
94	0xbfbf4a0a	-1.494447
95	0xbfd9d8e9	-1.7019321
96	0xbe814a26	-0.25251883
97	0xbf90ad50	-1.1302891
98	0xc018c7a8	-2.387186
99	0xbf12d73e	-0.57359684
100	0xbf3b2143	-0.7309763
101	0xbedb8bd5	-0.4288012
102	0xbff780be	-1.9336164
103	0xbe14d69c	-0.14534992
104	0xbe2f767c	-0.17135042
105	0xbf2bd8fc	-0.67127967
106	0xbd162e2d	-0.03666513
107	0xbf2156be	-0.63022983
108	0xbff65087	-1.9243325
109	0xbfc4ed50	-1.5384922
110	0xbf00e453	-0.50348395
111	0xbd9739e7	-0.07384091
112	0x3cc08771	0.023502083
113	0xbfcb181b	-1.5866731
114	0xbfdba9e3	-1.716122
115	0xbf876015	-1.0576197
116	0x3cb7522e	0.022378054
117	0xbf3369c2	-0.7008325
118	0xbf149988	-0.5804677
119	0xc00b44f0	-2.1760826
120	0xbfeb78fa	-1.8396294
121	0xbf675b8f	-0.9037408
122	0xbe36aa77	-0.17838465
123	0xbfb0b098	-1.3803892
124	0xc0035746	-2.0522017
125	0xbebf90c5	-0.37415138
126	0xbfe43a9c	-1.7830386
127	0xbec54d79	-0.3853567
128	0xbd7a1130	-0.061051548
129	0xbf467ad4	-0.7753117
130	0xbe43b403	-0.19111638
131	0xbf2b3e19	-0.6689163
132	0xbfa04005	-1.2519537
133	0xbf43ecce	-0.7653321
134	0xbfd049f3	-1.6272568
135	0xbf1e7d9b	-0.6191041
136	0xbfe250cf	-1.7680911
137	0xbef2a6a9	-0.47392777
138	0x3d69cc96	0.057079874
139	0xbe6c6e10	-0.2308886
140	0xbf7805a0	-0.96883583
141	0xbef07ffe	-0.4697265
142	0xbfbeceb5	-1.4906832
143	0xbff52791	-1.91527
144	0xbeb07879	-0.34466913
145	0xbd90847c	-0.070565194
146	0xbfa1ac42	-1.2630694
147	0xc0084337	-2.1291025
148	0x3cb6e26e	0.022324767
149	0xbeccf785	-0.40032592
150	0xbff34c28	-1.9007616
151	0xbf7ab8dd	-0.9793833
152	0xbf120fb4	-0.5705521
153	0x3dc12e00	0.09432602
154	0x3c8154a3	0.015787428
155	0xbdb06bc8	-0.08614308
156	0xbe2eb88c	-0.17062587
157	0xbf534d80	-0.8254013
158	0xbfc8a2d6	-1.5674694
159	0xbfd3ea3d	-1.6555859
160	0xbe7749e5	-0.24149282
161	0xbf9c0c61	-1.2191278
162	0xc016ac9d	-2.3542855
163	0xbee3a397	-0.44460747
164	0xbf2aa68a	-0.6666037
165	0xbeca1e4b	-0.39476237
166	0xbffef67f	-1.9918975
167	0xbdfbdea1	-0.122983225
168	0xbe446953	-0.19180803
169	0xbf4099ba	-0.7523457
170	0xbd8c86e6	-0.06861667
171	0xbf40c540	-0.7530098
172	0xbff280c1	-1.8945543
173	0xbfc8bf67	-1.5683411
174	0xbe850a92	-0.25984627
175	0x3db53cb1	0.088494666
176	0xbd84a815	-0.064773716
177	0xbfbb1373	-1.461531
178	0xbff2bb11	-1.8963338
179	0xbf8cad63	-1.0990413
180	0x3de3855b	0.1110942
181	0xbf3d7432	-0.74005425
182	0xbf00ed71	-0.50362307
183	0xc009ea8b	-2.1549404
184	0xbfe474ff	-1.7848204
185	0xbf601089	-0.8752523
186	0xbe65b934	-0.2243393
187	0xbfb5e59c	-1.4210696
188	0xc0050c2b	-2.0788677
189	0xbf018a08	-0.50601244
190	0xbfe24b3d	-1.7679211
191	0xbf0546c5	-0.5206111
192	0xbd94d53b	-0.07267233
193	0xbf1e646f	-0.61872
194	0xbea6e9b8	-0.32600188
195	0xbf2acd03	-0.66719073
196	0xbf913a31	-1.1345884
197	0xbf53e33e	-0.8276862
198	0xbfc22ebe	-1.5170515
199	0xbf25aca8	-0.6471658
200	0xbfdee17a	-1.741256
201	0xbef1f317	-0.47255775
202	0xbc15d2e3	-0.009144518
203	0xbe0a247f	-0.13490485
204	0xbf7b1658	-0.9808097
205	0xbef5584a	-0.47918922
206	0xbfb40851	-1.4065038
207	0xc007c100	-2.1211548
208	0xbe593c25	-0.2121435
209	0xbe055cf6	-0.13023743
210	0xbfafe899	-1.3742858
211	0xc00b59ff	-2.177368
212	0xbdb740b7	-0.0894789
213	0xbeefc9a7	-0.46833536
214	0xbff1a1c9	-1.8877498
215	0xbf5bf690	-0.859231
216	0xbee40783	-0.4453698
217	0xbd2087cd	-0.03919201
218	0x3d0d921f	0.03456318
219	0x3b6055d9	0.0034230857
220	0xbe2edca1	-0.17076351
221	0xbf426c32	-0.7594634
222	0xbfb098f1	-1.3796674
223	0xbfe7dfa4	-1.8115125
224	0xbe8d9cdf	-0.27658746
225	0xbf85d1cd	-1.0454651
226	0xc0190ad1	-2.3912852
227	0xbf0a9f29	-0.5414911
228	0xbf314b0f	-0.69255155
229	0xbe5f6ec0	-0.21819592
230	0xc0035c2c	-2.0525007
231	0xbe12282b	-0.14273135
232	0xbeaed371	-0.34145692
233	0xbf55618f	-0.8335199
234	0x3dc10241	0.09424258
235	0xbf25c1da	-0.6474892
236	0xbffc37d7	-1.9704541
237	0xbfba75ee	-1.4567239
238	0xbefa538b	-0.48891863
239	0x3dd8a807	0.10578924
240	0xbd866428	-0.06562072
241	0xbfca5fa3	-1.5810436
242	0xbfe1a10f	-1.7627276
243	0xbf935005	-1.1508795
244	0xb9eb8f00	-0.00044929236
245	0xbf627f4d	-0.88475496
246	0xbee2e9f1	-0.44319108
247	0xc0098277	-2.148588
248	0xbff163a8	-1.8858538
249	0xbf676b8b	-0.9039847
250	0xbe7db943	-0.24777703
251	0xbfa909d8	-1.3206129
252	0xc006157a	-2.0950608
253	0xbf0ae815	-0.5426038
254	0xbfdc1d07	-1.7196358
255	0xbec83730	-0.39104605

predictionFunction.value_head.2.bias f4 [41]
0	0xc0141e5b	-2.3143528
1	0xc0159c57	-2.3376672
2	0xc00ec1f0	-2.230587
3	0xc012369c	-2.284583
4	0xc014b834	-2.3237429
5	0xc015ffe0	-2.3437424
6	0xc00f07ae	-2.2348437
7	0xc00e05d1	-2.219105
8	0xc0152ace	-2.3307376
9	0xc00c369f	-2.1908338
10	0xc00dc832	-2.215344
11	0xc00fe307	-2.2482316
12	0xc010d8b5	-2.2632267
13	0xc0193c77	-2.3943155
14	0xc0179be3	-2.3688896
15	0xc0162a7a	-2.3463426
16	0xc00bbefa	-2.1835313
17	0xc0135a1f	-2.3023756
18	0xc019d356	-2.403524
19	0xc0198f9c	-2.3993902
20	0xbf656057	-0.8960013
21	0xbf2ed2a8	-0.68290186
22	0xbedae836	-0.42755288
23	0xbf7a5936	-0.97792375
24	0xbe030b2d	-0.12797232
25	0xbe32188f	-0.17392181
26	0xbe9b506a	-0.3033479
27	0xbeedbad7	-0.4643161
28	0xbe9d2deb	-0.30699095
29	0xbe8dc7fa	-0.27691633
30	0xbcdbfc53	-0.026853716
31	0x3ca9404d	0.020660544
32	0xbebd7422	-0.37002665
33	0xc0123fc4	-2.285142
34	0xc0192098	-2.3926144
35	0xc014cbd2	-2.3249402
36	0xc01539a3	-2.3316429
37	0xc01773e3	-2.3664482
38	0xc0138dee	-2.3055377
39	0xc017f2ed	-2.374202
40	0xc015770f	-2.3353918

dynamicsFunction.startBlock.0.weight f4 [64, 34]
0	0x3e544a59	0.20731486
1	0x3ea91c0e	0.33029217
2	0xbd7e3f50	-0.0620721
3	0x3ddc37de	0.10752843
4	0x3e16acc7	0.14714347
5	0x3e4d6aef	0.20060323
6	0x3ca50f14	0.020148791
7	0xbd83d381	-0.064368255
8	0xbd82e0e8	-0.06390554
9	0xbe40ead2	-0.18839577
10	0x3e9ae1cd	0.30250397
11	0x3da2ea83	0.07954886
12	0x3d18381f	0.037162896
13	0x3e1c6f31	0.15276791
14	0xbcf69c3a	-0.030103792
15	0x3eb14f24	0.34630692
16	0x3e2bd068	0.1677872
17	0x3dceaf2e	0.100920066
18	0xbb6c22a0	-0.003603138
19	0x3e891716	0.26775426
20	0x3e576d4c	0.21037787
21	0x3e7449ba	0.2385625
22	0xbe162171	-0.14661194
23	0x3dc94802	0.098281875
24	0x3e7a6ac8	0.24454796
25	0x3de10cb4	0.10988751
26	0x3e836b1c	0.25667655
27	0x3d20a982	0.039224155
28	0x3e5b37a7	0.21407948
29	0xbcb2eb39	-0.021840679
30	0xbe1cbc42	-0.1530619
31	0x3e5f5eb6	0.21813473
32	0x3ea9bfcc	0.33154142
33	0xbeca22d6	-0.39479703
34	0xbebaa4a8	-0.36453748
35	0x3e1094c5	0.14119251
36	0xbe2d5b5d	-0.16929384
37	0xbd3cc2aa	-0.046084084
38	0xbdd06370	-0.10175216
39	0x3ec7cc29	0.3902295
40	0xbe89ab07	-0.26888296
41	0xbddfa1a5	-0.10919503
42	0xbd9100f5	-0.07080261
43	0x3ec0ea75	0.37678877
44	0xbe589c3e	-0.21153352
45	0x3d8fb72a	0.07017358
46	0x3e85a4d9	0.2610233
47	0x3eaf8e96	0.34288472
48	0x3e699899	0.22812118
49	0x3dcbc2c0	0.09949255
50	0xbd781ab4	-0.06057234
51	0x3df8b72f	0.121443145
52	0xbe6b9ae7	-0.2300831
53	0xbd7c2a61	-0.061563853
54	0xbd79568e	-0.06087356
55	0x3d302165	0.043000598
56	0x3d86b61b	0.065777026
57	0x3e058d4c	0.13042182
58	0x3e6f1dd0	0.23351216
59	0x3e09fa7d	0.1347446
60	0x3d5c6f15	0.053816874
61	0x3ec2aaf6	0.38021058
62	0xbdeaaa90	-0.114583135
63	0xbab01425	-0.0013433738
64	0xbdd2d65a	-0.102947906
65	0x3d8d3d59	0.06896467
66	0x3ea764fb	0.3269423
67	0xbef56787	-0.47930548
68	0x3e180190	0.14844346
69	0xbe8e6599	-0.27811888
70	0x3f0741a5	0.5283454
71	0xbe91df24	-0.28490555
72	0x3d68d3c1	0.05684257
73	0xbe07828f	-0.13233398
74	0x3d84ddbe	0.064876065
75	0xbd09e4ac	-0.033665344
76	0x3dbd9850	0.09257567
77	0xbe8334a8	-0.2562611
78	0x3de80bdb	0.11330386
79	0x3e1923cc	0.14955062
80	0xbe95cbc7	-0.29257032
81	0xbe80ef65	-0.25182644
82	0xbc9efe95	-0.019408504
83	0xbe7a611d	-0.24451108
84	0xbe436574	-0.1908167
85	0xbc680a6f	-0.014162644
86	0xbe2beeb7	-0.16790281
87	0x3dfbdbff	0.1229782
88	0x3e215ad9	0.15757312
89	0xbe8239ff	-0.25434873
90	0xbe986598	-0.2976501
91	0xbe2da590	-0.16957688
92	0xbea60002	-0.3242188
93	0xbe639cb8	-0.22227752
94	0xbe8aea86	-0.27132052
95	0xbf0b6752	-0.5445453
96	0x3ddeab32	0.10872497
97	0xbed66096	-0.41870564
98	0x3f1f2d77	0.6217875
99	0x3dfb943c	0.12284133
100	0xbe958758	-0.29204822
101	0x3e912ee1	0.28356078
102	0x3ca1b94c	0.019741677
103	0xbe8d4405	-0.27590957
104	0x3d37a3e6	0.04483404
105	0x3ef21472	0.47281224
106	0x3f4d404b	0.8017623
107	0xbe123392	-0.14277485
108	0x3e000ef5	0.12505706
109	0xbe098cda	-0.13432637
110	0x3eee0521	0.46488288
111	0x3dd611ab	0.10452589
112	0xbc5583d1	-0.013031916
113	0x3ecaba7f	0.3959541
114	0xbe67e635	-0.22646411
115	0xbd5f2a2e	-0.054483585
116	0xbd50a557	-0.05093893
117	0xbf2116cf	-0.6292543
118	0xbd30406c	-0.043030187
119	0xbe901b39	-0.2814577
120	0x3e566e9d	0.20940633
121	0xbf407b97	-0.75188583
122	0xbe3ef3e2	-0.18647721
123	0xbec356db	-0.38152203
124	0x3dea1a33	0.11430778
125	0xbd4d118a	-0.050065555
126	0x3d08f9ce	0.033441357
127	0x3c1d6764	0.00960717
128	0xbeb89ad5	-0.36055627
129	0x3e1e666a	0.15468755
130	0xbebdd525	-0.3707668
131	0x3e84bbd6	0.25924557
132	0xbd7e5e2c	-0.062101528
133	0xbea9d682	-0.3317147
134	0xbd1578d8	-0.0364922
135	0xbd980690	-0.07423127
136	0xbdc907cc	-0.0981594
137	0xbd1c7d62	-0.038205512
138	0xbea6f2ea	-0.32607204
139	0x3f1d818a	0.61525786
140	0x3ef4bda3	0.4780093
141	0xbdd748bd	-0.105119206
142	0x3d9392f7	0.07205766
143	0xbf1cfcde	-0.61323345
144	0xbe06b5df	-0.13155316
145	0x3c3fd9ba	0.011709625
146	0xbb9d8dd1	-0.0048081656
147	0xbc49ea6f	-0.01232396
148	0x3d06d159	0.032914493
149	0xbbcaf555	-0.0061937966
150	0xbf06f0a6	-0.5271095
151	0x3e1b2bb9	0.15153398
152	0xbd119b34	-0.035548404
153	0xbd55f4f4	-0.05223556
154	0xbe6c0db9	-0.2305211
155	0xbe7cfd51	-0.24706008
156	0xbe7e3517	-0.2482494
157	0x3a0751b1	0.0005162014
158	0x3c895a87	0.0167668
159	0xbd39c7f7	-0.045356717
160	0x3f035f79	0.51317555
161	0x3e589323	0.21149878
162	0x3e3125f7	0.17299639
163	0x3ecb7c8c	0.3974346
164	0x3d7d147a	0.061787106
165	0xbd852a5b	-0.06502219
166	0x3e4b8d8f	0.19878219
167	0xbe578e8b	-0.2105047
168	0xbe438152	-0.190923
169	0xbe0143b2	-0.1262348
170	0xbd846a4d	-0.06465588
171	0xbe80aaf7	-0.25130436
172	0x3e329d2a	0.17442766
173	0x3b0dc61d	0.0021632977
174	0xbd52fcec	-0.051510736
175	0xbdb55d41	-0.088556774
176	0xbd21d103	-0.03950597
177	0xbe05d390	-0.13068986
178	0x3d38fee1	0.045164946
179	0x3db14269	0.08655245
180	0x3d2cc3bc	0.042178854
181	0x3e58e9a9	0.21182884
182	0x3e6249a6	0.22098407
183	0x3cad1063	0.021125978
184	0x3e06528d	0.13117428
185	0xbe3c8905	-0.18411644
186	0xbe555ea3	-0.20836882
187	0x3e92cb32	0.2867065
188	0xbde052a6	-0.10953264
189	0xbf0f5ef7	-0.5600428
190	0xbde86a8f	-0.113484494
191	0xbe73e121	-0.23816349
192	0x3d80f678	0.0629701
193	0xbe2d1a6f	-0.16904615
194	0xbe1cf784	-0.15328795
195	0xbe485c8c	-0.19566554
196	0xbc4857f4	-0.012228001
197	0x3e9245eb	0.28568968
198	0x3caba040	0.020950437
199	0x3e4e25b2	0.20131567
200	0x3e87ce15	0.26524416
201	0x3d24a8e7	0.04020014
202	0xbd912b49	-0.07088334
203	0x3bef6903	0.0073062195
204	0x3ea4a611	0.3215795
205	0x3c5f1dc7	0.013617939
206	0x3d2241e3	0.039613616
207	0xbd15f04f	-0.03660613
208	0x3e791615	0.2432483
209	0xbe665753	-0.22494249
210	0xbe2da7a7	-0.16958486
211	0xbe8dc478	-0.27688956
212	0x3e200573	0.15627079
213	0x3daa97c5	0.08329729
214	0xbc4c9718	-0.012487195
215	0x3e10ee82	0.14153484
216	0xbeb00781	-0.34380725
217	0xbeaa818f	-0.3330197
218	0xbe090682	-0.13381389
219	0xbe005973	-0.12534122
220	0x3dedc761	0.11610294
221	0xbdd6b38b	-0.10483464
222	0xbe35e38c	-0.17762583
223	0xbc05e0d1	-0.008171276
224	0x3dc3badc	0.09557125
225	0x3e2d03fb	0.1689605
226	0xbe95cac7	-0.2925627
227	0x3d6c6a74	0.05771871
228	0x3dc4c429	0.09607727
229	0xbe7cd742	-0.2469149
230	0xbde64657	-0.11243885
231	0xbe382c7b	-0.17985718
232	0x3e4dcef0	0.20098472
233	0xbd72596d	-0.059167314
234	0x3c468f58	0.012119137
235	0xbe509c1b	-0.2037205
236	0xbf1dd7de	-0.6165751
237	0x3f1d9fee	0.6157216
238	0x3d8a5daa	0.06756146
239	0xbd9dc3b6	-0.077033445
240	0x3e59418b	0.21216409
241	0x3d0b39fd	0.03399085
242	0xbda2d5eb	-0.07950958
243	0x3d5ae8cb	0.053444665
244	0xbdf71cf5	-0.1206607
245	0xbe1b3293	-0.15156011
246	0x3d9e2bd5	0.07723204
247	0xbe042966	-0.12906417
248	0xbd53b985	-0.051690597
249	0xbcd39c56	-0.025831383
250	0x3d38a96f	0.04508346
251	0xbddd5f31	-0.10809172
252	0xbde5d2c6	-0.112218425
253	0x3de0e7d6	0.10981719
254	0x3e04d712	0.12972668
255	0x3e0fb500	0.1403389

dynamicsFunction.startBlock.0.bias f4 [64]
0	0x3d9d34a7	0.07676058
1	0x3da14f6f	0.07876479
2	0x3db9a973	0.09065523
3	0xbe5a69f5	-0.21329482
4	0xbe4531e8	-0.19257319
5	0xbe121721	-0.14266635
6	0x3e578bf4	0.21049482
7	0xbc525c05	-0.012839322
8	0x3e422622	0.18959859
9	0xba956756	-0.0011398594
10	0xbdd28c18	-0.10280627
11	0x3e10bf8f	0.14135574
12	0x3c83c8d6	0.016086977
13	0x3e38a71b	0.18032496
14	0x3d4deee5	0.050276656
15	0xbe4e4666	-0.20144042
16	0xbe79385b	-0.24337904
17	0x3e910dfc	0.28330982
18	0xbdc83691	-0.09776033
19	0xbe7d3025	-0.24725397
20	0xbe143373	-0.14472751
21	0x3d6285e0	0.055303454
22	0xbe2cb79f	-0.16866921
23	0xbdc18540	-0.094492435
24	0xbd0c0582	-0.03418494
25	0x3de6601a	0.11248799
26	0x3e96073c	0.29302394
27	0xbe0ead0f	-0.13933204
28	0xbe626c82	-0.22111705
29	0x3e12566d	0.14290781
30	0xbcc8ecba	-0.024526943
31	0xbde47707	-0.11155515
32	0x3df1c093	0.11804309
33	0x3cdf513c	0.027260415
34	0x3e0383a3	0.12843184
35	0x3dad8b3c	0.084738225
36	0x3cd4c5d9	0.025973247
37	0xbd9b16e4	-0.075727254
38	0x3a8b1b10	0.0010612924
39	0xbe8634e8	-0.2621224
40	0x3ceadad3	0.028668797
41	0x3d314c6a	0.043285765
42	0xbe339b19	-0.17539634
43	0x3e749594	0.23885185
44	0xbdc0155f	-0.09379076
45	0x3db0fe6b	0.086422764
46	0xbd819886	-0.0632792
47	0xbde5c160	-0.11218524
48	0x3e116a15	0.14200623
49	0x3e35d072	0.17755297
50	0xbbdacb2d	-0.0066770525
51	0xbe4907c5	-0.1963187
52	0x3bc480e1	0.005996809
53	0xbc7bd5d0	-0.015370801
54	0xbd5ffde6	-0.054685496
55	0xbdd17b0d	-0.10228548
56	0x3ade01f7	0.0016937841
57	0x3e07cca7	0.13261662
58	0xbd221099	-0.03956661
59	0x3e2472ac	0.16059369
60	0x3e3d4160	0.1848197
61	0x3cc66f21	0.024222912
62	0x3e0536ff	0.1300926
63	0x3dd15f29	0.102232285
