AlphaGo/foersterrobert_MuZero/Environments/CartPole/Models/model_13.pt (torch, 84274 bytes, 20 tensors)

predictionFunction.startBlock.0.weight f4 [64, 32]
00000000: 9cc3 d9bd 7bf7 183f da84 a7be fd24 9abe
00000010: 3da8 aabe b31d bbbd 5cb9 81bd bb52 863e
00000020: 10fd f53d b65c 46be 52f1 87be 2556 8cbe
00000030: d397 debe b8d3 ba3e 5215 6f3d 0c4b 7abe
00000040: 6cc0 02be 65c1 723e ec64 07bf 2680 a13e
00000050: 74e3 f83e cced 403f 5cc9 523d c9d9 383d
00000060: 60f5 11bd 4a08 d73d 77ec d33c 38ad 033d
00000070: f7d2 f93d 801f 163e 6049 87be c7fd d13c
00000080: aa93 6abd b54c 5ebe 3f28 64be c1b8 debd
00000090: ec68 81be a02b 18bd 983c 2bbe 7e6e 5b3e
000000a0: 0466 f83c 3376 86be b96a 24be 1d84 91bc
000000b0: 1265 693d bf86 c63c 0c8d 8eb8 36f8 b63d
000000c0: dce3 b6be 18eb 21be 1467 c03d 8aea 0f3e
000000d0: a476 933e c913 883d 1593 343e fd10 12bf
000000e0: 040e 413d d6d9 97bd 903c 013b 3aff 333d
000000f0: b2d4 c6bc 9137 b43e c799 26bf f025 9cbe
00000100: 789d a7be c64d 033e a5a3 d9bf 14f2 903d
00000110: 63c9 4c3d 095c 193f 1174 9abd 09d8 a4be
00000120: 1b11 a7be 9c41 7a3d aa53 e1be 5060 323e
00000130: 69f4 1e3f 2ded 753d f052 733e 6f00 853e
00000140: 09b9 13bf e789 923e 08a1 813d 2bf0 b2bd
00000150: ff4c 9a3e 57a6 d33d 1e43 8f3f 93c2 443e
00000160: 40c9 813e 28a9 ac3e 71cf f43e c8f5 713e
00000170: 11f1 2f3e bffd f83f 109b 8fbf 5724 be3e
00000180: 3abd 983d 2fb9 ca3e f2c8 15bf fecf aebd
00000190: 0708 d5bc d0f6 093f 005c a4bd 9f5e 91be
000001a0: 8ba1 aebe 3bcb 693d f2d3 d6bd b74b adbe
000001b0: a7b8 783e 7db8 5fbd 0afb e03c d2dd d23e
000001c0: 6095 523d 2ff0 6c3e 97be 85be e68f b638
000001d0: 4026 1fbd 70e0 d83e 5c0f 293e be00 bb3e
000001e0: f0a3 8c3e a2b3 fa3c 9296 8b3d 4719 4f3e
000001f0: 6285 403e 0f98 b33d d476 dcbe 7b54 093f
00000200: 14c9 babe 91c0 52bf ef85 54be 9e2e af3e
00000210: fb92 6fbd 7cfb c0bd eb04 4ebe e43c 2dbe
00000220: d838 a338 3e14 d2bd 34a0 673d a200 563f
00000230: fa90 323f a826 073f fa99 22be 089d 83be
00000240: 97bb fcbe e700 2cbf 58ff 2fba 7368 02be
00000250: 0ec9 53bc 5da7 a1bd 7f1d 813d 2c81 f3be
00000260: dd66 f03d f7b5 1b3f 8ab0 9e3a 1b8d a33c
00000270: 1712 a4be 9ed7 d03e 6a37 78bf 7152 363e
00000280: 1078 fbbd 37ce 3bbe 3e3f 81ba 243f 80be
00000290: 6491 133e 255c 0bbf bc52 84bc 00c4 9c3e
000002a0: 608d a4bd d90d 45be 76e8 b9bd 4adc 7c3e
000002b0: 1439 933e 8ff3 ef3c 83cc 06be 0f04 163d
000002c0: c247 98bd 3056 a7bd 56db ff3e a14a e9bc
000002d0: b289 03bd 31f2 65bd 00c3 793e fde2 5cbd
000002e0: 6720 dfbc c007 893d 7270 c5bd cc25 77be
000002f0: 85d5 1cbf c520 2e3e 1175 103e b986 fc3d
00000300: 204c 2cbe 3614 6fbd 03e3 5bbd 0124 3dbe
00000310: ae79 f3bd a0f5 253e a85f f9be 8fb3 aa3e
00000320: 8aad e1bc bf00 c13e c4b9 1fbf bed6 0fbe
00000330: a668 27bd 4ede ae3c 12b7 833e 8ef3 353e
00000340: e5f5 9abc e01a c4bd a03f 883e f56e d03d
00000350: b9a4 063d 014e 8b3d f247 b23d 764e 0ebe
00000360: c68f 72be ba3c c13d e6e8 8cbd a52f e3be
00000370: a51f 3ebe f46d 633e d78e 84bd e456 113d
00000380: 4b8b 36be 3853 f53d 1f75 35bf e137 7b3e
00000390: 9fc5 95bd 2ff7 8fbd 7491 3f3d a097 ff3d
000003a0: f2b6 ef3d 506c 0f3e c308 4d3e 129d f4bd
000003b0: b8a2 833e 8ad9 1cbe 376c 7bbe f644 da3e
000003c0: ad9d 913d a66c 273e e095 efbb 896d c63d
000003d0: e8da 8f3e ac5a 623d 18d6 393f 81ee fdbd
000003e0: 3988 8f3e f24c 243e 1c81 943e 5fa7 c13e
000003f0: 15fd 253e 0393 e93e 2492 03bf c73f 78be
-0.10633013 0.59752625 -0.32718545 -0.30106345 -0.3333148 -0.09136524 -0.063341826 0.26234993
0.120111585 -0.19371304 -0.265513 -0.27409473 -0.43475208 0.36489654 0.058369942 -0.2444269
-0.12768716 0.23706587 -0.5288837 0.31543082 0.48611033 0.7536285 0.051461563 0.04512957
-0.0356344 0.10499628 0.025869591 0.032147616 0.121984415 0.14660454 -0.26423168 0.025633706
-0.05726973 -0.21708949 -0.22280978 -0.10875083 -0.25275362 -0.03715098 -0.16722333 0.21428868
0.030322082 -0.26262054 -0.16056336 -0.017763192 0.056981154 0.024234174 -6.79736e-05 0.08934061
-0.35720718 -0.15812337 0.093946606 0.14054313 0.28801453 0.06644399 0.17634232 -0.5705717
0.047132507 -0.07414596 0.0019719936 0.043944575 -0.024271343 0.35198644 -0.65078396 -0.30497694
-0.32737327 0.12822637 -1.7003065 0.07077423 0.049996745 0.5990606 -0.07541669 -0.32196072
-0.32630238 0.061097726 -0.44009143 0.17419553 0.6209169 0.06004064 0.23762107 0.25976893
-0.57704216 0.28620836 0.063295424 -0.08737215 0.30136868 0.10334461 1.1192358 0.19214849
0.25348854 0.33722806 0.47814515 0.23628914 0.17181803 1.9452437 -1.1219196 0.371371
0.07457967 0.3959441 -0.58509743 -0.08535765 -0.026004804 0.5389223 -0.0802536 -0.28392503
-0.34107623 0.05707858 -0.10489644 -0.33846828 0.2428919 -0.0546193 0.027463455 0.4118486
0.051411986 0.23138498 -0.2612197 8.7052395e-05 -0.038854837 0.42358732 0.16509765 0.36524004
0.27468824 0.030603234 0.068158284 0.20224486 0.18800882 0.08769237 -0.4305941 0.5364453
-0.36481535 -0.82325083 -0.20754217 0.34215254 -0.05848978 -0.09422967 -0.20119064 -0.16917759
7.783034e-05 -0.10257767 0.056549266 0.83594716 0.69752467 0.5279336 -0.1587905 -0.25705743
-0.4936187 -0.67188877 -0.00067137694 -0.12735157 -0.012926353 -0.0789325 0.06304454 -0.47559488
0.117383696 0.6082453 0.0012107056 0.019964745 -0.3204505 0.40789503 -0.96959555 0.17804886
-0.122787595 -0.18340383 -0.0009860767 -0.25048172 0.14410931 -0.54437476 -0.016152732 0.30618286
-0.08034778 -0.19243564 -0.090775415 0.24693409 0.28754485 0.029290942 -0.13163953 0.036624964
-0.07435562 -0.08170736 0.49972028 -0.028477969 -0.03211374 -0.056139175 0.24390793 -0.05392741
-0.02723713 0.06690931 -0.09640588 -0.24135512 -0.61263305 0.17004688 0.14107157 0.12330384
-0.16825914 -0.058368884 -0.053683292 -0.18470766 -0.11888443 0.1620698 -0.48705792 0.33340117
-0.02754857 0.37695882 -0.6239283 -0.14046761 -0.040871285 0.021346238 0.2572561 0.1776869
-0.01891608 -0.095754385 0.26611042 0.101774134 0.032871936 0.068019874 0.08705129 -0.13897118
-0.23687658 0.09435411 -0.06880359 -0.44372287 -0.18566759 0.22209913 -0.06472557 0.035483256
-0.17826574 0.11978763 -0.7088184 0.24533035 -0.07313084 -0.070295684 0.046769574 0.12480092
0.11704816 0.14006162 0.20022874 -0.11944021 0.25710082 -0.1531736 -0.24553 0.42630738
0.071101524 0.1635004 -0.0073115677 0.09688861 0.280967 0.055262253 0.72592306 -0.12399007
0.28033617 0.16044977 0.29004753 0.37823007 0.16209824 0.45619974 -0.5139487 -0.24243079

predictionFunction.startBlock.0.bias f4 [64]
00000000: cabf 91bc 3cdd 7bbe 90c8 8fbe ed22 413d
00000010: 00d7 5ebe 8ee1 ab3a 91b5 dc3d 7aa6 a5bd
00000020: 2760 163e f056 8f3d cc78 7bbe 4af6 fbbd
00000030: ee51 52be aad1 3abd 0aa8 acbd 5124 3cbe
00000040: fcbd 07be e450 a63d 0d88 72be 11b5 8cbd
00000050: 529f 75be 02cd e9bd 4480 51bc 11aa 2bbe
00000060: 0cc3 78bd 1cd3 d4bd 4d05 ec3c 632f e8bd
00000070: bf17 b0bd 4e41 37be 66ea d2bd 9df9 49be
00000080: 4f23 d13d c9f4 86be f95d 0cbe 6a37 64bc
00000090: feaa a1bd 0811 84be 65fa 07be 895f 71be
000000a0: 98f7 ccbd 898f 65be 47bc a1be ae23 04be
000000b0: a07f 503a 601a 87be cc48 523c f8e9 4ebe
000000c0: 604a 17be cea8 063e df29 01be 7f67 01bd
000000d0: 4936 09be c3e9 29be e262 92be bc20 033e
000000e0: e2e7 f2bc 530b 073e babe 09be 9677 da3c
000000f0: 873d b93d ec08 483e 40be 3dbe 3ff1 bc3d
-0.017791647 -0.24596113 -0.28082705 0.04715245 -0.21761703 0.0013113485 0.107768185 -0.080883935
0.14685117 0.06999004 -0.24557799 -0.12302835 -0.20539066 -0.045610107 -0.084304884 -0.18373229
-0.13256067 0.081208974 -0.23684712 -0.06870473 -0.23986557 -0.11416055 -0.012786929 -0.16764094
-0.060732886 -0.103918284 0.028811121 -0.11337163 -0.08598279 -0.17896006 -0.10298614 -0.19724126
0.10211813 -0.2635863 -0.13707723 -0.013929227 -0.07893942 -0.25794244 -0.13279112 -0.235716
-0.10008162 -0.22418036 -0.31588957 -0.12904236 0.0007953588 -0.2638731 0.012834739 -0.2020644
-0.14774466 0.13150331 -0.12613629 -0.031592842 -0.13399614 -0.1659308 -0.28591067 0.12805456
-0.029651586 0.13187914 -0.13451663 0.026668351 0.090449385 0.19534653 -0.18529606 0.092257015

predictionFunction.startBlock.2.weight f4 [64, 64]
00000000: 53b1 e3bd 2028 5bbe a091 9f3e 4df8 89be
00000010: 061b 3abe 7b03 13bf 8fc6 963e 60dd 803e
00000020: 5f35 1fbf ed63 4a3d d06b 1cbe f7b1 e0bc
00000030: 31a2 5c3e 60e6 063f d256 e83d 4057 073e
00000040: 8da9 d03d b570 f7bd 4581 13bf 0a65 8fbe
00000050: 578e bdbd eff5 6c3d 14e0 c83e aa8e 553e
00000060: 4b73 0abf 9032 37be 547a 653f c24e 20be
00000070: 4687 20be 3a1c ba3d 1a48 7fbe 4e3d 0c3d
00000080: ad61 e7be a55b b13e 757f c53d eb17 a3be
00000090: b0f4 27bd dcfd a83e ee19 76bd 5020 a23d
000000a0: 56f0 2b3c 9d3c 813d 19e2 253e 1f27 dc3d
000000b0: 67fc fcbc f18a 64be f817 a7be e6d2 78bd
000000c0: 908b a7bc bb05 0bbf 0b40 60be 430c d4be
000000d0: e833 da3c 60dc 53be 4f3c e03e 6f7b 92be
000000e0: 4379 b5be 5fa9 c5bd 9c20 a6bd 20e4 b13e
000000f0: 6c96 1e3e 3c74 30be 62e0 a43b 4097 f0be
00000100: 4902 4dbe a2dd 8cbe e4e3 433e bb28 5ebe
00000110: ea5c e93e 8bd3 333c a675 b93e a928 c73e
00000120: 47e2 1cbf 898c 5d3e d5d0 ca3c b852 2cbd
00000130: 9edb 0a3f 2acb cf3e a886 cf3e f6ca d9bc
00000140: 98e7 5b3e ab54 d7bd 8a2f 1ebf 3e1e 9ebc
00000150: 1d52 3abd 4396 bdbd 27cd d23d b7eb 853e
00000160: c094 a6be 752e 42be a30d 093f a677 65be
00000170: 68f7 e8be bf81 d93d 6c52 9f3d 732a 80bd
00000180: 4183 bbbe 61a9 af3e ec15 a43e 9cb6 9bbd
00000190: 51ff c03e a083 dabd 1117 93be c7ac 0e3e
000001a0: 233c a73e a5b7 653e 1798 093d 6793 043e
000001b0: b52a 823e 469c e93d af6f a8be 40a7 9bbd
000001c0: a6ab 62bd 5005 86be 61a8 30be 3e1d 16be
000001d0: f947 863e d4a0 bf3d d914 36be 5224 7cbe
000001e0: 3dbb e5be d168 be3d a3c1 2dbd d9bf 353f
000001f0: b538 c03e f09d 9bbd 24f1 87bc 255a 83be
00000200: af15 f4ba 66b3 a0bd 746c 9b3e e470 803d
00000210: 577b c1be 41f5 14bf 25b7 5d3e d2ee 1ebd
00000220: 76ce 1ebe a39a b1be 1428 4f3d 2dd6 1a3f
00000230: c5a7 ef3d 5d95 d13d 074d 6cbc 92c0 cb3c
00000240: beeb 1c3c 0b8b 483d f4d2 b6bd 8af1 8d3c
00000250: ede5 423d 7811 b2be 8f45 c73d 5087 e93c
00000260: b148 1a3e 04af 8fbe 8453 2d3d 3d3b 6cbd
00000270: 71bc 5bbe abfe 7bbe cc0d b83e 942d 7d3d
00000280: 9d55 b8bd 3626 debd 7c8e 293e d2da 343e
00000290: 9034 5a3e f972 35be a2da b5bd 5290 97bd
000002a0: a8b8 5e3e 8c7b cbbd ead1 bdbd edb3 9bbe
000002b0: ec8c bf3e f5f7 04bf 25f6 fbbe 4fdf 8abe
000002c0: 99cc 51bb 9d92 97be 5c7e c7b8 be25 a4be
000002d0: ce7f 513d 9b3f 39bd 6f8d a43b 42a8 3cbe
000002e0: 3035 a53d 6999 0fbe fbd9 cc3e 3386 22be
000002f0: 7418 373c 37d5 0abe a177 2dbe cc96 863c
00000300: d947 a2be 056a 0f3c 1066 e93d 2399 a03e
00000310: aedc 3f3e 4a1a b73c 0536 09bd 259d 563c
00000320: 27e0 a4be c430 833e af54 c0be 6a21 85bd
00000330: 3a6b 763d dc80 88bd 18ee 083e f3c2 653e
00000340: 63ad 313e 941c c2bb 5b69 4bbe df44 bbbd
00000350: 5fc6 a2bd 5028 c8be 9bce 9bbd f0a0 4f3e
00000360: f93d f3bc 0204 dc3d ec47 f73d f7f7 04be
00000370: e9a7 283e f741 2abd 25d8 01be 74a1 88be
00000380: 1d23 943e 358c a83d 5f6f 993e 6abb 78be
00000390: 53b6 c03d df4a c0bd 62e9 6bbf 9f1a 0b3e
000003a0: 8184 f03e 7276 c7be e28b f1bc a52a a93e
000003b0: ab26 5d3e 00dd 7ebe 1042 81bd 60ed 13bf
000003c0: 7478 db3e 56c3 28c0 7d57 b73c 0efc 0dbe
000003d0: c23c a43e d2c3 7c3e 9fdf 3d3e 8d92 36bd
000003e0: 6f01 c8bd 33f0 8a3e cf8a d5bd f250 67be
000003f0: 57c0 aabe cd68 d1bd d24b 0d3e b051 443c
-0.11117806 -0.21402025 0.3116579 -0.2694725 -0.18174371 -0.57427186 0.29448363 0.25168896
-0.6219081 0.049411703 -0.15275502 -0.02742861 0.21546246 0.52695274 0.11344685 0.13216877
0.10188589 -0.12082044 -0.57619125 -0.28006774 -0.09255665 0.057851728 0.39233458 0.20855203
-0.54082173 -0.17890382 0.8963978 -0.15655044 -0.15676603 0.09087415 -0.24929848 0.034238152
-0.45191708 0.34640232 0.09643451 -0.31854185 -0.041004837 0.3300618 -0.060083322 0.07916319
0.010494312 0.06310389 0.1619953 0.10749649 -0.030882074 -0.22318627 -0.32635474 -0.060748003
-0.02045229 -0.5430562 -0.2189943 -0.41415605 0.026636079 -0.20689535 0.43796012 -0.28609797
-0.35444078 -0.096514456 -0.081116885 0.34744358 0.15487069 -0.1723184 0.0050316313 -0.46990395
-0.20020403 -0.27512842 0.19129902 -0.21695225 0.455787 0.010975729 0.3622257 0.3889821
-0.6128277 0.21635641 0.024757782 -0.042071074 0.5424136 0.4058469 0.40532422 -0.026586037
0.21475065 -0.10514196 -0.6179129 -0.01930153 -0.045488466 -0.09257176 0.10293036 0.261564
-0.32535362 -0.18963034 0.53536433 -0.22408924 -0.45501256 0.1062045 0.077793926 -0.062580965
-0.36623576 0.34308913 0.32047975 -0.07603189 0.3769479 -0.10669637 -0.28728536 0.13933097
0.32663068 0.22433336 0.03359231 0.12946855 0.25423208 0.1140676 -0.32897708 -0.0760026
-0.055339478 -0.26175928 -0.17251731 -0.14659593 0.26226786 0.093568474 -0.1778139 -0.2462323
-0.44869414 0.09297336 -0.042420994 0.7099586 0.37543264 -0.075984836 -0.016594477 -0.25654712
-0.0018622185 -0.078467175 0.3035618 0.06271532 -0.37789413 -0.5818673 0.21651895 -0.038801976
-0.15508446 -0.3468829 0.05057533 0.60483056 0.117019214 0.10233567 -0.014422662 0.024872098
0.00957769 0.048960727 -0.08926955 0.017327089 0.047582556 -0.34778953 0.09730064 0.028506905
0.15066792 -0.28063214 0.042315975 -0.05767368 -0.21458603 -0.24608867 0.35948026 0.061811045
-0.090007044 -0.10847132 0.1655826 0.17661598 0.21309114 -0.1771964 -0.088795915 -0.07400574
0.21750128 -0.09935674 -0.092685536 -0.3041071 0.37412202 -0.5194085 -0.4921123 -0.27123496
-0.003201282 -0.29604045 -9.512596e-05 -0.32060045 0.051147275 -0.045226675 0.005021743 -0.1842356
0.08066785 -0.14023365 0.40010056 -0.15871505 0.011175264 -0.13557898 -0.16940166 0.016429327
-0.3169544 0.008753304 0.1139642 0.31366834 0.18736526 0.022351403 -0.033498783 0.01309899
-0.32202265 0.25623143 -0.37564608 -0.06500514 0.060160853 -0.06665203 0.13372076 0.22437648
0.17351298 -0.005923817 -0.19864409 -0.091439955 -0.079479925 -0.39093256 -0.07607766 0.20276237
-0.029692637 0.10742952 0.12074265 -0.12985216 0.16470303 -0.041566815 -0.12680109 -0.2668568
0.2893304 0.08229867 0.29967782 -0.24290243 0.094097756 -0.093892805 -0.9215299 0.13584374
0.46976092 -0.38957554 -0.029485647 0.33040348 0.21596782 -0.24888992 -0.063114285 -0.5778408
0.42865336 -2.6369224 0.022380585 -0.13865682 0.32077605 0.24684075 0.18542336 -0.044573355
-0.097658984 0.27136382 -0.10426866 -0.22589472 -0.3334987 -0.10225067 0.13798454 0.011982366

predictionFunction.startBlock.2.bias f4 [64]
00000000: dc56 14be 3f74 5abe 3815 d0bd ed8e 643d
00000010: 8e11 9abe 5a5b 96be 7c73 43bd 4ea4 babe
00000020: c6cb 30be 094c aebc bec1 38be c6d3 42bd
00000030: 48bc e13d 10ae 323e 286b 923e c7e4 ccbc
00000040: b88d 8bbd 4958 1dbe 3620 efbe 01d2 c23b
00000050: 73df f3bd 7d0f 07be c2eb abbd ea4a 0c3e
00000060: 1f7e 00be 644e 42be 8359 a6bd c015 1dbe
00000070: 9819 f4bd ebc9 623d d9a3 01be 05c8 8bbd
00000080: e208 ecbd 9c1b 9ebd 3934 70bc 9895 e6ba
00000090: ee9d 97bd 897b febd ea89 2cbe d5f1 243c
000000a0: 9294 9bbe 40be 193e f18c 473e 8ef4 39be
000000b0: 50a9 d33d 6661 e9bd 4c43 da3d fbbe f7be
000000c0: de01 07be 3ff9 6abe c18b a9bd f184 22be
000000d0: 974a c53d bbb6 22be 87f8 9dbe f31f d93e
000000e0: 71d6 7c3d 54ad 64be e559 133e bab8 1b3e
000000f0: 5fb5 0f3e 72fb e43c 0fc3 1cbe 9af0 74bd
-0.14486259 -0.21333407 -0.10160297 0.055800367 -0.30091518 -0.2936657 -0.047717556 -0.3645348
-0.17265233 -0.02127649 -0.18042657 -0.047565244 0.1102224 0.17449212 0.2859738 -0.025011433
-0.0681414 -0.1536571 -0.46704262 0.0059454446 -0.11907854 -0.13189502 -0.083945766 0.13700452
-0.12548111 -0.18975216 -0.08122542 -0.15340328 -0.11918944 0.055368345 -0.12660159 -0.0682526
-0.11525132 -0.0772011 -0.014660888 -0.001759219 -0.074031696 -0.12425906 -0.16849485 0.010067423
-0.30386788 0.15013981 0.19487359 -0.18159696 0.10335028 -0.113955304 0.10657367 -0.48387894
-0.13184306 -0.22946642 -0.08278609 -0.15871026 0.096333675 -0.15890019 -0.30853674 0.42407188
0.061727945 -0.22331744 0.14389761 0.15207186 0.14034031 0.02795193 -0.15308784 -0.059799768

predictionFunction.policy_head.0.weight f4 [2, 64]
00000000: 81b1 203d 6a08 c3bd 3c1a f93d a67e 4a3e
00000010: ed18 88be 9624 ca3c ab1d 2d3e 4321 003f
00000020: 544f 9cbe 7345 f33c a6f0 bd3d 9eb5 4a3e
00000030: ed1e 70bd 149f dabd 3ee9 163b 0b36 24bc
00000040: 202e 8c3d 340f 153e c928 d6be 608c c8bd
00000050: 84e7 8a3e 57f9 b83d 01db 433d 00f2 ad3d
00000060: 87e3 bc3d 7480 a7be b0db a33d 468d d6be
00000070: 5054 6a3d fb30 aabe 72f6 713b 6c9f 153e
00000080: 18ac 053e c214 0f3b 659d 61be 8f31 86bd
00000090: 5c04 cbbd f8d1 bc3e fe08 61be 1bb9 233d
000000a0: e5ad 263f 9587 963e 81b6 293e 0d7b 1bbf
000000b0: 97e6 a8bd 7317 27bd a0d7 57be b202 9f3e
000000c0: 9252 e73e e42e bd3e 7429 a7bd c304 9039
000000d0: 6411 d0be 6882 8a3c 93dd a63e ffc2 47bd
000000e0: 8372 893d bbec 47be 2cd6 9d3d 20f3 fcbd
000000f0: e209 ea3d bf4a 82bc 5a4b e23d fb1d a93d
00000100: b3ef 33bc 341d bfbd 204f f2bd 3a36 64be
00000110: df6e 6a3d 78ab ea3d 952f 9b3c 0efe c4be
00000120: f3b7 ae3e f928 fbbc b865 99bc 31d3 3ebe
00000130: a09e 3e3e 210e 113e b8ef dd3c 2acd e23d
00000140: 0d3e bbbc f9d5 a3be 9c27 d13e 002d cdbb
00000150: f205 24be b03e c93c 65d7 52bd 52ae 9fbd
00000160: 83ad a63d d132 a63e 38c8 6b3d 5782 d43e
00000170: 95a3 b63b 886c c53e c166 c23d fe2d 78bd
00000180: e5b2 58be 7398 f2bd 3c61 703e 5a4f 903c
00000190: 6bc4 093d e2ef abbe 0572 a83e 4c3e c63d
000001a0: b1ad 26bf 96d2 57be 7966 a9bd fb9f 073f
000001b0: 4cd8 a3bd ec64 d9bc f76c dd3d ce7a afbe
000001c0: 9a6b 05bf 6fec a9be f30f 713d 5750 423d
000001d0: 55fb 963e fe52 363e 035b 84be d276 bf3c
000001e0: 8a20 ce3c b659 303d 46cf 67be d530 31bd
000001f0: 9699 313c 8414 723e 209d 08be ce17 0e3d
0.03923178 -0.09523089 0.12163207 0.19774875 -0.26581517 0.024675649 0.16905849 0.50050753
-0.30529273 0.029696202 0.09274416 0.19795844 -0.058623243 -0.10674873 0.0023027207 -0.0100226505
0.06844735 0.14556581 -0.41827992 -0.097923994 0.27129757 0.09031933 0.04781628 0.084934235
0.09223085 -0.3271519 0.080008864 -0.41904658 0.057209313 -0.33240494 0.0036920574 0.14611596
0.1305393 0.002183244 -0.22032697 -0.06552421 -0.09912941 0.36878943 -0.21976086 0.039971452
0.6510909 0.29400316 0.16573526 -0.60734636 -0.082471065 -0.040793847 -0.21078348 0.31056744
0.45180184 0.36949837 -0.081622034 0.00027469368 -0.40638268 0.016907886 0.32590923 -0.048769947
0.067112945 -0.195239 0.07706866 -0.1235106 0.11427666 -0.015904782 0.110495284 0.082576714
-0.010982442 -0.09331742 -0.11831498 -0.22286311 0.05723464 0.11458486 0.018943587 -0.38475078
0.34124717 -0.030659186 -0.018725261 -0.1863525 0.18615198 0.14165546 0.027091846 0.11074288
-0.022856737 -0.31999186 0.40850532 -0.006261468 -0.16017893 0.024566025 -0.051474947 -0.07796921
0.081385635 0.32460645 0.05756399 0.4150569 0.0055736997 0.38559365 0.09492255 -0.060590737
-0.21161993 -0.11845484 0.23474592 0.017615963 0.033634584 -0.33581454 0.3289949 0.09679851
-0.6510878 -0.21076426 -0.08271498 0.52978486 -0.0800024 -0.026537381 0.10811799 -0.3427338
-0.5211731 -0.33188197 0.0588531 0.0474399 0.29488626 0.17805097 -0.25850686 0.023372088
0.025162 0.043054305 -0.22637662 -0.04325946 0.01083984 0.23640639 -0.13341188 0.03469067

predictionFunction.policy_head.0.bias f4 [2]
00000000: af75 a1bc 393c b63b
-0.019709436 0.0055613783

predictionFunction.value_head.0.weight f4 [64, 64]
00000000: acb8 99bd 33ba acbc a30e 0abc f5e6 6a3d
00000010: 090f 073d 99e3 5fbd df56 613d 1134 9cbd
00000020: a7f8 69bd c3b8 0fbe 27f2 133d e638 0abd
00000030: 6cd7 d4bd a49e ebbd 6ba8 90bd 5f31 ccbd
00000040: 84a5 50bd fd99 d8bd 6a51 b9bd 8fd8 0a3d
00000050: 732d a2bd 0067 503d d07b 0b3c 88f3 9cbd
00000060: 0b5f ad3c 400a 9c3d 1eb4 73bc 9003 5e3c
00000070: 20cd cf3d 4267 3cbd 2014 e13c 0a19 523d
00000080: 3ebc 12be 7e29 973d c384 cabd a060 d2bb
00000090: 4a7a babd cc15 ce3c ace6 cdbd cbfd 99bd
000000a0: 80ed b03c 979f bebd 3d80 efbc 0b83 983d
000000b0: 7e39 22be 1657 a6bd fe1f f0bd 0b23 ab3d
000000c0: a715 9a3b 12ca d6bd 296a 0fbe 384d 843d
000000d0: abb4 553d 9c88 dcbd f558 cabb c824 7abd
000000e0: ffc1 823c 08c1 f0bd a488 043d 1f4e a43d
000000f0: 3204 b43b 13c1 99bd 2c04 5ebc 04eb 5c3d
00000100: c174 20be f0c8 fbbd 40ff d4bd 9cd3 513c
00000110: 4217 14be 0dca a5bd 8586 64bd d3d1 cbbe
00000120: 3d82 503d afc9 1d3d 53b3 02be e8bd 94bd
00000130: cf1f 02be f9f2 27be 90d7 3fbe 8d3f 63bd
00000140: d8f9 92be 10b8 c9be 528d adbd 8c08 0bbd
00000150: 7e53 0dbb 7cd6 2f3d e859 2ebd e9e2 03be
00000160: ed34 d83e f77f 7a3e c9c4 883d d095 adbc
00000170: 5cf0 e43d 0009 29be 2f55 25be 4823 d0bd
00000180: bace f2be ac5a 94be e3c7 d1bd 7039 f43c
00000190: 4022 5c3d 64be 883b 35ba 65bc 0753 543e
000001a0: 15af 5cbe 3132 75bd b7f5 fcbd ad30 bcbe
000001b0: 518a c1be 5a4c eb3d 93a1 6fbe 75c8 18be
000001c0: 6a6f 633e 9ad8 52bd dac7 fcbd c74d 0e3d
000001d0: 7538 c6bd c699 b0be 2e97 c3bd 524c 393e
000001e0: c3b3 74bd cc31 e2bb e968 0b3e 4023 603d
000001f0: ddd6 e3bd f425 ff3d 514d 81be 305f 97bd
00000200: b406 4c3e d62c 01be 1cd4 4ebd 124a 91bd
00000210: 4a5a a03d 9936 fdbd ba08 983d 40f4 8abe
00000220: ee1d c23c 327e 3e3e 9144 b3bd 1e73 27be
00000230: a0fa 3ebe 984d 923d 8995 a3be 6177 813e
00000240: 3759 92be e38b 1bbf 9f30 3b3d 697c 033f
00000250: 2329 31bf 1d8d 8b3d cbe4 b8bd b213 c1bd
00000260: 36ce 903e 7500 35be b0a2 2c3c be1f a33c
00000270: adb5 113e e385 f6be ad7f 47bd d39d 093e
00000280: 1f89 a0be 8366 a0be 6c7f 5bbe 4c5d e4bd
00000290: 45d2 0c3f eb53 7e3e 5905 0ebf 2583 303e
000002a0: bda3 5a3e e681 96bd 3931 c53d bc5b a8bd
000002b0: 6a43 abbe e885 ecbd 143a 193c 466d 08bf
000002c0: f3e3 debe a73a 033f 57e9 093e 3d30 d13d
000002d0: 2226 cf3e c37a 24bf 357a 67bd ff44 bf3c
000002e0: 0f61 b73e 7370 4bbe 3f27 973d 8b17 283e
000002f0: 8499 903e a6dd 9ebd a594 063d da81 9a3d
00000300: e4ab a63c 2255 9a3e da06 19be 2730 f7bd
00000310: 9440 6d3e f225 163e a60e f3bd 661f 1e3d
00000320: 8148 94be 48ed ae3d c847 babe 200d 18be
00000330: ba1d 0dbf 69ff d1bc cafa 81bd d7e4 08be
00000340: 6f63 2a3f 9684 593e 8b52 03bf 9ed1 dfbe
00000350: 661c 253d 8fee 373c d52d dabd 0871 4ebd
00000360: a982 b1bd c2ca b83d bdd2 a3bc 6d1e 14be
00000370: 4e11 c2bd 87cc fc3d ce7f d13d 2aea 2cbd
00000380: 726b 423e 8d83 1fbf b43f 223e c2cb 11bd
00000390: bef8 dd3e e781 533c dbe8 dfbd 2d0a 20bd
000003a0: 4d4f 1d3f 2532 223e 6f06 d53d b756 97be
000003b0: df35 a43e 1e58 993d 05d1 3dbf bb72 9c3d
000003c0: 8245 653e 610e f3bd a5b9 833c f14e 903e
000003d0: 09b4 9abe 0502 04bf f1dd 8b3e 118b 98be
000003e0: 63dc 353e d32e b93d 730b 9abe 985f 803d
000003f0: ef72 67be 4be7 49be 197d 3e3e 9da3 a4bd
-0.075059265 -0.02108488 -0.008426341 0.057349164 0.032973323 -0.054660413 0.055014487 -0.076271184
-0.0571219 -0.14035325 0.036119606 -0.03374567 -0.10392651 -0.11504868 -0.07063373 -0.09970354
-0.050939098 -0.10576246 -0.090487316 0.033897933 -0.07918825 0.05087948 0.008513406 -0.076636374
0.021163484 0.076191425 -0.014874486 0.013550654 0.10146546 -0.04599691 0.027475417 0.05129341
-0.14329621 0.07380961 -0.098886035 -0.00642021 -0.09105356 0.025156878 -0.10053763 -0.0751911
0.021597624 -0.09307783 -0.029235953 0.074468695 -0.15842244 -0.08122079 -0.11724852 0.08356293
0.004702288 -0.104877606 -0.1400534 0.06460041 0.05217425 -0.10768244 -0.0061751553 -0.061070234
0.015961645 -0.11755568 0.032356873 0.08022713 0.005493664 -0.07507529 -0.013550799 0.053935066
-0.15669538 -0.12294185 -0.104002476 0.012806799 -0.14461997 -0.08095179 -0.05579235 -0.3980852
0.050905455 0.03852242 -0.1276372 -0.07262784 -0.12707447 -0.1640128 -0.18734574 -0.05548053
-0.2870624 -0.3939824 -0.0847422 -0.033943698 -0.0021564658 0.042929158 -0.04256621 -0.12879528
0.4222788 0.24462877 0.06678159 -0.0211896 0.111786574 -0.1650734 -0.16145776 -0.10162979
-0.47423345 -0.28975427 -0.102432035 0.029812545 0.0537436 0.004173087 -0.014021446 0.20734797
-0.21551163 -0.05986232 -0.12351554 -0.36755887 -0.3780084 0.11489172 -0.2340148 -0.14920218
0.2221047 -0.0514761 -0.12342806 0.034742143 -0.09678737 -0.3449232 -0.095503196 0.1809552
-0.059741747 -0.006902909 0.13614239 0.054721117 -0.11124966 0.12458411 -0.252543 -0.073912024
0.19924432 -0.1261476 -0.050495252 -0.07094206 0.07829721 -0.12363929 0.074235395 -0.27139473
0.023695912 0.18602827 -0.087533124 -0.16352507 -0.18650293 0.07143706 -0.31950024 0.2528639
-0.2858369 -0.60760325 0.045700666 0.5136171 -0.69203395 0.068140246 -0.09028014 -0.09427585
0.28282326 -0.17675956 0.010536835 0.019912597 0.1422946 -0.48149022 -0.048705745 0.13439111
-0.31354615 -0.3132821 -0.21435326 -0.111506075 0.55008346 0.248367 -0.5547691 0.17237528
0.21351524 -0.07348995 0.09628529 -0.08220622 -0.3344987 -0.11548978 0.009352226 -0.5329174
-0.43533286 0.5126137 0.13467918 0.10214279 0.4045878 -0.6424982 -0.05651303 0.02334833
0.35816237 -0.19867115 0.073805325 0.16415231 0.28242123 -0.0775712 0.032856602 0.075442985
0.020345636 0.30143076 -0.1494402 -0.12069731 0.23169166 0.14662912 -0.11868028 0.038604163
-0.28961566 0.085413516 -0.3638289 -0.14848757 -0.55123484 -0.025634484 -0.06346662 -0.13368545
0.66557974 0.21241984 -0.51297826 -0.43714613 0.040310286 0.01122631 -0.10653273 -0.050400764
-0.086674996 0.09023048 -0.019997949 -0.14464732 -0.09475957 0.12343698 0.10229455 -0.042215504
0.189863 -0.62310106 0.15844613 -0.03559471 0.43353838 0.012909389 -0.109330855 -0.039072204
0.6144913 0.15839441 0.10401618 -0.29558346 0.3207235 0.0748751 -0.74147063 0.076390706
0.22389796 -0.11867977 0.016079733 0.28185228 -0.3021548 -0.5156558 0.27317765 -0.297936
0.17759852 0.09042134 -0.3008686 0.06268233 -0.22602437 -0.19717138 0.18602408 -0.08039019

predictionFunction.value_head.0.bias f4 [64]
00000000: f7ad 14be f5dd 2ebe e727 803d 1b77 8abd
00000010: be00 68bd 78a6 86bd 2c91 b33c 5cd9 a9be
00000020: 0f01 da3c 3346 afbd aaf0 9fbd c747 8cbe
00000030: 72f4 113d f429 64be a073 cebd 50fc 9bbe
00000040: dbff 4ebd 6499 8ebd feb3 fdbd 710c bf3e
00000050: 0a1a 89bd a2dc 9fbc e332 973e fc36 5abe
00000060: 7c46 45be c9ba 33be d807 06be 81f1 c3bd
00000070: 0f39 0abd e2c8 46be 0fb9 babb f824 98bd
00000080: 4b2f 16be 42dd 083e c444 c23e 9f23 72be
00000090: ffe6 88be 156b 87bd 318f fd3b efe6 25be
000000a0: 346e 55be 6315 f8bd e64e 1fbe 0c35 07be
000000b0: 9d7e 073d 94f0 e33d 4529 0ebe 45c6 0dbe
000000c0: 84a7 2dbe 81fd dcbd 2f86 b0bd 3dd1 afbb
000000d0: 99f6 2bbe 97bf 8a3d ca8b 4ebe b944 c83e
000000e0: 4788 233e d64a 5a3e 222b 0fbe 11d9 cbbe
000000f0: 06b4 bd3e e763 ad3d 2aa2 523e eafc a5be
-0.14519487 -0.17076857 0.06257611 -0.06760999 -0.056641333 -0.0657472 0.02191981 -0.33173645
0.026611833 -0.08558311 -0.07809575 -0.27398512 0.03563351 -0.22281629 -0.100806475 -0.30465937
-0.05053697 -0.06962851 -0.123878464 0.3731418 -0.0669442 -0.019514386 0.2953101 -0.21310037
-0.19265169 -0.17551722 -0.1308893 -0.095675476 -0.03374582 -0.19412568 -0.0056983302 -0.07428926
-0.14666478 0.13365653 0.3794309 -0.23646401 -0.26738736 -0.06612221 0.007738017 -0.16201375
-0.2084282 -0.12113454 -0.15557441 -0.1320383 0.033079732 0.11129871 -0.1388293 -0.13845165
-0.16958433 -0.107905395 -0.086193435 -0.0053655193 -0.16793288 0.06774824 -0.20170513 0.3911493
0.15969954 0.2131761 -0.13981298 -0.39814046 0.3705141 0.084663205 0.20569673 -0.3241952

predictionFunction.value_head.2.weight f4 [41, 64]
00000000: 4772 9bbd 2548 2dbf 5036 95be e44d e1be
00000010: 0745 92bf 2763 40bf 9f5b d0bf 5e9c 45bf
00000020: 9a09 e9bf 002d b8be 80af 0e3d e1a1 15be
00000030: 2bc2 33bf bac8 00bf 6c07 a4bf ccae edbf
00000040: aea0 b0be d2e8 64be 8fcf 98bf a769 06c0
00000050: cff7 eabd 7960 fbbe 3f2e d5bf 803c 6fbf
00000060: a8c8 21bf 944a 9c3d 11b4 213b 5055 3dbd
00000070: e556 38be b7bd 59bf 1a84 c1bf 127e e3bf
00000080: dfda dfbe 2749 54bf bcfe 0fc0 24aa 18bf
00000090: 0e9d 1dbf 931a a2be 9d2e fdbf e454 8dbe
000000a0: beac 93be 1f4a 57bf 532b bfbd 91c0 11bf
000000b0: fa78 ecbf a756 b7bf cb23 1fbe 9f32 a73d
000000c0: 6bb4 353c 8795 b0bf 08a1 b2bf a412 7cbf
000000d0: bf67 04bd 9cb4 67bf e77a dabe 2418 f6bf
000000e0: c3e2 c1bf 457c 5cbf ca22 e9bd 0379 b1bf
000000f0: 76a6 e4bf 7b92 c5be df01 dcbf f09e f3be
00000100: 7025 b1bc efa6 3ebf 923f 02be d3eb dbbe
00000110: e602 90bf 0969 4ebf c75f c2bf 5c43 2bbf
00000120: 65c0 e6bf 437b e4be 3d33 87bd 8a46 a1be
00000130: f196 66bf 4cc6 0abf 227d 9ebf 2e5e f2bf
00000140: 5ccd 43be 5e84 3abe 37c6 acbf cf98 03c0
00000150: aac1 8abd 7dd0 e5be 13dc e3bf d7d7 71bf
00000160: ace8 03bf e745 423d 5189 0ebc eb0b 7d3c
00000170: 237f 97bd 7b3b 2abf 5b46 bfbf b8d8 d9bf
00000180: cb65 7fbe 276c 5fbf da44 10c0 7cb3 11bf
00000190: 7a15 3bbf d58b dbbe d542 f5bf 9cd6 14be
000001a0: 989c 2cbe fcd8 2bbf 2d2e 16bd be56 21bf
000001b0: f5f2 e9bf c58e c2bf 8a28 f6be e739 97bd
000001c0: 7187 c03c df43 c2bf 24bf b1bf 664c 67bf
000001d0: 2e52 b73c be26 30bf 8899 14bf 516d f7bf
000001e0: c4ea c4bf a904 5dbf 77aa 36be c03d abbf
000001f0: 6362 eabf 5821 bebe ceec e3bf 794d c5be
00000200: 3011 7abd d47a 46bf ce8d 43be d8b1 e8be
00000210: 0240 a0bf 0123 43bf 3188 ccbf 9b7d 1ebf
00000220: df1e e2bf 5b1b dcbe 96cc 693d a26c 6cbe
00000230: 025e 4abf fe7f f0be 96d7 abbf fa23 f5bf
00000240: 7402 b0be 7c84 90bd 40a2 a1bf bf5c f9bf
00000250: 6ee2 b63c 9561 aebe 9871 e7bf ddb8 7abf
00000260: 7d6f 11bf 002e c13d a354 813c c86b b0bd
00000270: 8cb8 2ebe 7b4d 53bf b59f c8bf dae9 d3bf
00000280: ce2f 74be 871b 76bf ac5e 0ec0 8e5a e1be
00000290: 109a 2abf 4b1e cabe 65c0 fcbf a1de fbbd
000002a0: d0c9 41be ba99 40bf e686 8cbd 40c5 40bf
000002b0: cea4 e6bf 2e38 c6bf 54fc 6abe b13c b53d
000002c0: 15a8 84bd 307a b2bf 7e93 c7bf ddfe 71bf
000002d0: 5b85 e33d 0916 3abf 71ed 00bf 1c64 f4bf
000002e0: 98da bcbf 314a 56bf 34b9 65be 239e b0bf
000002f0: 88cd edbf 3bf3 00bf bbf7 e1bf c546 05bf
00000300: 3bd5 94bd 6f64 1ebf a9da a6be 6e21 e2be
00000310: 2e3a 91bf 3f09 53bf 7431 bebf a8ac 25bf
00000320: 29bd debf 4be2 d7be e3d2 15bc fa20 0abe
00000330: 08e0 4cbf 4a58 f5be bc25 a0bf bdbf 07c0
00000340: 0309 58be f65c 05be 24df afbf 1c74 ffbf
00000350: b740 b7bd 04c0 ccbe 455b e5bf 90f6 5bbf
00000360: 6246 e2be cd87 20bd 1f92 0d3d d955 603b
00000370: a1dc 2ebe 236c 42bf 6195 b0bf 6bdf e7bf
00000380: bf04 8cbe 7b4e 47bf 7d81 10c0 4878 09bf
00000390: bd3e 31bf c06e 5fbe c643 02c0 2b28 12be
000003a0: 8969 adbe 8f61 55bf 4102 c13d dac1 25bf
000003b0: 5a34 efbf 74f6 b7bf 584f edbe 07a8 d83d
000003c0: 2864 86bd 7f98 c1bf 487b b6bf dee6 7ebf
000003d0: 008f ebb9 8853 5fbf f1e9 e2be cf24 f3bf
000003e0: 4484 c9bf fa7f 5dbf 43b9 7dbe 07d2 a2bf
000003f0: 8082 efbf 7644 0abf b7cd dbbf 3037 c8be
-0.07590156 -0.6768821 -0.29143 -0.44004738 -1.1427315 -0.75151294 -1.627796 -0.7719172
-1.8206055 -0.35971832 0.03483534 -0.14612533 -0.7021815 -0.50306284 -1.2814765 -1.8568969
-0.3449759 -0.22354439 -1.1938342 -2.1001985 -0.11473047 -0.4909704 -1.6654738 -0.9345169
-0.631968 0.07631412 0.0024673978 -0.04622394 -0.18001898 -0.85055107 -1.5118439 -1.7772849
-0.43721673 -0.8292412 -2.2499228 -0.59634614 -0.6156777 -0.316609 -1.977985 -0.2760383
-0.2884273 -0.84097475 -0.09334435 -0.5693446 -1.8474419 -1.4323319 -0.15540998 0.08163952
0.011090378 -1.3795632 -1.3955393 -0.98465943 -0.032325502 -0.90509963 -0.42671892 -1.9226117
-1.5147327 -0.8612712 -0.113835886 -1.3865055 -1.78633 -0.38588318 -1.7188071 -0.47582197
-0.021624297 -0.7447347 -0.12719563 -0.42953357 -1.1250885 -0.8062902 -1.5185479 -0.6689966
-1.8027464 -0.4462529 -0.0660157 -0.3149913 -0.9007407 -0.54208827 -1.2381938 -1.8934991
-0.19121307 -0.18214557 -1.349799 -2.0562017 -0.0677522 -0.44885626 -1.7801536 -0.9446997
-0.51526904 0.047429945 -0.008699731 0.015444736 -0.07397296 -0.6649701 -1.4943346 -1.7019262
-0.24941175 -0.872744 -2.2542024 -0.56914496 -0.73079646 -0.4288012 -1.916102 -0.14534992
-0.16856611 -0.67127967 -0.03666513 -0.63022983 -1.827727 -1.519982 -0.48077804 -0.07384091
0.023502083 -1.5176963 -1.3886456 -0.9035095 0.022378054 -0.68809116 -0.5804677 -1.9330236
-1.5384145 -0.86335236 -0.17838465 -1.337822 -1.8311275 -0.37134814 -1.7806642 -0.3853567
-0.061051548 -0.7753117 -0.19097063 -0.45448184 -1.2519534 -0.76225287 -1.5979062 -0.6191041
-1.7665671 -0.4298962 0.057079874 -0.23088315 -0.79049695 -0.4697265 -1.3425167 -1.9151604
-0.34376872 -0.070565194 -1.262764 -1.9481429 0.022324767 -0.34058824 -1.8081541 -0.9793833
-0.5681074 0.09432602 0.015787428 -0.08614308 -0.17062587 -0.825401 -1.5673739 -1.6555741
-0.23846361 -0.96135753 -2.2245283 -0.440144 -0.6664133 -0.39476237 -1.9746214 -0.122983225
-0.18924642 -0.7523457 -0.06861667 -0.7530098 -1.8019044 -1.5485895 -0.22947818 0.088494666
-0.064773716 -1.3943539 -1.5591886 -0.94529516 0.1110942 -0.7268987 -0.50362307 -1.9093051
-1.475421 -0.8370696 -0.2243393 -1.379826 -1.8578348 -0.5037114 -1.7653726 -0.5206111
-0.07267233 -0.61872 -0.325887 -0.4416613 -1.134588 -0.82435983 -1.4858842 -0.6471658
-1.7401477 -0.42164835 -0.009144518 -0.13489142 -0.80029345 -0.47918922 -1.2511516 -2.1210778
-0.21097188 -0.13023743 -1.3739972 -1.9957309 -0.0894789 -0.39990246 -1.7918478 -0.859231
-0.44194323 -0.03919201 0.03456318 0.0034230857 -0.17076351 -0.75946254 -1.3795587 -1.8115057
-0.2734737 -0.77854127 -2.2579033 -0.5369916 -0.69236356 -0.21819592 -2.0353866 -0.14273135
-0.3386958 -0.8335199 0.09424258 -0.6474892 -1.8687851 -1.4372087 -0.46349597 0.10578924
-0.06562072 -1.5124663 -1.4256372 -0.99571025 -0.00044929236 -0.87236834 -0.44319108 -1.8995608
-1.5743489 -0.865234 -0.24777703 -1.2720345 -1.87117 -0.54010713 -1.7172154 -0.39104605

predictionFunction.value_head.2.bias f4 [41]
00000000: 4311 fcbf a170 00c0 ee75 f2bf 5538 f9bf
00000010: 66da ffbf dea3 00c0 00de f4bf 1bb0 efbf
00000020: 57ae ffbf 0de4 eebf f449 f1bf 0d37 f6bf
00000030: 9ae2 f6bf 6ecd 03c0 080d 02c0 9e79 00c0
00000040: 8a20 edbf 5adf fcbf 61c5 04c0 e857 04c0
00000050: 0196 5ebf 9158 23bf ba56 cabe a9d2 78bf
00000060: 0872 4bbe 58b4 61be dc16 c6be 07ba e1be
00000070: ff36 a6be a37f 96be 8cbd 20bd 9599 2fbc
00000080: 4cc7 b2be ae44 fbbf 9753 04c0 4405 00c0
00000090: d829 01c0 24c1 01c0 91b3 fcbf 4b38 03c0
000000a0: 2866 00c0
-1.9692768 -2.0068743 -1.8942239 -1.9470316 -1.9988525 -2.0100017 -1.9130249 -1.8725618
-1.9975079 -1.8663346 -1.8850694 -1.923555 -1.9287903 -2.0594134 -2.0320454 -2.007423
-1.8525555 -1.9755661 -2.074547 -2.0678654 -0.8694764 -0.63807017 -0.39519292 -0.9719644
-0.19867718 -0.22041452 -0.38689315 -0.4408724 -0.32463834 -0.29394254 -0.039243266 -0.010717769
-0.34917676 -1.9630334 -2.067602 -2.0003214 -2.018179 -2.0274134 -1.9742299 -2.0503109
-2.0062351

dynamicsFunction.startBlock.0.weight f4 [64, 34]
00000000: 1227 543e 0653 a33e 1392 8dbd 8977 f03d
00000010: bd8b 173e d6a3 4d3e c548 833c b976 7fbd
00000020: 79bc 45bd 0cf6 53be 5f6e 9c3e 1144 a83d
00000030: 08c4 fe3c c538 203e 823d 4abd e358 ad3e
00000040: 5244 273e e86c 963d 970e 35bc de26 873e
00000050: 3c2c 573e 6644 723e 3265 10be 198d d33d
00000060: b3d5 803e a173 f43d 7f1e 7f3e b705 2e3d
00000070: 4158 6c3e b9ea 76bc 6274 23be 9fab 373e
00000080: fdcc a23e d090 c8be 362d bbbe f758 1d3e
00000090: 381e 2fbe a33d 56bd 9c83 c5bd 9d47 c13e
000000a0: 9c79 8cbe 0170 f2bd 94d7 8bbd c0bf b83e
000000b0: 5836 58be 31e3 9b3d ebe5 7e3e 912e b23e
000000c0: 35ce 6d3e 529b ae3d b38e dbbc 8cef ee3d
000000d0: 453d 64be 401d 88bd cc6b 3bbd 4c63 1e3d
000000e0: 46b0 883d 7f56 f93d 8f76 713e b28d 053e
000000f0: 61b7 413d 6d1d c03e 6086 fabd e713 b13b
00000100: 1ad9 dabd 055d c63d e8a1 a83e 98dc f4be
00000110: b84d 0f3e 8a36 90be fdf0 063f f4f0 8fbe
00000120: c21b 693d 06c7 07be 5bad 943d c073 4dbd
00000130: d25e c03d 7850 79be c69b e93d e0bc 173e
00000140: df98 97be 3e6d 84be 8573 90bc 50d5 73be
00000150: e90e 28be 06f1 5dbc c530 24be c532 f83d
00000160: f312 153e baa4 80be e8dc 9abe 0f48 2abe
00000170: 2820 a6be 4a7d 62be 1fb2 8cbe fe27 0cbf
00000180: b134 d33d faaf dabe 0dd8 1d3f 483b 123e
00000190: 34d3 84be 6185 893e 7763 bb3c dffa 88be
000001a0: c05f 383d fe0a ec3e b22b 463f b9fc 15be
000001b0: 3e64 063e 75b7 fbbd 7108 f23e 3ced e03d
000001c0: 2421 13bc 390c be3e bc40 69be 38b3 63bd
000001d0: a159 3bbd 5592 20bf ee34 33bd b4f8 89be
000001e0: b35a 563e 2cfb 38bf 02e5 2ebe 01ff bdbe
000001f0: 7aa1 eb3d 4788 83bd bbba d83c f5f3 913b
00000200: 0240 b7be 5c87 1f3e b299 c6be c252 823e
00000210: db56 84bd f26a aebe c748 eebc 6d64 a9bd
00000220: 61ef c4bd 2558 8ebd b659 a3be 80cc 173f
00000230: 3a06 e43e 964d bcbd e3b3 a93d dbde 20bf
00000240: 774c 26be 2b4a 14bc 9edb 883b fba1 73bc
00000250: dbd1 b73d c9f5 08bc b4f9 08bf c7c3 353e
00000260: 4853 4ebd d038 1cbd dd71 77be 68d0 50be
00000270: 986c 8cbe cada 2abd b394 d33b e70f 2e3b
00000280: 7e1b 043f cc8c 533e 58f1 4e3e 24fe ca3e
00000290: e68d a73d a67d 85bd cc1b 493e 4b0b 59be
000002a0: b753 45be 25d9 d9bd 3f0a 6ebd 4d1a 7bbe
000002b0: ddbf 2b3e 812c 933c 0d23 3dbd dd35 bfbd
000002c0: 0e0b 50bd c707 efbd f94c 513d 5e09 dc3d
000002d0: 0db4 323d 72ae 4d3e 47ce 563e c38c 9b3c
000002e0: 6e98 053e 0fc3 39be 571e 61be e392 983e
000002f0: 8aa7 a6bd cd78 09bf 66a3 d4bd 6ba1 6fbe
00000300: f04b 803d f456 3abe f196 21be 7fcb 53be
00000310: 8a4e 50bb 7ad1 983e b102 9d3b 2ba4 4c3e
00000320: f24c 8c3e 8d80 b83c 7ca0 98bd 05b8 983b
00000330: fd66 a23e f0e8 af3c 3089 0b3d b073 1cbd
00000340: 46a4 713e 3ac0 5dbe e6a4 29be b16d 80be
00000350: 287d 223e 0c97 b03d 2cb5 92bc 95a8 0c3e
00000360: 4d4d b1be 7ecd a4be 2572 e9bd 8d0e 02be
00000370: 53bb e43d 0ecb c5bd e34f 38be d644 20bb
00000380: c448 cd3d 751c 343e 3a38 93be 38bc 5e3d
00000390: 5ac8 b83d 80e7 74be c1a9 f3bd 4653 3dbe
000003a0: b9d2 413e 29d5 5fbd 9672 023c a5dd 58be
000003b0: 69a7 1cbf 847f 1c3f 6257 513d e771 95bd
000003c0: a7c5 563e a7b4 b63c be98 89bd e8ee 833d
000003d0: 34c7 08be 5188 11be 62e8 9d3d 225b 0fbe
000003e0: 98cf 47bd b09a c0bb 867e 443d 6128 d0bd
000003f0: 5990 ccbd d740 b53d 6728 163e a558 d93d
0.20718029 0.3189928 -0.06912627 0.117415495 0.147994 0.2008203 0.01602591 -0.062369082
-0.048275445 -0.20699328 0.30552956 0.08216108 0.031099334 0.15646656 -0.049375065 0.33856878
0.16334656 0.07344991 -0.011050842 0.2639684 0.21012968 0.23658904 -0.14101103 0.103296466
0.2516304 0.11936117 0.24913977 0.04248592 0.23080541 -0.015070611 -0.15962365 0.17936562
0.3179702 -0.39172983 -0.3655793 0.15365969 -0.17101371 -0.052304875 -0.09644243 0.3774995
-0.2743653 -0.11837769 -0.06828228 0.36083794 -0.2111448 0.07611693 0.24892394 0.34801152
0.23223193 0.08525719 -0.026801443 0.11666784 -0.22288997 -0.06646204 -0.0457571 0.038668916
0.066742465 0.12174701 0.23580383 0.13042334 0.047294024 0.3752245 -0.12232661 0.005403984
-0.1068594 0.09685711 0.32936025 -0.4782455 0.13994491 -0.2816661 0.5271147 -0.2811352
0.056911238 -0.13259515 0.072596274 -0.050159216 0.093930855 -0.24347103 0.114066646 0.14818144
-0.2960882 -0.25864595 -0.017633209 -0.23811841 -0.16411938 -0.013546234 -0.16034229 0.121190585
0.1455801 -0.25125676 -0.30246663 -0.1662905 -0.32446408 -0.22118106 -0.27479646 -0.54748523
0.103127845 -0.42712384 0.6165779 0.14280427 -0.25942385 0.26859573 0.022874577 -0.267539
0.04501319 0.46102136 0.77410424 -0.14647187 0.13124177 -0.12290851 0.47272065 0.10982749
-0.008980069 0.371187 -0.227786 -0.05559084 -0.045739774 -0.62723285 -0.04375165 -0.26947558
0.20933037 -0.7225826 -0.17079547 -0.37108615 0.115054086 -0.06422477 0.026456228 0.004454131
-0.35791022 0.15578979 -0.38789135 0.25453764 -0.06461879 -0.34065968 -0.029087437 -0.08271108
-0.096159704 -0.06950406 -0.31904382 0.5929642 0.44536 -0.09194486 0.08286264 -0.6284005
-0.16240107 -0.009050886 0.004176571 -0.014870162 0.08975574 -0.008359381 -0.53506017 0.17750464
-0.050372392 -0.038140118 -0.24164529 -0.20392 -0.274266 -0.04171256 0.0064569353 0.0026559772
0.5160445 0.20659178 0.20209253 0.3964702 0.08181362 -0.06518106 0.1963951 -0.21195714
-0.19270216 -0.1063712 -0.05811524 -0.24521752 0.16772409 0.017965557 -0.046176005 -0.093364455
-0.050791793 -0.11671405 0.051098797 0.10743974 0.04362874 0.20086077 0.20977126 0.018988019
0.13046429 -0.18140815 -0.2198423 0.29799566 -0.08137424 -0.5369995 -0.10382728 -0.2340142
0.06264484 -0.18197232 -0.15780236 -0.20683096 -0.0031785094 0.29847318 0.0047915806 0.199845
0.27402455 0.022522235 -0.07452485 0.0046606087 0.317192 0.021473378 0.03406638 -0.038196266
0.23597822 -0.2165536 -0.1656681 -0.25083688 0.15868056 0.0862256 -0.017908655 0.13736184
-0.34629288 -0.32188028 -0.113987245 -0.12700863 0.11168542 -0.0965787 -0.17999224 -0.0024455092
0.100236446 0.1758898 -0.28753835 0.05437872 0.09022589 -0.23916435 -0.11897612 -0.18488798
0.1892804 -0.054646645 0.00796189 -0.211783 -0.6119295 0.61132073 0.051108725 -0.07297116
0.20973836 0.022302939 -0.067185864 0.06442052 -0.1335724 -0.14212157 0.07710339 -0.13999608
-0.04878196 -0.005877815 0.047972225 -0.10163952 -0.0998847 0.08850258 0.1466385 0.10612611

dynamicsFunction.startBlock.0.bias f4 [64]
00000000: 564e 8b3d 5001 a53d 46d0 b53d 9c42 56be
00000010: c7c0 3cbe 68f1 15be 1958 573e d092 88bc
00000020: 08f6 3f3e d8d4 063c 6cfe d5bd 0ffd 1a3e
00000030: 1949 b83c 8968 383e 252c 2b3d acc1 52be
00000040: 5b1e 77be e438 913e 87c4 c1bd 3a99 7dbe
00000050: 3d0f fdbd 6063 653d a366 35be ce13 c1bd
00000060: d529 76bd 0252 f23d 1991 923e 6dd5 0cbe
00000070: f772 66be 9858 083e d63e b6bc 7021 f1bd
00000080: f6e5 003e 9220 8c3c 4e38 053e 80d7 bf3d
00000090: 7aaf eb3c e417 92bd c255 8a3b aadf 7bbe
000000a0: c6dc 0f3d 21ce 2e3d 493d 31be 3b5d 763e
000000b0: 18f2 a4bd 78e2 b13d 88a9 a5bd 53e8 dabd
000000c0: 0062 123e 7fac 2c3e 8e6e d739 2d15 40be
000000d0: 0864 843c b42f 8abc 3938 50bd 375a dabd
000000e0: 7e21 c5bb e3e9 093e b655 10bd 64bc 173e
000000f0: 6955 3d3e f2cb c83c 347a 073e 64d2 c93d
0.06802051 0.08056891 0.08877616 -0.20923847 -0.18432914 -0.1464287 0.210297 -0.016671568
0.18746197 0.008229457 -0.10448918 0.15135597 0.022495793 0.18008627 0.041790146 -0.20581692
-0.24132673 0.28363717 -0.09461313 -0.24765483 -0.12356422 0.056002975 -0.17714934 -0.094276056
-0.060098488 0.11832048 0.28626326 -0.1375329 -0.22504793 0.13315046 -0.02224676 -0.11773956
0.12587723 0.017105374 0.1300976 0.09367275 0.028770197 -0.07133463 0.004221649 -0.2459704
0.035122655 0.04267705 -0.17308535 0.24059002 -0.08053988 0.086857736 -0.08088976 -0.106888436
0.14295197 0.16862677 0.00041090365 -0.18758078 0.01616098 -0.01686845 -0.050834868 -0.10661738
-0.0060159555 0.13468127 -0.03523799 0.14817959 0.18489613 0.024511311 0.1323021 0.09854582

dynamicsFunction.startBlock.2.weight f4 [32, 64]
00000000: fe3b 44bd c4bb 88be 1e21 c63d b20a b1bd
00000010: 6a8d 64be feef 92bd 9beb 9b3e 2fa6 c1bc
00000020: a518 5f3e 43a7 f3bb 7e21 9cbe cd36 853d
00000030: bf49 0d3e 7e32 903e 1d06 e3bc f272 e6bd
00000040: 2dbb 18be bbda 903b f862 a53b 9926 5cbe
00000050: 5568 30be 8515 80bd 7c73 093e c0a4 c8bd
00000060: ede5 49be 271d 3d3e d21a 903e e8cd 28bd
00000070: 5e79 cc3d bcd0 0dbe 498f ff3c 0a59 e5bb
00000080: daea 8bbd fa90 4bbd 6e51 ef3d 02a1 d2be
00000090: 1226 91be 2be3 2abd 07ea 543e 8752 46be
000000a0: f479 6abd 8ecb 4fbe 5995 533e 8cf2 bd3c
000000b0: 56f4 aabe a6ad b1bd 8ea5 003b d605 a63d
000000c0: e6cd 35bd 1a5e 5d3e 6702 54be 9da7 503e
000000d0: bc36 343d 20e2 a3bd f19e 57be 0cf0 43be
000000e0: 80fe 83be b53d c63d 57af a83e 6ea7 3d3e
000000f0: d765 793e c5d2 c1bd 10b8 64bd d7e2 a1be
00000100: 8463 113e 8066 723e 2d67 d0be ccae 053c
00000110: 29b4 d8bc 2644 bbbe 9b87 cbbe d1c3 1cbe
00000120: b31f a0be 8f73 3bbd b7e3 833e 093a 3bbe
00000130: 91b2 d2bd ac18 49bf 87f2 f7bd 2189 323d
00000140: 1028 c13f a4f5 12be 3eac 563c 5e2c 823e
00000150: 06e1 113e 4841 afbc 723b d43d 2de4 f33d
00000160: 6304 553e 5da2 ce3e f77c 88bf 3084 d83d
00000170: 9d39 1a3d e649 3cbe 3f37 82bd d3e0 b43e
00000180: 8e1f c93c 9298 033f 4f37 11be 6005 803b
00000190: c330 9d3e 14b1 ba3c 5eb0 b6bd 045c 753e
000001a0: 55f9 68bd 4288 c13e 9449 903d c4ca 42be
000001b0: ea94 003f 0a7f b73d 3d09 1f3e 099c 333e
000001c0: a33a 783e 70bc 9fbf fdab b6bd 43bc e9bd
000001d0: af4d f33e d491 013e 87d3 0f3e d995 863e
000001e0: 0473 8dbe e5f2 a73c ae7c 3c3e 3b8f 373d
000001f0: 72e5 4cbf 671d 5cbf 9385 853d 4590 8ebe
00000200: 1b27 513d acbd b7be 3f60 783e 5a15 84be
00000210: 6361 0b3d e5d3 6d3e 557a c9bc 9f64 50bc
00000220: b079 5a3c 7e25 c23d 961b 38be 7a54 c93d
00000230: 0c73 303e 0015 a33e 7cf8 aabd 62c0 f63d
00000240: acf5 5abe ad53 9c3e 777a 21be 55fc 00be
00000250: a3e4 69bd cc67 663e c867 b93d 39a2 9f3d
00000260: b008 bbbc 5ddc 61bc 9db1 2a3f efd4 153d
00000270: 8cd0 8dbd 2f7c 093e 5f95 33be ea75 36be
00000280: b2fe 3b3d a788 2e3e d4e9 a8be 5255 62bc
00000290: c8fe c7be 8b1e acbd 024b cebd 8ade 52bd
000002a0: 6844 adbd 7230 c4bd 58d1 093d 203b 6ebd
000002b0: b74a febe 2548 da3c 49bc 92be 08e6 83be
000002c0: 4696 a2be 930b 64be 4483 fd3c 1f4d 263e
000002d0: f4ac d83e ecae bfbb d26a 4dbe 5b8e dfbc
000002e0: 5e84 afbe 9bda 613d 5b52 22be 8474 173e
000002f0: 6573 2b3e 95f3 03be 1f6b fc3d d47c 593d
00000300: d3c1 54bd 2739 0b3e 2cc8 81be ab3f 14be
00000310: 1fe5 d13e 7603 25bc 9241 07bb 70e8 57bc
00000320: c7da c3be 5bc7 9e3d 29a0 c23d bd2d 603d
00000330: 0b47 1fbe cbb8 63be 1dbe c6be 2ef9 2c3c
00000340: c0f8 9cb7 ad6d eabe 150c 223f 9f70 1c3c
00000350: a08d 3e3c 473f 97bd 308b 88bd bf06 b73d
00000360: d9b1 91be 3f2e 3f3d 86db 093d c78d e7bc
00000370: ad74 f0bb b891 62be b227 6f3e 54e5 0c3e
00000380: afc6 cabd 4ba4 a3bd 05df ab3e 72ba 31be
00000390: b61f f63c ca4d b93e cee6 4e3e ec75 d83d
000003a0: e0fb 8d3c aa67 cebb a01b ab3c afd8 043e
000003b0: d57e a63e c3ff 83be 513c 1dbf 7f0a d93e
000003c0: f98c d73d 23f1 8a3b 10b9 a6bb eaea c4bd
000003d0: 7e86 2e3e f0af be3d fb71 f2bb caea 543e
000003e0: f052 cd3b dc80 813b c79e 853c 8316 cebd
000003f0: 181a c53c 0538 e3bd 1eb6 25be 6e19 853e
-0.047908776 -0.26705754 0.09674285 -0.08644618 -0.2231957 -0.07174681 0.3045319 -0.023638813
0.21786745 -0.0074357106 -0.30494303 0.06504593 0.13797663 0.28163522 -0.027712876 -0.11252393
-0.14915152 0.004420606 0.0050471984 -0.21499099 -0.172273 -0.062541045 0.1342296 -0.097970486
-0.19716616 0.18468152 0.28145462 -0.041211993 0.099840865 -0.13849157 0.031196253 -0.0069991397
-0.06831904 -0.049698807 0.11685453 -0.41138464 -0.28349358 -0.04172055 0.207924 -0.19367419
-0.05724521 -0.20292494 0.2066244 0.023186944 -0.3338954 -0.08675699 0.0019629928 0.08106582
-0.044385813 0.21617928 -0.20704041 0.2037644 0.04399751 -0.08002114 -0.21056725 -0.1913454
-0.25780106 0.096797384 0.32946274 0.185209 0.24355255 -0.09464029 -0.0558396 -0.31618378
0.14198118 0.23671913 -0.40703717 0.008159351 -0.026453095 -0.3657543 -0.39751896 -0.15309073
-0.31274185 -0.045764502 0.2575967 -0.18283857 -0.10287965 -0.7855327 -0.12106805 0.043587808
1.5090351 -0.14351517 0.013102589 0.25424474 0.14245996 -0.021393433 0.10362901 0.119087555
0.20802455 0.40358248 -1.0663136 0.10572088 0.0376526 -0.18387565 -0.063581936 0.35327777
0.02455118 0.5140468 -0.14181255 0.0039068907 0.30701265 0.022789516 -0.08920358 0.23960882
-0.056878407 0.3779927 0.07045284 -0.19022661 0.50227225 0.08959778 0.15530868 0.17539991
0.24241118 -1.2479382 -0.08919523 -0.11412861 0.47520205 0.12653285 0.14045535 0.262862
-0.27626812 0.020501563 0.18406937 0.04481433 -0.80037606 -0.85982364 0.06519618 -0.27844444
0.051062685 -0.35886896 0.24255465 -0.2579754 0.034028422 0.23225363 -0.024594465 -0.012719302
0.013334677 0.09479807 -0.17979273 0.09830566 0.17231387 0.3185196 -0.08348176 0.12048413
-0.21382779 0.3053259 -0.15769373 -0.12596257 -0.05710281 0.22500533 0.09052998 0.077946134
-0.022831291 -0.013785449 0.66677266 0.036580022 -0.06924543 0.13426279 -0.1753745 -0.17818418
0.045897193 0.17044316 -0.32990897 -0.013814287 -0.3906157 -0.08404263 -0.100729 -0.05148176
-0.08460313 -0.09579553 0.03364691 -0.058161855 -0.49666378 0.02664573 -0.28659275 -0.25761437
-0.31755275 -0.2227004 0.030946381 0.16240357 0.42319453 -0.0058497097 -0.2006028 -0.02728956
-0.34280676 0.05514012 -0.15851729 0.14790541 0.16743238 -0.12885888 0.12325119 0.05309756
-0.051942658 0.1359602 -0.25348032 -0.14477412 0.40995118 -0.010071626 -0.0020638448 -0.013177976
-0.3825285 0.07752868 0.095032044 0.05473112 -0.15554444 -0.22238462 -0.3881692 0.010557456
-1.8712482e-05 -0.457868 0.63299686 0.009548335 0.011630446 -0.07385116 -0.06667173 0.089368336
-0.28456 0.046674963 0.03365662 -0.028265847 -0.0073381276 -0.221259 0.23354986 0.13759357
-0.09901177 -0.07990321 0.33568588 -0.1735628 0.030044418 0.3619216 0.20205233 0.10569367
0.017332017 -0.006298979 0.020887196 0.12973283 0.3251864 -0.25781068 -0.6142016 0.4239082
0.10524935 0.0042401715 -0.005087979 -0.09615119 0.17043492 0.09310901 -0.0073988414 0.2079269
0.0062659904 0.003952129 0.016311062 -0.100628875 0.024060294 -0.11094669 -0.16182753 0.25995964

dynamicsFunction.startBlock.2.bias f4 [32]
00000000: 27cf 463d 847a d2be 4de8 c23d 9260 23be
00000010: 11a3 5abd 2b3f 1b3d b77d 093d 708f 283d
00000020: 147b 52be e33e 333e db8b 303e 1f04 eebd
00000030: ee55 363e 4875 c6bc baf0 a13d b721 943e
00000040: 7a80 373e b13e ae3d 6f1f 373d 53bf c83d
00000050: c081 41be 06b5 1cbe 621a 1fbe 80ec 3f3e
00000060: 40df e3bd 503e 0fbe 17e2 233e ce55 1ebe
00000070: 8e53 f53d d53e 61bb ff21 053e a3fc 923d
0.0485374 -0.41109097 0.09516964 -0.15954807 -0.05337817 0.03790204 0.033567157 0.041152418
-0.20554763 0.17504458 0.1724085 -0.1162188 0.17806217 -0.024225846 0.07907243 0.28931972
0.17920104 0.08508051 0.04470771 0.09802117 -0.18897152 -0.1530343 -0.15537408 0.18742561
-0.11126566 -0.13988614 0.16004215 -0.1546242 0.119788274 -0.0034369726 0.1300125 0.07177093
