AlphaGo/foersterrobert_MuZero/Environments/CartPole/Models/model_9.pt (torch, 83738 bytes, 20 tensors)

predictionFunction.startBlock.0.weight f4 [64, 32]
-0.10605823 0.5166892 -0.3180325 -0.29234114 -0.29376313 -0.07151337 -0.084825166 0.25989607
0.118129686 -0.15878521 -0.24822113 -0.262257 -0.40364352 0.2548126 0.037241768 -0.22255407
-0.08150382 0.21963082 -0.44564644 0.3149891 0.36465973 0.7399771 0.04476371 0.08579923
-0.03245633 0.1258329 0.0210947 0.004750734 0.098997936 0.1331086 -0.27929702 0.0590323
-0.1109507 -0.13748576 -0.21193965 -0.14852919 -0.3192867 0.010392899 -0.1974144 0.26072636
-0.023002973 -0.28762877 -0.1782989 -0.07945787 0.012010362 0.094858065 0.059755117 0.08525223
-0.3911463 -0.1149672 0.0038715224 0.21425375 0.34312555 0.20865563 0.16364539 -0.46681583
-0.00951145 0.0030812854 0.0014898276 0.046110973 0.03726624 0.37829623 -0.7029651 -0.20239735
-0.36363292 0.13316958 -1.641521 0.07471891 0.05069232 0.6275579 -0.068152405 -0.3456816
-0.35333544 0.108793944 -0.42388287 0.16850728 0.62540174 0.076436654 0.23772255 0.25557372
-0.5851353 0.29556668 0.05828739 -0.11748837 0.28820458 0.10282786 1.0433701 0.18290658
0.2547896 0.29243028 0.45886782 0.22779235 0.17918725 1.8139822 -1.0991404 0.38306534
0.056898654 0.3875037 -0.6182159 -0.07371196 0.031543925 0.40050003 0.032577746 -0.33822596
-0.31103805 -0.009117797 -0.051871605 -0.3029191 0.21621972 -0.03393608 -0.047663584 0.40837008
0.037660014 0.19882005 -0.26772884 -0.022561308 -0.030451503 0.4394291 0.20898253 0.34572196
0.28315702 0.028900882 0.09874202 0.24243067 0.085328326 0.109092504 -0.40759394 0.4439846
-0.3326934 -0.78077936 -0.19616899 0.32665622 -0.09445424 -0.13137272 -0.2084622 -0.15097395
0.06136476 -0.14048164 0.08391205 0.7809567 0.6606922 0.54896724 -0.15998606 -0.29835582
-0.55410784 -0.62708485 -0.047196362 -0.099734254 0.13049735 -0.004124834 0.042863023 -0.45451516
0.10382876 0.56541294 0.009424782 0.020064076 -0.26247236 0.4150478 -1.0147017 0.047641873
-0.12366358 -0.17118345 -0.00075625425 -0.24950175 0.15668955 -0.4730827 -0.048740357 0.30846053
-0.059023205 -0.17406087 -0.0879769 0.14905687 0.27574852 0.043626033 -0.02634558 0.022585295
-0.10932237 -0.040388994 0.49654055 -0.058216203 -0.0020343075 -0.229835 0.25119817 -0.06828703
-0.028158799 -0.0013002746 -0.07554093 -0.23307154 -0.59182405 0.18434758 0.14135198 0.18503079
-0.21777925 -0.07063831 -0.06091706 -0.1647962 -0.1223848 0.17856593 -0.49428257 0.31796417
-0.0018964541 0.4013686 -0.68596387 -0.13741313 -0.028612413 0.025812266 0.26331228 0.17567202
0.047005698 -0.06869948 0.24196741 0.10680598 0.011945927 0.06494733 0.091031924 -0.09874237
-0.22502993 0.10736686 -0.07798048 -0.41828933 -0.22790678 0.22904581 -0.15857069 0.094910875
-0.2772074 0.12194773 -0.81505847 0.23961326 -0.10140679 0.02524034 0.008544671 0.16193497
0.08491544 0.10230766 0.19055623 -0.102495074 0.4048418 -0.10628156 -0.26121035 0.48845044
0.01964078 0.1335401 -0.012548148 0.20494758 0.22981183 0.04750203 0.73827153 -0.011184958
0.3116326 0.18666102 0.33861637 0.4000786 0.14703925 0.53420174 -0.7077988 -0.19204815
00000000: 0f35 d9bd be45 043f 28d5 a2be bdad 95be
00000010: 1f68 96be 9a75 92bd d1b8 adbd 1911 853e
00000020: faed f13d 9798 22be ae2d 7ebe 8d46 86be
00000030: 5daa cebe cc76 823e d38a 183d 37e5 63be
00000040: 7aeb a6bd e7e6 603e c52b e4be 4046 a13e
00000050: aeb4 ba3e 246f 3d3f 275a 373d 82b7 af3d
00000060: eef0 04bd 57da 003e cbce ac3c 0cac 9b3b
00000070: 6ebf ca3d 9f4d 083e 0500 8fbe dacb 713d
00000080: 1f3a e3bd 11c9 0cbe b506 59be 0918 18be
00000090: 8c79 a3be fa46 2a3c 0027 4abe ed7d 853e
000000a0: bb70 bcbc 1444 93be fd93 36be cfba a2bd
000000b0: 1cc7 443c f244 c23d c8c1 743d b998 ae3d
000000c0: 5444 c8be ec73 ebbd 5eb9 7d3b 5665 5b3e
000000d0: 27ae af3e d2a9 553e a892 273e 7c02 efbe
000000e0: ead5 1bbc 64ef 493b 5246 c33a dcde 3c3d
000000f0: 7ca4 183d 0bb0 c13e 85f5 33bf 4041 4fbe
00000100: 182e babe 9b5d 083e 5c1d d2bf 3a06 993d
00000110: c0a2 4f3d a2a7 203f 7d93 8bbd 2efd b0be
00000120: 62e8 b4be 5ccf de3d 2d07 d9be 2c8d 2c3e
00000130: 541a 203f d28a 9c3d 8a6d 733e 8fda 823e
00000140: 6dcb 15bf 8454 973e c2be 6e3d be9d f0bd
00000150: 8d8f 933e 6a97 d23d 278d 853f dd4b 3b3e
00000160: c873 823e 6cb9 953e b9f0 ea3e 6642 693e
00000170: dd7c 373e 9230 e83f a2b0 8cbf 2421 c43e
00000180: 900e 693d e366 c63e 6643 1ebf 4cf6 96bd
00000190: 3434 013d 570e cd3e 3e70 053d f42b adbe
000001a0: 6140 9fbe d062 15bc 5277 54bd 3618 9bbe
000001b0: b468 5d3e 8f00 0bbd e43a 43bd e215 d13e
000001c0: 6341 1a3d 7c97 4b3e c113 89be 7ed2 b8bc
000001d0: 6e75 f9bc dafc e03e 84ff 553e 7802 b13e
000001e0: f5f9 903e 8bc1 ec3c 4239 ca3d bf3f 783e
000001f0: 9ec0 ae3d e46b df3d 27b0 d0be f351 e33e
00000200: ca56 aabe 28e1 47bf 86e0 48be 7c3f a73e
00000210: 3971 c1bd 9286 06be 1d77 55be ea98 1abe
00000220: 9d59 7b3d 6bda 0fbe 15da ab3d c7ec 473f
00000230: 2023 293f 1e89 0c3f 63d3 23be 18c2 98be
00000240: 03da 0dbf a288 20bf f950 41bd 7941 ccbd
00000250: 19a1 053e 9e29 87bb 2391 2f3d 36b6 e8be
00000260: 2ca4 d43d e7be 103f 676a 1a3c 6b5d a43c
00000270: c762 86be 2581 d43e bfe1 81bf 2024 433d
00000280: 5543 fdbd b74a 2fbe 5d3f 46ba 637d 7fbe
00000290: 3a73 203e e537 f2be f8a3 47bd 8aee 9d3e
000002a0: 51c2 71bd 033d 32be 3c2d b4bd 5da2 183e
000002b0: e92e 8d3e 36b1 323d b0d2 d7bc cc04 b93c
000002c0: 68e4 dfbd ee6e 25bd 903a fe3e 1d74 6ebd
000002d0: 0452 05bb de59 6bbe 0c9d 803e 12da 8bbd
000002e0: 48ad e6bc fa6d aaba 34b5 9abd 4eaa 6ebe
000002f0: c881 17bf 9dc5 3c3e 93be 103e b678 3d3e
00000300: 8601 5fbe d1aa 90bd 2b84 79bd 56c0 28be
00000310: e2a4 fabd fdd9 363e 9b12 fdbe 33cc a23e
00000320: 7192 f8ba 2f80 cd3e 549b 2fbf 07b6 0cbe
00000330: 9464 eabc 3f74 d33c ded0 863e 5ee3 333e
00000340: 0c89 403d 50b2 8cbd 4ec6 773e 18bd da3d
00000350: d9b8 433c 1b03 853d f26e ba3d 7139 cabd
00000360: 3f6e 66be 28e3 db3d 3bb4 9fbd 052a d6be
00000370: 6560 69be fc8a 6a3e 5b60 22be a260 c23d
00000380: 21ee 8dbe bbbf f93d aca7 50bf 2e5d 753e
00000390: 5dae cfbd d4c4 ce3c f3fe 0b3c 48d2 253e
000003a0: 25e8 ad3d ae86 d13d 2c21 433e f0e8 d1bd
000003b0: 6d47 cf3e 26aa d9bd 5dbd 85be 2d16 fa3e
000003c0: b3e5 a03c bcbe 083e bf96 4dbc c7dd 513e
000003d0: cb53 6b3e 7d91 423d 5dff 3c3f 1d41 37bc
000003e0: 4f8e 9f3e 1124 3f3e 205f ad3e 1ad7 cc3e
000003f0: 7591 163e 72c1 083f 4d32 35bf 45a8 44be

predictionFunction.startBlock.0.bias f4 [64]
-0.028707677 -0.17340975 -0.26907256 0.007179226 -0.18769114 -0.000115662784 0.078613214 -0.10323872
0.16945496 0.06536642 -0.23914464 -0.12458265 -0.17182817 -0.00999826 -0.088155955 -0.1398878
-0.14132075 0.0700923 -0.25634587 -0.046926424 -0.23986557 -0.10781941 -0.03213336 -0.11387809
-0.04098297 -0.10990741 0.03699869 -0.086704604 -0.06561812 -0.20983835 -0.10521802 -0.17032935
0.07922984 -0.25618556 -0.20320128 -0.025461754 -0.11488984 -0.2110556 -0.1338681 -0.18451044
-0.10506155 -0.2025325 -0.34152386 -0.11670874 -0.0022160502 -0.26135847 0.024400257 -0.15285553
-0.11342862 0.12729226 -0.14144678 -0.014669686 -0.1229969 -0.19821942 -0.19464645 0.12186335
0.02318153 0.08964616 -0.14125736 0.027140206 0.10383178 0.18406364 -0.14110525 0.09719115
00000000: 5d2c ebbc 5392 31be e1c3 89be b63f eb3b
00000010: 1b32 40be fc8f f2b8 f7ff a03d d26e d3bd
00000020: 9a85 2d3e d4de 853d 55e2 74be 3025 ffbd
00000030: b9f3 2fbe becf 23bc 1c8b b4bd bf3e 0fbe
00000040: 63b6 10be 8d8c 8f3d c43f 83be ec35 40bd
00000050: 529f 75be 6cd0 dcbd 459e 03bd eb38 e9bd
00000060: c2dd 27bd 2317 e1bd f08b 173d 2f92 b1bd
00000070: cb62 86bd dddf 56be 8c7c d7bd d16a 2ebe
00000080: 4143 a23d c12a 83be ff13 50be 2b95 d0bc
00000090: 5d4b ebbd f61e 58be b814 09be 4ef0 3cbe
000000a0: 832a d7bd ae64 4fbe 37dc aebe fe04 efbd
000000b0: 273b 11bb c7d0 85be 0ce3 c73c 2986 1cbe
000000c0: 444d e8bd e758 023e 6dd7 10be 1f59 70bc
000000d0: cce5 fbbd 08fa 4abe 6651 47be 7e93 f93d
000000e0: 31e7 bd3c 6898 b73d c5a5 10be 2355 de3c
000000f0: c2a5 d43d 2e7b 3c3e e57d 10be 270c c73d

predictionFunction.startBlock.2.weight f4 [64, 64]
-0.10134494 -0.21402025 0.3116579 -0.27358338 -0.09440412 -0.451574 0.29448363 0.1487064
-0.6725239 -0.06715798 -0.15275502 -0.02742861 0.024450611 0.48894283 0.16883077 0.1161356
0.13334514 -0.07282664 -0.527324 -0.31238204 -0.09255665 0.028484732 0.26292056 0.15648219
-0.5958259 -0.22395681 0.8769508 -0.15655044 -0.15717362 0.03996164 -0.24929848 -0.029787065
-0.46096596 0.34640232 0.09643451 -0.31854185 -0.041004837 0.3300618 -0.11309951 0.17337327
-0.09353869 -0.0024118328 0.1619953 -0.0033407789 0.07489423 -0.22318627 -0.38902327 -0.060748003
-0.019676486 -0.61204565 -0.3102385 -0.37530217 -0.09248108 -0.20689535 0.43796012 -0.3707151
-0.35444078 -0.20093247 -0.12983617 0.23883553 0.15487069 -0.19123882 0.0050316313 -0.20771165
-0.23213692 -0.2028135 0.20240566 -0.07258073 0.4277436 -0.08195643 0.35320398 0.33389518
-0.646931 0.20433381 0.0403272 -0.052362178 0.54865503 0.3538923 0.11729161 -0.04166406
0.14152387 -0.10477823 -0.27247933 -0.055155445 -0.045488466 -0.06133565 0.06227124 0.2553975
-0.34090254 -0.22368345 0.44728202 -0.19163655 -0.45547235 0.16904727 -0.0022255986 -0.088964336
-0.42765296 0.28879517 0.39103323 -0.1467522 0.4257284 -0.15820703 -0.29342407 0.1623393
0.24236712 0.0508715 -0.0029354582 0.12623878 0.25296244 0.1010129 -0.34481907 -0.09941023
-0.15507093 -0.281884 -0.16005108 -0.22891149 0.23535116 0.037532263 -0.19026682 -0.30272138
-0.22630364 0.096521854 -0.026348207 0.686893 0.36731976 -0.054909527 0.06778553 -0.2025837
-0.12595081 0.022284327 0.2499351 0.117891476 -0.24110547 -0.553171 0.2895281 -0.044867903
-0.14960383 -0.1843623 0.09650911 0.43691632 0.117019214 0.10233567 0.023438673 -0.10242318
0.04247196 0.026722513 0.03549305 -0.029702581 0.047582556 -0.24981081 0.09730064 0.028506905
0.0292265 -0.27476302 0.042315975 -0.06181388 -0.3253189 -0.08046096 0.15306826 0.032476857
-0.055554915 -0.0566165 -0.0260224 -0.03372078 0.10972633 -0.1771964 0.026838591 -0.16535853
0.0973417 -0.101288304 -0.092685536 -0.37475085 0.32331777 -0.33793142 -0.41949466 -0.23408723
-0.183126 -0.20885718 0.07875873 -0.22537711 0.119767204 -0.009486238 0.005021743 -0.09141122
0.116053775 -0.32479966 0.29991376 -0.19924401 -0.04543786 -0.2371383 -0.14901274 0.06855937
-0.4021852 -0.05385443 0.1139642 0.2059504 0.18025275 0.030475369 -0.12279534 0.030942418
-0.38954827 0.22677447 -0.3014205 -0.0941826 0.03754298 -0.092249475 0.16463296 0.16332294
0.1067819 -0.012703096 -0.24005602 -0.103767775 -0.079479925 -0.42581284 -0.019162303 0.1674582
-0.03248889 0.025180958 0.018316943 -0.23773065 0.16956823 -0.13711002 -0.051232684 -0.17844908
0.26549068 0.07599888 0.1732854 -0.27947232 0.08721763 -0.14743942 -0.8756912 0.10939864
0.5189119 -0.38023964 -0.057506733 0.40379348 0.19307142 -0.20127341 -0.049205337 -0.782606
0.3984934 -2.4380567 -0.012765235 -0.11660345 0.32153636 0.23366678 0.11145391 0.013000007
-0.23207942 0.18277135 -0.17204267 -0.3001624 -0.370258 -0.1257692 0.13798454 -0.0484597
00000000: f08d cfbd 2028 5bbe a091 9f3e 1f13 8cbe
00000010: f356 c1bd b534 e7be 8fc6 963e 7e46 183e
00000020: 872a 2cbf 1f8a 89bd d06b 1cbe f7b1 e0bc
00000030: a64c c83c b756 fa3e f9e1 2c3e 80d8 ed3d
00000040: a18b 083e 2226 95bd b5fe 06bf 8af0 9fbe
00000050: 578e bdbd d058 e93c 869d 863e de3c 203e
00000060: 0c88 18bf ef54 65be d97f 603f c24e 20be
00000070: 1ff2 20be d1ae 233d 1a48 7fbe 0104 f4bc
00000080: bb03 ecbe a55b b13e 757f c53d eb17 a3be
00000090: b0f4 27bd dcfd a83e b7a0 e7bd c388 313e
000000a0: 3691 bfbd d70f 1ebb 19e2 253e f8f0 5abb
000000b0: 2562 993d f18a 64be 0f2e c7be e6d2 78bd
000000c0: 9530 a1bc 06af 1cbf 95d7 9ebe 9b27 c0be
000000d0: b866 bdbd 60dc 53be 4f3c e03e 5fce bdbe
000000e0: 4379 b5be 3ec1 4dbe c6f3 04be 4d91 743e
000000f0: 6c96 1e3e 1cd4 43be 62e0 a43b 5db2 54be
00000100: 4db5 6dbe 58ae 4fbe 6e43 4f3e 35a5 94bd
00000110: 3601 db3e c6d8 a7bd 27d7 b43e 4ff4 aa3e
00000120: 459d 25bf e23c 513e 222e 253d b979 56bd
00000130: a874 0c3f 5f31 b53e 9536 f03d efa7 2abd
00000140: a2eb 103e f895 d6bd 6982 8bbe adea 61bd
00000150: 1d52 3abd 173b 7bbd 2110 7f3d 76c3 823e
00000160: c78a aebe 460d 65be 2602 e53e 5f3c 44be
00000170: ac33 e9be ba1a 2d3e 59db 11bb ef32 b6bd
00000180: 54f5 dabe f6dc 933e 8235 c83e 3546 16be
00000190: 13f9 d93e 0601 22be ae3b 96be 463c 263e
000001a0: 162f 783e a25e 503d d160 40bb bd44 013e
000001b0: 4b84 813e dadf ce3d 208c b0be 9797 cbbd
000001c0: eaca 1ebe 1a53 90be 6ee4 23be c667 6abe
000001d0: e5ff 703e 6ebb 193d 4ed5 42be 4cfe 9abe
000001e0: 24bc 67be 40ad c53d 32d8 d7bc 38d8 2f3f
000001f0: 5611 bc3e d0e8 60bd 24d3 8a3d 1a72 4fbe
00000200: 40f9 00be 9f8d b63c fdee 7f3e 1671 f13d
00000210: 5ae4 76be 9d9c 0dbf 073d 943e 68c7 37bd
00000220: bf31 19be 79c9 3cbe 91a6 c53d 7fb3 df3e
00000230: c5a7 ef3d 5d95 d13d 7602 c03c 3fc3 d1bd
00000240: 14f7 2d3d 2ce9 da3c 2961 113d d452 f3bc
00000250: ede5 423d 68ce 7fbe 8f45 c73d 5087 e93c
00000260: 6a6c ef3c bdad 8cbe 8453 2d3d 8d30 7dbd
00000270: 3390 a6be b7c8 a4bd edbd 1c3e 7406 053d
00000280: 8d8d 63bd b4e6 67bd ee2c d5bc cd1e 0abd
00000290: 33b8 e03d f972 35be 9bdc db3c bf53 29be
000002a0: 165b c73d 3e70 cfbd ead1 bdbd 58df bfbe
000002b0: e889 a53e 5905 adbe 01c8 d6be 90b4 6fbe
000002c0: 6285 3bbe a8de 55be 424c a13d 42c9 66be
000002d0: 8248 f53d 2a6c 1bbc 6f8d a43b ce35 bbbd
000002e0: 9aad ed3d 244c a6be 4c8e 993e 9f06 4cbe
000002f0: 0d1d 3abd 62d4 72be cc96 18be db68 8c3d
00000300: 38eb cdbe 7696 5cbd 1066 e93d a9e4 523e
00000310: 2d94 383e 7ba7 f93c 207c fbbd f47a fd3c
00000320: df72 c7be 9137 683e ca53 9abe cfe2 c0bd
00000330: abc6 193d 4bed bcbd 8b95 283e 213e 273e
00000340: 78b0 da3d a520 50bc 3fd1 75be 3384 d4bd
00000350: 5fc6 a2bd 2404 dabe 43fa 9cbc 2a7a 2b3e
00000360: 1213 05bd 4c48 ce3c 6a0d 963c aa6f 73be
00000370: 4ba3 2d3e 9266 0cbe 5dd9 51bd 5bbb 36be
00000380: 65ee 873e 4da5 9b3d ba71 313e ff16 8fbe
00000390: 289f b23d 5cfa 16be 4c2d 60bf 650c e03d
000003a0: 69d7 043f c5ae c2be 2e8c 6bbd 05be ce3e
000003b0: 84b4 453e 9e1a 4ebe 898b 49bd de58 48bf
000003c0: 5407 cc3e 1f09 1cc0 4725 51bc cacd eebd
000003d0: 6aa0 a43e 5846 6f3e f341 e43d fbfd 543c
000003e0: 3aa6 6dbe 6a28 3b3e f42b 30be e3ae 99be
000003f0: 7592 bdbe a4c9 00be d24b 0d3e ae7d 46bd

predictionFunction.startBlock.2.bias f4 [64]
-0.23481615 -0.21711937 -0.03863013 0.03797281 -0.32387117 -0.246497 -0.047717556 -0.3186225
-0.16830775 -0.02127649 -0.17862767 0.029135492 0.12674119 0.14843643 0.2758889 0.0030542722
-0.10469631 -0.1348414 -0.44155917 0.025834287 -0.11564265 -0.10428686 -0.083945766 0.11413604
-0.12548111 -0.12953675 -0.08122542 -0.15707555 -0.11918944 0.06810039 -0.12660159 -0.09722249
-0.13349932 -0.083449714 -0.0061946195 -0.001759219 -0.09009544 -0.11860529 -0.18920238 0.010067423
-0.28172678 0.15977496 0.16230477 -0.16952322 0.13004152 -0.113955304 0.09834108 -0.46854177
-0.09858048 -0.20894344 -0.10896279 -0.05151405 0.15764852 -0.16896555 -0.31162217 0.40451965
0.02834264 -0.17296146 0.15173611 0.14196877 0.118501574 0.07944856 -0.15124948 -0.059799768
00000000: a573 70be 8a54 5ebe a13a 1ebd 6189 1b3d
00000010: 71d2 a5be b669 7cbe 7c73 43bd 7d22 a3be
00000020: de58 2cbe 094c aebc 2cea 36be 8ead ee3c
00000030: 71c8 013e b8ff 173e 4f41 8d3e 2f2a 483b
00000040: 056b d6bd dd13 0abe 0b14 e2be 6da2 d33c
00000050: 0ed6 ecbd 5994 d5bd c2eb abbd 28c0 e93d
00000060: 1f7e 00be 48a5 04be 8359 a6bd 6ad8 20be
00000070: 9819 f4bd 3878 8b3d d9a3 01be 961c c7bd
00000080: 0cb4 08be afe7 aabd 3cfc cabb 9895 e6ba
00000090: f583 b8bd 55e7 f2bd 45be 41be d5f1 243c
000000a0: 7e3e 90be 0c9c 233e 3933 263e 7f97 2dbe
000000b0: 9b29 053e 6661 e9bd 0c67 c93d b5e4 efbe
000000c0: 90e4 c9bd 45f5 55be e227 dfbd 6600 53bd
000000d0: 9d6e 213e 4e05 2dbe f18c 9fbe 331d cf3e
000000e0: d32e e83c cf1c 31be b660 1b3e 4360 113e
000000f0: f4b0 f23d edb5 a23d 25e1 1abe 9af0 74bd

predictionFunction.policy_head.0.weight f4 [2, 64]
-0.07829442 -0.014412561 -0.06384407 0.17116502 -0.22620063 0.054238133 0.16905849 0.50627905
-0.077366814 0.029696202 0.09662329 0.0032812643 0.037767652 -0.07883444 -0.019703886 -0.003468938
0.058660522 0.14225206 -0.42829677 -0.13016382 0.23439538 0.16099004 0.04781628 0.11703779
0.09223085 -0.269946 0.080008864 -0.41320446 0.057209313 -0.38055044 0.0036920574 0.13059118
0.0062118373 0.0071014627 -0.21330464 -0.06552421 -0.16438213 0.3975017 -0.15475006 0.039971452
0.64781487 0.28052604 0.13817869 -0.58043283 -0.102674276 -0.040793847 -0.20970295 0.23796809
0.43625683 0.3579311 -0.120143 0.017582012 -0.15023182 0.058826394 0.3230461 -0.040678494
0.081079066 -0.12588316 0.07390767 -0.108856 0.077033386 0.009781186 0.14894733 0.082576714
0.106543764 -0.17413597 0.06716072 -0.19627957 0.017619554 0.085022196 0.018943587 -0.39052275
0.11332121 -0.030659186 -0.02260431 0.008324257 0.0897618 0.11374274 0.04910084 0.10419041
-0.013069281 -0.31667998 0.41852227 0.025980487 -0.123277426 -0.046104852 -0.051474947 -0.110070534
0.081385635 0.2674004 0.05756399 0.4092137 0.0055736997 0.43373924 0.09492255 -0.045063548
-0.08729243 -0.12337322 0.22772215 0.017615963 0.098887965 -0.36452866 0.2639832 0.09679851
-0.6478118 -0.19728503 -0.05515685 0.5028705 -0.059797287 -0.026537381 0.10704019 -0.27013433
-0.5056273 -0.32031605 0.097373664 0.030132871 0.03873506 0.13613245 -0.25564417 0.015283199
0.011198879 -0.026301296 -0.22321473 -0.057912093 0.048086174 0.21072069 -0.17186353 0.03469067
00000000: d358 a0bd aa22 6cbc aec0 82bd e245 2f3e
00000010: 23a1 67be ce28 5e3d ab1d 2d3e 819b 013f
00000020: 7e72 9ebd 7345 f33c 6ee2 c53d 7b0a 573b
00000030: 41b2 1a3d f373 a1bd 0b6a a1bc 1f57 63bb
00000040: 0446 703d 86aa 113e b749 dbbe aa49 05be
00000050: 5805 703e 93da 243e 01db 433d 82b1 ef3d
00000060: 87e3 bc3d 5d36 8abe b0db a33d 898f d3be
00000070: 5054 6a3d 82d7 c2be 72f6 713b b2b9 053e
00000080: ab8c cb3b 63b3 e83b 886c 5abe 8f31 86bd
00000090: ca53 28be 5885 cb3e cd76 1ebe 1bb9 233d
000000a0: 32d7 253f 1ca1 8f3e b77e 0d3e 3f97 14bf
000000b0: e446 d2bd 7317 27bd 5fbc 56be e8ad 733e
000000c0: 0e5d df3e bf42 b73e 880d f6bd 2708 903c
000000d0: 5fd6 19be f2f3 703d 4c66 a53e 7e9e 26bd
000000e0: c80c a63d 84e7 00be e85c 973d e5ef debd
000000f0: aec3 9d3d 4441 203c a685 183e fb1d a93d
00000100: 9e33 da3d b350 32be 8f8b 893d 83fd 48be
00000110: e256 903c 1e20 ae3d 952f 9b3c 99f2 c7be
00000120: f314 e83d f928 fbbc ad2c b9bc 7762 083c
00000130: 09d5 b73d f4f1 e83d f61d 493d c861 d53d
00000140: 8a20 56bc e123 a2be 8d48 d63e 08d5 d43c
00000150: e078 fcbd 71d8 3cbd 65d7 52bd a96c e1bd
00000160: 83ad a63d b5e8 883e 38c8 6b3d 7584 d13e
00000170: 95a3 b63b 1213 de3e c166 c23d 8e94 38bd
00000180: 60c6 b2bd 19ab fcbd ff2f 693e 5a4f 903c
00000190: c685 ca3d 80a3 babe ce28 873e 4c3e c63d
000001a0: fed6 25bf 1605 4abe 26ec 61bd 1fbc 003f
000001b0: 00ee 74bd ec64 d9bc e337 db3d 0c4f 8abe
000001c0: ca70 01bf 7700 a4be d86b c73d 36d9 f63c
000001d0: a7a8 1e3d 4e66 0b3e cbe3 82be 6266 7a3c
000001e0: 817b 373c d175 d7bc 6792 64be 3b35 6dbd
000001f0: 02f6 443d 2ac7 573e fefc 2fbe ce17 0e3d

predictionFunction.policy_head.0.bias f4 [2]
-0.027797984 0.0136522995
00000000: 99b8 e3bc e5ad 5f3c

predictionFunction.value_head.0.weight f4 [64, 64]
-0.075059265 -0.02108488 -0.008426341 0.057349164 0.032973323 -0.054660413 0.055014487 -0.076271184
-0.0571219 -0.14035325 0.036119606 -0.03374567 -0.10392651 -0.11504868 -0.07063373 -0.09970354
-0.050939098 -0.10576246 -0.090487316 0.033897933 -0.07918825 0.05087948 0.008513406 -0.076636374
0.021163484 0.076191425 -0.014874486 0.013550654 0.10146546 -0.04599691 0.027475417 0.05129341
-0.14329621 0.07380961 -0.098886035 -0.00642021 -0.09105356 0.025156878 -0.10053763 -0.0751911
0.021597624 -0.09307783 -0.029235953 0.074468695 -0.15842244 -0.08122079 -0.11724852 0.08356293
0.004702288 -0.104877606 -0.1400534 0.06460041 0.05217425 -0.10768244 -0.0061751553 -0.061070234
0.015961645 -0.11755568 0.032356873 0.08022713 0.005493664 -0.07507529 -0.013550799 0.053935066
-0.15669538 -0.12294185 -0.104002476 0.012806799 -0.14461997 -0.08095179 -0.05579235 -0.3980852
0.050905455 0.03852242 -0.1276372 -0.07262784 -0.09544338 -0.1640128 -0.15565631 -0.05548053
-0.2870624 -0.3939824 -0.0847422 -0.033943698 -0.0021564658 0.042929158 -0.04256621 -0.09717174
0.4222788 0.24462877 0.06678159 -0.0211896 0.111786574 -0.1650734 -0.16145776 -0.0700794
-0.47423345 -0.25970346 -0.102432035 0.029812545 0.085303925 0.004173087 0.016992478 0.20734797
-0.21551163 -0.05986232 -0.0923713 -0.36755887 -0.3780084 0.11489172 -0.21834493 -0.14920218
0.2221047 -0.0514761 -0.12342806 0.034742143 -0.09678737 -0.3449232 -0.095503196 0.21264075
-0.059741747 -0.006902909 0.16782454 0.054721117 -0.11124966 0.12458411 -0.252543 -0.073912024
0.19924432 -0.21055932 0.13885483 0.04923355 0.07916548 -0.082232416 0.074235395 -0.24158262
0.06936411 0.18602827 -0.028286347 -0.005694705 -0.25498122 -0.14590952 -0.24412218 0.043751415
-0.14822356 -0.48988947 0.084677175 0.28441942 -0.55927426 0.041925803 -0.09028014 -0.014538063
0.28282326 -0.108026735 0.010536835 0.003176949 0.1422946 -0.3487574 -0.048705745 0.25279412
-0.09008897 -0.32777938 -0.35408312 -0.111506075 0.38486445 0.28760734 -0.4435883 0.17237528
0.21351524 0.044798695 0.3273854 -0.05625382 -0.5141884 -0.11548978 -0.17840403 -0.55688643
-0.22837986 0.57987475 -0.08525392 0.14638774 0.25020218 -0.35356507 -0.025371838 -0.12994714
0.47045103 -0.23215675 -0.24807315 0.1480698 0.009768262 -0.061564114 0.06594201 0.075442985
0.30543908 0.24966194 -0.016266717 -0.15639982 0.24986663 0.10297119 -0.11868028 -0.03323876
-0.2617074 0.085413516 -0.28373694 -0.33019897 -0.47835946 0.07195343 -0.031377226 -0.040990975
0.7978768 0.015291293 -0.28598714 -0.54930896 -0.03321479 0.0121392105 -0.10653273 -0.15366863
-0.086674996 0.13108996 -0.019997949 -0.0952218 -0.09475957 0.08546703 0.10229455 -0.2705234
0.21615618 -0.60031486 0.20130895 -0.03559471 0.18504623 -0.00052640354 -0.010918591 -0.039072204
0.46130186 0.11429991 -0.1569682 -0.015848868 0.17728485 0.0748751 -0.43198636 -0.07005929
0.14719877 -0.16199629 0.09685413 0.24421284 -0.21612614 -0.41008052 0.2107603 -0.037578955
0.14253132 0.32607085 -0.18328878 0.09619931 -0.076757304 -0.14000706 0.2789247 -0.08039019
00000000: acb8 99bd 33ba acbc a30e 0abc f5e6 6a3d
00000010: 090f 073d 99e3 5fbd df56 613d 1134 9cbd
00000020: a7f8 69bd c3b8 0fbe 27f2 133d e638 0abd
00000030: 6cd7 d4bd a49e ebbd 6ba8 90bd 5f31 ccbd
00000040: 84a5 50bd fd99 d8bd 6a51 b9bd 8fd8 0a3d
00000050: 732d a2bd 0067 503d d07b 0b3c 88f3 9cbd
00000060: 0b5f ad3c 400a 9c3d 1eb4 73bc 9003 5e3c
00000070: 20cd cf3d 4267 3cbd 2014 e13c 0a19 523d
00000080: 3ebc 12be 7e29 973d c384 cabd a060 d2bb
00000090: 4a7a babd cc15 ce3c ace6 cdbd cbfd 99bd
000000a0: 80ed b03c 979f bebd 3d80 efbc 0b83 983d
000000b0: 7e39 22be 1657 a6bd fe1f f0bd 0b23 ab3d
000000c0: a715 9a3b 12ca d6bd 296a 0fbe 384d 843d
000000d0: abb4 553d 9c88 dcbd f558 cabb c824 7abd
000000e0: ffc1 823c 08c1 f0bd a488 043d 1f4e a43d
000000f0: 3204 b43b 13c1 99bd 2c04 5ebc 04eb 5c3d
00000100: c174 20be f0c8 fbbd 40ff d4bd 9cd3 513c
00000110: 4217 14be 0dca a5bd 8586 64bd d3d1 cbbe
00000120: 3d82 503d afc9 1d3d 53b3 02be e8bd 94bd
00000130: d277 c3bd f9f2 27be 5e64 1fbe 8d3f 63bd
00000140: d8f9 92be 10b8 c9be 528d adbd 8c08 0bbd
00000150: 7e53 0dbb 7cd6 2f3d e859 2ebd fa01 c7bd
00000160: ed34 d83e f77f 7a3e c9c4 883d d095 adbc
00000170: 5cf0 e43d 0009 29be 2f55 25be ca85 8fbd
00000180: bace f2be daf7 84be e3c7 d1bd 7039 f43c
00000190: d3b3 ae3d 64be 883b cf33 8b3c 0753 543e
000001a0: 15af 5cbe 3132 75bd 2a2d bdbd ad30 bcbe
000001b0: 518a c1be 5a4c eb3d d095 5fbe 75c8 18be
000001c0: 6a6f 633e 9ad8 52bd dac7 fcbd c74d 0e3d
000001d0: 7538 c6bd c699 b0be 2e97 c3bd 7fbe 593e
000001e0: c3b3 74bd cc31 e2bb 32da 2b3e 4023 603d
000001f0: ddd6 e3bd f425 ff3d 514d 81be 305f 97bd
00000200: b406 4c3e dd9c 57be f62f 0e3e 1ea9 493d
00000210: 8321 a23d 7869 a8bd ba08 983d 6f61 77be
00000220: c50e 8e3d 327e 3e3e c5b8 e7bc a69a babb
00000230: e68c 82be 4e69 15be 2afb 79be af34 333d
00000240: ebc7 17be cbd2 fabe 3a6b ad3d 6c9f 913e
00000250: 992c 0fbf 64ba 2b3d cbe4 b8bd 0e31 6ebc
00000260: 36ce 903e 1f3d ddbd b0a2 2c3c 5c34 503b
00000270: adb5 113e 5490 b2be ad7f 47bd 3b6e 813e
00000280: 9180 b8bd b3d2 a7be 624a b5be 4c5d e4bd
00000290: f40c c53e 4541 933e 011e e3be 2583 303e
000002a0: bda3 5a3e d67e 373d 0f9f a73e 686a 66bd
000002b0: daa1 03bf e885 ecbd 8caf 36be 1c90 0ebf
000002c0: 69dc 69be ac72 143f 9b99 aebd abe6 153e
000002d0: 801a 803e 7b06 b5be 9ad8 cfbc dd10 05be
000002e0: f5de f03e 80ba 6dbe e306 7ebe 9c9f 173e
000002f0: 0f0b 203c a72a 7cbd 9b0c 873d da81 9a3d
00000300: 8362 9c3e 61a7 7f3e c741 85bc 4627 20be
00000310: 0add 7f3e 8fe2 d23d a60e f3bd 5e25 08bd
00000320: 83fe 85be 48ed ae3d f845 91be d70f a9be
00000330: 88eb f4be 525c 933d 6885 00bd 27e6 27bd
00000340: a741 4c3f 5588 7a3c e86c 92be 839f 0cbf
00000350: 3b0c 08bd 8ae3 463c d52d dabd 4f5b 1dbe
00000360: a982 b1bd 723c 063e bdd2 a3bc a603 c3bd
00000370: 4e11 c2bd 5709 af3d ce7f d13d 0b82 8abe
00000380: 0c58 5d3e 3cae 19bf ef23 4e3e c2cb 11bd
00000390: c27c 3d3e 58fe 09ba e4e3 32bc 2d0a 20bd
000003a0: c22f ec3e 1216 ea3d 46bc 20be 7cd5 81bc
000003b0: 298a 353e 1e58 993d 512d ddbe 3f7b 8fbd
000003c0: 46bb 163e 5be2 25be 755b c63d ee12 7a3e
000003d0: 2c50 5dbe 13f6 d1be 8cd1 573e 64ec 19bd
000003e0: bbf3 113e c2f2 a63e 0eb0 3bbe 2504 c53d
000003f0: ef32 9dbd 035e 0fbe 38cf 8e3e 9da3 a4bd

predictionFunction.value_head.0.bias f4 [64]
-0.14519487 -0.13914973 0.079018176 -0.102038026 0.025384607 -0.06557672 0.03581371 -0.295443
0.037795786 -0.075549856 -0.07809575 -0.18040931 0.07811088 -0.22281629 -0.12156449 -0.26934904
0.072585 -0.06962851 -0.07011723 0.3934786 -0.0669442 -0.046241492 0.32736242 -0.18022132
-0.1664603 -0.17551722 -0.1308893 -0.095675476 -0.03374582 -0.17830735 0.06101277 -0.010726174
-0.14996731 0.1369775 0.34023815 -0.21446423 -0.27850407 -0.06612221 0.046836156 -0.16201375
-0.19795671 -0.09716306 -0.12394316 -0.10036301 0.03223926 0.077782 -0.18122779 -0.13845165
-0.16958433 -0.14063682 -0.04242031 -0.011693064 -0.16793288 -0.14296201 -0.20170513 0.3904143
0.16574377 0.20661081 -0.13981298 -0.2594596 0.33909133 0.0072943526 0.2672732 -0.3254439
00000000: f7ad 14be 447d 0ebe 48d4 a13d 50f9 d0bd
00000010: 61f3 cf3c 164d 86bd 66b1 123d 4e44 97be
00000020: c1cf 1a3d e2b9 9abd aaf0 9fbd 38bd 38be
00000030: 99f8 9f3d f429 64be cef6 f8bd 1ee8 89be
00000040: 72a7 943d 6499 8ebd 9f99 8fbd 0776 c93e
00000050: 0a1a 89bd b867 3dbd 0c9c a73e f08b 38be
00000060: 9274 2abe c9ba 33be d807 06be 81f1 c3bd
00000070: 0f39 0abd 3496 36be 87e8 793d d6bc 2fbc
00000080: 0891 19be d443 0c3e b233 ae3e 839c 5bbe
00000090: 1698 8ebe 156b 87bd 45d7 3f3d efe6 25be
000000a0: 2ab5 4abe 6dfd c6bd e9d5 fdbd 1f8b cdbd
000000b0: 500d 043d 2b4c 9f3d c793 39be 45c6 0dbe
000000c0: 84a7 2dbe 1903 10be ebc0 2dbd 4494 3fbc
000000d0: 99f6 2bbe a264 12be ca8b 4ebe 62e4 c73e
000000e0: bcb8 293e c991 533e 222b 0fbe e4d7 84be
000000f0: 619d ad3e 7705 ef3b 08d8 883e 95a0 a6be

predictionFunction.value_head.2.weight f4 [41, 64]
-0.07590156 -0.6768821 -0.29125205 -0.39748713 -1.1423224 -0.73215777 -1.5257071 -0.7719172
-1.8102552 -0.33699146 0.03483534 -0.14597614 -0.6962887 -0.50306284 -1.1137074 -1.8568969
-0.34448966 -0.22354439 -1.1823843 -1.9651554 -0.11473047 -0.48874265 -1.547139 -0.93290496
-0.6300026 0.07631412 0.0024673978 -0.04622394 -0.18001898 -0.8501216 -1.5030043 -1.7673419
-0.43397596 -0.7096972 -1.9776608 -0.5874509 -0.6143889 -0.316609 -1.8215392 -0.2760383
-0.28626108 -0.84097475 -0.09334435 -0.5693446 -1.6838348 -1.3935521 -0.15539744 0.08163952
0.011090378 -1.2929732 -1.1334633 -0.9588054 -0.032325502 -0.780695 -0.42671892 -1.7827877
-1.4914674 -0.7758993 -0.113835886 -1.3828607 -1.6594353 -0.38475975 -1.6823905 -0.47582197
-0.021624297 -0.7447347 -0.12702851 -0.3874662 -1.1246631 -0.78691703 -1.4143629 -0.6689966
-1.7920588 -0.42303443 -0.0660157 -0.31488767 -0.89504725 -0.54208827 -1.0676607 -1.8934991
-0.19065298 -0.18214557 -1.3387945 -1.9143065 -0.0677522 -0.44667622 -1.6597308 -0.94297004
-0.5132248 0.047429945 -0.008699731 0.015444736 -0.07397296 -0.66453683 -1.4855089 -1.6922463
-0.24605678 -0.7479526 -1.9744681 -0.5603322 -0.7294916 -0.4288012 -1.7460684 -0.14534992
-0.16622236 -0.67127967 -0.03666513 -0.63022983 -1.6580756 -1.4828471 -0.48077217 -0.07384091
0.023502083 -1.4350575 -1.1197513 -0.87839 0.022378054 -0.55341125 -0.5804677 -1.7859515
-1.512727 -0.77543736 -0.17838465 -1.3343258 -1.700996 -0.37021393 -1.7419032 -0.3853567
-0.061051548 -0.7753117 -0.19078209 -0.42175284 -1.2515594 -0.7432593 -1.5082757 -0.6191041
-1.7555193 -0.4120049 0.057079874 -0.23075177 -0.78448737 -0.4697265 -1.2002162 -1.9151604
-0.34333792 -0.070565194 -1.2501158 -1.8084843 0.022324767 -0.338567 -1.7063336 -0.9775727
-0.56630254 0.09432602 0.015787428 -0.08614308 -0.17062587 -0.8249853 -1.5577304 -1.6456037
-0.23519705 -0.8606136 -1.9763081 -0.43173602 -0.6651771 -0.39476237 -1.8279362 -0.122983225
-0.18699764 -0.7523457 -0.06861667 -0.7530098 -1.6576841 -1.5142621 -0.2294639 0.088494666
-0.064773716 -1.3174114 -1.324466 -0.92087 0.1110942 -0.61444664 -0.50362307 -1.7807567
-1.4506578 -0.7567573 -0.2243393 -1.3762867 -1.7406088 -0.502704 -1.7306503 -0.5206111
-0.07267233 -0.61872 -0.32573354 -0.4018374 -1.1341612 -0.8060805 -1.3876014 -0.6471658
-1.7303945 -0.40040833 -0.009144518 -0.13476923 -0.79474807 -0.47918922 -1.0902438 -2.1210778
-0.2104089 -0.13023743 -1.3629847 -1.866457 -0.0894789 -0.39776078 -1.6843652 -0.8576461
-0.4398343 -0.03919201 0.03456318 0.0034230857 -0.17076351 -0.7590654 -1.3704563 -1.80228
-0.27010602 -0.66466016 -1.9986905 -0.52834666 -0.6910726 -0.21819592 -1.8878973 -0.14273135
-0.33662271 -0.8335199 0.09424258 -0.6474892 -1.7128605 -1.4011449 -0.4634897 0.10578924
-0.06562072 -1.4334768 -1.1755476 -0.9734475 -0.00044929236 -0.7559621 -0.44319108 -1.7707235
-1.5531098 -0.78518856 -0.24777703 -1.2685422 -1.7518284 -0.5392666 -1.6834285 -0.39104605
00000000: 4772 9bbd 2548 2dbf fd1e 95be 6f83 cbbe
00000010: 9f37 92bf b16e 3bbf 5f4a c3bf 5e9c 45bf
00000020: 71b6 e7bf 258a acbe 80af 0e3d c57a 15be
00000030: fa3f 32bf bac8 00bf f78d 8ebf ccae edbf
00000040: f360 b0be d2e8 64be 5e58 97bf 368a fbbf
00000050: cff7 eabd 7a3c fabe a708 c6bf dcd2 6ebf
00000060: da47 21bf 944a 9c3d 11b4 213b 5055 3dbd
00000070: e556 38be 92a1 59bf 7262 c0bf 4238 e2bf
00000080: 1932 debe b7ae 35bf fd23 fdbf 2f63 16bf
00000090: 9748 1dbf 931a a2be 3228 e9bf e454 8dbe
000000a0: d090 92be 1f4a 57bf 532b bfbd 91c0 11bf
000000b0: e687 d7bf ea5f b2bf 8220 1fbe 9f32 a73d
000000c0: 6bb4 353c 2580 a5bf 5315 91bf 4574 75bf
000000d0: bf67 04bd a1db 47bf e77a dabe 6332 e4bf
000000e0: 67e8 bebf 56a1 46bf ca22 e9bd 9401 b1bf
000000f0: 6068 d4bf 3bff c4be 9258 d7bf f09e f3be
00000100: 7025 b1bc efa6 3ebf c313 02be f861 c6be
00000110: f6f4 8fbf 6573 49bf d809 b5bf 5c43 2bbf
00000120: 2f62 e5bf f897 d8be 3d33 87bd f538 a1be
00000130: d121 65bf 4cc6 0abf 1ba9 88bf 2e5e f2bf
00000140: 893a 43be 5e84 3abe 9e5d abbf ff07 f5bf
00000150: aac1 8abd bfb2 e4be 0f72 d4bf 7c66 71bf
00000160: b362 03bf e745 423d 5189 0ebc eb0b 7d3c
00000170: 237f 97bd 161f 2abf 2825 bebf 879b d8bf
00000180: 4ff6 7bbe d279 3fbf 5fbb fcbf ee71 0fbf
00000190: f6bf 3abf d58b dbbe 2b7f dfbf 9cd6 14be
000001a0: 3236 2abe fcd8 2bbf 2d2e 16bd be56 21bf
000001b0: d23b d4bf efcd bdbf c527 f6be e739 97bd
000001c0: 7187 c03c f7af b7bf 0354 8fbf 2bde 60bf
000001d0: 2e52 b73c 5cac 0dbf 8899 14bf 0f9a e4bf
000001e0: 0aa1 c1bf 1083 46bf 77aa 36be 30cb aabf
000001f0: 3dba d9bf ae8c bdbe aff6 debf 794d c5be
00000200: 3011 7abd d47a 46bf 615c 43be fdef d7be
00000210: 1933 a0bf 3e46 3ebf 2e0f c1bf 9b7d 1ebf
00000220: dbb4 e0bf 4ef2 d2be 96cc 693d 314a 6cbe
00000230: 2ad4 48bf fe7f f0be afa0 99bf fa23 f5bf
00000240: fdc9 afbe 7c84 90bd cb03 a0bf 6a7c e7bf
00000250: 6ee2 b63c a758 adbe 2469 dabf 3442 7abf
00000260: 34f9 10bf 002e c13d a354 813c c86b b0bd
00000270: 8cb8 2ebe 3d32 53bf b663 c7bf 24a3 d2bf
00000280: 7fd7 70be 2c51 5cbf aaf7 fcbf 810c ddbe
00000290: 0c49 2abf 4b1e cabe d0f9 e9bf a1de fbbd
000002a0: 4f7c 3fbe ba99 40bf e686 8cbd 40c5 40bf
000002b0: fe2e d4bf 57d3 c1bf 96f8 6abe b13c b53d
000002c0: 15a8 84bd f0a0 a8bf 1a88 a9bf 23be 6bbf
000002d0: 5b85 e33d 604c 1dbf 71ed 00bf d6ef e3bf
000002e0: 28af b9bf d9ba 41bf 34b9 65be 2a2a b0bf
000002f0: 45cc debf 36b1 00bf f385 ddbf c546 05bf
00000300: 3bd5 94bd 6f64 1ebf 8cc6 a6be a2bd cdbe
00000310: 322c 91bf 4b5b 4ebf ec9c b1bf a8ac 25bf
00000320: 917d ddbf 5202 cdbe e3d2 15bc f200 0abe
00000330: 9c74 4bbf 4a58 f5be 1c8d 8bbf bdbf 07c0
00000340: 6e75 57be f65c 05be 4876 aebf 10e8 eebf
00000350: b740 b7bd 4da7 cbbe 4799 d7bf b28e 5bbf
00000360: f631 e1be cd87 20bd 1f92 0d3d d955 603b
00000370: a1dc 2ebe 1c52 42bf 1d6b afbf 1cb1 e6bf
00000380: 564b 8abe 2b27 2abf 17d5 ffbf ba41 07bf
00000390: 22ea 30bf c06e 5fbe 9ea6 f1bf 2b28 12be
000003a0: d059 acbe 8f61 55bf 4102 c13d dac1 25bf
000003b0: 033f dbbf b758 b3bf 864e edbe 07a8 d83d
000003c0: 2864 86bd 2b7c b7bf 5878 96bf db33 79bf
000003d0: 008f ebb9 bb86 41bf f1e9 e2be 11a7 e2bf
000003e0: 4dcc c6bf 1e02 49bf 43b9 7dbe 975f a2bf
000003f0: ea3b e0bf 600d 0abf 967a d7bf 3037 c8be

predictionFunction.value_head.2.bias f4 [41]
-1.6894568 -1.7188506 -1.6374195 -1.6803305 -1.7319541 -1.7273991 -1.6424781 -1.5933292
-1.7403656 -1.6009536 -1.615353 -1.6460233 -1.6453614 -1.7814275 -1.7754141 -1.7327211
-1.5699172 -1.7085055 -1.8214997 -1.7792373 -0.73329085 -0.647149 -0.40801933 -0.9708219
-0.25465822 -0.37199375 -0.3904449 -0.41665074 -0.22461115 -0.2712653 -0.004389027 -0.052945834
-0.3619548 -1.6633899 -1.7818604 -1.7128406 -1.759935 -1.7520669 -1.6824691 -1.802485
-1.7611476
00000000: 1f40 d8bf 4c03 dcbf f696 d1bf 1215 d7bf
00000010: acb0 ddbf 6a1b ddbf b93c d2bf 36f2 cbbf
00000020: 4dc4 debf 0cec ccbf e3c3 cebf e4b0 d2bf
00000030: 349b d2bf d105 e4bf c540 e3bf cec9 ddbf
00000040: 0cf3 c8bf 4fb0 dabf e726 e9bf 0cbe e3bf
00000050: f3b8 3bbf 8fab 25bf e9e7 d0be c987 78bf
00000060: 9062 82be f775 bebe 65e8 c7be 3f53 d5be
00000070: 7700 66be 49e3 8abe d4d1 8fbb bbdd 58bd
00000080: 2452 b9be f6e9 d4bf 0014 e4bf 5c3e dbbf
00000090: 8d45 e1bf ba43 e0bf 265b d7bf d4b7 e6bf
000000a0: 496d e1bf

dynamicsFunction.startBlock.0.weight f4 [64, 34]
0.20181608 0.31543663 -0.05447876 0.105739094 0.12904558 0.18143743 0.0050638765 -0.058942884
-0.055329226 -0.22372892 0.3130195 0.08701622 0.009157904 0.1615935 -0.044025138 0.3255068
0.18565962 0.091476336 -0.017594066 0.23520184 0.21503672 0.22410814 -0.15531524 0.095580846
0.23020804 0.12812161 0.21590823 0.037631653 0.23052812 -0.018937277 -0.13985288 0.13714929
0.3116364 -0.34133774 -0.30942032 0.13333978 -0.17881618 -0.05193917 -0.08682484 0.3569859
-0.28795668 -0.09122488 -0.055583004 0.3517203 -0.17916442 0.07843308 0.23855102 0.3158149
0.22785495 0.07998826 -0.03082076 0.11450365 -0.19249313 -0.05389335 -0.042555135 0.030383984
0.06568787 0.123992145 0.24127215 0.11767681 0.06919258 0.35781547 -0.11782383 0.0042778617
-0.11919294 0.15994915 0.32144338 -0.46661645 0.15754676 -0.19544469 0.5163915 -0.2780071
0.055044513 -0.118824944 0.07934054 -0.09863964 0.0808233 -0.19148067 0.15644364 0.14425431
-0.27721453 -0.28414345 0.0048188455 -0.21023248 -0.10072574 -0.007984922 -0.16187854 0.09643337
0.14679036 -0.2012973 -0.27673936 -0.17226492 -0.33361977 -0.2558321 -0.2430651 -0.5280558
0.10897958 -0.40966776 0.59726584 0.18827933 -0.18977821 0.23404874 0.033857856 -0.24334979
0.052672107 0.4445215 0.7756483 -0.1569579 0.12801854 -0.09711625 0.42840442 0.13526879
0.0026164716 0.35610768 -0.19277085 -0.06190872 -0.05159724 -0.5815217 -0.030621998 -0.22998631
0.18124114 -0.6651171 -0.16727374 -0.31247133 0.10987948 -0.07002892 0.019536084 -0.0051656156
-0.31834832 0.1500604 -0.37662524 0.22399667 -0.064314805 -0.2892296 -0.016501658 -0.050467342
-0.062422756 -0.078673065 -0.28235492 0.5769171 0.36977425 -0.10909121 0.07797473 -0.58371204
-0.13749772 0.012630901 0.017586717 -0.032411374 0.10324808 -0.019999819 -0.5369818 0.15253778
5.8056525e-05 -0.023822865 -0.19087367 -0.22344135 -0.2468996 -0.0004797227 -0.028588098 -0.04421416
0.38618213 0.19595306 0.19463551 0.40658846 0.072633736 -0.07502929 0.18302254 -0.14170447
-0.18572566 -0.07749689 -0.030777931 -0.2337063 0.16496938 0.012665484 -0.010623138 -0.085880004
-0.0031924848 -0.0967941 0.055351537 0.09720532 0.03173165 0.16144432 0.21770917 0.02404068
0.13651258 -0.173958 -0.24468218 0.28120115 -0.06575848 -0.5328505 -0.09913345 -0.23902874
0.06992524 -0.15179203 -0.12656175 -0.22281854 0.015308828 0.24293427 0.05189133 0.19483116
0.28736308 0.0021716175 -0.052561324 -0.017475037 0.28634274 0.03901694 0.034822773 -0.034064308
0.23684834 -0.21746784 -0.14031577 -0.24172448 0.14760049 0.078813806 -0.011686363 0.15156262
-0.32373387 -0.29253116 -0.10788695 -0.11667745 0.15095094 -0.09582761 -0.15000977 0.0022511506
0.101193845 0.1827897 -0.2816557 0.030996233 0.07152187 -0.24424574 -0.12124332 -0.1781299
0.16440195 -0.05975376 0.008889333 -0.19491641 -0.5830351 0.5721655 0.05480002 -0.08844005
0.20720796 0.04248312 -0.08952018 0.051483333 -0.2396455 -0.07375202 0.039001226 -0.05717371
-0.07285985 0.029222088 0.0668794 -0.10842103 -0.025748424 0.11087632 0.19371721 0.11053967
00000000: e0a8 4e3e e980 a13e 1f25 5fbd bd8d d83d
00000010: 8624 043e bcca 393e e0ee a53b 186e 71bd
00000020: e6a0 62bd 3219 65be 1844 a03e 8f35 b23d
00000030: 090b 163c c478 253e b453 34bd d4a8 a63e
00000040: 8e1d 3e3e f257 bb3d 6e21 90bc c0d8 703e
00000050: 9632 5c3e 9b7c 653e f50a 1fbe e4bf c33d
00000060: a8bb 6b3e 5032 033e 0c17 5d3e a623 1a3d
00000070: 900f 6c3e 5922 9bbc 9835 0fbe dd70 0c3e
00000080: ce8e 9f3e d2c3 aebe 576c 9ebe 398a 083e
00000090: 971b 37be 2bbe 54bd 39d1 b1bd dbc6 b63e
000000a0: 0f6f 93be 1cd4 babd 01ab 63bd af14 b43e
000000b0: e176 37be 86a1 a03d b846 743e 7eb2 a13e
000000c0: cf52 693e e3d0 a33d d27b fcbc e480 ea3d
000000d0: eb1c 45be 46bf 5cbd 4b4e 2ebd d5e7 f83c
000000e0: 5d87 863d 98ef fd3d 0c10 773e 8a00 f13d
000000f0: d7b4 8d3d 9733 b73e 9f4d f1bd 4e2d 8c3b
00000100: 6e1b f4bd b6c9 233e 3a94 a43e 5ae8 eebe
00000110: f053 213e a722 48be 3c32 043f f256 8ebe
00000120: 5b76 613d 7e5a f3bd 4b7d a23d 9403 cabd
00000130: b086 a53d 8213 44be c332 203e 67b7 133e
00000140: 10ef 8dbe 407b 91be 68e7 9d3b 2f47 57be
00000150: 4c49 cebd 31d3 02bc 7dc3 25be dc7e c53d
00000160: 3650 163e e120 4ebe c8b0 8dbe 3766 30be
00000170: 36d0 aabe 6dfc 82be 0fe6 78be aa2e 07bf
00000180: b030 df3d f9bf d1be 6ae6 183f 4ccc 403e
00000190: 3855 42be 79aa 6f3e 89ae 0a3d b030 79be
000001a0: b5be 573d 5298 e33e e390 463f 92b9 20be
000001b0: 4b17 033e e2e4 c6bd d357 db3e e783 0a3e
000001c0: 1c79 2b3b bf53 b63e b965 45be ff93 7dbd
000001d0: a157 53bd 9bde 14bf fcda fabc 8881 6bbe
000001e0: 4797 393e 1d45 2abf cf49 2bbe 3efc 9fbe
000001f0: 7e08 e13d 536b 8fbd 230a a03c 5344 a9bb
00000200: 8dfe a2be 6fa9 193e 06d5 c0be 625f 653e
00000210: 7bb7 83bd e715 94be 7c2e 87bc d8b6 4ebd
00000220: 01af 7fbd 581f a1bd d390 90be d7b0 133f
00000230: 0d53 bd3e 366b dfbd 37b1 9f3d 276e 15bf
00000240: 34cc 0cbe d7f1 4e3c 0512 903c cac1 04bd
00000250: bb73 d33d a9d6 a3bc a477 09bf dd32 1c3e
00000260: b881 7338 2b28 c3bc 6374 43be cfcd 64be
00000270: 40d3 7cbe 4a83 fbb9 9631 eabc e819 35bd
00000280: aab9 c53e eba7 483e 884e 473e 5d2c d03e
00000290: ffc0 943d f5a8 99bd 436a 3b3e fa1a 11be
000002a0: de2e 3ebe b1b6 9ebd 0022 fcbc b450 6fbe
000002b0: bced 283e e482 4f3c ac0c 2ebc dbe1 afbd
000002c0: 0239 51bb fc3b c6bd 4bb8 623d 9513 c73d
000002d0: 0cf9 013d a951 253e 27ef 5e3e f6f0 c43c
000002e0: f4c9 0b3e 0c22 32be f78d 7abe 99f9 8f3e
000002f0: 62ac 86bd e468 08bf 7a06 cbbd f3c3 74be
00000300: f734 8f3d 5f6f 1bbe 6799 01be 8b2a 64be
00000310: e1d1 7a3c c3c3 783e 018c 543d d281 473e
00000320: 4121 933e b251 0e3b 8b4a 57bd cf27 8fbc
00000330: 849b 923e 3ad0 1f3d 53a2 0e3d 0487 0bbd
00000340: 5f88 723e e4af 5ebe f0ae 0fbe 9f86 77be
00000350: 9524 173e 2269 a13d 2978 3fbc 3b33 1b3e
00000360: 72c0 a5be a5c6 95be d5f3 dcbd 96f4 eebd
00000370: e292 1a3e 4441 c4bd 299c 19be 0a88 133b
00000380: b83e cf3d 392d 3b3e 2d35 90be d0eb fd3c
00000390: 0f7a 923d 8e1b 7abe 6b4e f8bd af67 36be
000003a0: fc58 283e 5cc0 74bd 91a4 113c 2b98 47be
000003b0: ca41 15bf 7079 123f fc75 603d 0f20 b5bd
000003c0: 532e 543e c802 2e3d 5b56 b7bd 30e0 523d
000003d0: a165 75be 4d0b 97bd c0bf 1f3d fb2e 6abd
000003e0: 8c37 95bd 2963 ef3c 11f8 883d d80b debd
000003f0: 5cee d2bc 2013 e33d ce5d 463e 9f62 e23d

dynamicsFunction.startBlock.0.bias f4 [64]
0.08383622 0.08398958 0.08338624 -0.18872526 -0.16621849 -0.14357392 0.20256284 -0.024224961
0.18385847 0.02331485 -0.09124308 0.14456765 0.0050742184 0.15983517 0.045006983 -0.19253467
-0.2227662 0.25512603 -0.071326025 -0.23972993 -0.13625565 0.035479628 -0.17090762 -0.10603023
-0.050478987 0.11340063 0.2699279 -0.13462737 -0.22330035 0.15977433 -0.018261505 -0.100087345
0.12595241 0.018930081 0.10547952 0.08625365 0.039858837 -0.06629755 -0.0034766945 -0.25028813
0.023570023 0.056624983 -0.17166285 0.23282948 -0.05580931 0.079527125 -0.076640636 -0.08040669
0.14783445 0.15794022 -0.006768075 -0.16927123 -0.006472014 -0.013725398 -0.050397396 -0.09738329
0.0028071594 0.1260876 -0.03158657 0.14949979 0.15597543 0.025867363 0.122483656 0.09695984
00000000: 53b2 ab3d bb02 ac3d 68c6 aa3d 3241 41be
00000010: 2e35 2abe 0b05 13be a26c 4f3e 6d73 c6bc
00000020: 6545 3c3e c9fe be3c a7dd babd 8b09 143e
00000030: a145 a63b d5ab 233e 3e59 383d cf27 45be
00000040: d31c 64be e19f 823e 6113 92bd c37b 75be
00000050: 9a86 0bbe 1653 113d 6802 2fbe 6126 d9bd
00000060: 0ec3 4ebd 973e e83d fd33 8a3e c2db 09be
00000070: d9a8 64be e29b 233e 2799 95bc 98fa ccbd
00000080: abf9 003e 4213 9b3c a605 d83d c1a5 b03d
00000090: 0543 233d 03c7 87bd 41d9 63bb c425 80be
000000a0: ec15 c13c 99ef 673d 63c8 2fbe da6a 6e3e
000000b0: 4e98 64bd 1edf a23d c4f5 9cbd 43ac a4bd
000000c0: ea61 173e 15bb 213e bac6 ddbb 7055 2dbe
000000d0: 3013 d4bb 7ee0 60bc 806d 4ebd e470 c7bd
000000e0: 52f8 373b 1c1d 013e eb60 01bd 7916 193e
000000f0: 06b8 1f3e cbe7 d33c b6d8 fa3d e192 c63d

dynamicsFunction.startBlock.2.weight f4 [32, 64]
-0.074973516 -0.23047185 0.08160967 -0.0720759 -0.20731354 -0.057918932 0.29611322 -0.0036240087
0.20262425 -0.0011796246 -0.27665433 0.050435722 0.12324362 0.26893747 -0.032487165 -0.10892047
-0.11472531 -0.0042054174 0.018533958 -0.20104675 -0.14752297 -0.07524314 0.10856589 -0.09497916
-0.16119881 0.19117105 0.25501266 0.011052487 0.10003364 -0.13002902 0.03275016 -0.005778139
-0.067094706 -0.041152067 0.10229657 -0.4577389 -0.26563752 -0.026371654 0.2283272 -0.17132089
-0.04933363 -0.19118053 0.22133984 0.008696278 -0.32444447 -0.09401923 -0.015616875 0.09174013
-0.05282914 0.19134302 -0.19433819 0.20281927 0.024613887 -0.06700341 -0.2164595 -0.18499017
-0.27906668 0.08295332 0.3192672 0.18303457 0.23389204 -0.03418226 -0.059980344 -0.2921058
0.085923165 0.22215424 -0.41958266 -0.0010100513 -0.005586632 -0.363502 -0.41583872 -0.109801635
-0.3084864 -0.03214767 0.255653 -0.17747897 -0.11825035 -0.7809235 -0.13645665 0.05963092
1.3533018 -0.13881181 0.013811185 0.24920996 0.15667789 -0.011731668 0.11902246 0.08965408
0.1996774 0.3894693 -0.9584049 0.12516993 0.038003378 -0.18325599 -0.0679871 0.31982446
0.010284566 0.4821745 -0.14726396 -0.063102685 0.3032512 0.016213732 -0.06757992 0.22733426
-0.06147443 0.37181717 0.08992342 -0.18447688 0.45440352 0.08913768 0.17221092 0.16624287
0.17249125 -1.2371471 -0.037338346 -0.123120256 0.46618307 0.120094456 0.1579688 0.28043866
-0.25922084 0.029262159 0.1290255 0.0029553338 -0.7795996 -0.84828323 0.045933526 -0.2681233
0.021871617 -0.3691879 0.2538877 -0.2506578 0.003973198 0.31691664 0.0032160261 -0.039377112
0.023579936 0.15918505 -0.19255747 0.09208832 0.16431144 0.3409229 -0.022949414 0.0916093
-0.33189365 0.33805856 -0.15015309 -0.10851732 -0.05897972 0.21749653 0.11217648 0.07094513
-0.1300543 -0.08188843 0.6724211 -0.0042214217 -0.06652837 0.102233715 -0.16818523 -0.18401328
0.119813465 0.104778804 -0.24058251 0.05267084 -0.43950883 -0.058308955 -0.05618547 -0.025725866
-0.052927535 -0.109879926 0.028429914 -0.06490136 -0.49196002 0.03551894 -0.27001652 -0.24828489
-0.24446681 -0.10838444 0.03936466 0.16884023 0.32719636 -0.002210543 -0.1667034 -0.090988725
-0.24707457 0.048161916 -0.14650676 0.12293549 0.1998838 -0.016717032 0.16045968 0.053284694
-0.06436513 0.090057224 -0.22489831 -0.13126856 0.39825726 -0.049378898 -0.0028154715 0.030754205
-0.39236283 0.16983296 0.10250063 0.068960726 -0.15297322 -0.20811352 -0.4119747 -0.023168314
0.011603086 -0.39909407 0.502555 0.0011194363 0.0072742016 -0.0827063 -0.10070382 0.09202172
-0.27669597 0.04814131 0.03910025 0.032513168 0.00015542099 -0.13640633 0.2105703 0.13312772
-0.14334492 -0.04796652 0.2701764 -0.21471302 0.06755398 0.2869021 0.15871246 0.09082296
0.023628686 0.011628848 0.055092063 0.1282963 0.3358201 -0.25714922 -0.48459655 0.38208476
-0.0002680934 -0.045059673 -0.020200083 -0.10381134 0.23750012 0.071872324 -0.021676088 0.20970783
-0.012372702 0.017721748 0.018225932 -0.05647692 0.0047512837 -0.113919206 -0.141377 0.23084082
00000000: b78b 99bd d000 6cbe f822 a73d 889c 93bd
00000010: 004a 54be 673c 6dbd 279c 973e c780 6dbb
00000020: bb7c 4f3e a29d 9aba a3a5 8dbe b095 4e3d
00000030: 2767 fc3d 2cb2 893e 4311 05bd b211 dfbd
00000040: 1af5 eabd 99cd 89bb 87d4 973c 33df 4dbe
00000050: 4310 17be 1319 9abd cb57 de3d 6f84 c2bd
00000060: 4d11 25be 58c2 433e 0591 823e 7e15 353c
00000070: 70de cc3d 5426 05be 0825 063d 8b56 bdbb
00000080: f368 89bd 128f 28bd dd80 d13d c15c eabe
00000090: a401 88be 5e09 d8bc 9bce 693e be6e 2fbe
000000a0: 0f12 4abd d4c4 43be e9a6 623e d57a 0e3c
000000b0: 961d a6be 278d c0bd ecdd 7fbc 40e2 bb3d
000000c0: 5e63 58bd 6def 433e 9700 47be dbaf 4f3e
000000d0: 10a3 c93c 1539 89bd 8fa7 5dbe 106e 3dbe
000000e0: d4e1 8ebe 6ee3 a93d fe76 a33e 6a6d 3b3e
000000f0: 6581 6f3e b302 0cbd f3ad 75bd e48e 95be
00000100: 7cf8 af3d 677c 633e 8ad3 d6be b363 84ba
00000110: 1110 b7bb ef1c babe d0e8 d4be aedf e0bd
00000120: eef1 9dbe 46ad 03bd f3e4 823e 0cbd 35be
00000130: 3d2d f2bd 9aea 47bf 4bbb 0bbe 8d3f 743d
00000140: fe38 ad3f af24 0ebe 4f48 623c e530 7f3e
00000150: 2b70 203e 2f36 40bc 0cc2 f33d 8f9c b73d
00000160: 3b78 4c3e 8568 c73e 065a 75bf 8c2c 003e
00000170: 6ea9 1b3d 75a7 3bbe d23c 8bbd 08c0 a33e
00000180: 9980 283c 93df f63e 5dcc 16be fb3b 81bd
00000190: be43 9b3e a9d2 843c 5767 8abd 50ca 683e
000001a0: 9dcc 7bbd d25e be3e c529 b83d 82e7 3cbe
000001b0: 94a7 e83e d18d b63d 0f58 303e 923b 2a3e
000001c0: 8ca1 303e d65a 9ebf 18f0 18bd 7926 fcbd
000001d0: 8caf ee3e 15f4 f53d 93c2 213e a895 8f3e
000001e0: 98b8 84be 32b7 ef3c 431f 043e 46ae 413b
000001f0: d793 47bf 1729 59bf cb24 3c3d 7547 89be
00000200: 1b2c b33c 3206 bdbe 92fd 813e 3856 80be
00000210: 9a31 823b e642 a23e f7c3 523b e549 21bd
00000220: b62a c13c 6801 233e c92d 45be cd98 bc3d
00000230: 4241 283e 728d ae3e 6900 bcbc a89d bb3d
00000240: f7ed a9be 0316 ad3e bbc1 19be 543e debd
00000250: b894 71bd 69b7 5e3e c8bc e53d ae4b 913d
00000260: f42c 05be 1fb5 a7bd ca23 2c3f da53 8abb
00000270: 0740 88bd e95f d13d c038 2cbe fa6d 3cbe
00000280: c360 f53d 4596 d63d 435b 76be 61bd 573d
00000290: 4d07 e1be 5fd5 6ebd bc22 66bd 0dbf d2bc
000002a0: 8bca 58bd ba08 e1bd dae5 e83c 01eb 84bd
000002b0: 2fe2 fbbe 4f7c 113d 9b3f 8abe 653e 7ebe
000002c0: 8255 7abe a9f8 ddbd d63c 213d 74e4 2c3e
000002d0: 4886 a73e c2de 10bb 4cb4 2abe 4c58 babd
000002e0: 1e01 7dbe 6e45 453d de05 16be 9ac5 fb3d
000002f0: 57ae 4c3e 28f2 88bc 8b4f 243e 0d41 5a3d
00000300: ded1 83bd ec6f b83d be4b 66be 446b 06be
00000310: 60e8 cb3e 8741 4abd c683 38bb 3ef0 fb3c
00000320: c8e3 c8be b1e8 2d3e daeb d13d 483b 8d3d
00000330: 03a5 1cbe b61b 55be 59ee d2be 7acb bdbc
00000340: df1a 3e3c 0f56 ccbe 72a7 003f 0dba 923a
00000350: 6d5c ee3b ec61 a9bd ce3d cebd e275 bc3d
00000360: 18ab 8dbe d32f 453d 9527 203d 872c 053d
00000370: 81f8 2239 1aae 0bbe be9f 573e a252 083e
00000380: 03c9 12be 8b78 44bd 9054 8a3e bbdd 5bbe
00000390: be59 8a3d d5e4 923e 8585 223e 6301 ba3d
000003a0: f290 c13c ec86 3e3c 37a8 613d 1b60 033e
000003b0: 9df0 ab3e 10a9 83be 0a1d f8be 9da0 c33e
000003c0: e38e 8cb9 7e90 38bd a57a a5bc 0a9b d4bd
000003d0: 3b33 733e cc31 933d 0d92 b1bc a6bd 563e
000003e0: e0b6 4abc 332d 913c 8d4e 953c 5854 67bd
000003f0: a8b0 9b3b 794e e9bd 22c5 10be 8961 6c3e

dynamicsFunction.startBlock.2.bias f4 [32]
0.034435794 -0.40162873 0.06168332 -0.14465886 -0.046091057 0.039179057 0.049820043 0.04085529
-0.19650008 0.16751508 0.16816391 -0.11095229 0.15696084 -0.008510291 0.08561443 0.2669073
0.17421243 0.085773304 0.04980604 0.097335406 -0.18237428 -0.12694307 -0.090462595 0.18282324
-0.11360232 -0.12542132 0.16003193 -0.15901361 0.10913192 0.012593535 0.120462686 0.04077064
00000000: 8c0c 0d3d 48a2 cdbe a6a7 7c3d 7421 14be
00000010: fac9 3cbd 387a 203d 1a10 4c3d e057 273d
00000020: 5137 49be 1389 2b3e 2933 2c3e f43a e3bd
00000030: 58ba 203e bf6e 0bbc 9e56 af3d 13a8 883e
00000040: be64 323e eaa9 af3d 6b01 4c3d c957 c73d
00000050: 53c0 3abe 5dfd 01be 7444 b9bd 0436 3b3e
00000060: 55a8 e8bd 726e 00be 69df 233e 77d4 22be
00000070: 8e80 df3d 1d55 4e3c 24b5 f63d 1dff 263d
