AlphaGo/foersterrobert_MuZero/Environments/CartPole/Models/model_7.pt (torch, 83738 bytes, 20 tensors)

predictionFunction.startBlock.0.weight f4 [64, 32]
-0.10397756 0.5062074 -0.33258614 -0.2997279 -0.23020643 -0.07767351 -0.067210205 0.250068
0.1377158 -0.13047998 -0.23858169 -0.24398921 -0.41217583 0.23079559 0.012751548 -0.21850576
-0.059581153 0.1994429 -0.4066625 0.30423206 0.3366237 0.710485 0.055428326 0.09157685
-0.012009616 0.117268614 0.007617435 -0.013766088 0.07940142 0.12815742 -0.2534918 0.053747684
-0.14849962 -0.1929823 -0.28414083 -0.07784617 -0.24845146 0.04205649 -0.15378919 0.15740922
-0.0077439044 -0.17267033 -0.18395488 -0.07005801 0.104716286 0.046115994 0.011055845 0.17581892
-0.35230535 -0.12476526 0.06153628 0.120135754 0.29878667 0.14486808 0.2528741 -0.4944858
0.06784044 -0.02994844 0.0649835 0.11648872 0.026696207 0.4127017 -0.63992596 -0.25104058
-0.33034778 0.14932135 -1.6029367 0.06931706 0.057112444 0.5935336 -0.054428678 -0.34424916
-0.34522244 0.12902541 -0.38779327 0.15534063 0.5491827 0.06234285 0.23694178 0.24025506
-0.54562366 0.30671528 0.05855748 -0.1350988 0.2924411 0.12020804 1.0040313 0.16514133
0.23629504 0.25826517 0.44068497 0.2216972 0.1892757 1.7040697 -1.0319973 0.36613604
0.12072747 0.3437354 -0.58458763 -0.14465013 0.02223331 0.38260034 0.07619967 -0.3719524
-0.3471738 0.0068716113 -0.091871805 -0.2879371 0.25595888 -0.05712138 -0.07027659 0.44337517
0.07178668 0.21973903 -0.26627943 0.012675667 -0.065947324 0.41349745 0.19996673 0.3757581
0.21499419 0.030253464 0.12490422 0.21742626 0.0620451 0.08104428 -0.4016417 0.4176623
-0.37614742 -0.6176348 -0.16982768 0.27157837 -0.07170872 -0.07765281 -0.18424211 -0.13972914
0.027992954 -0.1571343 0.022024076 0.80675024 0.48900643 0.5837771 -0.03533881 -0.3412062
-0.51896125 -0.61609524 -0.048689958 -0.1372631 0.12047067 -0.110957675 0.010688027 -0.34519857
0.07201432 0.57474375 -0.0851108 -0.06577335 -0.28695968 0.341475 -0.69083035 0.2326297
-0.13573125 -0.16675353 -0.004980174 -0.24235108 0.20727485 -0.38283724 -0.08666796 0.29841238
-0.03199027 -0.09973642 -0.04349277 0.08738128 0.26321852 0.05130168 0.040861662 -0.0003766417
-0.12037668 -0.06985428 0.4788079 -0.07244205 0.014527058 -0.23308942 0.23112655 -0.08352094
0.008038809 0.044868216 -0.09582875 -0.22416224 -0.5680222 0.1953204 0.090571895 0.19975947
-0.14698175 -0.03890157 -0.06736103 -0.16324481 -0.112502255 0.16344602 -0.43553495 0.30797735
0.015552705 0.36805317 -0.63286245 -0.12934679 -0.052327987 0.035713185 0.23684676 0.1589357
0.08712404 -0.051408876 0.27009717 0.085942075 0.031858914 0.06516755 0.06744669 -0.09754861
-0.22352149 0.08971428 -0.0754725 -0.43278483 -0.2660859 0.24632522 -0.13663556 0.047401406
-0.27170482 0.11369225 -0.7551918 0.21542865 -0.06427207 -0.020380368 -0.010612091 0.15175252
0.113564245 0.09536168 0.16623117 -0.089121595 0.36777544 -0.12922327 -0.2614324 0.42914963
0.015370835 0.11946191 0.007664515 0.15933952 0.22150002 0.03881708 0.69598967 -0.047406092
0.27807832 0.18501592 0.29101482 0.3653473 0.13122094 0.49039537 -0.65752053 -0.20228691
00000000: 30f2 d4bd cf96 013f bb48 aabe ef75 99be
00000010: 3cbb 6bbe 4a13 9fbd 81a5 89bd ea08 803e
00000020: 5f05 0d3e 8b9c 05be c24e 74be 4fd8 79be
00000030: b608 d3be ae55 6c3e deeb 503c f9bf 5fbe
00000040: 5e0b 74bd c23a 4c3e 1136 d0be 4ec4 9b3e
00000050: f159 ac3e 58e2 353f d008 633d a58c bb3d
00000060: fbc3 44bc 872a f03d ad9b f93b 288b 61bc
00000070: 369d a23d b33b 033e adc9 81be 8826 5c3d
00000080: 4910 18be 279d 45be e87a 91be d06d 9fbd
00000090: 0f6a 7ebe 6d43 2c3d ea7a 1dbe e22f 213e
000000a0: 94c0 fdbb 7ed0 30be ab5e 3cbe 937a 8fbd
000000b0: 7e75 d63d 20e4 3c3d 9323 353c e009 343e
000000c0: 5e61 b4be ee84 ffbd 770d 7c3d bc09 f63d
000000d0: 91fa 983e 4c58 143e b778 813e 3e2d fdbe
000000e0: eeef 8a3d 6e56 f5bc 1216 853d a391 ee3d
000000f0: 01b2 da3c a34d d33e 30d2 23bf 6488 80be
00000100: 5823 a9be b2e7 183e 082d cdbf 1af6 8d3d
00000110: bdee 693d d1f1 173f 9bf0 5ebd 6d41 b0be
00000120: ffc0 b0be 3d1f 043e d78c c6be 9d11 1f3e
00000130: 3d97 0c3f 375b 7f3d dea0 723e 6c05 763e
00000140: fead 0bbf c909 9d3e f8d9 6f3d 5757 0abe
00000150: d7ba 953e a22f f63d 1984 803f cf1a 293e
00000160: 54f7 713e 553b 843e 76a1 e13e 9704 633e
00000170: 7dd1 413e f51e da3f 7d18 84bf 2f76 bb3e
00000180: f73f f73d 16fe af3e 89a7 15bf 2a1f 14be
00000190: a122 b63c 31e4 c33e 930e 9c3d 8c70 bebe
000001a0: c4c0 b1be 412b e13b 4927 bcbd 7e6c 93be
000001b0: 0b0d 833e 1cf8 69bd 2ced 8fbd 1202 e33e
000001c0: e504 933d 4503 613e c755 88be 9aad 4f3c
000001d0: 640f 87bd f0b5 d33e 14c4 4c3e 5e63 c03e
000001e0: 7027 5c3e 1dd6 f73c c9cd ff3d fda4 5e3e
000001f0: 0123 7e3d 8bfa a53d fba3 cdbe d5d7 d53e
00000200: 6596 c0be 501d 1ebf 4fe7 2dbe 520c 8b3e
00000210: 05dc 92bd 7008 9fbd f7a9 3cbe 2815 0fbe
00000220: 7b51 e53c d0e7 20be d66b b43c 2f87 4e3f
00000230: 0d5f fa3e 6b72 153f 6ebf 10bd 94b2 aebe
00000240: a5da 04bf 6bb8 1dbf 1f6f 47bd b38e 0cbe
00000250: 54b9 f63d c73d e3bd d61c 2f3c debd b0be
00000260: 3e7c 933d 6822 133f 924e aebd 2eb4 86bd
00000270: 61ec 92be d0d5 ae3e 42da 30bf 7b36 6e3e
00000280: 22fd 0abe 70c1 2abe ba30 a3bb e22a 78be
00000290: dc3f 543e 3e03 c4be f97e b1bd 82c9 983e
000002a0: 3b08 03bd 9c42 ccbd 7a25 32bd f5f4 b23d
000002b0: 94c4 863e b621 523d 8f5e 273d fe77 c5b9
000002c0: 0c88 f6bd c30f 8fbd 4f26 f53e 7f5c 94bd
000002d0: e602 6e3c feae 6ebe 70ac 6c3e 070d abbd
000002e0: 35b5 033c bcc7 373d dd41 c4bd c98a 65be
000002f0: e769 11bf 1202 483e c27d b93d bf8d 4c3e
00000300: 6282 16be 4157 1fbd 94f4 89bd a629 27be
00000310: 9567 e6bd 655e 273e 70fe debe 35af 9d3e
00000320: c6d0 7e3c 7771 bc3e 4603 22bf 7c73 04be
00000330: df55 56bd fd47 123d f587 723e 0ac0 223e
00000340: 176e b23d 1d92 52bd 2d4a 8a3e 6602 b03d
00000350: 7e7e 023d 9176 853d 7d21 8a3d 91c7 c7bd
00000360: d1e2 64be 1fbc b73d 5391 9abd f995 ddbe
00000370: 693c 88be ae3c 7c3e 31ea 0bbe fa27 423d
00000380: e51c 8bbe 7bd7 e83d 4054 41bf 5499 5c3e
00000390: 13a1 83bd bbf4 a6bc 56de 2dbc 0365 1b3e
000003a0: 5f94 e83d fc4c c33d 8138 2a3e 6285 b6bd
000003b0: 104d bc3e 1b53 04be 78da 85be 80b9 db3e
000003c0: f4d5 7b3c 72a8 f43d 9d26 fb3b e629 233e
000003d0: e7d0 623e a9fe 1e3d 612c 323f e42c 42bd
000003e0: 4860 8e3e d074 3d3e e5ff 943e cd0e bb3e
000003f0: c85e 063e 1a15 fb3e 4453 28bf 4d24 4fbe

predictionFunction.startBlock.0.bias f4 [64]
-0.03197041 -0.2302462 -0.2553018 0.036240723 -0.14714849 -0.0018475229 0.08112034 -0.1116092
0.17116414 0.07943547 -0.23309538 -0.10182903 -0.13982472 -0.03134032 -0.069398835 -0.14586622
-0.14118356 0.09428128 -0.22969271 -0.029408712 -0.23986557 -0.091206975 -0.017103674 -0.12165305
-0.043420985 -0.14312826 0.047822315 -0.08772757 -0.06193797 -0.1594836 -0.07998038 -0.16752347
0.07949067 -0.22208767 -0.19396882 -0.006713184 -0.04283719 -0.2110556 -0.12480834 -0.120811075
-0.101912834 -0.14705467 -0.34152386 -0.10993627 -0.005911826 -0.25570682 0.022811478 -0.15645476
-0.08234874 0.12082995 -0.12560312 -0.000792344 -0.18115668 -0.14936519 -0.16290206 0.13209876
0.016803097 0.07617783 -0.114278816 -0.0070089283 0.10522228 0.19107689 -0.13206695 0.08755874
00000000: 68f3 02bd a9c5 6bbe ebb6 82be 2771 143d
00000010: 18ae 16be 9528 f2ba 6c22 a63d 5d93 e4bd
00000020: a745 2f3e 10af a23d 8eb0 6ebe bd8b d0bd
00000030: 362e 0fbe b55e 00bd fa20 8ebd f45d 15be
00000040: 6c92 10be 8b16 c13d 9134 6bbe 8aea f0bc
00000050: 529f 75be b9ca babd 011d 8cbc 3c25 f9bd
00000060: 34da 31bd 3790 12be 55e1 433d 83aa b3bd
00000070: abb2 7dbd ab4f 23be c1cc a3bd 468b 2bbe
00000080: 01cc a23d f36a 63be c39f 46be 45fa dbbb
00000090: 0d76 2fbd f61e 58be 849b ffbd cc6b f7bd
000000a0: adb7 d0bd 8095 16be 37dc aebe 4426 e1bd
000000b0: feb7 c1bb 01ec 82be 23df ba3c ad35 20be
000000c0: 75a6 a8bd b175 f73d 1b9e 00be 4eb5 4fba
000000d0: 2381 39be 30f3 18be cccf 26be e644 073e
000000e0: a6a6 893c 1f03 9c3d 030b eabd 27ab e5bb
000000f0: c77e d73d a9a9 433e 8f3c 07be ff51 b33d

predictionFunction.startBlock.2.weight f4 [64, 64]
-0.03934492 -0.21402025 0.31623858 -0.2740432 -0.099665366 -0.45423535 0.31716135 0.13712478
-0.58201283 -0.052985005 -0.13321058 -0.02742861 0.11792884 0.6048947 0.1429529 0.10391983
0.13334514 -0.054061614 -0.57498413 -0.21592663 -0.09255665 0.1324751 0.32105967 0.2806797
-0.51144564 -0.08699722 0.8827087 -0.14917937 -0.039787382 0.1574391 -0.24929848 0.03601686
-0.4610771 0.35965845 0.10287367 -0.31854185 -0.041004837 0.3300618 -0.12533517 0.17412528
-0.096416384 0.050694205 0.1619953 0.1134484 0.037996076 -0.22318627 -0.2955208 -0.014341847
-0.010529222 -0.56688887 -0.30343693 -0.36270118 -0.029229784 -0.20689535 0.43796012 -0.30624995
-0.35444078 -0.18613364 -0.13890639 0.32050073 0.16171807 -0.09074494 0.0050316313 -0.17540671
-0.1948567 -0.0986169 0.19975273 -0.13427556 0.45209175 -0.12193068 0.30120635 0.18484807
-0.65368646 0.21434952 -0.07573044 -0.09103025 0.4588763 0.3934213 0.072249055 -0.026175166
0.14308701 -0.029229142 -0.12235386 -0.010180911 -0.045488466 -0.026802415 0.09951478 0.27604103
-0.3071239 -0.28744516 0.45597488 -0.20278585 -0.407755 0.12204906 -0.014483324 -0.06752378
-0.31475455 0.12457569 0.3343451 -0.12115757 0.35407183 -0.15820703 -0.32090104 0.1303197
0.1911344 0.14505552 -0.0029354582 0.120289534 0.25872642 0.06048222 -0.33260202 -0.13662578
-0.18144868 -0.29219738 -0.18848453 -0.2048827 0.2434763 0.06699809 -0.1589671 -0.2652337
-0.21513833 0.012706704 -0.14242972 0.7013989 0.23068127 -0.010096238 0.0683948 -0.27053368
-0.15608086 0.041055672 0.27754915 -0.013228495 -0.21001491 -0.45788714 0.20414515 -0.017382488
-0.11800145 -0.15085983 0.07880341 0.43320403 0.117019214 0.10233567 -0.012460848 -0.07557899
0.04247196 0.026722513 0.06709949 -0.029702581 0.047582556 -0.24981081 0.09730064 0.028506905
0.060900643 -0.27476302 0.042315975 -0.010183689 -0.3253189 -0.08046096 0.13268366 0.032476857
-0.045196284 -0.006487432 -0.25710765 -0.03372078 -0.024697242 -0.1771964 0.026838591 -0.13454436
0.0973417 -0.101288304 -0.092685536 -0.37475085 0.32331777 -0.3073503 -0.53644526 -0.20244364
-0.183126 -0.18353294 0.030899229 -0.22066553 0.119767204 0.006999242 0.005021743 -0.15983967
0.15658662 -0.3517436 0.16754422 -0.19924401 -0.042124588 -0.20547475 -0.13941544 -0.0026568798
-0.48652208 -0.19617264 0.1139642 0.23698145 0.12482693 -0.0050195074 -0.10113269 -0.03264226
-0.43652117 0.22352564 -0.1925 -0.04748911 -0.03544629 -0.006563924 0.083404444 0.19058742
0.115198016 -0.15108153 -0.2664279 -0.07913005 -0.079479925 -0.38159904 0.016890973 0.23229447
-0.046434626 0.097053304 0.021682525 -0.1401262 0.20180868 -0.16128471 -0.079635344 -0.19825788
0.19616814 0.07599888 0.13302766 -0.27947232 0.0955272 -0.14743942 -0.8945352 0.07402746
0.53697425 -0.33241495 -0.057506733 0.41789344 0.21107306 -0.10645698 -0.053466782 -0.73159915
0.3542877 -2.2015922 -0.007909952 -0.1473648 0.28217015 0.23366678 0.11145391 -0.014653293
-0.22487979 0.20367278 0.057230875 -0.27871123 -0.2777302 -0.115363024 0.13798454 -0.019813942
00000000: 2428 21bd 2028 5bbe 06ea a13e 644f 8cbe
00000010: 5b1d ccbd 8991 e8be f962 a23e 706a 0c3e
00000020: cbfe 14bf ce06 59bd 5b68 08be f7b1 e0bc
00000030: ad84 f13d 61da 1a3f 3f62 123e ebd3 d43d
00000040: a18b 083e b66f 5dbd 2932 13bf df1b 5dbe
00000050: 578e bdbd 8da7 073e ef61 a43e 40b5 8f3e
00000060: 1aee 02bf 992b b2bd 33f9 613f 7ac2 18be
00000070: 18f8 22bd b737 213e 1a48 7fbe 6a86 133d
00000080: 4c12 ecbe 2725 b83e 6eaf d23d eb17 a3be
00000090: b0f4 27bd dcfd a83e dd57 00be e64d 323e
000000a0: f475 c5bd baa4 4f3d 19e2 253e a257 e83d
000000b0: c6a1 1b3d f18a 64be 814e 97be 11fa 6abc
000000c0: c282 2cbc a11f 11bf 165c 9bbe f8b3 b9be
000000d0: 4d73 efbc 60dc 53be 4f3c e03e cbcc 9cbe
000000e0: 4379 b5be d199 3ebe 7a3d 0ebe ac18 a43e
000000f0: 6c99 253e 7cd8 b9bd 62e0 a43b d19d 33be
00000100: 8488 47be a8f7 c9bd fb8b 4c3e 887f 09be
00000110: 9278 e73e cbb6 f9bd b837 9a3e d048 3d3e
00000120: ff57 27bf 717e 5b3e 9018 9bbd 116e babd
00000130: d6f1 ea3e 846e c93e 50f7 933d 4d6d d6bc
00000140: 6785 123e f471 efbc a994 fabd d6cd 26bc
00000150: 1d52 3abd bd90 dbbc 68ce cb3d 4055 8d3e
00000160: 583f 9dbe 032c 93be 8a75 e93e 18a7 4fbe
00000170: 43c5 d0be dcf4 f93d 774b 6dbc e849 8abd
00000180: 8227 a1be 8a21 ff3d 482f ab3e 7621 f8bd
00000190: e748 b53e 0601 22be 244d a4be 8772 053e
000001a0: bcb8 433e 6f89 143e d160 40bb 5c5a f63d
000001b0: ca77 843e 34bc 773d d04a aabe a1e7 0bbe
000001c0: afcd 39be e59a 95be 1702 41be c5cc 51be
000001d0: da51 793e 4b36 893d 45c8 22be b6cc 87be
000001e0: 394d 5cbe c82f 503c 19d9 11be e18e 333f
000001f0: b637 6c3e b16a 25bc 9312 8c3d 6483 8abe
00000200: a9d3 1fbe fe29 283d ec1a 8e3e 54bc 58bc
00000210: 260e 57be 2f70 eabe 6d0b 513e b865 8ebc
00000220: bfaa f1bd 007b 1abe af63 a13d ebcc dd3e
00000230: c5a7 ef3d 5d95 d13d 9628 4cbc 28c9 9abd
00000240: 14f7 2d3d 2ce9 da3c 756b 893d d452 f3bc
00000250: ede5 423d 68ce 7fbe 8f45 c73d 5087 e93c
00000260: f472 793d bdad 8cbe 8453 2d3d 7dd9 26bc
00000270: 3390 a6be b7c8 a4bd 3ade 073e 7406 053d
00000280: bd1f 39bd 8694 d4bb 9da3 83be cd1e 0abd
00000290: df51 cabc f972 35be 9bdc db3c ffc5 09be
000002a0: 165b c73d 3e70 cfbd ead1 bdbd 58df bfbe
000002b0: e889 a53e 055d 9dbe 7a54 09bf 634d 4fbe
000002c0: 6285 3bbe 0ff0 3bbe 6120 fd3c 25f6 61be
000002d0: 8248 f53d e659 e53b 6f8d a43b 03ad 23be
000002e0: 3e58 203e bd17 b4be b690 2b3e 9f06 4cbe
000002f0: d58a 2cbd f967 52be ecc2 0ebe 0c1f 2ebb
00000300: 6c19 f9be 7be1 48be 1066 e93d 44ab 723e
00000310: 43a5 ff3d ae7a a4bb a81e cfbd e4b3 05bd
00000320: b47f dfbe e8e3 643e b81e 45be f183 42bd
00000330: 2130 11bd 2f16 d7bb f3cf aa3d 5929 433e
00000340: f0ec eb3d 1eb5 1abe 3d69 88be f00e a2bd
00000350: 5fc6 a2bd f360 c3be f05e 8a3c 9ade 6d3e
00000360: 3c32 3ebd e2c3 c63d 8d9f b13c 3e7d 0fbe
00000370: efa6 4e3e d227 25be db17 a3bd 1d04 4bbe
00000380: 4de0 483e 4da5 9b3d 6738 083e ff16 8fbe
00000390: c4a3 c33d 5cfa 16be 4200 65bf b59b 973d
000003a0: 2577 093f 4b32 aabe 2e8c 6bbd 21f6 d53e
000003b0: 8923 583e 1e06 dabd fcff 5abd 154a 3bbf
000003c0: 3365 b53e e3e6 0cc0 be98 01bc cce6 16be
000003d0: 9b78 903e 5846 6f3e f341 e43d 5e14 70bc
000003e0: e346 66be 998f 503e ec6a 6a3d 3db3 8ebe
000003f0: a732 8ebe 7343 ecbd d24b 0d3e d950 a2bc

predictionFunction.startBlock.2.bias f4 [64]
-0.14811172 -0.20310344 -0.1242655 0.03515041 -0.33328864 -0.21529706 -0.047717556 -0.314782
-0.17549841 -0.02127649 -0.18437718 0.058608107 0.12609543 0.13233922 0.24725445 0.0042658127
-0.098825626 -0.124534376 -0.41906673 0.014795134 -0.062474407 -0.09755258 -0.083945766 0.12989783
-0.12548111 -0.08495491 -0.08122542 -0.13064204 -0.11918944 0.048219103 -0.12660159 -0.101165235
-0.094065934 -0.019265618 -0.01700571 -0.001759219 -0.10562228 -0.120061636 -0.19226907 0.010067423
-0.26761085 0.17741773 0.13469948 -0.15964529 0.12435778 -0.113955304 0.08599778 -0.45933005
-0.110261664 -0.22287226 -0.035685834 -0.01756861 0.16277087 -0.15054184 -0.29359028 0.3921894
0.016695287 -0.15744339 0.14893767 0.15221761 0.1024756 0.093083955 -0.12619478 -0.059799768
00000000: 99aa 17be 59fa 4fbe e97e febd e0f9 0f3d
00000010: cfa4 aabe d576 5cbe 7c73 43bd 1b2b a1be
00000020: dbb5 33be 094c aebc 5fcd 3cbe 0e0f 703d
00000030: 291f 013e ef83 073e 4530 7d3e 3bc8 8b3b
00000040: 1765 cabd e10b ffbd ea8f d6be 4a67 723c
00000050: 2ae5 7fbd a6c9 c7bd c2eb abbd f003 053e
00000060: 1f7e 00be d7fc adbd 8359 a6bd 07c7 05be
00000070: 9819 f4bd 6581 453d d9a3 01be b82f cfbd
00000080: a4a5 c0bd eed2 9dbc 8f4f 8bbc 9895 e6ba
00000090: 7e50 d8bd e0e2 f5bd 2fe2 44be d5f1 243c
000000a0: 4a04 89be feac 353e a9ee 093e 0e7a 23be
000000b0: 4baf fe3d 6661 e9bd 9b1f b03d 4f2d ebbe
000000c0: ded0 e1bd a038 64be 4f2b 12bd 0cec 8fbc
000000d0: 68ad 263e a427 1abe 7751 96be 0dcd c83e
000000e0: 8ec4 883c d738 21be 1e83 183e efde 1b3e
000000f0: bade d13d cda2 be3d 3439 01be 9af0 74bd

predictionFunction.policy_head.0.weight f4 [2, 64]
-0.10670383 0.026847014 -0.08327485 0.13409403 -0.2778349 0.05540714 0.16905849 0.5057825
0.0010647691 0.029696202 0.08293886 -0.035342976 0.04632858 -0.08226556 -0.015567425 -0.019955676
-0.0416612 0.12906173 -0.45584846 -0.11910681 0.11551934 0.17723918 0.04781628 0.12548338
0.09223085 -0.24493805 0.080008864 -0.37489185 0.057209313 -0.18066975 0.0036920574 0.117043115
0.0073706866 0.014933079 -0.1941005 -0.06552421 -0.058929235 0.3818652 -0.16735806 0.039971452
0.6060453 0.2939218 0.16279453 -0.56345546 -0.13899714 -0.040793847 -0.18638997 0.21986276
0.41978937 0.34957623 -0.14471985 0.0524054 -0.073125385 0.06517588 0.28440833 -0.039801452
0.06997861 -0.08872677 0.07968747 -0.17621525 0.039378278 0.030375438 0.09672838 0.082576714
0.1349533 -0.21539539 0.08659145 -0.15920879 0.0692535 0.08385347 0.018943587 -0.3900284
0.034889344 -0.030659186 -0.0089198 0.04694895 0.08120129 0.11717441 0.044965833 0.12067826
0.08725265 -0.3034906 0.44607383 0.014924863 -0.0044017355 -0.06235363 -0.051474947 -0.11851478
0.081385635 0.2423925 0.05756399 0.37090006 0.0055736997 0.23385918 0.09492255 -0.031514592
-0.08845119 -0.13120532 0.20851701 0.017615963 -0.006564666 -0.34889323 0.276591 0.09679851
-0.60604256 -0.21067894 -0.07977172 0.48589328 -0.023473082 -0.026537381 0.083728395 -0.2520289
-0.48916057 -0.311962 0.1219497 -0.0046903333 -0.038370952 0.12978308 -0.21700819 0.014407657
0.022301372 -0.06345777 -0.22899361 0.00944856 0.08574273 0.19012658 -0.1196441 0.03469067
00000000: 8a87 dabd 45ee db3c 018c aabd f24f 093e
00000010: 6040 8ebe 99f2 623d ab1d 2d3e f67a 013f
00000020: b98f 8b3a 7345 f33c d9db a93d ccc3 10bd
00000030: 09c3 3d3d d97a a8bd 830e 7fbc 167a a3bc
00000040: efa4 2abd c228 043e f864 e9be 45ee f3bd
00000050: 6795 ec3d 307e 353e 01db 433d b77e 003e
00000060: 87e3 bc3d 0ad1 7abe b0db a33d d3f1 bfbe
00000070: 5054 6a3d 7e01 39be 72f6 713b 4db4 ef3d
00000080: cd85 f13b dfa9 743c 48c2 46be 8f31 86bd
00000090: c85f 71bd d683 c33e e95f 2bbe 1bb9 233d
000000a0: c925 1b3f eb7c 963e 9cb3 263e 9e3e 10bf
000000b0: 4455 0ebe 7317 27bd 03dd 3ebe b423 613e
000000c0: a2ee d63e a8fb b23e 7131 14be 0ba7 563d
000000d0: c3c2 95bd ef7a 853d f89d 913e d906 23bd
000000e0: f250 8f3d 61b6 b5bd 2f33 a33d c571 34be
000000f0: 1e4b 213d e9d5 f83c 8719 c63d fb1d a93d
00000100: 3331 0a3e 9c90 5cbe dc56 b13d a107 23be
00000110: c7d4 8d3d 5ebb ab3d 952f 9b3c cdb1 c7be
00000120: 21e8 0e3d f928 fbbc 5a24 12bc 8b4d 403d
00000130: dd4c a63d 23f9 ef3d 182e 383d 2a26 f73d
00000140: 84b1 b23d 1f63 9bbe ca63 e43e 6a87 743c
00000150: 6f3c 90bb 8566 7fbd 65d7 52bd e1b7 f2bd
00000160: 83ad a63d bd35 783e 38c8 6b3d 9de6 bd3e
00000170: 95a3 b63b c878 6f3e c166 c23d 7215 01bd
00000180: e625 b5bd b05a 06be 7c85 553e 5a4f 903c
00000190: 691c d7bb 22a2 b2be 569d 8d3e 4c3e c63d
000001a0: 9b25 1bbf 38bc 57be 5b5f a3bd 01c7 f83e
000001b0: 9f4a c0bc ec64 d9bc cb79 ab3d ef09 81be
000001c0: 4173 fabe 7cb9 9fbe c4c0 f93d 5eb1 99bb
000001d0: dc2a 1dbd dbe5 043e 6537 5ebe 180e 6c3c
000001e0: 5eb1 b63c 26f6 81bd 4d7d 6abe 22ce 1a3c
000001f0: e299 af3d 8bb0 423e f707 f5bd ce17 0e3d

predictionFunction.policy_head.0.bias f4 [2]
-0.01919187 0.005047655
00000000: 4538 9dbc cd66 a53b

predictionFunction.value_head.0.weight f4 [64, 64]
-0.075059265 -0.02108488 -0.008426341 0.057349164 0.032973323 -0.054660413 0.055014487 -0.076271184
-0.0571219 -0.14035325 0.036119606 -0.03374567 -0.10392651 -0.11504868 -0.07063373 -0.09970354
-0.050939098 -0.10576246 -0.090487316 0.033897933 -0.07918825 0.05087948 0.008513406 -0.076636374
0.021163484 0.076191425 -0.014874486 0.013550654 0.10146546 -0.04599691 0.027475417 0.05129341
-0.14329621 0.07380961 -0.098886035 -0.00642021 -0.09105356 0.025156878 -0.10053763 -0.0751911
0.021597624 -0.09307783 -0.029235953 0.074468695 -0.15842244 -0.08122079 -0.11724852 0.08356293
0.004702288 -0.104877606 -0.1400534 0.06460041 0.05217425 -0.10768244 -0.0061751553 -0.061070234
0.015961645 -0.11755568 0.032356873 0.08022713 0.005493664 -0.07507529 -0.013550799 0.053935066
-0.15669538 -0.12294185 -0.104002476 0.012806799 -0.14461997 -0.08095179 -0.05579235 -0.3980852
0.050905455 0.03852242 -0.1276372 -0.07262784 -0.09544338 -0.1640128 -0.15565631 -0.05548053
-0.2870624 -0.3939824 -0.0847422 -0.033943698 -0.0021564658 0.042929158 -0.04256621 -0.09717174
0.4222788 0.24462877 0.06678159 -0.0211896 0.111786574 -0.1650734 -0.16145776 -0.0700794
-0.47423345 -0.25970346 -0.102432035 0.029812545 0.085303925 0.004173087 0.016992478 0.20734797
-0.21551163 -0.05986232 -0.0923713 -0.36755887 -0.3780084 0.11489172 -0.21834493 -0.14920218
0.2221047 -0.0514761 -0.12342806 0.034742143 -0.09678737 -0.3449232 -0.095503196 0.21264075
-0.059741747 -0.006902909 0.16782454 0.054721117 -0.11124966 0.12458411 -0.252543 -0.073912024
0.0922315 -0.2515663 0.31780335 -0.300201 0.17854 -0.23828286 0.074235395 -0.13706392
-0.15458857 0.18602827 -0.018632706 -0.27219608 -0.12650791 -0.10362797 -0.08559669 -0.026374813
0.078769624 -0.45527482 0.010384064 0.3147838 -0.46570498 0.08876753 -0.09028014 -0.13367224
0.28282326 -0.08843419 0.010536835 0.08179251 0.1422946 -0.08340995 -0.048705745 0.11468213
-0.13561268 -0.30099505 -0.15732878 -0.111506075 0.58584887 0.26304868 -0.47839153 0.17237528
0.2293782 -0.07383008 0.27507597 -0.17682268 -0.44348225 -0.11548978 0.002025293 -0.45947236
-0.16552112 0.39996597 0.0716467 0.32403412 0.1997213 -0.3596865 0.0075979647 -0.007542819
0.42470312 -0.12067415 0.00898965 0.12576146 -0.00085946586 0.036194466 -0.20168705 0.075442985
0.37702632 0.2792298 -0.016266717 -0.13273464 0.30278417 0.079408556 -0.11868028 0.053752206
-0.16661488 0.085413516 -0.23419163 -0.31663 -0.41728258 0.075753324 -0.08785054 -0.032564964
0.7978768 0.112336166 -0.2651055 -0.5853754 -0.11876181 0.0121392105 -0.10653273 -0.04585614
-0.086674996 0.1821124 -0.019997949 -0.04808702 -0.09475957 0.1037306 0.10229455 -0.22191606
0.2600409 -0.58791625 0.22855943 -0.03559471 0.097242855 0.07806118 -0.0029988661 -0.039072204
0.39950833 0.15714692 -0.08836326 -0.015947767 0.15392232 0.0748751 -0.44014233 -0.074335046
0.060802493 0.047909442 0.08131227 0.27258414 -0.15768392 -0.3571368 0.17428786 -0.07248794
0.16174994 0.3259307 -0.1741053 -0.04344462 -0.076757304 -0.13790894 0.34788683 -0.08039019
00000000: acb8 99bd 33ba acbc a30e 0abc f5e6 6a3d
00000010: 090f 073d 99e3 5fbd df56 613d 1134 9cbd
00000020: a7f8 69bd c3b8 0fbe 27f2 133d e638 0abd
00000030: 6cd7 d4bd a49e ebbd 6ba8 90bd 5f31 ccbd
00000040: 84a5 50bd fd99 d8bd 6a51 b9bd 8fd8 0a3d
00000050: 732d a2bd 0067 503d d07b 0b3c 88f3 9cbd
00000060: 0b5f ad3c 400a 9c3d 1eb4 73bc 9003 5e3c
00000070: 20cd cf3d 4267 3cbd 2014 e13c 0a19 523d
00000080: 3ebc 12be 7e29 973d c384 cabd a060 d2bb
00000090: 4a7a babd cc15 ce3c ace6 cdbd cbfd 99bd
000000a0: 80ed b03c 979f bebd 3d80 efbc 0b83 983d
000000b0: 7e39 22be 1657 a6bd fe1f f0bd 0b23 ab3d
000000c0: a715 9a3b 12ca d6bd 296a 0fbe 384d 843d
000000d0: abb4 553d 9c88 dcbd f558 cabb c824 7abd
000000e0: ffc1 823c 08c1 f0bd a488 043d 1f4e a43d
000000f0: 3204 b43b 13c1 99bd 2c04 5ebc 04eb 5c3d
00000100: c174 20be f0c8 fbbd 40ff d4bd 9cd3 513c
00000110: 4217 14be 0dca a5bd 8586 64bd d3d1 cbbe
00000120: 3d82 503d afc9 1d3d 53b3 02be e8bd 94bd
00000130: d277 c3bd f9f2 27be 5e64 1fbe 8d3f 63bd
00000140: d8f9 92be 10b8 c9be 528d adbd 8c08 0bbd
00000150: 7e53 0dbb 7cd6 2f3d e859 2ebd fa01 c7bd
00000160: ed34 d83e f77f 7a3e c9c4 883d d095 adbc
00000170: 5cf0 e43d 0009 29be 2f55 25be ca85 8fbd
00000180: bace f2be daf7 84be e3c7 d1bd 7039 f43c
00000190: d3b3 ae3d 64be 883b cf33 8b3c 0753 543e
000001a0: 15af 5cbe 3132 75bd 2a2d bdbd ad30 bcbe
000001b0: 518a c1be 5a4c eb3d d095 5fbe 75c8 18be
000001c0: 6a6f 633e 9ad8 52bd dac7 fcbd c74d 0e3d
000001d0: 7538 c6bd c699 b0be 2e97 c3bd 7fbe 593e
000001e0: c3b3 74bd cc31 e2bb 32da 2b3e 4023 603d
000001f0: ddd6 e3bd f425 ff3d 514d 81be 305f 97bd
00000200: dee3 bc3d 4ccd 80be 1fb7 a23e f2b3 99be
00000210: 31d3 363e 6c00 74be ba08 983d 7c5a 0cbe
00000220: 774c 1ebe 327e 3e3e 9ea3 98bc 495d 8bbe
00000230: 4a8b 01be e73a d4bd 514d afbd fe0f d8bc
00000240: f851 a13d c819 e9be ec21 2a3c 582b a13e
00000250: e270 eebe c0cb b53d cbe4 b8bd 60e1 08be
00000260: 36ce 903e fc1c b5bd b0a2 2c3c d582 a73d
00000270: adb5 113e d6d2 aabd ad7f 47bd 77de ea3d
00000280: 0dde 0abe 061c 9abe cc1a 21be 4c5d e4bd
00000290: 31fa 153f 51ae 863e bcef f4be 2583 303e
000002a0: 1ee2 6a3e 3a34 97bd c2d6 8c3e 0111 35be
000002b0: 1b10 e3be e885 ecbd c7ba 043b f63f ebbe
000002c0: 5e7e 29be 57c8 cc3e 81bb 923d cde7 a53e
000002d0: be83 4c3e d428 b8be 59f8 f83b c029 f7bb
000002e0: b072 d93e 0224 f7bd 5349 133c 9dc7 003e
000002f0: c74d 61ba a640 143d 0d87 4ebe da81 9a3d
00000300: 9809 c13e 35f7 8e3e c741 85bc 97eb 07be
00000310: 8706 9b3e f4a0 a23d a60e f3bd 462b 5c3d
00000320: 179d 2abe 48ed ae3d eecf 6fbe 541d a2be
00000330: 10a6 d5be 8f24 9b3d fcea b3bd d762 05bd
00000340: a741 4c3f 8110 e63d e8bb 87be 2adb 15bf
00000350: 6439 f3bd 8ae3 463c d52d dabd a6d3 3bbd
00000360: a982 b1bd ac7b 3a3e bdd2 a3bc e5f6 44bd
00000370: 4e11 c2bd b570 d43d ce7f d13d f73d 63be
00000380: 1524 853e ae81 16bf 7c0b 6a3e c2cb 11bd
00000390: 4327 c73d 8ade 9f3d a088 44bb 2d0a 20bd
000003a0: 5b8c cc3e 1feb 203e ccf7 b4bd e4a4 82bc
000003b0: d09d 1d3e 1e58 993d 565a e1be f93c 98bd
000003c0: 090c 793d b13c 443d 0c87 a63d 2690 8b3e
000003d0: e577 21be a2da b6be 8478 323e 8f74 94bd
000003e0: c7a1 253e 64e0 a63e a948 32be fcf2 31bd
000003f0: ef32 9dbd 0038 0dbe 391e b23e 9da3 a4bd

predictionFunction.value_head.0.bias f4 [64]
-0.14519487 -0.13914973 0.04794709 -0.0761592 0.11832374 -0.0678675 0.027376743 -0.2767215
0.034971494 -0.0172327 -0.07809575 -0.17258206 -0.03676463 -0.22281629 -0.14237359 -0.2449997
0.073388726 -0.06962851 -0.118047 0.40075392 -0.0669442 -0.08386249 0.29473624 -0.13430522
-0.12306197 -0.17551722 -0.1308893 -0.066342115 -0.03374582 -0.16705537 0.10253937 0.0139254
-0.14862938 0.1406412 0.31554133 -0.15058057 -0.2699712 -0.06612221 0.009223943 -0.16201375
-0.21483152 -0.09716306 -0.12394316 -0.10036301 0.08458686 0.098331876 -0.18122779 -0.11739037
-0.16958433 -0.14751023 -0.048608325 0.012924184 -0.16793288 -0.14296201 -0.20170513 0.35511893
0.23414403 0.18782267 -0.13981298 -0.21302427 0.31977525 0.08209044 0.32458964 -0.3254439
00000000: f7ad 14be 447d 0ebe 2b64 443d 5bf9 9bbd
00000010: b853 f23d 1efe 8abd 3145 e03c 71ae 8dbe
00000020: 453e 0f3d 972b 8dbc aaf0 9fbd 5ab9 30be
00000030: 8296 16bd f429 64be 62ca 11be 34e1 7abe
00000040: d44c 963d 6499 8ebd a0c2 f1bd 9e2f cd3e
00000050: 0a1a 89bd 19c0 abbd abe7 963e 4f87 09be
00000060: ea07 fcbd c9ba 33be d807 06be 60de 87bd
00000070: 0f39 0abd 9010 2bbe 2900 d23d 5c27 643c
00000080: 4d32 18be 3f04 103e a28e a13e cb31 1abe
00000090: aa39 8abe 156b 87bd 0520 173c efe6 25be
000000a0: cbfc 5bbe 6dfd c6bd e9d5 fdbd 1f8b cdbd
000000b0: e03b ad3d 3962 c93d c793 39be 5d6a f0bd
000000c0: 84a7 2dbe ec0c 17be 8619 47bd f5bf 533c
000000d0: 99f6 2bbe a264 12be ca8b 4ebe 26d2 b53e
000000e0: 74c3 6f3e 9654 403e 222b 0fbe 0923 5abe
000000f0: 95b9 a33e 081f a83d 9d30 a63e 95a0 a6be

predictionFunction.value_head.2.weight f4 [41, 64]
-0.07590156 -0.6768821 -0.26995596 -0.3971248 -1.1302954 -0.7269286 -1.438871 -0.7719172
-1.7521707 -0.335923 0.03483534 -0.14500177 -0.6629337 -0.50306284 -1.0805377 -1.8567795
-0.34016535 -0.22354439 -1.1685826 -1.7692854 -0.11473047 -0.48359084 -1.4972372 -0.9323665
-0.6279615 0.07631412 0.0024673978 -0.04622394 -0.18001898 -0.8501216 -1.4297248 -1.699259
-0.42265904 -0.708051 -1.8340695 -0.57750493 -0.6113014 -0.316609 -1.7417744 -0.2760383
-0.28626108 -0.84097475 -0.09334435 -0.5693446 -1.5513291 -1.2965282 -0.15539744 0.08163952
0.011090378 -1.2301717 -1.0383601 -0.94789463 -0.032325502 -0.780695 -0.42671892 -1.6953237
-1.429515 -0.61563414 -0.113835886 -1.3764546 -1.5735132 -0.38372436 -1.5882515 -0.47582197
-0.021624297 -0.7447347 -0.10492098 -0.3870672 -1.1108586 -0.782418 -1.3253266 -0.6689966
-1.7307906 -0.42211047 -0.0660157 -0.31419238 -0.8639585 -0.54208827 -1.0327733 -1.8933827
-0.1857804 -0.18214557 -1.3262485 -1.7153383 -0.0677522 -0.44174543 -1.6081953 -0.94235635
-0.5108578 0.047429945 -0.008699731 0.015444744 -0.07397296 -0.6645367 -1.4151576 -1.6208767
-0.23519735 -0.74605125 -1.8278623 -0.5515513 -0.7262919 -0.4288012 -1.6606911 -0.14534992
-0.16622236 -0.67127967 -0.03666513 -0.63022983 -1.5230687 -1.3897556 -0.48077217 -0.07384091
0.023502083 -1.3769523 -1.022406 -0.8682697 0.022378054 -0.55341125 -0.5804677 -1.694717
-1.4464954 -0.61165845 -0.17838465 -1.3285197 -1.6126243 -0.36911625 -1.6445234 -0.3853567
-0.061051548 -0.7753117 -0.1671199 -0.42138773 -1.2366605 -0.7382909 -1.4204055 -0.6191041
-1.689833 -0.41086718 0.057079874 -0.22971189 -0.7480439 -0.4697265 -1.1705785 -1.9150499
-0.3393147 -0.070565194 -1.2353947 -1.5913103 0.022324767 -0.33361942 -1.6529888 -0.9768582
-0.56424373 0.09432602 0.015787428 -0.08614308 -0.17062587 -0.8249853 -1.478905 -1.5654231
-0.2232259 -0.8590157 -1.8326366 -0.42031938 -0.66256785 -0.39476237 -1.7359593 -0.122983225
-0.18699764 -0.7523457 -0.06861667 -0.7530098 -1.5102501 -1.4139389 -0.2294639 0.088494666
-0.064773716 -1.2516534 -1.2168112 -0.90979034 0.1110942 -0.61444664 -0.50362307 -1.686546
-1.3764855 -0.59905124 -0.2243393 -1.3690462 -1.6516253 -0.5016929 -1.6263202 -0.5206111
-0.07267233 -0.61872 -0.30580282 -0.40142098 -1.1224076 -0.801403 -1.2950686 -0.6471658
-1.6724395 -0.3993711 -0.009144518 -0.13377807 -0.76464164 -0.47918922 -1.0566434 -2.1209795
-0.20498826 -0.13023743 -1.3507502 -1.671255 -0.0894789 -0.39272645 -1.6384407 -0.85713
-0.43708634 -0.03919201 0.03456318 0.0034230992 -0.17076351 -0.75906503 -1.2925552 -1.7376215
-0.25757653 -0.6626422 -1.8515482 -0.5171195 -0.68804824 -0.21819592 -1.8095512 -0.14273135
-0.33662271 -0.8335199 0.09424258 -0.6474892 -1.5780778 -1.297483 -0.4634897 0.10578924
-0.06562072 -1.367138 -1.0856297 -0.96284384 -0.00044929236 -0.7559621 -0.44319108 -1.6868004
-1.4956478 -0.62182325 -0.24777703 -1.2619656 -1.6616341 -0.5381968 -1.5852363 -0.39104605
00000000: 4772 9bbd 2548 2dbf ab37 8abe f153 cbbe
00000010: 85ad 90bf fe17 3abf ed2c b8bf 5e9c 45bf
00000020: 2147 e0bf 19fe abbe 80af 0e3d 587b 14be
00000030: 06b6 29bf bac8 00bf 0f4f 8abf f3aa edbf
00000040: 272a aebe d2e8 64be 1d94 95bf f277 e2bf
00000050: cff7 eabd 3899 f7be 78a5 bfbf 92af 6ebf
00000060: 16c2 20bf 944a 9c3d 11b4 213b 5055 3dbd
00000070: e556 38be 92a1 59bf 3901 b7bf 5281 d9bf
00000080: c466 d8be d542 35bf cac2 eabf 5dd7 13bf
00000090: 407e 1cbf 931a a2be 77f2 debf e454 8dbe
000000a0: d090 92be 1f4a 57bf 532b bfbd 91c0 11bf
000000b0: f491 c6bf a3f4 a5bf 8220 1fbe 9f32 a73d
000000c0: 6bb4 353c 4476 9dbf fce8 84bf 39a9 72bf
000000d0: bf67 04bd a1db 47bf e77a dabe 5e00 d9bf
000000e0: 59fa b6bf 339a 1dbf ca22 e9bd aa2f b0bf
000000f0: e168 c9bf 8577 c4be d34b cbbf f09e f3be
00000100: 7025 b1bc efa6 3ebf d0e0 d6bd ac2d c6be
00000110: 9d30 8ebf 8c4c 48bf 4da4 a9bf 5c43 2bbf
00000120: 8c8a ddbf dd1e d8be 3d33 87bd d3dd a0be
00000130: 622c 5dbf 4cc6 0abf ea31 84bf 5d5a f2bf
00000140: 383d 3ebe 5e84 3abe 83c2 a9bf 3590 dbbf
00000150: aac1 8abd 752c e2be 58d9 cdbf 443e 71bf
00000160: 94c7 02bf e745 423d 5189 0ebc f40b 7d3c
00000170: 237f 97bd 141f 2abf e223 b5bf e378 cfbf
00000180: 93d7 70be 37fd 3ebf 64f7 e9bf 7732 0dbf
00000190: 44ee 39bf d58b dbbe 8791 d4bf 9cd6 14be
000001a0: 3236 2abe fcd8 2bbf 2d2e 16bd be56 21bf
000001b0: eaf3 c2bf 83e3 b1bf c527 f6be e739 97bd
000001c0: 7187 c03c f93f b0bf 33de 82bf ec46 5ebf
000001d0: 2e52 b73c 5cac 0dbf 8899 14bf 7dec d8bf
000001e0: c326 b9bf a695 1cbf 77aa 36be ef0c aabf
000001f0: 796a cebf cefc bcbe be7f d2bf 794d c5be
00000200: 3011 7abd d47a 46bf 7b21 2bbe 22c0 d7be
00000210: e44a 9ebf a200 3dbf d9cf b5bf 9b7d 1ebf
00000220: 734c d8bf 2f5d d2be 96cc 693d 9839 6bbe
00000230: ce7f 3fbf fe7f f0be 84d5 95bf 5b20 f5bf
00000240: a8ba adbe 7c84 90bd 6a21 9ebf 0eb0 cbbf
00000250: 6ee2 b63c 2ad0 aabe 2395 d3bf 6113 7abf
00000260: 4772 10bf 002e c13d a354 813c c86b b0bd
00000270: 8cb8 2ebe 3d32 53bf c24c bdbf c95f c8bf
00000280: 5595 64be 74e8 5bbf d693 eabf 1a34 d7be
00000290: 0c9e 29bf 4b1e cabe ea33 debf a1de fbbd
000002a0: 4f7c 3fbe ba99 40bf e686 8cbd 40c5 40bf
000002b0: e04f c1bf f3fb b4bf 96f8 6abe b13c b53d
000002c0: 15a8 84bd 2e36 a0bf 78c0 9bbf 05e8 68bf
000002d0: 5b85 e33d 604c 1dbf 71ed 00bf bde0 d7bf
000002e0: ad30 b0bf 6c5b 19bf 34b9 65be e83c afbf
000002f0: 7568 d3bf f26e 00bf 432b d0bf c546 05bf
00000300: 3bd5 94bd 6f64 1ebf 3092 9cbe 0d87 cdbe
00000310: 0dab 8fbf bf28 4dbf cfc4 a5bf a8ac 25bf
00000320: 7f12 d6bf 5e7a ccbe e3d2 15bc 1efd 08be
00000330: 8ebf 43bf 4a58 f5be 1740 87bf 21be 07c0
00000340: 71e8 51be f65c 05be 62e5 acbf afeb d5bf
00000350: b740 b7bd 7113 c9be 6db8 d1bf df6c 5bbf
00000360: c8c9 dfbe cd87 20bd 1f92 0d3d 1356 603b
00000370: a1dc 2ebe 1652 42bf 7372 a5bf 626a debf
00000380: 12e1 83be eba2 29bf 88ff ecbf f261 04bf
00000390: ee23 30bf c06e 5fbe 609f e7bf 2b28 12be
000003a0: d059 acbe 8f61 55bf 4102 c13d dac1 25bf
000003b0: 74fe c9bf ec13 a6bf 864e edbe 07a8 d83d
000003c0: 2864 86bd 61fe aebf eaf5 8abf ef7c 76bf
000003d0: 008f ebb9 bb86 41bf f1e9 e2be 13e9 d7bf
000003e0: 6371 bfbf cf2f 1fbf 43b9 7dbe 1788 a1bf
000003f0: 6db0 d4bf 44c7 09bf 06e9 cabf 3037 c8be

predictionFunction.value_head.2.bias f4 [41]
-1.5629764 -1.587901 -1.4992458 -1.5486381 -1.596441 -1.5961288 -1.509225 -1.4551442
-1.5992528 -1.4615717 -1.4893624 -1.5085648 -1.4995369 -1.6449559 -1.6491947 -1.6060728
-1.4316617 -1.5762258 -1.6892533 -1.6461147 -0.7316873 -0.64053196 -0.41807374 -0.8915227
-0.22561848 -0.24861853 -0.3037096 -0.51942235 -0.336935 -0.2669644 0.061376434 -0.08812339
-0.3911783 -1.5301081 -1.64603 -1.5782697 -1.6222239 -1.6156733 -1.5505992 -1.667078
-1.6231194
00000000: 9c0f c8bf 5740 cbbf 49e7 bfbf c639 c6bf
00000010: 2e58 ccbf f34d ccbf 492e c1bf 2a42 babf
00000020: 51b4 ccbf c814 bbbf 6da3 bebf a718 c1bf
00000030: d3f0 bfbf ea8d d2bf d018 d3bf cb93 cdbf
00000040: b140 b7bf c4c1 c9bf 7439 d8bf e3b3 d2bf
00000050: dc4f 3bbf e7f9 23bf c30d d6be d53a 64bf
00000060: 8808 67be db95 7ebe d37f 9bbe ddf8 04bf
00000070: bf82 acbe 8faf 88be db65 7b3d 097a b4bd
00000080: 8648 c8be 95da c3bf 1cb1 d2bf be04 cabf
00000090: 08a5 cfbf 62ce cebf 097a c6bf d062 d5bf
000000a0: 60c2 cfbf

dynamicsFunction.startBlock.0.weight f4 [64, 34]
0.19528815 0.2881587 -0.055637095 0.10982545 0.12521917 0.17489612 0.022684133 -0.06863866
-0.05635501 -0.21862489 0.3288853 0.0621308 0.0045418525 0.14742105 -0.08384079 0.32309607
0.17313002 0.1116057 -0.040910583 0.23354675 0.20949084 0.17814496 -0.13526785 0.11774687
0.23863365 0.105497986 0.22765651 0.05998699 0.26709703 -0.020476207 -0.1184038 0.104027584
0.3111992 -0.33406544 -0.31782264 0.14033893 -0.16923961 -0.066539556 -0.08501386 0.3492987
-0.3035843 -0.07503164 -0.054013133 0.3262934 -0.17604104 0.080097 0.22637497 0.31431133
0.2483378 0.07286944 -0.06008796 0.1122668 -0.18580572 -0.049749706 -0.039607402 0.03500048
0.05761496 0.119258165 0.23218106 0.12618463 0.058328748 0.36545202 -0.12376955 -0.0037790162
-0.13848619 0.14733188 0.28505436 -0.4279123 0.12432081 -0.18113104 0.5018611 -0.27481985
0.054420244 -0.11555283 0.11408112 -0.10872202 0.08009762 -0.15779632 0.17966832 0.13821104
-0.2777223 -0.26240286 0.024647444 -0.19043696 -0.09030779 -0.0009811006 -0.16249157 0.07197702
0.16848911 -0.20260178 -0.23557535 -0.1773067 -0.33362475 -0.26791862 -0.23061764 -0.5030017
0.11460899 -0.388017 0.6002621 0.18082875 -0.15919736 0.22156031 0.04597896 -0.240014
0.05791974 0.43964797 0.73964405 -0.16583972 0.12580955 -0.11339222 0.4086865 0.14200525
0.010254731 0.32696098 -0.16441512 -0.06615494 -0.027909856 -0.5374867 -0.03028424 -0.20273192
0.15353988 -0.6325229 -0.14617126 -0.26211122 0.10809166 -0.08406838 0.017355157 -0.014972845
-0.27260983 0.1613159 -0.34738353 0.20810135 -0.0670876 -0.29827577 -0.0107539985 -0.0106790485
-0.039345197 -0.052333504 -0.27786708 0.56572884 0.3417511 -0.10482585 0.07519332 -0.54903156
-0.13353601 0.0072589437 0.012414191 -0.06212291 0.09473368 -0.037504375 -0.51669884 0.13894624
0.004942788 -0.020909391 -0.21653616 -0.2418222 -0.23377666 -0.016004534 -0.02890676 -0.057857722
0.3548559 0.19960599 0.18653964 0.38283917 0.07311084 -0.06941745 0.18288618 -0.15045507
-0.18714276 -0.08164975 -0.026245382 -0.23470615 0.17501824 0.0026501222 -0.020150343 -0.11498202
0.0051270155 -0.121725105 0.045089107 0.08881729 0.039580088 0.15662117 0.23103493 0.027825436
0.13884406 -0.16788019 -0.24784322 0.26738015 -0.07027422 -0.51112473 -0.0943488 -0.22715159
0.062066987 -0.14141503 -0.112495504 -0.23243289 0.012082284 0.2120402 0.060116746 0.17914276
0.2766742 -0.02342736 -0.048192684 -0.013132505 0.28156698 0.03783225 0.03312863 -0.034335695
0.22639596 -0.21170829 -0.13195588 -0.2212541 0.1405902 0.08650241 -0.018909417 0.15005058
-0.31464493 -0.27951247 -0.084899075 -0.1149283 0.14356497 -0.08497578 -0.14394116 0.00056776183
0.11217079 0.17199509 -0.27925628 0.023437396 0.05820764 -0.24919342 -0.11390181 -0.19273472
0.16171086 -0.05215004 0.019295823 -0.17517608 -0.55241936 0.5462303 0.034814715 -0.07044163
0.20582043 0.040830385 -0.07689242 0.05639045 -0.19666253 -0.044402372 0.023761095 -0.0014457746
-0.04218446 0.05883684 0.036990073 -0.096853845 0.028003667 0.106938705 0.17482938 0.12936838
00000000: 9ef9 473e 8a89 933e b9e3 63bd 2aec e03d
00000010: 7439 003e f817 333e 13d4 b93c 6d92 8cbd
00000020: 83d4 66bd 34df 5fbe a763 a83e de7c 7e3d
00000030: d2d3 943b 8bf5 163e b8b4 abbd d96c a53e
00000040: ff48 313e 8791 e43d db91 27bd e126 6f3e
00000050: c484 563e a26b 363e a883 0abe 4525 f13d
00000060: 615c 743e 540f d83d ca1e 693e ebb4 753d
00000070: f1c0 883e b8bd a7bc b17d f2bd 6a0c d53d
00000080: 8055 9f3e a00a abbe a6b9 a2be 02b5 0f3e
00000090: 264d 2dbe e445 88bd bf1b aebd 47d7 b23e
000000a0: 676f 9bbe 30aa 99bd e03c 5dbd ee0f a73e
000000b0: 1a44 34be e509 a43d d7ce 673e 6aed a03e
000000c0: 444c 7e3e 933c 953d cb1e 76bd 23ec e53d
000000d0: db43 3ebe 59c6 4bbd 5f3b 22bd aa5c 0f3d
000000e0: aafd 6b3d a03d f43d dfc0 6d3e 8b36 013e
000000f0: 20ea 6e3d 871c bb3e e47a fdbd 5fa9 77bb
00000100: 53cf 0dbe 2bde 163e a5f2 913e 5217 dbbe
00000110: e99b fe3d 6a7a 39be f879 003f 30b5 8cbe
00000120: c3e7 5e3d f6a6 ecbd 5da3 e93d a7a9 debd
00000130: 390a a43d 5c95 21be f9fa 373e 3287 0d3e
00000140: 9e31 8ebe ab59 86be 70e9 c93c e801 43be
00000150: 4af3 b8bd 4698 80ba 3164 26be b068 933d
00000160: 6988 2c3e d776 4fbe aa3a 71be e38f 35be
00000170: ddd0 aabe a12c 89be 0827 6cbe b8c4 00bf
00000180: 1eb8 ea3d 2aaa c6be c7aa 193f 2c2b 393e
00000190: a204 23be b5e0 623e 6f54 3c3d 3bc6 75be
000001a0: 403d 6d3d 8a19 e13e 5059 3d3f e3d1 29be
000001b0: 38d4 003e 2e3a e8bd 5b3f d13e d369 113e
000001c0: 7603 283c 6e67 a73e 705c 28be 3e7c 87bd
000001d0: 36a3 e4bc ba98 09bf a816 f8bc f598 4fbe
000001e0: 8f39 1d3e 05ed 21bf ebad 15be 7133 86be
000001f0: 295f dd3d 0b2c acbd 672c 8e3c aa50 75bc
00000200: 8493 8bbe ff2f 253e 41dc b1be 8518 553e
00000210: 3965 89bd 9ab7 98be 8a31 30bc 2df7 2ebc
00000220: 6e28 21bd a85b 56bd 9844 8ebe 9bd3 103f
00000230: 00fa ae3e efae d6bd f5fe 993d 558d 0cbf
00000240: aabd 08be 6fdc ed3b e464 4b3c 9874 7ebd
00000250: bb03 c23d 309e 19bd 6046 04bf ec47 0e3e
00000260: 1cf7 a13b 2c4a abbc a8bb 5dbe 3da0 77be
00000270: 2663 6fbe f11b 83bc dfcd ecbc 38fc 6cbd
00000280: acaf b53e 8365 4c3e 3f04 3f3e 7f03 c43e
00000290: 23bb 953d bc2a 8ebd 8446 3b3e e510 1abe
000002a0: 5aa2 3fbe fc37 a7bd 8e00 d7bc cf56 70be
000002b0: fb37 333e acad 2d3b 5512 a5bc b17b ebbd
000002c0: 8600 a83b 034b f9bd 5baf 383d d7e5 b53d
000002d0: bb1e 223d 4d61 203e 6c94 6c3e 2bf2 e33c
000002e0: 232d 0e3e c9e8 2bbe 9dca 7dbe 0de6 883e
000002f0: eeeb 8fbd 12d9 02bf f239 c1bd 6d9a 68be
00000300: f439 7e3d 1acf 10be 0b64 e6bd e302 6ebe
00000310: c6f4 453c 1121 593e fa3c 763d 3371 373e
00000320: 3ea8 8d3e bcea bfbc b165 45bd b829 57bc
00000330: 8c29 903e fdf5 1a3d e3b1 073d 96a3 0cbd
00000340: 58d4 673e 0fca 58be 711f 07be 6f90 62be
00000350: e1f6 0f3e 2d28 b13d ece7 9abc dca6 193e
00000360: 2419 a1be 421c 8fbe 91df adbd 875f ebbd
00000370: b202 133e c807 aebd 5065 13be dad5 143a
00000380: cdb9 e53d 7b1f 303e aefa 8ebe c8ff bf3c
00000390: 226b 6e3d 8f2c 7fbe 5a45 e9bd 405c 45be
000003a0: 8897 253e 489b 55bd 4612 9e3c 5c61 33be
000003b0: 5b6b 0dbf c0d5 0b3f e099 0e3d b443 90bd
000003c0: 97c2 523e c33d 273d c679 9dbd acf9 663d
000003d0: e761 49be 43df 35bd a1a6 c23c 2580 bdba
000003e0: 9dc9 2cbd e6fe 703d e782 173d 4f5b c6bd
000003f0: f267 e53c ae02 db3d 7906 333e 2579 043e

dynamicsFunction.startBlock.0.bias f4 [64]
0.08570379 0.09322906 0.08275084 -0.17197983 -0.16937667 -0.1388652 0.20326328 -0.033522617
0.19444622 0.035428524 -0.09174555 0.13934518 0.00092410727 0.15166107 0.049213316 -0.19235091
-0.21087417 0.26216158 -0.054160416 -0.25046724 -0.16517681 0.039293844 -0.17945038 -0.10096123
-0.02571232 0.12154266 0.26019573 -0.12014284 -0.2128416 0.14607778 -0.021272866 -0.10417181
0.12517455 0.0368376 0.1103906 0.0800871 0.039076343 -0.047821134 0.0025989043 -0.251041
0.025023032 0.04669596 -0.173758 0.23097338 -0.05372163 0.07654807 -0.05767874 -0.065778315
0.15194058 0.1549605 0.00561178 -0.1619027 -0.0033377032 -0.006404168 -0.04603545 -0.09297648
0.004087535 0.1146037 -0.032757893 0.15193984 0.13956283 0.028684344 0.106939375 0.10039656
00000000: 7885 af3d e1ee be3d 4679 a93d 7b1b 30be
00000010: 1471 2dbe ae32 0ebe 4024 503e 034f 09bd
00000020: e91c 473e 801d 113d 17e5 bbbd 81b0 0e3e
00000030: ca3f 723a 0a4d 1b3e e793 493d a3f7 44be
00000040: 66ef 57be 0b3a 863e 50d7 5dbd 3e3d 80be
00000050: 1c24 29be 95f2 203d d7c1 37be c3c4 cebd
00000060: a5a2 d2bc 5ceb f83d 6038 853e 730d f6bd
00000070: 26f3 59be 6a95 153e 6f44 aebc 0858 d5bd
00000080: c22d 003e 06e3 163d 7814 e23d b504 a43d
00000090: 840e 203d 18e0 43bd 6152 2a3b 7288 80be
000000a0: 1afd cc3c 4344 3f3d 9eed 31be 4984 6c3e
000000b0: 360b 5cbd 3cc5 9c3d 8b40 6cbd c8b6 86bd
000000c0: 5096 1b3e f7ad 1e3e 06e3 b73b d2c9 25be
000000d0: 5ebd 5abb 0eda d1bb ab8f 3cbd 746a bebd
000000e0: bbf0 853b 58b5 ea3d 242d 06bd 1e96 1b3e
000000f0: 8fe9 0e3e 6efb ea3c 0803 db3d b69c cd3d

dynamicsFunction.startBlock.2.weight f4 [32, 64]
-0.05580583 -0.23346339 0.08185524 -0.07030396 -0.2083761 -0.08373475 0.2553951 0.01705502
0.20257756 -0.03506482 -0.25446305 0.047676526 0.120023906 0.25770378 -0.03511194 -0.11001177
-0.11572071 -0.0034907977 0.012188436 -0.1984494 -0.14332405 -0.074673444 0.096313536 -0.10135576
-0.059411336 0.19796294 0.23890114 0.003422072 0.108183496 -0.10346911 0.022818178 -0.02396179
-0.06645832 -0.036398113 0.08719461 -0.44378257 -0.2631232 -0.029147873 0.21857463 -0.16361482
-0.044307392 -0.1818002 0.2220268 0.006721671 -0.3073372 -0.0916962 -0.028098729 0.0935261
-0.06025961 0.17385416 -0.17557448 0.20403521 0.05360577 -0.06424777 -0.21912785 -0.16158682
-0.27467236 0.08094543 0.29559946 0.18438353 0.20849732 -0.07141205 -0.048108798 -0.29540643
0.072906 0.22079884 -0.48549798 -0.013358781 0.016484583 -0.3646871 -0.3948805 -0.12493098
-0.30408227 0.0076850196 0.24627978 -0.16601284 -0.10556118 -0.77044046 -0.14180718 0.065692365
1.2804768 -0.13211188 0.02031626 0.2355539 0.13737299 0.0006222533 0.089661956 0.089747675
0.07559609 0.38818857 -0.8898878 0.12744676 0.024142165 -0.19906083 -0.07501075 0.33036438
0.0038710658 0.43084583 -0.1132583 -0.07347478 0.29534867 0.009887617 -0.057445966 0.20306453
-0.084452346 0.3621237 0.07657441 -0.17286365 0.45989305 0.09112732 0.15784362 0.15967053
0.20227535 -1.18936 -0.0444448 -0.13556983 0.45327666 0.107949816 0.14704503 0.28557938
-0.19260052 0.041499566 0.1275426 0.014980949 -0.7781049 -0.8332445 0.08754599 -0.25128102
-0.005064117 -0.36923763 0.29137942 -0.24224782 -0.008042863 0.36680192 -0.035461035 -0.017508987
0.038935628 0.16715775 -0.20821805 0.08399935 0.15650743 0.36940125 -0.022052135 0.13963166
-0.3742651 0.3263083 -0.15063775 -0.09943114 -0.045472257 0.20835039 0.11942866 0.06166515
-0.13987638 -0.17515403 0.69219416 -0.012600697 -0.05962679 0.084112026 -0.15607166 -0.19926183
0.11038387 0.1309809 -0.2558061 0.04649827 -0.43836227 -0.046637658 -0.10863841 -0.014864731
-0.03918803 -0.10381319 0.025331989 -0.07247423 -0.5155918 0.029765654 -0.1890389 -0.24113642
-0.25962794 -0.10200447 0.051863577 0.17582862 0.3069985 0.004678302 -0.15287444 -0.089629516
-0.23597631 0.04046461 -0.17832097 0.09936067 0.21737829 -0.018823097 0.15804099 0.051253214
-0.073390245 0.06019772 -0.17370991 -0.092627905 0.3764582 0.0041960315 -0.00863485 0.006973747
-0.3048245 0.16059695 0.104398474 0.05921744 -0.15424107 -0.1769178 -0.38600802 0.0008162991
0.0016250927 -0.3682312 0.44906574 0.0029413514 0.012186386 -0.120186426 -0.10187771 0.08973777
-0.18962587 -0.012158091 0.0453404 0.06598575 0.017483644 -0.12952885 0.22376543 0.12062124
-0.12812762 -0.056784865 0.25427055 -0.14999706 0.05644037 0.312863 0.12241809 0.09224647
0.021750478 0.0064351647 0.00617012 0.12242609 0.3098176 -0.25858277 -0.44076392 0.36807638
0.031004779 -0.03851603 -0.01887331 -0.07868418 0.18279885 0.07522798 -0.023473332 0.19629323
0.030662492 -0.012532484 -0.029685667 -0.06196787 0.0035492873 -0.11258618 -0.13636763 0.22610958
00000000: a794 64bd 0711 6fbe b8a3 a73d 86fb 8fbd
00000010: 8b60 55be 207d abbd 26c3 823e f8b6 8b3c
00000020: 7e70 4f3e 21a0 0fbd fb48 82be 7648 433d
00000030: 18cf f53d c0f1 833e 8ad1 0fbd da4d e1bd
00000040: fbfe ecbd dec5 64bb 02b2 473c 5236 4bbe
00000050: 8ac3 12be 64ee 98bd 0840 c53d 9c93 cfbd
00000060: 4d59 73bd ccb6 4a3e 80a2 743e d744 603b
00000070: 4f8f dd3d 9de7 d3bd 30ed ba3c 844b c4bc
00000080: 4d1b 88bd 3016 15bd 1693 b23d 7837 e3be
00000090: 16b8 86be 85c7 eebc 07d2 5f3e a58a 27be
000000a0: ab7b 35bd d529 3abe fe5a 633e 7741 dc3b
000000b0: 4d5b 9dbe 38cb bbbd 4e2f e6bc 9d8a bf3d
000000c0: c8d2 76bd d306 323e ccc9 33be 9bee 503e
000000d0: b991 5b3d 5694 83bd 0d63 60be 0477 25be
000000e0: dba1 8cbe b8c6 a53d d058 973e 09cf 3c3e
000000f0: 5280 553e 7b40 92bd bb0d 45bd 833f 97be
00000100: be4f 953d 1719 623e 3193 f8be cade 5abc
00000110: ad0a 873c 44b8 babe c72d cabe d0db ffbd
00000120: acb0 9bbe 9ed2 fb3b c430 7c3e 45ff 29be
00000130: 7630 d8bd 963b 45bf e735 11be b889 863d
00000140: aae6 a33f 5648 07be 496e a63c 0b35 713e
00000150: 81ab 0c3e b61e 233a b0a0 b73d a1cd b73d
00000160: 1fd2 9a3d a7c0 c63e b0cf 63bf 6781 023e
00000170: cac5 c53c 9ad6 4bbe 3c9f 99bd 8525 a93e
00000180: b5b1 7d3b d397 dc3e f8f3 e7bd f279 96bd
00000190: f137 973e acff 213c 764c 6bbd 26f0 4f3e
000001a0: 5af5 acbd 4768 b93e 0bd3 9c3d 2b03 31be
000001b0: 1a77 eb3e f6a0 ba3d c2a1 213e ac80 233e
000001c0: 4521 4f3e f33c 98bf c00b 36bd d1d2 0abe
000001d0: e113 e83e cb14 dd3d f992 163e 7637 923e
000001e0: 1239 45be 73fb 293d 879a 023e a872 753c
000001f0: e231 47bf 834f 55bf 504b b33d e8a7 80be
00000200: e4f0 a5bb b70c bdbe af2f 953e d00f 78be
00000210: 36c6 03bc 76cd bb3e 973f 11bd 026f 8fbc
00000220: f77a 1f3d 672b 2b3e 1d37 55be da07 ac3d
00000230: 7c43 203e 2922 bd3e aea6 b4bc 9afb 0e3e
00000240: ad9f bfbe e211 a73e c840 1abe 8ea2 cbbd
00000250: 1e41 3abd ce59 553e 0397 f43d 9994 7c3d
00000260: c13b 0fbe 945b 33be a333 313f 2773 4ebc
00000270: 393b 74bd ed42 ac3d 40d1 1fbe 4b0b 4cbe
00000280: f010 e23d db1f 063e 04f9 82be f874 3e3d
00000290: 0571 e0be 2107 3fbd d17d debd 338b 73bc
000002a0: a183 20bd 029c d4bd 0885 cf3c 5e6d 94bd
000002b0: d3fd 03bf 1ad7 f33c 6a93 41be 77ec 76be
000002c0: f4ed 84be b8e7 d0bd e76e 543d 6b0c 343e
000002d0: e82e 9d3e 714c 993b 1e8b 1cbe ae8f b7bd
000002e0: c6a3 71be 38be 253d c699 36be 9b7d cb3d
000002f0: 6a98 5e3e e532 9abc 7fd5 213e e4ee 513d
00000300: a04d 96bd e291 763d 03e1 31be b3b3 bdbd
00000310: 21bf c03e dd7e 893b 3079 0dbc 0884 e43b
00000320: f511 9cbe 8773 243e dece d53d fd8d 723d
00000330: 5ff1 1dbe f129 35be d8a2 c5be e8fc 553a
00000340: 1001 d53a cd88 bcbe f2eb e53e b0c3 403b
00000350: 68a9 473c 4d24 f6bd 43a5 d0bd 70c8 b73d
00000360: 492d 42be bb32 47bc dbb6 393d 8923 873d
00000370: dc39 8f3c 36a3 04be c422 653e 4508 f73d
00000380: e333 03be 3f97 68bd c02f 823e d498 19be
00000390: 042e 673d 942f a03e 56b6 fa3d b8eb bc3d
000003a0: 0f2e b23c 13de d23b b82e ca3b 88ba fa3d
000003b0: 6aa0 9e3e f664 84be cfab e1be 8274 bc3e
000003c0: bcfd fd3c fcc2 1dbd 339c 9abc 2c25 a1bd
000003d0: 9f2f 3b3e 2111 9a3d 254b c0bc 1801 493e
000003e0: e82f fb3c 0c55 4dbc 5b2f f3bc 05d2 7dbd
000003f0: 299b 683b 9593 e6bd f5a3 0bbe 4589 673e

dynamicsFunction.startBlock.2.bias f4 [32]
0.031388957 -0.3885947 0.053640343 -0.14617059 -0.04223209 0.054376744 0.042806454 0.048128113
-0.18454595 0.17592293 0.17351757 -0.10742619 0.14918259 -0.0068238145 0.09002303 0.24519093
0.15457234 0.06757362 0.041231632 0.09495697 -0.1815397 -0.12219248 -0.08180959 0.17637768
-0.11705234 -0.13480656 0.16153695 -0.15654702 0.10804073 0.03214133 0.11670398 0.03676996
00000000: b591 003d e2f5 c6be fab5 5b3d bead 15be
00000010: 8efb 2cbd 26ba 5e3d d255 2f3d fc21 453d
00000020: 9df9 3cbe 2425 343e 97ae 313e 4302 dcbd
00000030: 52c3 183e 4e9a dfbb ff5d b83d 5513 7b3e
00000040: 3648 1e3e 0a64 8a3d 80e2 283d cd78 c23d
00000050: 8be5 39be 0d40 fabd c98b a7bd 5a9c 343e
00000060: 23b9 efbd bb0a 0abe f169 253e dd4d 20be
00000070: 7544 dd3d a1a6 033d 7f02 ef3d 199c 163d
