AlphaGo/foersterrobert_MuZero/Environments/CartPole/Models/model_19.pt (torch, 84274 bytes, 20 tensors)

predictionFunction.startBlock.0.weight f4 [64, 32]
00000000: 3568 b1bd d710 2a3f 3f28 98be 37a5 acbe
00000010: 6edf d3be 93e0 d5bd 394b a0bd b402 683e
00000020: 9888 ea3d 8b51 4dbe 73c0 8abe 1aab 95be
00000030: a5f3 e3be 8be8 da3e 2dc9 9b3d 2bfa 80be
00000040: 7893 11be 4b0b 893e ba55 15bf 1103 aa3e
00000050: 87fc fe3e f89e 4d3f 014a fb3c 7421 8a3c
00000060: e2e6 2ebd ee0b fb3d 37e3 5bbb 2358 fc3c
00000070: 5830 1c3e aca8 fc3d b5ce 8ebe c83b 1c3d
00000080: e387 7cbd 1c47 93be 881d 3abe e91e 12be
00000090: 4208 9ebe c17f 17bd f9e8 91be 6194 8d3e
000000a0: e128 5f3d abb2 97be f633 21be 17a0 88bd
000000b0: b865 b83d af66 62bb 9436 89bd 01d7 963d
000000c0: a92f afbe 0dcc 32be be27 a43d e3ab 853e
000000d0: 985e 833e eca3 3c3e 1efa 0c3e e186 f7be
000000e0: 4abf 06ba 9bf2 ba3c 422a 0e3d 1ac3 c13d
000000f0: 7c99 7cba b7ee bf3e d03e 79bf 0acb 91be
00000100: 5d9b bdbe e4ad 023e 2863 ebbf 80d6 f53d
00000110: 9285 793d 4e57 203f 05e9 36bd bd88 c0be
00000120: 3017 a9be 8a2b 9e3d 59ea fabe 1ecc 443e
00000130: 32c7 333f ac85 993d 9605 653e 5623 af3e
00000140: 07fc 0fbf 8cc4 873e c14b 8f3d 63cd 85bd
00000150: ae2c 9c3e 9a4a be3d c574 a73f 89c9 5b3e
00000160: 3d65 9c3e ad84 d73e 9da8 053f cc62 853e
00000170: 39cb 1d3e 0d37 0940 393f 93bf 9d73 d03e
00000180: faef 973d 3a02 cb3e 59df 13bf b36a 0d3c
00000190: cbdb 7fbc 4f6c 123f 79bc 51bc 91d6 38be
000001a0: a9d9 aabe 98cf 5e3d e823 c3bd e657 a8be
000001b0: f46a 7b3e a976 64bd a3c1 643d d34d c03e
000001c0: 11f3 7a3c 06d6 473e 3110 b6be f02f 95bc
000001d0: 7630 c2bc d690 ae3e 6745 013e f044 ad3e
000001e0: ab42 af3e 6c3d 13bd e211 973d 4abd f13d
000001f0: cf89 a23e e8fe d33d 05e2 d6be 5590 203f
00000200: c3f4 cabe 7636 48bf e490 74be 5a5d c13e
00000210: 9208 c3bd d108 e0bc 0bb4 0abe 363d 3cbe
00000220: cf64 e5bd 59f6 69bd 13ff a73c bacf 363f
00000230: b47b 583f 579c 153f c72f 32be 28db 90be
00000240: a581 ffbe 4f56 22bf e972 19bd 9ba9 43be
00000250: acaa da3c 2ebd 27be daab e63d e700 22bf
00000260: 3296 113e b50c 0a3f 1114 013d e101 4c3d
00000270: 1ae0 5ebe e567 0c3f 6add 7ebf de8f 833e
00000280: 2ac6 29be d2ff 58be 3d2a 813c de08 9bbe
00000290: bf21 0e3e 8d39 15bf ce47 f0bd 21e6 8d3e
000002a0: e66a cebd d986 dabd f7d1 16be 2de1 9d3e
000002b0: d859 9d3e 4c69 413b 94c0 84bd 8ec7 963d
000002c0: a7b4 07bd 4913 d5bd fc12 e93e 9fb0 0dba
000002d0: b2f5 9ebd 1864 f03c 1519 5b3e d7a4 71bd
000002e0: a3a8 35bd 39b2 793d 5672 05be 92d9 84be
000002f0: e66b 0fbf 6541 163e 9987 d73d 84c4 de3d
00000300: a740 08be f9d4 8dbd b2fd 84bd 15ad 36be
00000310: 37b9 a5bd ecaa 3a3e 0978 03bf c99a ad3e
00000320: e5cf 87bc 1ce8 c13e 2c24 0dbf ef98 c6bd
00000330: f07e 7ebd 5fc0 193c 53ef 823e f4fa 2d3e
00000340: 590f 2f3d 73b0 f7bd b658 a53e 0f77 cc3d
00000350: 2a98 0f3d 4948 d63c e0b5 003e e6f7 39be
00000360: 4116 69be 1006 2e3e 4a88 fdbd 4e67 e3be
00000370: 7d24 8bbe cc0a 4c3e f2a4 75bc b760 993d
00000380: 60be 3abe afa7 d63d 41b2 1fbf 7511 7a3e
00000390: 5b9e 0abe 2e7d 67bc 6138 d1bc 7739 503e
000003a0: 57ee a83d ed6d 3bbd b64e bc3d 31b8 dcbd
000003b0: 2f45 c03e e566 cebd 94eb 55be 8e96 ad3e
000003c0: c349 31bd 9166 223e 54a1 fcbc 2c1c 113e
000003d0: dc3c a33e 9b58 093d b2b1 353f c419 36be
000003e0: 1f62 4f3e 98fc 753e b226 8a3e a0be ac3e
000003f0: 2f54 1c3e 4bfc 253f 0595 26bf 1a1f 30be
-0.08662454 0.66431946 -0.29718205 -0.337198 -0.413814 -0.10443225 -0.078268476 0.22657281
0.114518344 -0.20050637 -0.27099952 -0.29232103 -0.44521824 0.4275554 0.076067306 -0.25190863
-0.14216411 0.26766428 -0.58333933 0.33205464 0.49802038 0.8032069 0.030674936 0.016861655
-0.042700656 0.12258135 -0.0033552179 0.030803746 0.15252817 0.12336859 -0.2789208 0.03814295
-0.06165303 -0.2876519 -0.18175328 -0.14269604 -0.30865675 -0.03698707 -0.28498057 0.27652267
0.054482345 -0.296285 -0.15742478 -0.0667116 0.09003776 -0.0034546067 -0.06699863 0.073652275
-0.3421605 -0.17460652 0.08015393 0.26107702 0.25658107 0.18421906 0.13767287 -0.48345092
-0.00051401986 0.022820761 0.03470827 0.09461041 -0.0009635908 0.37486812 -0.9736147 -0.2847522
-0.37032595 0.12761647 -1.8389635 0.12003803 0.0609184 0.62633216 -0.04465582 -0.37604323
-0.33025503 0.07723148 -0.49006918 0.1921849 0.7022582 0.07496199 0.22365412 0.34206647
-0.5624394 0.2651714 0.06996871 -0.06533315 0.30502838 0.09291573 1.308251 0.21463598
0.3054599 0.4209341 0.5221041 0.2605194 0.15409555 2.143985 -1.1503669 0.40713206
0.07418819 0.39650136 -0.57762676 0.008631396 -0.015616368 0.57196516 -0.012801283 -0.180506
-0.33369187 0.054397196 -0.09528333 -0.3287956 0.24552518 -0.055777226 0.05584873 0.37559375
0.015316741 0.19515237 -0.35559228 -0.018211335 -0.023704749 0.34094876 0.12624131 0.33841658
0.3423055 -0.03594725 0.07376458 0.11803682 0.31745765 0.10351354 -0.41969314 0.62720233
-0.39639863 -0.782081 -0.23883396 0.37766534 -0.09523119 -0.027347954 -0.13545243 -0.18382725
-0.11200868 -0.0571197 0.020507371 0.71410716 0.84563756 0.5844168 -0.17401038 -0.28292203
-0.49903598 -0.63412946 -0.037463102 -0.19107668 0.02669271 -0.1638076 0.11263247 -0.63282627
0.14217451 0.5392564 0.031513277 0.04980648 -0.21765175 0.5484603 -0.995566 0.256957
-0.165795 -0.21191338 0.015767211 -0.30280203 0.1388006 -0.5829094 -0.11732446 0.27714637
-0.10078983 -0.106702514 -0.14728533 0.30835858 0.30732608 0.0029512225 -0.06482044 0.07362281
-0.033131268 -0.10404069 0.45522296 -0.0005405042 -0.077617064 0.029344603 0.21396287 -0.058995094
-0.044350278 0.060960982 -0.13031897 -0.25947243 -0.56024015 0.14673384 0.1052391 0.10877326
-0.13305913 -0.06925387 -0.06493701 -0.17839463 -0.080919676 0.18229264 -0.51355034 0.33907154
-0.016578624 0.37872398 -0.5513332 -0.096971385 -0.062132776 0.009384244 0.25573215 0.16990262
0.042739246 -0.12094202 0.32294244 0.09983646 0.035057224 0.026157515 0.1256938 -0.18160972
-0.22762395 0.169945 -0.12379511 -0.44414753 -0.27176276 0.19925994 -0.014992939 0.0748915
-0.18236685 0.10481202 -0.6238137 0.24420722 -0.1353697 -0.014128966 -0.025539579 0.20334421
0.08248585 -0.04575913 0.091947004 -0.10777319 0.37552783 -0.10078219 -0.20890647 0.33903927
-0.043283235 0.15859438 -0.030838646 0.14170903 0.3188237 0.033531766 0.70974267 -0.17783266
0.20252274 0.24022138 0.26982647 0.33739185 0.15266488 0.64838094 -0.65071136 -0.17199364

predictionFunction.startBlock.0.bias f4 [64]
00000000: de7d 9fb9 c377 70be 4cf2 9ebe 7896 293d
00000010: ac82 7bbe 5adb 8b3c debb d13d 48fd a5bd
00000020: 8d72 d43d 5a74 6a3d 4d40 86be de1b debd
00000030: aac4 20be 0660 30bd db5e fdbd 473b 46be
00000040: 38ec 35be de5c ae3d 7898 9cbe cdb5 2bbe
00000050: 3837 b2be 59a8 ecbd 77ae 9ebd d564 3abe
00000060: c6d3 9ebd 3112 1cbe 22b5 e3ba 50a8 f2bd
00000070: 4e05 0abe 7b43 eabd 7900 10be 93de 81be
00000080: 989c 7a3d f82a a1be fd47 32be 7d37 a4bb
00000090: 2a96 61bd d452 94be 5d55 32be 0050 85be
000000a0: 4309 e3bd 6f5a 59be 6336 c7be 3809 0dbe
000000b0: bff4 febc 57df 86be dcc5 5b3a d776 a0be
000000c0: d5fe 21be f6e8 093e 9f6e 0fbe 87e1 5bbd
000000d0: fa6d 00be 5011 8abe 12a4 a2be 7bc2 013e
000000e0: adf7 c5bb 5f3c d93d ac26 0bbe 0e9d 3a3d
000000f0: ea79 713d 887a 393e 272c 55be bb48 be3d
-0.00030420622 -0.23483185 -0.31044233 0.041403264 -0.24561566 0.017072368 0.10240911 -0.0810495
0.10373411 0.057239868 -0.26220933 -0.10845159 -0.15700021 -0.043060325 -0.12371608 -0.1935855
-0.17765892 0.08513807 -0.30585074 -0.1676857 -0.34807754 -0.11555547 -0.0774812 -0.18202527
-0.07755236 -0.15241314 -0.0017372707 -0.11848509 -0.13478586 -0.11438652 -0.1406268 -0.25365123
0.061184496 -0.31478095 -0.17410274 -0.0050114975 -0.05507485 -0.28969443 -0.17415376 -0.26037598
-0.11085751 -0.21225904 -0.3890868 -0.13773048 -0.031122563 -0.2634227 0.00083836704 -0.31340668
-0.15819867 0.13467774 -0.14007042 -0.053681877 -0.12541953 -0.26966333 -0.317658 0.12671845
-0.006041488 0.10607218 -0.13588971 0.045559935 0.058954157 0.18113148 -0.20817624 0.09291216

predictionFunction.startBlock.2.weight f4 [64, 64]
00000000: c3c6 d8bc d9db d03c 619d a13e 7b43 62be
00000010: 7c07 91be 7486 21bf 6783 863e 9ea2 e33e
00000020: b359 05bf 1cd1 6b3d 3930 58bd f7b1 e0bc
00000030: 2a2c ce3e 32d7 0e3f 89c3 513e 4c6d 8c3e
00000040: 8da9 d03d f914 8bbe 17ed 23bf dd14 b8be
00000050: 1f48 9fbd 2e78 e93d 285e bc3e e301 ae3e
00000060: 8583 15bf 2c77 4cbe 87ca 6b3f 3764 0fbe
00000070: eb9b abbe 55c9 4b3e 17e1 8fbe 2136 98bd
00000080: e2d7 b9be a2ed b73e 6383 843d 3184 9abe
00000090: 55bf fd3c dcfd a83e 6bee 45bd 4223 653e
000000a0: fa6d fabc f2bd 53bd 19e2 253e 6790 a8bc
000000b0: 8770 1abb 9ed0 1dbe df7b b7be 6c31 4fbe
000000c0: 2756 61be 777d cdbe a957 83be 4805 c5be
000000d0: 7e9f 053c d0de 54be 5c0c d03e 8508 c7be
000000e0: 4379 b5be 8b44 67bd f6d2 17bd 216f a53e
000000f0: fab7 1d3e 7f26 55be 9a2d f13c 2b7f 82be
00000100: 78d7 73be 582f 74be 9bb5 213e 5d4a f1bd
00000110: cc92 983e 44f1 7e3b 1da8 d23e 5656 053f
00000120: 332f 12bf 2272 063e 8994 073e bc2d 9cbd
00000130: 72d1 f43e e236 dd3e cea8 a73e d7c5 8abe
00000140: ad9d 323e 61c9 2bbe 94b8 5bbf 9b29 c33c
00000150: 08ab 83bd ee1b a9bd f694 52bd bff5 be3e
00000160: 1bee 91be fd00 2cbe dbf6 eb3e 0b87 0dbe
00000170: 7f66 c2be d305 0b3e 371b c3bd fb47 1fbe
00000180: 1b7e babe 84e3 de3e fd8d 883e 921c 1bbe
00000190: c4f2 4d3d 4bea 0cbe 83b9 80be af07 ec3d
000001a0: f7c3 883e 39eb ce3d e22c e8bc cbc3 af3d
000001b0: dca0 b93d a28c 3d3c 0104 95be 674c afbd
000001c0: d16e 0abd cbea 94be f0ba c6bd a87a c3bb
000001d0: f60e 9b3e 0c09 803d 1945 56be 9bf4 6ebe
000001e0: ba72 15bf d163 383e de9c aebd fed3 3d3f
000001f0: 40e2 073f 582b 8abd c321 b0be 7ef6 3bbe
00000200: 4420 043d 7150 023e 6ae6 9b3e f185 aabd
00000210: 09a9 0cbf 1dfb f9be d173 f43d a5e1 1dbe
00000220: 887b c4bd de61 9ebe bcef 05bd 4e13 363f
00000230: c5a7 ef3d 5d95 d13d 074d 6cbc c58c 97be
00000240: 98e5 233e 7eb9 9bbc f4c2 143d 7ea9 66bb
00000250: f958 92bc b995 febe 8f45 c73d 5087 e93c
00000260: 318f 0f3e 04af 8fbe c0b7 cabc 0646 1fbe
00000270: d475 9fbc b168 16bd 0fcb c53e 0e89 283e
00000280: 2f3b 023d 11de 7abc 0b6c 1d3e a7e8 6e3d
00000290: dd1f a63e f972 35be c778 f9bd 4ad5 45bd
000002a0: 08e1 783e ec81 0abe ead1 bdbd 63a5 42be
000002b0: 42e8 f23e fe1d 07bf 8557 39bf ff4b 83be
000002c0: 0b7d e2be 95d1 5cbe 0fc9 aebc b5da 0ebf
000002d0: 449b 3ebc ca04 1bbd 6f8d a43b d261 89be
000002e0: f5a2 1c3e 0d7a 1cbe 1082 953e 3386 22be
000002f0: 5f4b 18bc e99e 26be 81d4 32be 9775 6ebd
00000300: bee6 94be a09c a0bd 1066 e93d da80 8a3e
00000310: 36af 0e3e 8b4d 463d 8fe6 cabd 3dc7 383c
00000320: d65a 99be f47a cc3e 7b3f f9be a654 533d
00000330: dcc3 713e 0379 8d3c 4a02 2e3c 218f 343e
00000340: 7e01 ef3d 51cb 893d 0579 27be e815 d1bd
00000350: fb1b babc f916 a8be f988 463e 24eb 1d3e
00000360: 3b4b 80bd adad 573e b50f fd3a 3dc7 9ebe
00000370: 2526 9a3e b7b4 18be aeda aebd c415 48be
00000380: bafc ba3d ecb9 9b3d 9849 b53e a299 bcbe
00000390: 7a3b 8ebb df4a c0bd d05f 60bf da13 0c3e
000003a0: b240 eb3e 035f acbe 3956 9abd 5e43 a93e
000003b0: 013d 4f3e f952 bfbe 088a 8bbd 5eac 0dbf
000003c0: 8ddc d23e 3bc1 4ac0 770b b83c fb91 46be
000003d0: 00e5 653e 29fb 603e 9fdf 3d3e b3c3 b2bd
000003e0: 829f 31be 0a37 6e3e d8eb 733c ab70 19bf
000003f0: f359 07bf 848c 06be d24b 0d3e d53c 493d
-0.026461964 0.025495457 0.31565383 -0.22096054 -0.28326023 -0.63095784 0.26272127 0.44460005
-0.52089995 0.05757247 -0.052780364 -0.02742861 0.4026807 0.5579711 0.20484747 0.27427137
0.10188589 -0.27164438 -0.64033645 -0.35953417 -0.07777428 0.113998756 0.36790586 0.33985814
-0.5840381 -0.19967335 0.9210591 -0.14003073 -0.33517393 0.19901021 -0.28101417 -0.07432199
-0.36297518 0.35923487 0.064703725 -0.3017898 0.030975023 0.3300618 -0.048323076 0.22376731
-0.030570019 -0.051694818 0.1619953 -0.020576669 -0.0023565607 -0.15411612 -0.35836694 -0.20233697
-0.22005521 -0.40134785 -0.25652817 -0.38480592 0.008155702 -0.20788121 0.4063443 -0.38873687
-0.35444078 -0.056461852 -0.037066422 0.32311347 0.15402213 -0.20815466 0.02944069 -0.25487646
-0.23812664 -0.23846185 0.15791933 -0.11781762 0.29799497 0.003890113 0.41143885 0.52084863
-0.5710327 0.13129476 0.13240255 -0.07625911 0.47816044 0.43205935 0.32745975 -0.27104065
0.17442961 -0.16776039 -0.8582852 0.02382355 -0.06429106 -0.0825728 -0.05141159 0.37296864
-0.28501973 -0.16797252 0.46086773 -0.13821046 -0.37968823 0.1357644 -0.09526675 -0.15554802
-0.36424336 0.43532956 0.26670828 -0.15147617 0.050280347 -0.1376125 -0.25141534 0.11524903
0.2671201 0.10103459 -0.028341714 0.085822664 0.090638846 0.011569174 -0.29104617 -0.085594945
-0.03379709 -0.29085383 -0.09703624 -0.0059655495 0.30284852 0.062517256 -0.20924796 -0.23335497
-0.58378184 0.18006827 -0.08526014 0.741516 0.53079605 -0.067465484 -0.34400758 -0.18355748
0.032257333 0.12725998 0.3044923 -0.083263285 -0.5494543 -0.48824397 0.11936153 -0.15418108
-0.09593874 -0.30934042 -0.03269933 0.71123207 0.117019214 0.10233567 -0.014422662 -0.29599586
0.16005552 -0.019009348 0.036318734 -0.003519624 -0.017864691 -0.49723604 0.09730064 0.028506905
0.14019467 -0.28063214 -0.024745822 -0.15554056 -0.019465365 -0.036720935 0.38631484 0.16458532
0.031794723 -0.015311734 0.15373246 0.058327343 0.32446185 -0.1771964 -0.121812396 -0.04829911
0.24304593 -0.13526124 -0.092685536 -0.19008403 0.47442824 -0.5278014 -0.7239917 -0.25643918
-0.44236025 -0.21564324 -0.021336107 -0.5580247 -0.011633698 -0.037846364 0.005021743 -0.26832443
0.15296538 -0.15280934 0.29200792 -0.15871505 -0.009295314 -0.16271557 -0.17463876 -0.05821761
-0.29082292 -0.07842374 0.1139642 0.2705143 0.13934025 0.048413794 -0.09907257 0.011277971
-0.29952115 0.39937556 -0.48681244 0.0515944 0.2360987 0.017269617 0.010620663 0.17632724
0.116702065 0.06728233 -0.16354759 -0.102092564 -0.02271842 -0.32830027 0.19388188 0.1542173
-0.06264349 0.21062346 0.0019307049 -0.31011382 0.30107227 -0.14912687 -0.085378036 -0.19539553
0.09130235 0.07603821 0.3540771 -0.36835963 -0.0043405863 -0.093892805 -0.876462 0.13679448
0.45947796 -0.33666238 -0.07535977 0.3305921 0.20238115 -0.3736799 -0.06813437 -0.55341136
0.41183892 -3.1680439 0.022466404 -0.19391625 0.22450638 0.2197081 0.18542336 -0.08728733
-0.17346004 0.23263183 0.0148877725 -0.5993754 -0.52871627 -0.1313954 0.13798454 0.04913028

predictionFunction.startBlock.2.bias f4 [64]
00000000: 9f13 34be a93c 46be e64f 59be 2e70 493d
00000010: b6b6 a8be 2312 a2be 7c73 43bd b936 c3be
00000020: 6f37 4bbe 094c aebc 8881 3bbe b474 abbd
00000030: 2de8 dd3d 96d6 5f3e 8a4a a33e 217f 86bd
00000040: 354a 39be 2b07 2dbe 859b f7be 8252 3c3c
00000050: c828 d3bd 6f02 a2bd 7fb0 ebbd eada 243e
00000060: 1f7e 00be f5ae 5dbe 8359 a6bd 3f27 37be
00000070: 9819 f4bd dbfb a83d d9a3 01be 860f cebd
00000080: a4b6 02be d877 73bd cd42 14bd 9895 e6ba
00000090: 85af 05be 3180 f0bd 19d0 43be d5f1 243c
000000a0: 45a5 aabe fcc4 1a3e 1ab8 513e 3324 5ebe
000000b0: 253d 103e 6661 e9bd 9164 b33d 5e3e fbbe
000000c0: a459 0bbe 4a27 81be 9528 85bd d695 34be
000000d0: 10f3 8b3c c67d 35be 5b90 b9be ec64 e93e
000000e0: ac18 483d 0ee6 8ebe f0f1 383e 2b7f db3d
000000f0: 425f 313e 3f30 2e3d 12db 0dbe 9af0 74bd
-0.1758561 -0.19359078 -0.21221885 0.04917925 -0.32951897 -0.31654462 -0.047717556 -0.38127688
-0.19845365 -0.02127649 -0.18311131 -0.08371869 0.108353 0.21859202 0.31892806 -0.06567217
-0.18094714 -0.16897266 -0.4836084 0.011494281 -0.10310513 -0.079106204 -0.11508273 0.16099134
-0.12548111 -0.21648772 -0.08122542 -0.17886065 -0.11918944 0.082511626 -0.12660159 -0.100615546
-0.12764984 -0.059440464 -0.03619652 -0.001759219 -0.13055237 -0.117432006 -0.19122352 0.010067423
-0.33329216 0.15114206 0.20480385 -0.21693496 0.14085825 -0.113955304 0.08759416 -0.4907102
-0.13608414 -0.25225288 -0.06501881 -0.17635283 0.017083675 -0.1772376 -0.36242947 0.4558481
0.048851654 -0.27909893 0.18061042 0.10717615 0.17321494 0.04252648 -0.138531 -0.059799768

predictionFunction.policy_head.0.weight f4 [2, 64]
00000000: 5899 6b3d 776f 89bd b10f 893e 6606 883e
00000010: cdc5 29be 6640 8fbc ab1d 2d3e d3b1 fd3e
00000020: c407 8ebe 7345 f33c c40c 323d 69ba 133e
00000030: c361 9ebd 7581 15be 62c6 923c aa20 9cbb
00000040: b8e7 483e 5a40 0d3e 9433 bfbe 6816 b0bd
00000050: da97 253e 8c74 a83e aeea 963c 1b00 d13d
00000060: 87e3 bc3d d860 4dbe b0db a33d aef3 f1be
00000070: 5054 6a3d 77fa 8ebe 72f6 713b 49c3 803d
00000080: 041a ee3d bf20 36bc 4382 3cbe 8f31 86bd
00000090: 155b 66be cec9 c63e cde8 6dbe 1bb9 233d
000000a0: 8d32 153f ee43 863e bb9a 3a3e d207 1bbf
000000b0: e2aa 16be 7317 27bd 0fc5 42be eafa 993e
000000c0: f785 d73e dce9 c13e 3141 04be cf07 0f3c
000000d0: a44c adbe f02a 3e3d cf71 b93e 4ccb 44bd
000000e0: b9f6 5f3d ed5f 67be 4b02 343d cfc1 07be
000000f0: 686e cc3d ffa6 c93c 09b7 353e fb1d a93d
00000100: 85c7 efbc 3fb6 f8bd d65c 87be 31e2 94be
00000110: 8d41 2fbd 7f82 203e 952f 9b3c a36d c2be
00000120: 8170 a03e f928 fbbc fb43 fa3c 1cd8 07be
00000130: cec7 513e 303f 393e 55fb 3b3c a907 d83d
00000140: 8e38 1abe 30ee 9fbe 6332 ba3e 682b 95bc
00000150: 463c 4fbd d144 5bbe 78e3 b4bc 91be c2bd
00000160: 83ad a63d 9cc5 4a3e 38c8 6b3d 15e9 ef3e
00000170: 95a3 b63b fe35 aa3e c166 c23d 8a8b b93c
00000180: b813 4abe 855b d7bd c846 4b3e 5a4f 903c
00000190: e449 233e 56e7 b5be d6e1 ae3e 4c3e c63d
000001a0: 5432 15bf a94b 37be 8b2f cbbd c72c 073f
000001b0: 7054 7bbc ec64 d9bc fe45 b33d 0973 aabe
000001c0: 7c0a fbbe 1fa7 aebe ace0 d93d 85ae 1f3d
000001d0: 696d 683e a218 183e e9ee 96be 287f b93c
000001e0: a1f9 193d 4013 973d e7e5 45be 1d13 0cbd
000001f0: 8e30 cf3c ab96 483e b12e 4dbe ce17 0e3d
0.057519287 -0.06710713 0.26769784 0.26567382 -0.16579361 -0.017486762 0.16905849 0.49549732
-0.277403 0.029696202 0.043469205 0.14426579 -0.0773349 -0.14600165 0.017916862 -0.004764636
0.19619644 0.1379408 -0.37344038 -0.08598024 0.16171208 0.32901418 0.01842245 0.10205098
0.09223085 -0.20056474 0.080008864 -0.47256225 0.057209313 -0.27925465 0.0036920574 0.06287248
0.11626056 -0.011116206 -0.18409066 -0.06552421 -0.22495683 0.3882584 -0.23233338 0.039971452
0.5828026 0.262237 0.18223087 -0.6055881 -0.14713624 -0.040793847 -0.19020484 0.30074245
0.42094395 0.37873733 -0.12915494 0.008729889 -0.33847535 0.046427667 0.36219642 -0.04804544
0.054678652 -0.22595187 0.0439475 -0.13257526 0.09981996 0.024615763 0.17745604 0.082576714
-0.029269943 -0.12144136 -0.26438016 -0.2907882 -0.042787123 0.1567478 0.018943587 -0.3797427
0.31335834 -0.030659186 0.030549994 -0.13266033 0.20486376 0.1809051 0.011473496 0.10548336
-0.15060636 -0.3123641 0.36366567 -0.018209174 -0.05059459 -0.2141297 -0.022081122 -0.09509004
0.081385635 0.19801944 0.05756399 0.46857515 0.0055736997 0.33244318 0.09492255 0.022649545
-0.19734085 -0.10515503 0.1985122 0.017615963 0.15946156 -0.35528058 0.34156674 0.09679851
-0.5827992 -0.17899956 -0.099211775 0.528027 -0.015339956 -0.026537381 0.08753584 -0.3329089
-0.49031436 -0.34111878 0.10638556 0.038984794 0.22697987 0.14853147 -0.2947915 0.02264364
0.03759158 0.073767185 -0.19325982 -0.034197915 0.025291707 0.19588725 -0.20037343 0.03469067

predictionFunction.policy_head.0.bias f4 [2]
00000000: b56b 0ebd 29e8 a83c
-0.034770686 0.020618515

predictionFunction.value_head.0.weight f4 [64, 64]
00000000: acb8 99bd 33ba acbc a30e 0abc f5e6 6a3d
00000010: 090f 073d 99e3 5fbd df56 613d 1134 9cbd
00000020: a7f8 69bd c3b8 0fbe 27f2 133d e638 0abd
00000030: 6cd7 d4bd a49e ebbd 6ba8 90bd 5f31 ccbd
00000040: 84a5 50bd fd99 d8bd 6a51 b9bd 8fd8 0a3d
00000050: 732d a2bd 0067 503d d07b 0b3c 88f3 9cbd
00000060: 0b5f ad3c 400a 9c3d 1eb4 73bc 9003 5e3c
00000070: 20cd cf3d 4267 3cbd 2014 e13c 0a19 523d
00000080: 3ebc 12be 7e29 973d c384 cabd a060 d2bb
00000090: 4a7a babd cc15 ce3c ace6 cdbd cbfd 99bd
000000a0: 80ed b03c 979f bebd 3d80 efbc 0b83 983d
000000b0: 7e39 22be 1657 a6bd fe1f f0bd 0b23 ab3d
000000c0: a715 9a3b 12ca d6bd 296a 0fbe 384d 843d
000000d0: abb4 553d 9c88 dcbd f558 cabb c824 7abd
000000e0: ffc1 823c 08c1 f0bd a488 043d 1f4e a43d
000000f0: 3204 b43b 13c1 99bd 2c04 5ebc 04eb 5c3d
00000100: c174 20be f0c8 fbbd 40ff d4bd 9cd3 513c
00000110: 4217 14be 0dca a5bd 8586 64bd d3d1 cbbe
00000120: 3d82 503d afc9 1d3d 53b3 02be e8bd 94bd
00000130: cf1f 02be f9f2 27be 90d7 3fbe 8d3f 63bd
00000140: d8f9 92be 10b8 c9be 528d adbd 8c08 0bbd
00000150: 7e53 0dbb 7cd6 2f3d e859 2ebd e9e2 03be
00000160: ed34 d83e f77f 7a3e c9c4 883d d095 adbc
00000170: 5cf0 e43d 0009 29be 2f55 25be 4823 d0bd
00000180: bace f2be ac5a 94be e3c7 d1bd 7039 f43c
00000190: 4022 5c3d 64be 883b 35ba 65bc 0753 543e
000001a0: 15af 5cbe 3132 75bd b7f5 fcbd ad30 bcbe
000001b0: 518a c1be 5a4c eb3d 93a1 6fbe 75c8 18be
000001c0: 6a6f 633e 9ad8 52bd dac7 fcbd c74d 0e3d
000001d0: 7538 c6bd c699 b0be 2e97 c3bd 524c 393e
000001e0: c3b3 74bd cc31 e2bb e968 0b3e 4023 603d
000001f0: ddd6 e3bd f425 ff3d 514d 81be 305f 97bd
00000200: d34d 4d3e 6231 d63d 121c ee3e 398b d2bd
00000210: a1be b23d ffb4 94bd ba08 983d 6b23 35be
00000220: 4132 a1be 327e 3e3e f664 20be 5564 9e3d
00000230: 8f52 18be afb2 5c3d 4cc1 c3be f3f7 a13e
00000240: 1de9 01be b5f2 07bf 4a24 683d 81af c83e
00000250: 2ea4 00bf de29 cd3e cbe4 b8bd 4fd3 16be
00000260: 36ce 903e 8355 64be b0a2 2c3c 3e4c 163c
00000270: adb5 113e c346 bdbe ad7f 47bd cc49 633c
00000280: 8d92 a5be 7fc3 a8bc cf9a 01be 4c5d e4bd
00000290: 59a8 c63e 9350 453e 1524 bdbe 2583 303e
000002a0: 71ed 7f3e 72d7 b4bd c6bb 1e3c 6367 a8bd
000002b0: 2b73 aabe e885 ecbd 3802 e0bd 5d73 e7be
000002c0: 2b04 06bf 8a8c eb3e 319b 633d 428d ea3d
000002d0: 055a e53e e0db 54bf 2401 edbd 2b6c e2bd
000002e0: 9bf3 c43e 7370 4bbe 3413 0a3d f16a 5c3e
000002f0: 248b 8b3e 9ab0 29be c706 55bd da81 9a3d
00000300: 313d 96bd ae06 243e 3516 ffbd 50fb 30be
00000310: 7ce0 113e 7612 88bd a60e f3bd 8929 1d3c
00000320: 007e 1ebf 48ed ae3d a9bd d0be dc8e 64be
00000330: e3d6 36bf f061 203d eda2 ecbd ff57 09be
00000340: db8c 2f3f 1462 b53d aadd 00bf 681c 02bf
00000350: 311d 3ebd 8fee 373c d52d dabd 6ae6 5abe
00000360: a982 b1bd 806a 123d bdd2 a3bc 441c 90be
00000370: 4e11 c2bd 126a 793d ce7f d13d 8548 6bbd
00000380: b6d9 813a c557 39bf 2e9a 093d c2cb 11bd
00000390: 2e65 fa3e dfc7 f5bc 953d 04be 2d0a 20bd
000003a0: 343f 163f f209 1f3d 3f41 083e b598 63be
000003b0: 660b 9c3e 1e58 993d 9429 34bf 5f41 193e
000003c0: 7af2 723e 757c a6be 2471 0fbe f424 9b3e
000003d0: 0dad d8be e4f3 f5be 3566 7f3e aeab d4be
000003e0: 5408 f63d d2ec 693e 1534 0abf 779d 4f3d
000003f0: 9f0c 51be 816f 0fbe 3d67 733d 9da3 a4bd
-0.075059265 -0.02108488 -0.008426341 0.057349164 0.032973323 -0.054660413 0.055014487 -0.076271184
-0.0571219 -0.14035325 0.036119606 -0.03374567 -0.10392651 -0.11504868 -0.07063373 -0.09970354
-0.050939098 -0.10576246 -0.090487316 0.033897933 -0.07918825 0.05087948 0.008513406 -0.076636374
0.021163484 0.076191425 -0.014874486 0.013550654 0.10146546 -0.04599691 0.027475417 0.05129341
-0.14329621 0.07380961 -0.098886035 -0.00642021 -0.09105356 0.025156878 -0.10053763 -0.0751911
0.021597624 -0.09307783 -0.029235953 0.074468695 -0.15842244 -0.08122079 -0.11724852 0.08356293
0.004702288 -0.104877606 -0.1400534 0.06460041 0.05217425 -0.10768244 -0.0061751553 -0.061070234
0.015961645 -0.11755568 0.032356873 0.08022713 0.005493664 -0.07507529 -0.013550799 0.053935066
-0.15669538 -0.12294185 -0.104002476 0.012806799 -0.14461997 -0.08095179 -0.05579235 -0.3980852
0.050905455 0.03852242 -0.1276372 -0.07262784 -0.12707447 -0.1640128 -0.18734574 -0.05548053
-0.2870624 -0.3939824 -0.0847422 -0.033943698 -0.0021564658 0.042929158 -0.04256621 -0.12879528
0.4222788 0.24462877 0.06678159 -0.0211896 0.111786574 -0.1650734 -0.16145776 -0.10162979
-0.47423345 -0.28975427 -0.102432035 0.029812545 0.0537436 0.004173087 -0.014021446 0.20734797
-0.21551163 -0.05986232 -0.12351554 -0.36755887 -0.3780084 0.11489172 -0.2340148 -0.14920218
0.2221047 -0.0514761 -0.12342806 0.034742143 -0.09678737 -0.3449232 -0.095503196 0.1809552
-0.059741747 -0.006902909 0.13614239 0.054721117 -0.11124966 0.12458411 -0.252543 -0.073912024
0.20049219 0.10458638 0.4650579 -0.10280461 0.08727766 -0.07261085 0.074235395 -0.17689292
-0.31483653 0.18602827 -0.15663514 0.077339806 -0.14875244 0.053881343 -0.3823341 0.31634483
-0.12686582 -0.53104717 0.056675233 0.391964 -0.5025052 0.40071005 -0.09028014 -0.14729045
0.28282326 -0.22298245 0.010536835 0.009173451 0.1422946 -0.3696805 -0.048705745 0.013872575
-0.32338372 -0.020601032 -0.12656711 -0.111506075 0.38800314 0.19269018 -0.3694159 0.17237528
0.2499292 -0.088301554 0.009688323 -0.082228445 -0.3329099 -0.11548978 -0.10937923 -0.45205203
-0.5235011 0.4600566 0.055567924 0.11452724 0.44795242 -0.83148 -0.11572483 -0.11055788
0.38467106 -0.19867115 0.03370972 0.2152517 0.27254593 -0.16571274 -0.052008417 0.075442985
-0.0733589 0.16018173 -0.124554075 -0.17283368 0.1424579 -0.06644146 -0.11868028 0.009592422
-0.6191101 0.085413516 -0.407697 -0.22320122 -0.7142164 0.0391559 -0.11554513 -0.13412474
0.68574303 0.088565975 -0.5033823 -0.50824594 -0.046414558 0.01122631 -0.10653273 -0.21376958
-0.086674996 0.035746098 -0.019997949 -0.28146565 -0.09475957 0.060892172 0.10229455 -0.057442207
0.0009906802 -0.7239955 0.033594303 -0.03559471 0.4890532 -0.030002533 -0.12914117 -0.039072204
0.5869019 0.038827844 0.1330614 -0.22226222 0.30477446 0.0748751 -0.70375943 0.14966343
0.2372531 -0.32516828 -0.14008003 0.3030163 -0.42319527 -0.48037636 0.24941333 -0.4153723
0.12013307 0.22844246 -0.5398572 0.05068728 -0.20414971 -0.14007379 0.059424628 -0.08039019

predictionFunction.value_head.0.bias f4 [64]
00000000: f7ad 14be f5dd 2ebe f85d 39bc 6691 3ebe
00000010: 8b22 66bd 118b f8bd 9830 9e3d 5cd9 a9be
00000020: 9b16 bc3d d7d4 15be aaf0 9fbd bcf5 c0be
00000030: 5fc1 093d 174a 82be af75 dabd d62a c7be
00000040: 46ae 11be 6499 8ebd 3ed6 89bd 6353 ce3e
00000050: 0a1a 89bd 3db3 2ebe c97b a93e 5d20 4dbe
00000060: a7ea adbe c9ba 33be d807 06be 81f1 c3bd
00000070: 0f39 0abd 3e4b 94be f7be d0bd 7af1 17be
00000080: 9b16 3abe 0649 953d 85a2 da3e 7955 8cbe
00000090: 0473 89be 156b 87bd 2b25 b63d efe6 25be
000000a0: 7dcf 6dbe 0371 4ebd e64e 1fbe 8a8f 27be
000000b0: 57d4 4c3d f5ab 053e 48c5 8cbe 45c6 0dbe
000000c0: 2d15 4dbe de3b 5fbd 0164 fbbd 5f60 883d
000000d0: 99f6 2bbe bc49 f43c ca8b 4ebe 0164 dd3e
000000e0: 8d21 473e 1c82 4f3e 222b 0fbe 6301 efbe
000000f0: e2e5 d53e dad2 c13d ee46 8e3e eafc a5be
-0.14519487 -0.17076857 -0.011313908 -0.18610153 -0.056185286 -0.121359 0.07724112 -0.33173645
0.09183999 -0.14631973 -0.07809575 -0.3768748 0.03363168 -0.2544715 -0.106669776 -0.3889987
-0.14226636 -0.06962851 -0.067303166 0.40297994 -0.0669442 -0.17060561 0.33102253 -0.20031877
-0.33968088 -0.17551722 -0.1308893 -0.095675476 -0.03374582 -0.28963655 -0.10192674 -0.1483821
-0.18172686 0.07289319 0.42702118 -0.2740896 -0.26845562 -0.06612221 0.08893808 -0.16201375
-0.23223682 -0.050400745 -0.15557441 -0.1636335 0.05000719 0.13053878 -0.27494264 -0.13845165
-0.20027609 -0.054500453 -0.122749336 0.06659006 -0.16793288 0.029820316 -0.20170513 0.4324036
0.19446392 0.20264477 -0.13981298 -0.46680745 0.4177695 0.09464045 0.2778849 -0.3241952

predictionFunction.value_head.2.weight f4 [41, 64]
00000000: 4772 9bbd 2548 2dbf fe66 95be 7ff1 2bbf
00000010: 9045 92bf f4d8 41bf 617b d5bf 5e9c 45bf
00000020: c772 e9bf f288 d0be 80af 0e3d 7dc0 15be
00000030: 11d1 65bf bac8 00bf 75ba b9bf 9cb3 edbf
00000040: 254c b1be d2e8 64be 213d 99bf 4374 13c0
00000050: cff7 eabd 8a22 0ebf fdad e2bf 8b3c 6fbf
00000060: fd99 22bf 944a 9c3d 11b4 213b 5055 3dbd
00000070: e556 38be c4bd 59bf ed87 c1bf 157f e3bf
00000080: 909c e6be fab7 8dbf 16af 1ac0 6503 1cbf
00000090: a3b5 1dbf 931a a2be 1f12 00c0 e454 8dbe
000000a0: 8f25 95be 1f4a 57bf 532b bfbd 91c0 11bf
000000b0: 75b9 fabf de03 bbbf e0e4 47be 9f32 a73d
000000c0: 6bb4 353c ec33 bcbf 2459 e1bf 1d62 96bf
000000d0: bf67 04bd 5b7c 6cbf e77a dabe 49b4 0cc0
000000e0: a2d2 f1bf 1004 6dbf ca22 e9bd f446 b7bf
000000f0: a4cb 04c0 900a c7be da73 dcbf f09e f3be
00000100: 7025 b1bc efa6 3ebf 4c9d 02be 2b2e 27bf
00000110: 4403 90bf 87d1 4fbf 478e c7bf 5c43 2bbf
00000120: e821 e7bf ac8d fbbe 3d33 87bd 9354 a1be
00000130: 65ef 89bf 4cc6 0abf 0aae b3bf b660 f2bf
00000140: 5f40 45be 5e84 3abe 0521 adbf 277d 0fc0
00000150: aac1 8abd 1871 02bf bc83 f0bf e0d7 71bf
00000160: 21c8 04bf e745 423d 5189 0ebc eb0b 7d3c
00000170: 237f 97bd 863b 2abf 0a4a bfbf 99d9 d9bf
00000180: 6e7c 86be 23ee 91bf 94c6 1ac0 210f 15bf
00000190: f82e 3bbf d58b dbbe 171e f8bf 9cd6 14be
000001a0: 9798 2fbe fcd8 2bbf 2d2e 16bd be56 21bf
000001b0: 999c f7bf b071 c5bf 8b09 01bf e739 97bd
000001c0: 7187 c03c 9d78 cdbf 47f0 ddbf 1477 8bbf
000001d0: 2e52 b73c f1dc 34bf 8899 14bf bba5 0cc0
000001e0: 20ef f1bf 55de 6dbf 77aa 36be 2fb2 b0bf
000001f0: f10a 07c0 c197 bfbe 4c55 e4bf 794d c5be
00000200: 3011 7abd d47a 46bf ed03 44be 2339 2dbf
00000210: 5040 a0bf 0874 44bf d1a3 d1bf 9b7d 1ebf
00000220: 0699 e2bf 61af f2be 96cc 693d 4293 6cbe
00000230: 6af7 78bf fe7f f0be eb46 c0bf 9927 f5bf
00000240: 9487 b0be 7c84 90bd 9901 a2bf 9d3f 09c0
00000250: 6ee2 b63c 170b cdbe 1d15 f4bf eab8 7abf
00000260: 342e 12bf 002e c13d a354 813c c86b b0bd
00000270: 8cb8 2ebe 804d 53bf d6a2 c8bf 24eb d3bf
00000280: 359f 82be f15e 9dbf 99d8 18c0 31b8 e9be
00000290: 5eb7 2abf 4b1e cabe 7ea4 ffbf a1de fbbd
000002a0: 0c8c 44be ba99 40bf e686 8cbd 40c5 40bf
000002b0: 6309 f4bf 8958 c9bf 674d 85be b13c b53d
000002c0: 15a8 84bd 9a35 bebf 1c17 f5bf 3e28 91bf
000002d0: 5b85 e33d beea 3ebf 71ed 00bf 5858 0bc0
000002e0: acc1 ebbf 0cf1 66bf 34b9 65be 24e7 b5bf
000002f0: 9531 09c0 658c 01bf 8f67 e2bf c546 05bf
00000300: 3bd5 94bd 6f64 1ebf 5c07 a7be 4a9f 2cbf
00000310: b03a 91bf d461 54bf 4459 c3bf a8ac 25bf
00000320: 0120 dfbf 23ff f1be e3d2 15bc 023b 0abe
00000330: 69e9 7bbf 4a58 f5be 7350 b5bf 00c1 07c0
00000340: c367 59be f65c 05be 9834 b0bf f72d 0cc0
00000350: b740 b7bd 8ede efbe fe5d f2bf 98f6 5bbf
00000360: 9936 e4be cd87 20bd 1f92 0d3d d955 603b
00000370: a1dc 2ebe 326c 42bf f198 b0bf 47e0 e7bf
00000380: 9967 92be 0cfe 86bf d1ec 1ac0 fbaf 0cbf
00000390: 4a58 31bf c06e 5fbe aea5 03c0 2b28 12be
000003a0: 4fe4 aebe 8f61 55bf 4102 c13d dac1 25bf
000003b0: 987b fdbf 29f8 babf c59f fabe 07a8 d83d
000003c0: 2864 86bd 7583 ccbf 55bb e3bf cce6 96bf
000003d0: 008f ebb9 eedc 63bf f1e9 e2be 99cb 0ac0
000003e0: a450 f7bf 5780 6dbf 43b9 7dbe 7f0b a9bf
000003f0: 1680 09c0 8eea 0abf ab37 dcbf 3037 c8be
-0.07590156 -0.6768821 -0.2918014 -0.6716537 -1.1427479 -0.7572167 -1.6678277 -0.7719172
-1.8238152 -0.4072948 0.03483534 -0.1462421 -0.89772135 -0.50306284 -1.4510027 -1.8570437
-0.34628406 -0.22354439 -1.197178 -2.303971 -0.11473047 -0.5552145 -1.7709347 -0.93451756
-0.6351622 0.07631412 0.0024673978 -0.04622394 -0.18001898 -0.85055184 -1.5119606 -1.7773157
-0.45041323 -1.107177 -2.4169364 -0.6094268 -0.6160528 -0.316609 -2.001106 -0.2760383
-0.29130217 -0.84097475 -0.09334435 -0.5693446 -1.9587847 -1.4610555 -0.19520903 0.08163952
0.011090378 -1.4703345 -1.7605329 -1.1748692 -0.032325502 -0.9237725 -0.42671892 -2.1985037
-1.8892405 -0.92584324 -0.113835886 -1.4318528 -2.0749292 -0.38875246 -1.7222855 -0.47582197
-0.021624297 -0.7447347 -0.12755316 -0.6530482 -1.1250997 -0.8117909 -1.5590295 -0.6689966
-1.8057222 -0.49131525 -0.0660157 -0.31509838 -1.0776182 -0.54208827 -1.4037488 -1.8935764
-0.19262837 -0.18214557 -1.3525702 -2.2420137 -0.0677522 -0.5095382 -1.8790202 -0.94470024
-0.5186787 0.047429945 -0.008699731 0.015444736 -0.07397296 -0.66497076 -1.494447 -1.701953
-0.26266807 -1.1400799 -2.4183702 -0.5822621 -0.73118544 -0.4288012 -1.9384183 -0.14534992
-0.17148052 -0.67127967 -0.03666513 -0.63022983 -1.9344665 -1.542532 -0.50405186 -0.07384091
0.023502083 -1.6052433 -1.7338952 -1.0895715 0.022378054 -0.7064963 -0.5804677 -2.1976154
-1.89011 -0.92917377 -0.17838465 -1.3804377 -2.1100428 -0.37420467 -1.783853 -0.3853567
-0.061051548 -0.7753117 -0.19142123 -0.6766531 -1.2519627 -0.7673955 -1.6378118 -0.6191041
-1.7702949 -0.47399428 0.057079874 -0.2310305 -0.97252524 -0.4697265 -1.5021642 -1.9152709
-0.34478438 -0.070565194 -1.2656738 -2.1445076 0.022324767 -0.40047523 -1.9068943 -0.97938406
-0.5710175 0.09432602 0.015787428 -0.08614308 -0.17062587 -0.8254013 -1.5674694 -1.6556134
-0.2551209 -1.2294599 -2.38822 -0.4564834 -0.66686046 -0.39476237 -1.9972074 -0.122983225
-0.19194049 -0.7523457 -0.06861667 -0.7530098 -1.9065365 -1.5730144 -0.26035616 0.088494666
-0.064773716 -1.4860108 -1.9147677 -1.1340406 0.1110942 -0.7457694 -0.50362307 -2.177267
-1.8418479 -0.9021156 -0.2243393 -1.4211164 -2.1436512 -0.5060485 -1.7687854 -0.5206111
-0.07267233 -0.61872 -0.32622802 -0.67430556 -1.1346035 -0.82961774 -1.5261617 -0.6471658
-1.7431642 -0.47264966 -0.009144518 -0.13499072 -0.9840303 -0.47918922 -1.4165176 -2.1211548
-0.21230988 -0.13023743 -1.376605 -2.1903055 -0.0894789 -0.46849483 -1.8934934 -0.8592315
-0.44572905 -0.03919201 0.03456318 0.0034230857 -0.17076351 -0.7594634 -1.3796674 -1.8115319
-0.28594664 -1.0546279 -2.4207041 -0.54956025 -0.69275343 -0.21819592 -2.0569873 -0.14273135
-0.3415856 -0.8335199 0.09424258 -0.6474892 -1.9803343 -1.4606982 -0.4895002 0.10578924
-0.06562072 -1.5977618 -1.7791544 -1.1789184 -0.00044929236 -0.89008987 -0.44319108 -2.1686766
-1.9321485 -0.92773956 -0.24777703 -1.3206633 -2.1484427 -0.5426415 -1.7204489 -0.39104605

predictionFunction.value_head.2.bias f4 [41]
00000000: acb7 16c0 1b51 18c0 7bd1 11c0 34b3 14c0
00000010: 5d3a 17c0 1d7a 18c0 0c11 12c0 ebad 10c0
00000020: ece9 17c0 7ccc 0ec0 3859 10c0 302d 12c0
00000030: 448d 13c0 3cee 1bc0 f14d 1ac0 5807 19c0
00000040: ac25 0ec0 e91b 16c0 336e 1cc0 1afb 1bc0
00000050: 87b8 74bf 443f 3abf 50ef dabe 5de6 82bf
00000060: 0724 7ebe 9b7d 54be 0550 bbbe 6fce 04bf
00000070: 54c1 98be 2ca7 9abe b181 a43c c1fd 493d
00000080: 9f10 b0be 57ce 14c0 91a6 1bc0 ff0c 17c0
00000090: 2ff6 17c0 a142 1ac0 c68a 16c0 d9ca 1ac0
000000a0: fe67 18c0
-2.3549604 -2.3799503 -2.2784107 -2.3234377 -2.3629372 -2.3824532 -2.2822905 -2.260615
-2.3736525 -2.2312307 -2.2554455 -2.284008 -2.3054972 -2.4364157 -2.4110072 -2.3910732
-2.2210493 -2.3454535 -2.444226 -2.437201 -0.95594066 -0.72752786 -0.42760706 -1.0226551
-0.24818431 -0.2075104 -0.36584488 -0.5187749 -0.29834998 -0.30205667 0.020081373 0.049314264
-0.3438768 -2.325094 -2.4320414 -2.3601682 -2.3744009 -2.4103167 -2.35222 -2.4186308
-2.3813472

dynamicsFunction.startBlock.0.weight f4 [64, 34]
00000000: a782 653e 9a9e c73e ad29 8ebd 1b64 d53d
00000010: 867f 3a3e b026 513e 1e2d f63b bb43 a6bd
00000020: d82d 67bd f08e 51be 4dd4 933e 8665 b33d
00000030: dee9 303d 8aba 1f3e 5556 fcbb ede2 ae3e
00000040: fd16 5f3e 7dcc 943d e61e d63c 160c 8e3e
00000050: 24db 5e3e 2444 ae3e 0834 15be 32f3 fc3d
00000060: cf42 7e3e f473 eb3d a01a 773e d43d 463b
00000070: 50e0 243e d978 2cbc 92de 1abe 8e66 8e3e
00000080: f295 ae3e d32c d1be d417 c7be 17ab 153e
00000090: b42c 45be 4e73 cfbc 298d bebd 015d d53e
000000a0: d85e 84be 5a54 edbd 3663 9bbd 780b d23e
000000b0: e072 6bbe 8a0e 7e3d a239 8b3e 38db b13e
000000c0: 9db7 6e3e 44b3 f43d 6b0f 14bd d1da 013e
000000d0: 4490 83be 17e0 70bd f30c 7fbd 32fe 143d
000000e0: 8438 b53d d337 143e 9dcb 813e a79f 253e
000000f0: c174 4b3d 95c2 cf3e 5632 d7bd d94a 483c
00000100: b84f d5bd 2135 b53d bf1c b43e 51f1 03bf
00000110: a6b8 2a3e a943 a6be a2e4 053f 1f18 99be
00000120: f355 8f3d 6e91 11be 9a2a 423d 4a88 2bbd
00000130: e815 dc3d da7d 4fbe 7ce7 113e dbab 183e
00000140: 9838 b4be 5363 97be 5ad9 4bbd 91f0 7bbe
00000150: f28f 2ebe 1b21 62bc 33c0 27be 8920 ff3d
00000160: c035 163e e348 6cbe 61df 99be cfa9 17be
00000170: 2b32 9ebe dcca 4dbe bacb 93be 10e4 10bf
00000180: 6f62 e33d 78c2 ebbe 521a 293f d493 ab3d
00000190: 7a39 abbe 6c32 9d3e 712e ffbb dfcd 94be
000001a0: a8f8 d83c 20e1 fe3e e616 4c3f 2e5f f0bd
000001b0: 41c7 193e b877 16be 43e8 fa3e ba58 d43d
000001c0: 304e 15bd b5da ce3e c60e 81be 89b6 f0bc
000001d0: 59e7 c1bd 4217 2dbf a425 72bd 65ca a2be
000001e0: b50e 6c3e a5a0 4fbf 8701 2abe 1dbf fcbe
000001f0: 785d 093e 75ce 75bd d380 283d 1fc5 c03c
00000200: 1a6c d8be 748d 2e3e 4763 c4be af75 943e
00000210: 5179 99bd 36e2 b9be 49b8 58bd 5f15 14be
00000220: 9556 02be 290a edbd ba6c 8cbe e3b0 2c3f
00000230: cfbb dd3e c14e 15be 595d bd3d b2f8 38bf
00000240: 345e 14be ce0d 8abd 444a bf3c 1192 24bd
00000250: c50a b73d 9ff0 1e3d e6d0 1abf 0908 353e
00000260: 3df5 7ebd 54f7 2abd b856 b7be 1424 7ebe
00000270: eacb 8abe 7e3d 9a3d 70e3 0fbc 3e60 59bd
00000280: 4ea2 e33e a7c3 3a3e 04ac 623e c40a f83e
00000290: b0ba 903d 79eb 90bd ad0d 3a3e 8909 47be
000002a0: 0452 41be 27a3 c6bd d29d 7cbd 7f55 80be
000002b0: 9df9 303e 9bf8 0bbd 65f7 dfbd 194c d6bd
000002c0: 92b9 cfbd cc38 c1bd bf93 503d 8d4e 9a3d
000002d0: 1d6e 383d b1a8 853e 5ec2 573e c88e 953c
000002e0: b9f0 f53d 459e 5fbe d90c 73be 4818 913e
000002f0: ea0d eebd fe0b 10bf b279 c6bd fa88 37be
00000300: 93c5 823d 28d1 50be 4007 4fbe 55f0 3abe
00000310: 6bc7 26bc 6106 9a3e 1b32 0e3d 21b0 7e3e
00000320: 76ab 833e ac1a 4e3d 0b6a 96bd 7359 14bc
00000330: 4b27 ad3e 48a5 653c cb94 423d 2a8e 42bd
00000340: c202 813e a1d9 72be ab8e 05be b80a 9bbe
00000350: 4f18 1e3e 7f34 d03d 95b1 583c 72cb 173e
00000360: a95f b8be fe7b b2be bed3 26be 39a9 06be
00000370: 77c0 b03d 0a87 d0bd c912 24be c18f 7cbc
00000380: 6e8e a63d a743 563e a484 99be 9840 aa3d
00000390: 9624 d13d c6d1 78be 5a47 f1bd e7ea 4cbe
000003a0: 1593 4f3e 8c81 81bd 47b4 d53c b47b 4dbe
000003b0: a9c5 2abf 4244 2b3f bd66 7a3d b527 bfbd
000003c0: d57a 403e 9b8b 6a3d 9937 dfbd 7f97 203d
000003d0: 340b 4cbd d7bf 0bbe 17a7 183e cd85 e3bd
000003e0: b735 723b 1815 5bbd e04d 613d fc14 fabd
000003f0: 4b08 f4bb 2098 023e dc74 323e b455 153e
0.22413121 0.3898819 -0.06941543 0.10419484 0.18212709 0.20424914 0.0075127026 -0.08118387
-0.056440204 -0.20464683 0.2887291 0.087595984 0.043191783 0.15598503 -0.0077007213 0.34157506
0.21786113 0.072655655 0.02613778 0.27743596 0.21763283 0.34036362 -0.1457063 0.12351073
0.24830173 0.11496726 0.2413125 0.0030249255 0.16101193 -0.010526859 -0.15123966 0.27812618
0.34098774 -0.4085451 -0.38885367 0.14616047 -0.19255334 -0.025323536 -0.09304268 0.4167252
-0.2585361 -0.115883544 -0.07587282 0.41024375 -0.2299304 0.062025584 0.27192408 0.34737563
0.2331223 0.11948255 -0.036147516 0.12681128 -0.25696003 -0.05880746 -0.06226821 0.036375232
0.0884867 0.1447442 0.25350657 0.16174184 0.049671892 0.40578142 -0.10507648 0.012224876
-0.10415596 0.08848024 0.35178182 -0.51540095 0.16672 -0.32473496 0.5230199 -0.29901215
0.069988154 -0.14215633 0.04740391 -0.041878022 0.10746366 -0.20262852 0.1424846 0.14909308
-0.35199428 -0.29567966 -0.04976783 -0.24603488 -0.17047098 -0.013801838 -0.16381912 0.124573775
0.14668941 -0.23074679 -0.30053237 -0.1481087 -0.3089765 -0.20096916 -0.2886637 -0.56597996
0.11102759 -0.46046805 0.66055787 0.08377805 -0.3344229 0.3070253 -0.0077875187 -0.29063317
0.026485756 0.49781132 0.7972244 -0.11736904 0.15017416 -0.14694107 0.49005327 0.10368486
-0.03645152 0.40401235 -0.25206584 -0.029383915 -0.09467954 -0.67613614 -0.05911793 -0.3179504
0.23052485 -0.811045 -0.16602145 -0.49364558 0.13414562 -0.060011346 0.04113848 0.023531495
-0.42269975 0.17046148 -0.38356993 0.28996035 -0.074938424 -0.36305398 -0.052910123 -0.14461277
-0.12728341 -0.115742035 -0.27426702 0.6745741 0.4330735 -0.14580823 0.0924632 -0.7225448
-0.1448906 -0.06740914 0.023350842 -0.040178362 0.08937601 0.038803693 -0.60475004 0.17678846
-0.062245596 -0.041739777 -0.3580835 -0.2481845 -0.271087 0.0753126 -0.008782253 -0.0530703
0.44459766 0.18238698 0.22135931 0.48445714 0.07066858 -0.07076163 0.1816928 -0.19437231
-0.18878943 -0.096990876 -0.061673947 -0.25065228 0.1728272 -0.034172636 -0.10935859 -0.10463733
-0.101428166 -0.09434661 0.05092215 0.075345136 0.045026887 0.26105264 0.21070239 0.01825656
0.12008805 -0.21837719 -0.2373537 0.28338838 -0.11623748 -0.562683 -0.0969118 -0.17923346
0.063853405 -0.20392287 -0.2021761 -0.18255742 -0.010179381 0.30082992 0.034715753 0.24871875
0.25716752 0.050318405 -0.07344445 -0.0090545295 0.3381904 0.014016457 0.04750518 -0.04749886
0.25197417 -0.23715831 -0.13042705 -0.30281615 0.1543896 0.10166263 0.013225933 0.14823702
-0.36010483 -0.34860224 -0.1629171 -0.13150491 0.0863046 -0.10182007 -0.16022791 -0.015415133
0.08132635 0.20924245 -0.2998401 0.083131015 0.10212056 -0.24298772 -0.11781187 -0.20011483
0.20270951 -0.06323537 0.02608694 -0.2006672 -0.66707855 0.6690103 0.061133135 -0.093337454
0.18796857 0.057262044 -0.10899276 0.039206978 -0.04981537 -0.136474 0.1490749 -0.11109505
0.0036958286 -0.053486913 0.055005908 -0.12211034 -0.0074472777 0.12753344 0.17427391 0.14583474

dynamicsFunction.startBlock.0.bias f4 [64]
00000000: c0b2 9b3d 220b 8a3d 04b9 c53d 17c9 80be
00000010: 5ba0 34be 9e0f 1dbe 7882 5d3e fcd7 fbbc
00000020: 4848 4b3e 62f8 03bc 3e04 ecbd 1dd1 133e
00000030: a11c 283c 8100 413e 8115 393d 8f85 55be
00000040: fa57 84be dca1 933e 3804 11be bc8d 7ebe
00000050: 7f73 12be 01e8 9c3d ef16 3dbe 8730 babd
00000060: 0a7b 4ebd 3031 023e f959 9d3e 4fd8 17be
00000070: 9ade 72be a0ff 2c3e d363 01bd 740c fbbd
00000080: 43b0 ed3d a230 003d 2d82 be3d 339c c53d
00000090: a222 b83c 3d29 bfbd 993a a2ba a71c 85be
000000a0: 4f40 693d 0aba 213d 0508 2ebe f65e 793e
000000b0: 9c8e c2bd 0313 ae3d 86ee a4bd 8dbb e4bd
000000c0: 8fe8 0c3e b998 333e 26a0 043b d31c 58be
000000d0: 16bb ec3a 644f e6bc 3dd8 f6bc 3a94 ddbd
000000e0: 7dcc 81ba 0521 1b3e 92b8 e0bc 9ab1 273e
000000f0: f525 493e 000e cb3c 8a9c 0c3e b0dd ce3d
0.07602453 0.06740405 0.096544296 -0.2515342 -0.17639296 -0.15337989 0.21631801 -0.030742638
0.19851792 -0.008054825 -0.11524247 0.14435239 0.010260732 0.18847848 0.045186523 -0.2085173
-0.2584837 0.28834426 -0.14161766 -0.24858755 -0.14301871 0.07661439 -0.1846578 -0.09091287
-0.050410308 0.12714076 0.30732706 -0.14828609 -0.23717728 0.16894388 -0.03158934 -0.122582346
0.11605885 0.03129638 0.09302173 0.09648933 0.022477452 -0.093340375 -0.0012377083 -0.25998423
0.056946095 0.03948406 -0.16995247 0.24352631 -0.09499857 0.0849972 -0.08053307 -0.11168585
0.13760589 0.17538728 0.0020237057 -0.21104746 0.0018061127 -0.028114028 -0.030132407 -0.108192876
-0.0009902861 0.15149315 -0.02743176 0.16376343 0.19643386 0.02478695 0.1373159 0.10100877

dynamicsFunction.startBlock.2.weight f4 [32, 64]
00000000: 63b0 0abd 41b7 94be e649 c83d b41e a2bd
00000010: 47db 81be f8b5 afbd 8887 b33e 902c 293b
00000020: a342 8d3e 8365 743d e8b3 b8be 20e4 8a3d
00000030: 3e37 113e 1026 a33e bd7d 023b ee3e eabd
00000040: e52f 22be f5df 4c3c 260d bfbb 640b 62be
00000050: aaf7 41be a03c 91bd 6840 2a3e 26b4 d4bd
00000060: ce85 54be f58f 573e 1f4f 9a3e 93a9 42bd
00000070: e4ca e93d 3c9c 42be 37c7 053d 6891 b2bc
00000080: ef72 64bd 7b87 69bd 500b 263e f96d f1be
00000090: e67a 89be ef9d 1dbd 14e2 843e bb33 5abe
000000a0: ea16 d3bc 2692 3abe 2e5f 4e3e 8bfc b43c
000000b0: 2df4 b4be bb56 aabd 0af6 633d c437 a13d
000000c0: 247a 16bd de5f 6a3e 2787 44be 1695 6d3e
000000d0: cc03 9e3c 8325 98bd 46f5 4abe b692 77be
000000e0: 518e 81be 4928 b73d c6b9 b93e aa32 483e
000000f0: 1351 863e 91bf 2abe 9caf b8bb ff61 aebe
00000100: 1eba 143e fd7a 7e3e 587e b2be 5bbb f53c
00000110: a1e5 1abc f0fc a2be ac6c d8be 3ecb 03be
00000120: 7b3b acbe 797d 213c 1e36 943e 9a8c 4cbe
00000130: a354 dabd b6e0 3ebf 9d6f 0cbe 71e9 8f3d
00000140: e234 d83f e491 29be 8fcb 043d 226b 7a3e
00000150: 534f fd3d e93b 30bd b37f db3d bd13 0c3e
00000160: 43f1 543e 9c21 c33e 4502 99bf 1b4e 023e
00000170: cb63 403d abbf 23be 1345 32bd f1b8 be3e
00000180: 8b2e 363c 8c36 113f f426 4abe 55e0 04bc
00000190: 0157 a43e da24 2e3d 0cc7 f0bd 65e3 7b3e
000001a0: 072f 163c b06f c53e 7919 743d 7ce2 51be
000001b0: f9b6 0f3f daf1 9c3d acf3 293e d731 243e
000001c0: 42d6 2d3e 7a0d a3bf 8bf8 08be 57d4 bebd
000001d0: 58ca f43e 5458 133e a60c 3d3e 2dc3 6d3e
000001e0: f6c5 9fbe 73a5 79ba 7a5f 2b3e 3734 673d
000001f0: db9f 56bf 9c6b 59bf 937a 383d a127 97be
00000200: 49ce bd3c d783 9cbe 7ed6 8b3e 7819 81be
00000210: 79d3 4ebd 8655 423e 2bb2 6dbb 815a c6bd
00000220: 4cf9 f23c 6a53 bcbc 42a8 29be ddf1 ae3d
00000230: 0926 223e 6e8a 953e c132 ca3b abaa a73d
00000240: df1e 35be fe15 c33e fdcb 73be 17cc cbbd
00000250: 0cf7 e6bb 68a9 683e 1855 173e a0de 2d3d
00000260: 385d e03d 6622 343d 04e7 313f 2467 933d
00000270: 9f03 59bd acfc 213e 094d 66be 9a82 5abe
00000280: 5390 ec3d 3bbb 183e 49bd d4be 34ad 83bc
00000290: 63bc acbe 7305 10be 125f 8ebd 6d56 c6bc
000002a0: 6a88 90bd 2975 0fbd 80ae 5d3d cef3 8abd
000002b0: e99e 01bf b94e b23d 44f8 b6be 0197 6fbe
000002c0: 55d6 95be ff5c 59be 1098 963d 754e 343e
000002d0: a218 003f f6e8 dc3b 08f7 3abe 20ed ddbd
000002e0: 3603 c3be 3c8c 3f3d 5708 1fbe 5cf8 b33d
000002f0: 5127 063e fd4a 5bbd 6611 323e d9de ea3c
00000300: 5564 b2bd 8910 183e f835 1cbe c4fe 2abe
00000310: b257 c73e bf77 92bd bb08 f8bc 5b44 aabd
00000320: 8b61 c1be bc2d 5dbd 1767 1d3e 4adb 043b
00000330: 56b9 49be c96a 31be c1c3 b5be 9a92 9dbc
00000340: 6e99 df39 dd93 ffbe 554c 473f 09d7 493d
00000350: cd05 4c3d bfc3 9dbd a88c a2bc 9efc 423d
00000360: 2c3c efbd 1c8d 083e d110 823c eabc ee3d
00000370: 1f8e a03c 0190 68be a59f 9c3e be4d b83d
00000380: 7240 99bd 9213 67bd 15ef 833e e764 7dbe
00000390: 6599 2d3c d768 cd3e fb80 333e b6ad 163e
000003a0: 1bf5 593d d493 a6bc 5722 e03d 718b b83d
000003b0: 2035 863e fbaa 90be 0496 61bf 3802 e53e
000003c0: 74da a63d d68b ecbc 4802 0e3d 0057 a9bd
000003d0: 8e7a 503e 041e d03d 508c ea3c 9aa8 2f3e
000003e0: 868f 133b 1027 31bd 0835 7339 638f 0bbe
000003f0: d684 b73c 15cf 91bd ea74 4dbe c9c0 663e
-0.03385962 -0.29046062 0.0977972 -0.079160124 -0.25362608 -0.0857963 0.3506434 0.0025813915
0.27589902 0.05966712 -0.36074758 0.06781793 0.1418123 0.31864977 0.0019911372 -0.11437784
-0.15838583 0.012504567 -0.005830425 -0.22074658 -0.18942133 -0.070916414 0.16626132 -0.10385923
-0.20754167 0.21051009 0.3013849 -0.047525 0.114156514 -0.19004911 0.03266069 -0.02179785
-0.05577367 -0.05701397 0.16215253 -0.47154215 -0.26851577 -0.038480695 0.25953734 -0.21308796
-0.025767762 -0.18219814 0.20153496 0.022093078 -0.3534254 -0.08317324 0.055654563 0.078719646
-0.036737576 0.22888133 -0.19192182 0.23201403 0.01928892 -0.0742903 -0.19820127 -0.2417706
-0.2530389 0.08943231 0.36274546 0.19550577 0.2623373 -0.1667464 -0.0056361686 -0.3405914
0.14524123 0.24851604 -0.34862018 0.029996565 -0.009454162 -0.318336 -0.4227041 -0.128705
-0.3363913 0.009856575 0.28947538 -0.1997551 -0.106606744 -0.7456163 -0.13714452 0.07026947
1.6891139 -0.16559559 0.03242069 0.2445493 0.123686455 -0.043025885 0.10717716 0.13679405
0.20795159 0.3811158 -1.1953818 0.12725107 0.04697017 -0.15991084 -0.043522906 0.37250474
0.011119495 0.56723857 -0.19741422 -0.008110126 0.3209763 0.042515613 -0.11756715 0.24598463
0.009166486 0.38561773 0.059594605 -0.20496553 0.5613857 0.07663317 0.1659686 0.16034637
0.16976264 -1.2738488 -0.13376062 -0.09317844 0.47810626 0.14389163 0.18461856 0.23218985
-0.3120572 -0.000952325 0.1673564 0.05644628 -0.8383767 -0.84929824 0.04503877 -0.29522422
0.023169653 -0.30569336 0.27312082 -0.25214744 -0.050494645 0.18977937 -0.0036269526 -0.09685231
0.02965989 -0.022988994 -0.16568092 0.085422255 0.15834822 0.29207176 0.006170601 0.08186849
-0.17687558 0.38102716 -0.23808284 -0.099510364 -0.0070484933 0.22720873 0.14778554 0.04244864
0.1095528 0.043978117 0.69493127 0.07197407 -0.05298197 0.15819043 -0.22490324 -0.21338883
0.11550965 0.14915173 -0.41550663 -0.0160738 -0.33737478 -0.14064579 -0.06951727 -0.024211133
-0.07057269 -0.035023842 0.054121494 -0.06784783 -0.506331 0.087064214 -0.35736287 -0.23397447
-0.29265085 -0.21226881 0.07353222 0.17608054 0.50037587 0.0067416383 -0.18258297 -0.10836244
-0.38088387 0.046764597 -0.15530525 0.08787605 0.13100936 -0.05353831 0.1738945 0.028670715
-0.08710543 0.14850058 -0.15254962 -0.16698748 0.38934094 -0.07151746 -0.0302776 -0.08313819
-0.37769732 -0.053998694 0.15371357 0.0020272308 -0.19699606 -0.17325892 -0.3550091 -0.019234944
0.00042648189 -0.49917498 0.7785085 0.04927734 0.04981022 -0.07703351 -0.01984246 0.047604196
-0.11681399 0.13335079 0.01587716 0.11657126 0.019599019 -0.22711183 0.3059055 0.08999203
-0.07482995 -0.056415148 0.25768343 -0.24745522 0.010595654 0.4011905 0.17529671 0.14714703
0.053212266 -0.020334162 0.1094405 0.09010971 0.26212406 -0.28255448 -0.8811953 0.44728255
0.081471354 -0.028875273 0.034670144 -0.08268547 0.20359251 0.10161975 0.02863136 0.1715416
0.0022515967 -0.043250144 0.00023194042 -0.13628916 0.022402208 -0.07119576 -0.2006413 0.22534479

dynamicsFunction.startBlock.2.bias f4 [32]
00000000: b758 283d 63cb ddbe 7cb4 c03d 5bcc 4dbe
00000010: d169 7ebd dc82 f63c aab5 243d b42e c73c
00000020: 380a 61be 0135 383e 264b 303e 4508 04be
00000030: 7fdb 573e 4b42 f7bc 64d2 9b3d 3997 a03e
00000040: 01bd 473e 3f14 dc3d d8f1 d33c 21c1 f13d
00000050: ddab 5ebe b55f 23be d8f8 5dbe 4245 4c3e
00000060: ab2c 1bbe e9b9 1dbe ed1e 2b3e 7684 15be
00000070: 0087 9e3d e423 c7bc 6602 073e 3fa1 8f3d
0.04110023 -0.43319234 0.09409425 -0.20097487 -0.062112633 0.030091695 0.04021231 0.024314262
-0.21976554 0.1798897 0.17216167 -0.1289378 0.21079825 -0.030182978 0.07608488 0.31365374
0.19505693 0.10746049 0.025872156 0.118044145 -0.21745248 -0.15954478 -0.21676958 0.19948295
-0.15153758 -0.1540295 0.16711016 -0.14601311 0.07740593 -0.024309106 0.13184509 0.07013177
