AlphaGo/foersterrobert_MuZero/Environments/CartPole/Models/model_11.pt (torch, 84274 bytes, 20 tensors)

predictionFunction.startBlock.0.weight f4 [64, 32]
-0.10140929 0.56296724 -0.33578625 -0.28557894 -0.30499056 -0.08947057 -0.04788467 0.25179163
0.122935906 -0.1843945 -0.2714855 -0.26392868 -0.4239505 0.33332488 0.029853255 -0.23631327
-0.124147706 0.22529674 -0.47384486 0.28265837 0.461331 0.72785085 0.06062634 0.042078525
-0.020074075 0.12935676 0.011314499 0.011088798 0.10156935 0.15420344 -0.26529512 0.017738929
-0.16435651 -0.17194119 -0.25829977 -0.1265553 -0.26306152 0.057809252 -0.21061172 0.2371661
-0.016438736 -0.2422516 -0.21719828 -0.036083873 0.05332072 0.06332811 0.042435516 0.10635221
-0.3917752 -0.14226924 0.05967507 0.18835993 0.29043436 0.12988073 0.19121207 -0.44158944
0.041234355 0.04003408 0.0014965506 0.04178045 -0.006036868 0.40643027 -0.6983347 -0.177811
-0.34532738 0.13435836 -1.7112598 0.06859495 0.05558155 0.61306006 -0.07923449 -0.3226301
-0.3357789 0.09832347 -0.43506452 0.16478218 0.62991375 0.061132852 0.2434781 0.28320676
-0.5838031 0.30211768 0.061184406 -0.12313959 0.30166087 0.10352038 1.1328421 0.18388492
0.25850362 0.30809695 0.48177367 0.24785237 0.18220238 1.9227973 -1.1078967 0.3553088
0.07009834 0.39646617 -0.60199636 -0.09002438 -0.006761645 0.45801255 0.04710218 -0.32988197
-0.32825205 0.034032676 -0.0250389 -0.33589628 0.23392943 -0.03634234 -0.020478662 0.42269105
0.06331387 0.22144926 -0.2873553 -0.0059160083 -0.03990151 0.4067224 0.18908562 0.36274466
0.25479373 -0.00806884 0.11912536 0.24728441 0.14943807 0.09388902 -0.41637683 0.46414217
-0.37459943 -0.7564454 -0.23372622 0.3637825 -0.06898579 -0.097774826 -0.19178863 -0.18793456
0.04722721 -0.10821266 0.07753372 0.7543307 0.6648135 0.53848773 -0.17283064 -0.25715333
-0.52940196 -0.62307906 -0.025468186 -0.123188086 0.08162866 -0.029125456 0.08184436 -0.42910933
0.13972771 0.58258265 0.02325369 0.055568613 -0.24137405 0.4120861 -0.99529886 0.06842938
-0.124667816 -0.16873755 0.00011308846 -0.25358024 0.11851329 -0.50681883 -0.022964949 0.31664467
-0.06592652 -0.174863 -0.093179256 0.15534134 0.27804595 0.0412001 -0.06121408 0.029977068
-0.16286817 -0.059888862 0.4785029 -0.03396021 -0.008426571 -0.15105341 0.2482637 -0.06633665
-0.03076555 0.024835676 -0.09080254 -0.23595496 -0.5855101 0.15702848 0.13577253 0.11585851
-0.19743222 -0.0655296 -0.05648335 -0.16986403 -0.12816714 0.102931276 -0.47771767 0.32815832
-0.014136872 0.37282276 -0.6133055 -0.12746541 -0.03481053 0.024727888 0.24750894 0.17704435
0.03797847 -0.07902192 0.3255803 0.110391125 0.016583724 0.050699484 0.08770283 -0.10580603
-0.22854859 0.12825617 -0.09575228 -0.45553496 -0.24518885 0.22671545 -0.096245855 0.08797006
-0.20245738 0.115563035 -0.7761506 0.24373102 -0.09243893 -0.041464522 0.012800777 0.15130827
0.1098706 0.09806645 0.18840973 -0.10726081 0.36709073 -0.13634567 -0.25113484 0.4583732
0.024334434 0.14881633 -0.008330625 0.133417 0.26252928 0.053813256 0.7548444 -0.09448313
0.29128432 0.1787172 0.32958883 0.3975393 0.15128975 0.53951496 -0.631272 -0.22983624
00000000: adaf cfbd 9f1e 103f 2dec abbe 6737 92be
00000010: b927 9cbe 593c b7bd b722 44bd d5ea 803e
00000020: d2c5 fb3d e9d1 3cbe 2600 8bbe a921 87be
00000030: 0a10 d9be 8fa9 aa3e d08e f43c 1bfc 71be
00000040: 2741 febd 30b4 663e cb9b f2be 99b8 903e
00000050: 9433 ec3e 6f54 3a3f 5353 783d 885a 2c3d
00000060: 6372 a4bc 1976 043e 7360 393c caad 353c
00000070: 9703 d03d 82e7 1d3e c3d4 87be 3b51 913c
00000080: 134d 28be 5a11 30be de3f 84be b697 01be
00000090: 00b0 86be 65c9 6c3d 99aa 57be acdb 723e
000000a0: 87aa 86bc ce10 78be 3a69 5ebe afcc 13bd
000000b0: d466 5a3d 2bb2 813d ddd0 2d3d 30cf d93d
000000c0: c296 c8be 07af 11be d96d 743d 6de1 403e
000000d0: d0b3 943e 74ff 043e 19cd 433e 0318 e2be
000000e0: 5be5 283d c7fa 233d e827 c43a fa21 2b3d
000000f0: ebd0 c5bb a117 d03e 10c6 32bf 1614 36be
00000100: c0ce b0be 3d95 093e 900a dbbf 827b 8c3d
00000110: 7ba9 633d 81f1 1c3f b145 a2bd c62f a5be
00000120: 36eb abbe d15d c93d c7c0 debe a9bc 283e
00000130: 0742 213f 7166 7a3d 5352 793e 7a00 913e
00000140: 1f74 15bf 2baf 9a3e 809c 7a3d 9c30 fcbd
00000150: 4b73 9a3e 7e02 d43d f800 913f 544c 3c3e
00000160: 965a 843e e2be 9d3e 0aab f63e 03cd 7d3e
00000170: 4393 3a3e 391e f63f 8fcf 8dbf 09eb b53e
00000180: b88f 8f3d 9dfd ca3e 6f1c 1abf b45e b8bd
00000190: ca90 ddbb 9f80 ea3e 37ee 403d 4ae6 a8be
000001a0: a710 a8be d965 0b3d 611e cdbc 99fa abbe
000001b0: 328b 6f3e b5db 14bd dec2 a7bc f66a d83e
000001c0: b4aa 813d 98c3 623e 3c20 93be 13db c1bb
000001d0: c46f 23bd eb3d d03e a99f 413e abb9 b93e
000001e0: 5374 823e 2b33 04bc fff7 f33d 2038 7d3e
000001f0: 4b06 193e e348 c03d 582f d5be 0ba4 ed3e
00000200: 7fcb bfbe 68a6 41bf ed55 6fbe b341 ba3e
00000210: 6c48 8dbd 2b3e c8bd 3d64 44be eb71 40be
00000220: 5271 413d 999e ddbd 00ca 9e3d d11b 413f
00000230: 3831 2a3f 55da 093f 84fa 30be 9aa9 83be
00000240: e386 07bf 1c82 1fbf a8a2 d0bc 094a fcbd
00000250: ed2c a73d 8298 eebc 049e a73d 38b4 dbbe
00000260: c814 0f3e 2324 153f 867e be3c ea9b 633d
00000270: c22a 77be f3fc d23e e8cb 7ebf b424 8c3d
00000280: d751 ffbd 89c9 2cbe e829 ed38 45d5 81be
00000290: 19b7 f23d e1be 01bf fd20 bcbc 401f a23e
000002a0: 7c04 87bd 490f 33be c4d4 bebd cd11 1f3e
000002b0: 0a5c 8e3e 70c1 283d 9dbb 7abd 7892 f53c
000002c0: eac6 26be 064e 75bd 55fe f43e dc19 0bbd
000002d0: 9a0f 0abc bfad 1abe d738 7e3e 82db 87bd
000002e0: 0908 fcbc 3074 cb3c aff6 b9bd 2d9e 71be
000002f0: fde3 15bf 13cc 203e f407 0b3e 3a47 ed3d
00000300: ac2b 4abe 6234 86bd 165b 67bd d6f0 2dbe
00000310: 3f3e 03be a2cd d23d 6997 f4be 5e04 a83e
00000320: 579e 67bc a0e2 be3e 9701 1dbf 4b86 02be
00000330: 7c95 0ebd 2492 ca3c fc72 7d3e 1d4b 353e
00000340: 508f 1b3d 3fd6 a1bd 76b2 a63e be14 e23d
00000350: 97da 873c 43aa 4f3d 8b9d b33d d5b0 d8bd
00000360: a408 6abe 9655 033e c519 c4bd e13b e9be
00000370: c912 7bbe 1828 683e 8c1c c5bd a629 b43d
00000380: fd50 4fbe 50ac ec3d ceb1 46bf a094 793e
00000390: 9f50 bdbd b4d6 29bd 5aba 513c 8ef0 1a3e
000003a0: d603 e13d 10d7 c83d 7bee 403e 8eab dbbd
000003b0: 51f3 bb3e 339e 0bbe bf94 80be e4af ea3e
000003c0: 0259 c73c 4f63 183e 2c7d 08bc 779e 083e
000003d0: 3d6a 863e 4a6b 5c3d 7c3d 413f 5f80 c1bd
000003e0: 3823 953e a401 373e debf a83e 458a cb3e
000003f0: b3eb 1a3e a71d 0a3f 0b9b 21bf 315a 6bbe

predictionFunction.startBlock.0.bias f4 [64]
-0.029801603 -0.22829731 -0.27422607 0.029421708 -0.22612682 0.0032193717 0.085271284 -0.09448795
0.15790056 0.06885494 -0.23382476 -0.1245713 -0.17638892 -0.033913214 -0.096393645 -0.16072157
-0.16095051 0.0921411 -0.26044208 -0.088980906 -0.23986557 -0.09785673 -0.012727124 -0.13952424
-0.05256318 -0.066182666 0.03671435 -0.09821025 -0.07921738 -0.17286244 -0.11158115 -0.17372748
0.07631918 -0.26148492 -0.17002106 -0.047142196 -0.12817748 -0.2110556 -0.1413991 -0.21186487
-0.09636172 -0.1968779 -0.34152386 -0.12664273 0.0048789363 -0.24750347 0.017996468 -0.17040469
-0.12541105 0.1274134 -0.14008836 -0.015133967 -0.13779944 -0.14841378 -0.2419646 0.12572406
0.0029064054 0.1136475 -0.1376581 0.026936477 0.106531925 0.19073558 -0.14630756 0.08807313
00000000: 7e22 f4bc c5c6 69be 5c67 8cbe cb05 f13c
00000010: ca8d 67be 18fc 523b b6a2 ae3d e682 c1bd
00000020: afb0 213e d203 8d3d c26f 6fbe 3d1f ffbd
00000030: 4c9f 34be 95e8 0abd 086a c5bd 3294 24be
00000040: 36d0 24be 79b4 bc3d aa58 85be 9f3b b6bd
00000050: 529f 75be 1c69 c8bd 6d85 50bc 71df 0ebe
00000060: 7d4c 57bd c78a 87bd c961 163d 7522 c9bd
00000070: b93c a2bd da02 31be a884 e4bd 9ee5 31be
00000080: 3b4d 9c3d 5ae1 85be 001a 2ebe 2d18 41bd
00000090: f540 03be f61e 58be edca 10be 1bf3 58be
000000a0: 4b59 c5bd 5c9a 49be 37dc aebe a2ae 01be
000000b0: 7cdf 9f3b 8d71 7dbe 546d 933c 917e 2ebe
000000c0: c16b 00be a978 023e 5373 0fbe 75f4 77bc
000000d0: 4c1b 0dbe c8f9 17be 91c5 77be cfbd 003e
000000e0: 6479 3e3b 05c0 e83d 3ff6 0cbe e3a9 dc3c
000000f0: 692d da3d 3050 433e a6d1 15be af5f b43d

predictionFunction.startBlock.2.weight f4 [64, 64]
-0.10134509 -0.21402025 0.3116579 -0.27358338 -0.09440412 -0.451574 0.29448363 0.1487064
-0.67252403 -0.06715804 -0.15275502 -0.02742861 0.024450164 0.4889425 0.16883077 0.1161356
0.13334514 -0.072826885 -0.527324 -0.3123823 -0.09255665 0.028484289 0.26292035 0.1564818
-0.5958259 -0.22395726 0.8769508 -0.15655044 -0.15717413 0.039961297 -0.24929848 -0.029787596
-0.46096596 0.34640232 0.09643451 -0.31854185 -0.041004837 0.3300618 -0.11309951 0.17337327
-0.093538694 -0.0024122351 0.1619953 -0.0033412657 0.07489423 -0.22318627 -0.3890235 -0.060748003
-0.019676486 -0.61204565 -0.3102385 -0.37530217 -0.09248133 -0.20689535 0.43796012 -0.37071535
-0.35444078 -0.2009325 -0.12983617 0.23883523 0.15487069 -0.19123909 0.0050316313 -0.20771165
-0.22624393 -0.30470487 0.13997832 -0.12644549 0.36553338 -0.024894597 0.34081253 0.32644808
-0.63046694 0.24610628 0.035172746 -0.030959157 0.56561846 0.38394654 0.34681466 -0.067244574
0.16123042 -0.14708905 -0.47784328 -0.016562277 -0.045488466 -0.10903242 0.058180977 0.2655152
-0.30760133 -0.19660577 0.51514107 -0.1966181 -0.48255527 0.15912914 0.020154359 -0.0451823
-0.3226542 0.3241828 0.43674943 -0.12948275 0.45543134 -0.15820703 -0.34310246 0.05078287
0.28275806 0.20370287 -0.0029354582 0.08952849 0.22106452 0.051096704 -0.32092994 -0.102356955
-0.17894673 -0.26329467 -0.14058231 -0.16224419 0.2647784 0.13463715 -0.21159367 -0.27138677
-0.22181116 0.118821114 -0.021040022 0.7053932 0.36356962 -0.06814051 -0.05418408 -0.17784989
-0.036420897 -0.014864276 0.2499351 -0.04622493 -0.24110547 -0.56764823 0.27848688 -0.044867903
-0.20965748 -0.35279325 0.03712941 0.57919955 0.117019214 0.10233567 0.023438673 -0.017003471
0.04247196 0.026722513 -0.0043572653 -0.029702581 0.047582556 -0.24981081 0.09730064 0.028506905
-0.037532926 -0.27476302 0.042315975 -0.0634383 -0.3253189 -0.11198644 0.28262362 0.032476857
-0.10052808 -0.08821843 0.15443616 -0.03372078 0.17927004 -0.1771964 0.026838591 -0.20750606
0.0973417 -0.101288304 -0.092685536 -0.37475085 0.32331777 -0.3908344 -0.52384126 -0.29411247
-0.183126 -0.31847486 0.04545299 -0.18322933 0.119767204 -0.0014942554 0.005021743 -0.1029858
0.06231615 -0.09879346 0.5254061 -0.19924401 -0.031905606 -0.30294615 -0.14901274 0.062370334
-0.35128823 -0.03374115 0.1139642 0.2755857 0.17680152 0.043340217 -0.12898697 0.013232611
-0.33264494 0.20079474 -0.3252099 -0.09885597 -0.02271137 -0.023238285 0.16463296 0.21368067
0.114112385 -0.04494748 -0.14738677 -0.13290353 -0.079479925 -0.3940037 -0.05207581 0.24943079
-0.013580972 0.1370264 0.044596147 -0.1421741 0.15506564 -0.14374688 -0.100531094 -0.2690499
0.21334733 0.07599888 0.23889273 -0.27947232 0.094097756 -0.14743942 -0.9043855 0.14628871
0.4836993 -0.36970788 -0.057506733 0.35862368 0.24207345 -0.21000285 -0.054432385 -0.64261985
0.43411088 -2.4176126 0.009805845 -0.13657802 0.3455191 0.27039215 0.14291891 -0.0007649515
-0.19367154 0.23646569 -0.0977458 -0.25478178 -0.37322932 -0.09703474 0.13798454 -0.041536488
00000000: 048e cfbd 2028 5bbe a091 9f3e 1f13 8cbe
00000010: f356 c1bd b534 e7be 8fc6 963e 7e46 183e
00000020: 892a 2cbf 288a 89bd d06b 1cbe f7b1 e0bc
00000030: b64b c83c ac56 fa3e f9e1 2c3e 80d8 ed3d
00000040: a18b 083e 4326 95bd b5fe 06bf 93f0 9fbe
00000050: 578e bdbd e257 e93c 7f9d 863e c43c 203e
00000060: 0c88 18bf 0d55 65be d97f 603f c24e 20be
00000070: 41f2 20be 75ae 233d 1a48 7fbe 1e05 f4bc
00000080: bb03 ecbe a55b b13e 757f c53d eb17 a3be
00000090: b0f4 27bd dcfd a83e b7a0 e7bd c388 313e
000000a0: 3791 bfbd 9716 1ebb 19e2 253e 23f9 5abb
000000b0: 2562 993d f18a 64be 172e c7be e6d2 78bd
000000c0: 9530 a1bc 06af 1cbf 95d7 9ebe 9b27 c0be
000000d0: da66 bdbd 60dc 53be 4f3c e03e 67ce bdbe
000000e0: 4379 b5be 40c1 4dbe c6f3 04be 3991 743e
000000f0: 6c96 1e3e 2ed4 43be 62e0 a43b 5db2 54be
00000100: 7dac 67be 4702 9cbe 7a56 0f3e ed7a 01be
00000110: 3127 bb3e c1ef cbbc fb7e ae3e 3424 a73e
00000120: 4866 21bf 4903 7c3e 4c11 103d 0f9e fdbc
00000130: 5fcc 103f a494 c43e b191 b13e 86b7 89bd
00000140: 9619 253e 839e 16be e0a7 f4be 9dad 87bc
00000150: 1d52 3abd 644c dfbd 2d4f 6e3d 9cf1 873e
00000160: ec7d 9dbe 0653 49be 49e0 033f 4156 49be
00000170: 7c11 f7be c0f2 223e c11a a53c 1311 39bd
00000180: ee32 a5be 4afb a53e 9f9d df3e 2097 04be
00000190: 4c2e e93e 0601 22be 20ab afbe b301 503d
000001a0: aac5 903e 7c97 503e d160 40bb b75a b73d
000001b0: bd5e 623e c74a 513d ee50 a4be 86a0 d1bd
000001c0: d03d 37be 8fce 86be cff4 0fbe 5723 26be
000001d0: 0991 873e 52de 093e 03ac 58be 35f3 8abe
000001e0: 7722 63be 7c58 f33d 205c acbc a694 343f
000001f0: cc25 ba3e 408d 8bbd 20f0 5dbd 481e 36be
00000200: 142e 15bd 4b89 73bc fdee 7f3e 5a56 3dbd
00000210: 5ae4 76be 6551 11bf d595 8e3e 68c7 37bd
00000220: 73b0 56be 51a1 b4be 0215 183d 6c46 143f
00000230: c5a7 ef3d 5d95 d13d 7602 c03c dd4a 8bbc
00000240: 14f7 2d3d 2ce9 da3c 64c7 8ebb d452 f3bc
00000250: ede5 423d 68ce 7fbe 8f45 c73d 5087 e93c
00000260: 20bc 19bd bdad 8cbe 8453 2d3d f0eb 81bd
00000270: 3390 a6be 2659 e5bd 0bb4 903e 7406 053d
00000280: aae1 cdbd ddab b4bd 8324 1e3e cd1e 0abd
00000290: 9192 373e f972 35be 9bdc db3c 787c 54be
000002a0: 165b c73d 3e70 cfbd ead1 bdbd 58df bfbe
000002b0: e889 a53e 721b c8be 761a 06bf e995 96be
000002c0: 6285 3bbe 230f a3be ea2c 3a3d 78a0 3bbe
000002d0: 8248 f53d e4da c3ba 6f8d a43b 38ea d2bd
000002e0: 383f 7f3d 3a54 cabd 0481 063f 9f06 4cbe
000002f0: 74af 02bd c21b 9bbe cc96 18be 0978 7f3d
00000300: 0ddc b3be 2934 0abd 1066 e93d 9219 8d3e
00000310: 750b 353e 8385 313d 2915 04be 98cd 583c
00000320: 7050 aabe 239d 4d3e e981 a6be 0075 cabd
00000330: 320d babc 375e bebc 8b95 283e 1bcf 5a3e
00000340: c1b3 e93d d91a 38bd 8fec 16be dd17 08be
00000350: 5fc6 a2bd daba c9be 724d 55bd c96a 7f3e
00000360: ba82 5ebc a650 0c3e 73aa 363d 1696 11be
00000370: 87c9 1e3e 6232 13be 3fe3 cdbd e9c0 89be
00000380: b977 5a3e 4da5 9b3d 4ca0 743e ff16 8fbe
00000390: 53b6 c03d 5cfa 16be cf85 67bf b5cc 153e
000003a0: 6fa7 f73e 5a4a bdbe 2e8c 6bbd 869d b73e
000003b0: 1ae2 773e fd0a 57be 7ef4 5ebd bc82 24bf
000003c0: c843 de3e 2aba 1ac0 b2a8 203c 1cdb 0bbe
000003d0: e1e7 b03e d770 8a3e 5659 123e 0787 48ba
000003e0: d551 46be 1024 723e f32e c8bd c272 82be
000003f0: ea17 bfbe 26ba c6bd d24b 0d3e 2a22 2abd

predictionFunction.startBlock.2.bias f4 [64]
-0.23481642 -0.20026152 -0.0660234 0.040431187 -0.32897243 -0.25153834 -0.047717556 -0.30954477
-0.13392285 -0.02127649 -0.15809505 -0.029557373 0.16298045 0.1575257 0.2791907 -0.0069328756
-0.07242566 -0.15326841 -0.44880688 0.013324577 -0.11847185 -0.14642487 -0.083945766 0.1252302
-0.12548111 -0.18061876 -0.08122542 -0.1697192 -0.11918944 0.06361047 -0.12660159 -0.08450326
-0.15309021 -0.06167603 -0.024112828 -0.001759219 -0.054326024 -0.13948469 -0.1746301 0.010067423
-0.2824749 0.16179723 0.17009711 -0.20232809 0.12844671 -0.113955304 0.10077899 -0.45047557
-0.1297601 -0.22749774 -0.10322424 -0.08688775 0.113141 -0.1690126 -0.33786452 0.42206565
0.0438115 -0.21063691 0.15139334 0.1476411 0.1020375 0.03920067 -0.14352576 -0.059799768
00000000: b773 70be 5b11 4dbe 4737 87bd 2c9b 253d
00000010: 136f a8be a2c9 80be 7c73 43bd a77c 9ebe
00000020: 1223 09be 094c aebc abe3 21be 4e22 f2bc
00000030: 59e4 263e 6b4e 213e 15f2 8e3e 2d2d e3bb
00000040: e853 94bd 65f2 1cbe 04ca e5be 544f 5a3c
00000050: 5fa1 f2bd 67f0 15be c2eb abbd 583c 003e
00000060: 1f7e 00be 20f4 38be 8359 a6bd dfca 2dbe
00000070: 9819 f4bd 3546 823d d9a3 01be 0c10 adbd
00000080: aec3 1cbe 01a0 7cbd 4488 c5bc 9895 e6ba
00000090: f784 5ebd 13d5 0ebe 3cd2 32be d5f1 243c
000000a0: 8da0 90be 2cae 253e f02d 2e3e 182f 4fbe
000000b0: 8987 033e 6661 e9bd 3765 ce3d bca4 e6be
000000c0: d5df 04be 2bf5 68be 3b67 d3bd 34f2 b1bd
000000d0: 78b6 e73d a411 2dbe 94fc acbe fd18 d83e
000000e0: b073 333d 34b1 57be db06 1b3e 3b2f 173e
000000f0: 09f9 d03d e290 203d 6bf8 12be 9af0 74bd

predictionFunction.policy_head.0.weight f4 [2, 64]
-0.07829424 -0.029305497 -0.11653276 0.15463372 -0.25058186 0.014031499 0.16905849 0.48594022
-0.20786129 0.029696202 0.08667022 0.12878478 -0.014340643 -0.12073866 -0.012126956 -0.00408642
-0.035168502 0.14662956 -0.3986932 -0.0942803 0.3158656 0.11632799 0.04781628 0.09233761
0.09223085 -0.26816022 0.080008864 -0.42978948 0.057209313 -0.3650307 0.0036920574 0.13156892
0.030403733 -0.012436508 -0.21290636 -0.06552421 -0.074616455 0.33872724 -0.23906925 0.039971452
0.6116159 0.280865 0.15473627 -0.56808025 -0.07631668 -0.040793847 -0.21152794 0.24970704
0.40774983 0.34383968 -0.09122708 -0.016396105 -0.29817796 0.03219156 0.3358115 -0.038657863
0.070806086 -0.14348024 0.08561822 -0.09175145 0.11548963 0.041540504 0.10380535 0.082576714
0.106543586 -0.15924272 0.1198495 -0.17974824 0.042001043 0.12522884 0.018943587 -0.37018293
0.24381554 -0.030659186 -0.0126512395 -0.11717912 0.14186954 0.15564652 0.041522805 0.104807325
0.080759384 -0.32105634 0.38891864 -0.0099038845 -0.20474714 -0.0014428437 -0.051474947 -0.08537159
0.081385635 0.2656147 0.05756399 0.42579946 0.0055736997 0.4182195 0.09492255 -0.04604221
-0.11148439 -0.103835315 0.22732474 0.017615963 0.009122048 -0.30575353 0.3483029 0.09679851
-0.61161274 -0.19762538 -0.07171487 0.49051857 -0.08615582 -0.026537381 0.10886393 -0.28187346
-0.47711983 -0.30622405 0.06845804 0.064110555 0.18668088 0.16276723 -0.26840952 0.013261318
0.021470442 -0.008704698 -0.23492622 -0.075017706 0.009628658 0.17896158 -0.12672158 0.03469067
00000000: bb58 a0bd 1512 f0bc baa8 eebd 4d58 1e3e
00000010: 444c 80be 5fe4 653c ab1d 2d3e 28cd f83e
00000020: 97d9 54be 7345 f33c 2880 b13d 28e0 033e
00000030: 04f5 6abc d545 f7bd 24b0 46bc 60e7 85bb
00000040: d90c 10bd 0f26 163e 8421 ccbe 0816 c1bd
00000050: 23b9 a13e 5f3d ee3d 01db 433d 801b bd3d
00000060: 87e3 bc3d 4c4c 89be b0db a33d 5e0d dcbe
00000070: 5054 6a3d 4ee5 babe 72f6 713b 01ba 063e
00000080: 4011 f93c 7fc2 4bbc 2004 5abe 8f31 86bd
00000090: 83d0 98bd a86d ad3e 92ce 74be 1bb9 233d
000000a0: dc92 1c3f 8acd 8f3e 2f73 1e3e b56d 11bf
000000b0: eb4b 9cbd 7317 27bd c89a 58be 34b3 7f3e
000000c0: 96c4 d03e c10b b03e 43d5 babd 2051 86bc
000000d0: c8aa 98be 4cdb 033d 7cef ab3e b557 1ebd
000000e0: c802 913d 7cec 12be 9b58 af3d 2fe8 bbbd
000000f0: d485 ec3d 6026 2a3d e697 d43d fb1d a93d
00000100: 8633 da3d 8610 23be a873 f53d ec0f 38be
00000110: 4909 2c3d fd3b 003e 952f 9b3c 9e88 bdbe
00000120: c8aa 793e f928 fbbc 2547 4fbc 9bfb efbd
00000130: 4046 113e cd61 1f3e d113 2a3d 39a5 d63d
00000140: 2d65 a53d 7f61 a4be 5820 c73e e743 22bc
00000150: 3ca9 51be cd1d bdba 65d7 52bd 4dd7 aebd
00000160: 83ad a63d a6fe 873e 38c8 6b3d 6302 da3e
00000170: 95a3 b63b de20 d63e c166 c23d c296 3cbd
00000180: ee51 e4bd 9ca7 d4bd d1c7 683e 5a4f 903c
00000190: a474 153c ba8b 9cbe c254 b23e 4c3e c63d
000001a0: a792 1cbf 4f5e 4abe 3fdf 92bd 4025 fb3e
000001b0: 7672 b0bd ec64 d9bc 0df4 de3d b851 90be
000001c0: 0d49 f4be 66c9 9cbe bb33 8c3d 654c 833d
000001d0: 4629 3f3e 74ac 263e f96c 89be 0046 593c
000001e0: c8e2 af3c 269e 0ebc 8090 70be e2a2 99bd
000001f0: 85c1 1d3c b441 373e 4dc3 01be ce17 0e3d

predictionFunction.policy_head.0.bias f4 [2]
-0.019521907 0.0053751282
00000000: 68ec 9fbc d821 b03b

predictionFunction.value_head.0.weight f4 [64, 64]
-0.075059265 -0.02108488 -0.008426341 0.057349164 0.032973323 -0.054660413 0.055014487 -0.076271184
-0.0571219 -0.14035325 0.036119606 -0.03374567 -0.10392651 -0.11504868 -0.07063373 -0.09970354
-0.050939098 -0.10576246 -0.090487316 0.033897933 -0.07918825 0.05087948 0.008513406 -0.076636374
0.021163484 0.076191425 -0.014874486 0.013550654 0.10146546 -0.04599691 0.027475417 0.05129341
-0.14329621 0.07380961 -0.098886035 -0.00642021 -0.09105356 0.025156878 -0.10053763 -0.0751911
0.021597624 -0.09307783 -0.029235953 0.074468695 -0.15842244 -0.08122079 -0.11724852 0.08356293
0.004702288 -0.104877606 -0.1400534 0.06460041 0.05217425 -0.10768244 -0.0061751553 -0.061070234
0.015961645 -0.11755568 0.032356873 0.08022713 0.005493664 -0.07507529 -0.013550799 0.053935066
-0.15669538 -0.12294185 -0.104002476 0.012806799 -0.14461997 -0.08095179 -0.05579235 -0.3980852
0.050905455 0.03852242 -0.1276372 -0.07262784 -0.12626883 -0.1640128 -0.18653862 -0.05548053
-0.2870624 -0.3939824 -0.0847422 -0.033943698 -0.0021564658 0.042929158 -0.04256621 -0.12798983
0.4222788 0.24462877 0.06678159 -0.0211896 0.111786574 -0.1650734 -0.16145776 -0.10082618
-0.47423345 -0.28898963 -0.102432035 0.029812545 0.054547444 0.004173087 -0.013231746 0.20734797
-0.21551163 -0.05986232 -0.122722454 -0.36755887 -0.3780084 0.11489172 -0.23361918 -0.14920218
0.2221047 -0.0514761 -0.12342806 0.034742143 -0.09678737 -0.3449232 -0.095503196 0.18176222
-0.059741747 -0.006902909 0.13694932 0.054721117 -0.11124966 0.12458411 -0.252543 -0.073912024
0.19924432 -0.14807083 0.06350992 -0.054618485 0.07829721 -0.09369532 0.074235395 -0.26062593
0.041662667 0.18602827 -0.17370202 -0.06663068 -0.27362627 -0.1536739 -0.32265243 0.049558226
-0.1655339 -0.5930979 0.053325225 0.28251177 -0.67527837 0.034740627 -0.09028014 -0.14419886
0.28282326 -0.17718272 0.010536835 0.002769622 0.1422946 -0.33101693 -0.048705745 0.13457572
-0.18691792 -0.42655918 -0.3599829 -0.111506075 0.38767633 0.20852594 -0.5212463 0.17237528
0.21351524 -0.103121206 0.21997105 -0.100025766 -0.47071043 -0.11548978 -0.2152296 -0.5329174
-0.22837986 0.5140755 -0.064501345 0.12710705 0.28761765 -0.4119803 -0.025371887 -0.1977181
0.30616677 -0.19867115 -0.21117401 0.03738832 0.055051066 -0.044721086 0.119882755 0.075442985
0.30543908 0.240708 -0.102586515 -0.18637478 0.35118362 0.060003657 -0.11868028 0.06936306
-0.26309487 0.085413516 -0.39535284 -0.3747691 -0.54589283 0.029396262 0.059696462 -0.104181424
0.735671 0.27994233 -0.35690787 -0.51755106 -0.08649562 0.01122631 -0.10653273 -0.13366005
-0.086674996 0.14612585 -0.019997949 -0.058321055 -0.09475957 0.10360816 0.10229455 -0.22907595
0.22030444 -0.5112872 0.1960026 -0.03559471 0.4446766 0.21952152 0.05330787 -0.039072204
0.62272567 0.083574235 -0.046348758 -0.033550937 0.33278716 0.0748751 -0.474716 0.013226611
0.24457076 -0.05242331 0.095712654 0.27876517 -0.16515692 -0.38058043 0.31018722 0.021674527
0.1549879 0.27227882 -0.29450446 0.011408903 -0.17228326 -0.14985994 0.29269594 -0.08039019
00000000: acb8 99bd 33ba acbc a30e 0abc f5e6 6a3d
00000010: 090f 073d 99e3 5fbd df56 613d 1134 9cbd
00000020: a7f8 69bd c3b8 0fbe 27f2 133d e638 0abd
00000030: 6cd7 d4bd a49e ebbd 6ba8 90bd 5f31 ccbd
00000040: 84a5 50bd fd99 d8bd 6a51 b9bd 8fd8 0a3d
00000050: 732d a2bd 0067 503d d07b 0b3c 88f3 9cbd
00000060: 0b5f ad3c 400a 9c3d 1eb4 73bc 9003 5e3c
00000070: 20cd cf3d 4267 3cbd 2014 e13c 0a19 523d
00000080: 3ebc 12be 7e29 973d c384 cabd a060 d2bb
00000090: 4a7a babd cc15 ce3c ace6 cdbd cbfd 99bd
000000a0: 80ed b03c 979f bebd 3d80 efbc 0b83 983d
000000b0: 7e39 22be 1657 a6bd fe1f f0bd 0b23 ab3d
000000c0: a715 9a3b 12ca d6bd 296a 0fbe 384d 843d
000000d0: abb4 553d 9c88 dcbd f558 cabb c824 7abd
000000e0: ffc1 823c 08c1 f0bd a488 043d 1f4e a43d
000000f0: 3204 b43b 13c1 99bd 2c04 5ebc 04eb 5c3d
00000100: c174 20be f0c8 fbbd 40ff d4bd 9cd3 513c
00000110: 4217 14be 0dca a5bd 8586 64bd d3d1 cbbe
00000120: 3d82 503d afc9 1d3d 53b3 02be e8bd 94bd
00000130: 9e4c 01be f9f2 27be fb03 3fbe 8d3f 63bd
00000140: d8f9 92be 10b8 c9be 528d adbd 8c08 0bbd
00000150: 7e53 0dbb 7cd6 2f3d e859 2ebd c40f 03be
00000160: ed34 d83e f77f 7a3e c9c4 883d d095 adbc
00000170: 5cf0 e43d 0009 29be 2f55 25be f57d cebd
00000180: bace f2be 73f6 93be e3c7 d1bd 7039 f43c
00000190: 246d 5f3d 64be 883b f7c9 58bc 0753 543e
000001a0: 15af 5cbe 3132 75bd e955 fbbd ad30 bcbe
000001b0: 518a c1be 5a4c eb3d de39 6fbe 75c8 18be
000001c0: 6a6f 633e 9ad8 52bd dac7 fcbd c74d 0e3d
000001d0: 7538 c6bd c699 b0be 2e97 c3bd e01f 3a3e
000001e0: c3b3 74bd cc31 e2bb 713c 0c3e 4023 603d
000001f0: ddd6 e3bd f425 ff3d 514d 81be 305f 97bd
00000200: b406 4c3e e19f 17be 7d11 823d a2b7 5fbd
00000210: 4a5a a03d 55e3 bfbd ba08 983d c370 85be
00000220: 79a6 2a3d 327e 3e3e f1de 31be aa75 88bd
00000230: be18 8cbe b15c 1dbe b332 a5be 91fd 4a3d
00000240: b881 29be 44d5 17bf 8d6b 5a3d 62a5 903e
00000250: 0bdf 2cbf 304c 0e3d cbe4 b8bd dea8 13be
00000260: 36ce 903e 636f 35be b0a2 2c3c 8c82 353b
00000270: adb5 113e 0d7b a9be ad7f 47bd 38ce 093e
00000280: 6967 3fbe f765 dabe ae4f b8be 4c5d e4bd
00000290: 837d c63e d387 553e 6670 05bf 2583 303e
000002a0: bda3 5a3e 3631 d3bd 1740 613e 4fda ccbd
000002b0: f500 f1be e885 ecbd 2665 5cbe 466d 08bf
000002c0: 69dc 69be 749a 033f 4819 84bd 5a28 023e
000002d0: 9f42 933e 15ef d2be b4d8 cfbc 9d76 4abe
000002e0: e4c1 9c3e 7370 4bbe 003e 58be 7f24 193d
000002f0: 3a7d 613d 752d 37bd 1785 f53d da81 9a3d
00000300: 8362 9c3e 287c 763e e118 d2bd 08d9 3ebe
00000310: 57ce b33e 65c6 753d a60e f3bd 380e 8e3d
00000320: 5fb4 86be 48ed ae3d b06b cabe bce1 bfbe
00000330: a2bf 0bbf 6ed0 f03c 4784 743d 125d d5bd
00000340: ef54 3c3f 9a54 8f3e a1bc b6be 3a7e 04bf
00000350: 9e24 b1bd 8fee 373c d52d dabd 2ede 08be
00000360: a982 b1bd 04a2 153e bdd2 a3bc 0fe2 6ebd
00000370: 4e11 c2bd 8430 d43d ce7f d13d e392 6abe
00000380: 7d97 613e b8e3 02bf e8b4 483e c2cb 11bd
00000390: a7ac e33e 40ca 603e 5a59 5a3d 2d0a 20bd
000003a0: f36a 1f3f f828 ab3d 32d8 3dbd b56c 09bd
000003b0: 1463 aa3e 1e58 993d fa0d f3be 6db4 583c
000003c0: c270 7a3e d3b9 56bd ff04 c43d 4fba 8e3e
000003d0: e51e 29be 70db c2be dcd0 9e3e c78e b13c
000003e0: 26b5 1e3e 2168 8b3e 4ac9 96be 68ec 3a3c
000003f0: 066b 30be e274 19be 3edc 953e 9da3 a4bd

predictionFunction.value_head.0.bias f4 [64]
-0.14519487 -0.16996323 -0.060964245 -0.14983472 -0.019237824 -0.08043832 0.048120633 -0.29544613
0.045434825 -0.035605576 -0.07809575 -0.24178046 -0.017793953 -0.22281629 -0.10939908 -0.29662284
0.03682357 -0.06962851 -0.06975492 0.38087097 -0.0669442 -0.04211004 0.29834124 -0.21310037
-0.18337703 -0.17551722 -0.1308893 -0.095675476 -0.03374582 -0.17574662 -0.029263029 -0.03514075
-0.097388715 0.14099342 0.38912347 -0.22698233 -0.25493145 -0.06612221 0.06144937 -0.16201375
-0.1906704 -0.10713228 -0.15557441 -0.10036301 0.030339945 0.1380387 -0.18122779 -0.13845165
-0.16958433 -0.14317015 -0.08379239 0.019268092 -0.16793288 0.002858936 -0.20170513 0.36578608
0.13518868 0.19705957 -0.13981298 -0.3398849 0.38462666 0.06071595 0.30223432 -0.3254439
00000000: f7ad 14be d70a 2ebe a5b5 79bd 466e 19be
00000010: a498 9dbc d9bc a4bd 241a 453d b744 97be
00000020: de19 3a3d 27d7 11bd aaf0 9fbd 4c95 77be
00000030: a0c4 91bc f429 64be a00c e0bd f3de 97be
00000040: 50d4 163d 6499 8ebd abdb 8ebd 8501 c33e
00000050: 0a1a 89bd 947b 2cbd 2fc0 983e fc36 5abe
00000060: 30c7 3bbe c9ba 33be d807 06be 81f1 c3bd
00000070: 0f39 0abd ecf6 33be 05b9 efbc bfef 0fbd
00000080: bc73 c7bd 9460 103e 313b c73e 0e6e 68be
00000090: 6086 82be 156b 87bd 56b2 7b3d efe6 25be
000000a0: 1a3f 43be 2b68 dbbd e64e 1fbe 1f8b cdbd
000000b0: 7a8b f83c 045a 0d3e c793 39be 45c6 0dbe
000000c0: 84a7 2dbe 329b 12be 589b abbd 1ed8 9d3c
000000d0: 99f6 2bbe fd5c 3b3b ca8b 4ebe 5048 bb3e
000000e0: e76e 0a3e fcc9 493e 222b 0fbe 6505 aebe
000000f0: c9ed c43e 4ab1 783d 75be 9a3e 95a0 a6be

predictionFunction.value_head.2.weight f4 [41, 64]
-0.07590156 -0.6768821 -0.29134414 -0.39884713 -1.1426926 -0.7465952 -1.5560665 -0.7719172
-1.8184216 -0.33980483 0.03483534 -0.1460433 -0.70205516 -0.50306284 -1.1333076 -1.8568969
-0.34470022 -0.22354439 -1.1933376 -2.077607 -0.11473047 -0.4903143 -1.5698969 -0.9345169
-0.6304782 0.07631412 0.0024673978 -0.04622394 -0.18001898 -0.85054785 -1.5118163 -1.7759132
-0.43676025 -0.73265684 -2.0624712 -0.5907406 -0.6153239 -0.316609 -1.8936343 -0.2760383
-0.28762797 -0.84097475 -0.09334435 -0.5693446 -1.7329574 -1.4113023 -0.15539744 0.08163952
0.011090378 -1.32734 -1.2057148 -0.9674789 -0.032325502 -0.8189105 -0.42671892 -1.830663
-1.5059322 -0.8051014 -0.113835886 -1.3860183 -1.7056237 -0.38491425 -1.7042254 -0.47582197
-0.021624297 -0.7447347 -0.12711662 -0.38893604 -1.1250535 -0.8015015 -1.4452446 -0.6689966
-1.8005985 -0.4261687 -0.0660157 -0.3149304 -0.9006441 -0.54208827 -1.0885187 -1.8934991
-0.19090419 -0.18214557 -1.3493605 -2.03335 -0.0677522 -0.44826138 -1.684627 -0.9446997
-0.51371694 0.047429945 -0.008699731 0.015444736 -0.07397296 -0.6649669 -1.4943066 -1.7006718
-0.24897836 -0.77397543 -2.0650754 -0.5636421 -0.73043656 -0.4288012 -1.8274634 -0.14534992
-0.16768146 -0.67127967 -0.03666513 -0.63022983 -1.7122289 -1.5003182 -0.48077217 -0.07384091
0.023502083 -1.4678942 -1.1978501 -0.8867947 0.022378054 -0.5983711 -0.5804677 -1.8397497
-1.5293334 -0.8060992 -0.17838465 -1.3373282 -1.74955 -0.37038326 -1.7657784 -0.3853567
-0.061051548 -0.7753117 -0.19087273 -0.42293417 -1.2519264 -0.7582822 -1.5377598 -0.6191041
-1.7640857 -0.41468054 0.057079874 -0.23081617 -0.7903786 -0.4697265 -1.2180682 -1.9151604
-0.3435188 -0.070565194 -1.2623618 -1.9271333 0.022324767 -0.3400815 -1.7288071 -0.9793833
-0.5667404 0.09432602 0.015787428 -0.08614308 -0.17062587 -0.82539904 -1.5673493 -1.654516
-0.23799278 -0.88368356 -2.0626533 -0.43513718 -0.6660437 -0.39476237 -1.902567 -0.122983225
-0.18843065 -0.7523457 -0.06861667 -0.7530098 -1.7096993 -1.5314281 -0.2294639 0.088494666
-0.064773716 -1.3507285 -1.3981206 -0.9295792 0.1110942 -0.65391177 -0.50362307 -1.8302509
-1.4661036 -0.7846609 -0.2243393 -1.3794831 -1.7883577 -0.5028476 -1.752849 -0.5206111
-0.07267233 -0.61872 -0.32580933 -0.4031405 -1.1345514 -0.81994027 -1.4172837 -0.6471658
-1.7381166 -0.40306932 -0.009144518 -0.13482505 -0.8001934 -0.47918922 -1.1090338 -2.1210778
-0.21066718 -0.13023743 -1.3735776 -1.9753869 -0.0894789 -0.3993406 -1.705332 -0.859231
-0.44037434 -0.03919201 0.03456318 0.0034230857 -0.17076351 -0.75945914 -1.37953 -1.8102877
-0.27301684 -0.6866654 -2.0808601 -0.5315617 -0.6919873 -0.21819592 -1.9562885 -0.14273135
-0.33786526 -0.8335199 0.09424258 -0.6474892 -1.7605813 -1.4178609 -0.4634897 0.10578924
-0.06562072 -1.4648197 -1.2446615 -0.9809247 -0.00044929236 -0.7921848 -0.44319108 -1.8157694
-1.5665977 -0.81348306 -0.24777703 -1.2715745 -1.7965539 -0.53940016 -1.7041788 -0.39104605
00000000: 4772 9bbd 2548 2dbf 0f2b 95be b135 ccbe
00000010: c043 92bf dd20 3fbf 302d c7bf 5e9c 45bf
00000020: 0ac2 e8bf e6fa adbe 80af 0e3d 608c 15be
00000030: e3b9 33bf bac8 00bf 3910 91bf ccae edbf
00000040: 8c7c b0be d2e8 64be 49bf 98bf 83f7 04c0
00000050: cff7 eabd 7a0a fbbe 62f2 c8bf 803c 6fbf
00000060: 0567 21bf 944a 9c3d 11b4 213b 5055 3dbd
00000070: e556 38be 81bd 59bf 3283 c1bf 2051 e3bf
00000080: 0a9f dfbe 668f 3bbf 87ff 03c0 c73a 17bf
00000090: de85 1dbf 931a a2be 9c62 f2bf e454 8dbe
000000a0: f943 93be 1f4a 57bf 532b bfbd 91c0 11bf
000000b0: 8cd1 ddbf 8ea5 b4bf 8220 1fbe 9f32 a73d
000000c0: 6bb4 353c 47e6 a9bf dd54 9abf b2ac 77bf
000000d0: bf67 04bd 1ea4 51bf e77a dabe 2a53 eabf
000000e0: 63c2 c0bf 201b 4ebf ca22 e9bd 0c69 b1bf
000000f0: e151 dabf 7b13 c5be 0f24 dabf f09e f3be
00000100: 7025 b1bc efa6 3ebf dc2a 02be a022 c7be
00000110: c101 90bf 342f 4dbf c6fd b8bf 5c43 2bbf
00000120: 037a e6bf c932 dabe 3d33 87bd 8f3e a1be
00000130: 9d90 66bf 4cc6 0abf 9554 8bbf 2e5e f2bf
00000140: 637c 43be 5e84 3abe d8b7 acbf 6822 02c0
00000150: aac1 8abd 8482 e5be dca1 d7bf d7d7 71bf
00000160: f482 03bf e745 423d 5189 0ebc eb0b 7d3c
00000170: 237f 97bd 453b 2abf 7045 bfbf 9daf d9bf
00000180: 2ff4 7ebe 4123 46bf 322a 04c0 d94a 10bf
00000190: e4fd 3abf d58b dbbe 52ea e9bf 9cd6 14be
000001a0: b0b4 2bbe fcd8 2bbf 2d2e 16bd be56 21bf
000001b0: 512a dbbf 6d0a c0bf c527 f6be e739 97bd
000001c0: 7187 c03c f5e3 bbbf 2753 99bf fa04 63bf
000001d0: 2e52 b73c d92e 19bf 8899 14bf eb7c ebbf
000001e0: 32c1 c3bf 845c 4ebf 77aa 36be 922d abbf
000001f0: 41f1 dfbf e0a2 bdbe 0705 e2bf 794d c5be
00000200: 3011 7abd d47a 46bf 2474 43be d48a d8be
00000210: 203f a0bf c81e 42bf 50d5 c4bf 9b7d 1ebf
00000220: 8fcd e1bf 0251 d4be 96cc 693d 135b 6cbe
00000230: 4056 4abf fe7f f0be a9e9 9bbf fa23 f5bf
00000240: b2e1 afbe 7c84 90bd 1295 a1bf 4eac f6bf
00000250: 6ee2 b63c 2a1f aebe 8d49 ddbf ddb8 7abf
00000260: e615 11bf 002e c13d a354 813c c86b b0bd
00000270: 8cb8 2ebe 5a4d 53bf e79e c8bf 2ec7 d3bf
00000280: 61b4 73be 1639 62bf 8302 04c0 4dca debe
00000290: d781 2abf 4b1e cabe 5187 f3bf a1de fbbd
000002a0: f7f3 40be ba99 40bf e686 8cbd 40c5 40bf
000002b0: 6dd7 dabf d605 c4bf 96f8 6abe b13c b53d
000002c0: 15a8 84bd ace4 acbf 9ef5 b2bf e7f8 6dbf
000002d0: 5b85 e33d c366 27bf 71ed 00bf a945 eabf
000002e0: 48a9 bbbf 89df 48bf 34b9 65be e792 b0bf
000002f0: e8e8 e4bf 9fba 00bf 5b5d e0bf c546 05bf
00000300: 3bd5 94bd 6f64 1ebf 7bd0 a6be 6e68 cebe
00000310: fb38 91bf 9be7 51bf 8d69 b5bf a8ac 25bf
00000320: 9b7a debf 1a5f cebe e3d2 15bc 940f 0abe
00000330: 7ad9 4cbf 4a58 f5be d2f4 8dbf bdbf 07c0
00000340: 23b9 57be f65c 05be 64d1 afbf 7ad9 fcbf
00000350: b740 b7bd 5f76 ccbe 5248 dabf 90f6 5bbf
00000360: bf78 e1be cd87 20bd 1f92 0d3d d955 603b
00000370: a1dc 2ebe ea6b 42bf 7094 b0bf 82b7 e7bf
00000380: ddc8 8bbe 4ec9 2fbf d02c 05c0 6d14 08bf
00000390: 1426 31bf c06e 5fbe a967 fabf 2b28 12be
000003a0: adfc acbe 8f61 55bf 4102 c13d dac1 25bf
000003b0: ba5a e1bf 777c b5bf 864e edbe 07a8 d83d
000003c0: 2864 86bd 367f bbbf 1151 9fbf e21d 7bbf
000003d0: 008f ebb9 a0cc 4abf f1e9 e2be 226b e8bf
000003e0: 4686 c8bf 6d40 50bf 43b9 7dbe f4c2 a2bf
000003f0: 7af5 e5bf 2116 0abf 8822 dabf 3037 c8be

predictionFunction.value_head.2.bias f4 [41]
-1.7879461 -1.824426 -1.73888 -1.7753586 -1.8279579 -1.8278533 -1.7463576 -1.6888746
-1.8337522 -1.6986667 -1.7150925 -1.7415738 -1.7534955 -1.8823586 -1.8687806 -1.8259163
-1.6686251 -1.813987 -1.9149773 -1.8779202 -0.8054905 -0.6515273 -0.37831584 -0.9796534
-0.3280983 -0.35163146 -0.33544767 -0.45052394 -0.28106487 -0.29123145 -0.014417094 -0.012453308
-0.37111348 -1.7681985 -1.8804951 -1.8168283 -1.8533521 -1.8530794 -1.790515 -1.8944722
-1.8540025
00000000: 6bdb e4bf cb86 e9bf 9f93 debf f33e e3bf
00000010: 86fa e9bf 19f7 e9bf a588 dfbf 0b2d d8bf
00000020: 64b8 eabf e96d d9bf 2788 dbbf e4eb debf
00000030: 8a72 e0bf 20f1 f0bf 3434 efbf a0b7 e9bf
00000040: 8295 d5bf ba30 e8bf fa1d f5bf b05f f0bf
00000050: a034 4ebf 7eca 26bf 9db2 c1be 91ca 7abf
00000060: 80fc a7be 0a09 b4be ccbf abbe 13ab e6be
00000070: bce7 8fbe 4a1c 95be ad35 6cbc f608 4cbc
00000080: 9602 bebe 5454 e2bf 10b4 f0bf d48d e8bf
00000090: a43a edbf b531 edbf 982f e5bf 117e f2bf
000000a0: f44f edbf

dynamicsFunction.startBlock.0.weight f4 [64, 34]
0.21196797 0.32116216 -0.05963249 0.107155375 0.15604576 0.1902046 0.010118845 -0.07093169
-0.038857985 -0.20253696 0.31362894 0.08858251 0.025568124 0.15226959 -0.056253962 0.34182313
0.17402497 0.065305576 -0.009508362 0.23647699 0.21231459 0.22834046 -0.1468603 0.08387123
0.24423628 0.12129899 0.23133323 0.034161042 0.23469515 -0.024305046 -0.14534384 0.15172647
0.31742212 -0.3657075 -0.35266474 0.14860444 -0.1722769 -0.05688695 -0.095442444 0.37300256
-0.27183712 -0.09733167 -0.06484873 0.36267087 -0.17521654 0.07119882 0.2478992 0.3389054
0.23359212 0.08697784 -0.043756947 0.12184164 -0.21790776 -0.054995246 -0.049082294 0.017837884
0.06169395 0.13002238 0.23397112 0.111179456 0.07013105 0.38219872 -0.11396188 0.0018724222
-0.11086292 0.12815514 0.31379247 -0.45861074 0.14510918 -0.25625587 0.51662767 -0.27144352
0.062166132 -0.13487522 0.08965906 -0.09315896 0.09616376 -0.21891582 0.14922072 0.15000434
-0.30236185 -0.26535094 -0.013469534 -0.22774178 -0.113858625 -0.013569479 -0.15708923 0.098958895
0.15113999 -0.23063268 -0.2815606 -0.17441064 -0.3308281 -0.23429759 -0.2661645 -0.5227321
0.10111248 -0.4164482 0.61865366 0.151988 -0.22671373 0.24646737 0.024828643 -0.26044977
0.047613163 0.46362847 0.76138735 -0.14994791 0.120463386 -0.10920678 0.4441165 0.11332224
-0.0035579016 0.3648865 -0.21292937 -0.05713434 -0.06544625 -0.6091691 -0.035331104 -0.2500308
0.18477151 -0.6809358 -0.17182378 -0.3511727 0.11348369 -0.0638594 0.01691287 0.003302259
-0.33787355 0.15833424 -0.37170738 0.24060142 -0.06960537 -0.30698803 -0.02801027 -0.06283235
-0.08112278 -0.08267742 -0.31312326 0.568974 0.42758128 -0.09525731 0.088288784 -0.59770465
-0.15253645 0.009715848 0.0137324305 -0.017979586 0.059696108 -0.02115869 -0.5295478 0.16713351
-0.005680334 -0.028598 -0.197851 -0.20620579 -0.25046802 -0.010473362 -0.0014417758 0.0004219071
0.46952778 0.19888675 0.20079431 0.38231543 0.088761106 -0.068064965 0.21560836 -0.16686203
-0.19625513 -0.07676128 -0.056348752 -0.25550425 0.16950613 0.024942096 -0.036239415 -0.07767522
-0.038808044 -0.10942481 0.044132378 0.076231524 0.02325932 0.17790465 0.22092505 0.034174714
0.12746076 -0.17490657 -0.25584894 0.2924882 -0.07794062 -0.5191983 -0.1027116 -0.23189093
0.0656654 -0.170123 -0.1435681 -0.20828952 0.013000574 0.27833778 0.054887082 0.20165655
0.27360785 0.0019974525 -0.06720016 -0.00042699487 0.30705178 0.0149631 0.038573224 -0.039613303
0.23581672 -0.21693909 -0.14710888 -0.2456772 0.14722951 0.08016505 -0.010040784 0.14529118
-0.3326148 -0.31634805 -0.1124921 -0.11808144 0.14600353 -0.09542902 -0.16327469 0.0046892036
0.09800247 0.18804455 -0.28765488 0.04280888 0.0765416 -0.24428947 -0.12185889 -0.17805341
0.17304172 -0.06784543 0.015021801 -0.20203514 -0.59033483 0.5885956 0.057896167 -0.06757937
0.20461226 0.04098029 -0.08601345 0.057106484 -0.17122467 -0.11889499 0.04897728 -0.08908083
-0.05687779 0.0027457539 0.058370132 -0.11902949 -0.070478186 0.10092468 0.17224437 0.110574886
00000000: 220e 593e 5e6f a43e 3341 74bd 4774 db3d
00000010: 76ca 1f3e ffc4 423e 83c9 253c a244 91bd
00000020: 8d29 1fbd d965 4fbe f993 a03e bf6a b53d
00000030: 3e74 d13c 8fec 1b3e 8e6a 66bd 7103 af3e
00000040: 9a33 323e eebe 853d f6c8 1bbc 0627 723e
00000050: ff68 593e 15d2 693e 8c62 16be aec4 ab3d
00000060: 1319 7a3e 9b6b f83d 9ee2 6c3e 73ec 0b3d
00000070: ed53 703e 601b c7bc 04d5 14be 2f5e 1b3e
00000080: 2785 a23e 033e bbbe 7990 b4be c32b 183e
00000090: 5b69 30be 4a02 69bd 5477 c3bd 31fa be3e
000000a0: 3c2e 8bbe d455 c7bd 69cf 84bd ffaf b93e
000000b0: f76b 33be b0d0 913d 4ad9 7d3e 0285 ad3e
000000c0: c632 6f3e 7021 b23d 7c3a 33bd 1c88 f93d
000000d0: 3623 5fbe b242 61bd 840a 49bd c120 923c
000000e0: ccb2 7c3d 9624 053e 2096 6f3e 0eb2 e33d
000000f0: dea0 8f3d 8daf c33e d964 e9bd 106c f53a
00000100: 190c e3bd 1a3b 033e 68a9 a03e 07cf eabe
00000110: 8097 143e f833 83be b641 043f a5fa 8abe
00000120: eaa1 7e3d bb1c 0abe 2b9f b73d 20ca bebd
00000130: 81f1 c43d 782b 60be 51cd 183e bd9a 193e
00000140: 2ccf 9abe 14dc 87be 52af 5cbc 2435 69be
00000150: b62e e9bd 8552 5ebc 00dc 20be f6aa ca3d
00000160: 71c4 1a3e f92a 6cbe b628 90be b498 32be
00000170: 4d62 a9be b5eb 6fbe b746 88be c5d1 05bf
00000180: 0f14 cf3d b338 d5be 1660 1e3f bea2 1b3e
00000190: a527 68be f161 7c3e 7065 cb3c ac59 85be
000001a0: 0506 433d b660 ed3e 48ea 423f f28b 19be
000001b0: 82b5 f63d cea7 dfbd 3d63 e33e 7e15 e83d
000001c0: af2b 69bb 67d2 ba3e 280a 5abe b305 6abd
000001d0: af08 86bd 82f2 1bbf 59b7 10bd 0904 80be
000001e0: be34 3d3e cf51 2ebf 93f2 2fbe e8cc b3be
000001f0: 236a e83d b8c8 82bd dc8c 8a3c b66a 583b
00000200: c3fd acbe 5f22 223e 6e50 bebe 3860 763e
00000210: 438d 8ebd 892d 9dbe cb75 e5bc 3fae 80bd
00000220: b323 a6bd c752 a9bd b151 a0be 48a8 113f
00000230: efeb da3e 4416 c3bd c0d0 b43d 2c03 19bf
00000240: 8432 1cbe 382f 1f3c fdfd 603c ed49 93bc
00000250: e883 743d fd54 adbc 7290 07bf 0c25 2b3e
00000260: 1822 babb 5a46 eabc 7499 4abe 9c27 53be
00000270: 583d 80be 7798 2bbc f8f9 bcba 6a33 dd39
00000280: f265 f03e f8a8 4b3e 069d 4d3e d9be c33e
00000290: 62c8 b53d a565 8bbd 70c8 5c3e e1dd 2abe
000002a0: 1bf7 48be 0535 9dbd f3cd 66bd 74d1 82be
000002b0: 0493 2d3e 5e53 cc3c c86f 14bd 3014 9fbd
000002c0: 2ff5 1ebd 1d1a e0bd 27c4 343d 461f 9c3d
000002d0: 548a be3c a32c 363e 2d3a 623e c9fa 0b3d
000002e0: 1385 023e b51a 33be a2fe 82be 03c1 953e
000002f0: 559f 9fbd 2eea 04bf 765a d2bd d174 6dbe
00000300: 957b 863d b934 2ebe 8403 13be d949 55be
00000310: 5c00 553c 4a82 8e3e 47d1 603d 0e7f 4e3e
00000320: 5416 8c3e b1e7 023b 3da0 89bd 48de dfb9
00000330: e435 9d3e ca27 753c f5fe 1d3d 8f41 22bd
00000340: f079 713e 4825 5ebe b6a3 16be ce92 7bbe
00000350: 55c3 163e 932d a43d 1a82 24bc 36c7 143e
00000360: 7d4c aabe 5ff8 a1be 4262 e6bd afd4 f1bd
00000370: f381 153e 4a70 c3bd 7b31 27be e4a7 993b
00000380: 85b5 c83d c08e 403e 8047 93be 5d58 2f3d
00000390: d8c1 9c3d 0527 7abe 2791 f9bd a253 36be
000003a0: d931 313e 8bf2 8abd 001e 763c 4de2 4ebe
000003b0: 2f20 17bf 34ae 163f 8824 6d3d 0e67 8abd
000003c0: e085 513e f3da 273d d227 b0bd 7de8 693d
000003d0: 8555 2fbe 377f f3bd 669c 483d 0370 b6bd
000003e0: aff8 68bd 1bf2 333b 8515 6f3d bcc5 f3bd
000003f0: de56 90bd 99b1 ce3d d460 303e 1675 e23d

dynamicsFunction.startBlock.0.bias f4 [64]
0.078491285 0.085622594 0.08079245 -0.20229349 -0.17241135 -0.14423072 0.20862335 -0.022029743
0.17972423 0.021703256 -0.10081148 0.14849867 0.012443601 0.16843891 0.047311936 -0.20015328
-0.22934529 0.265423 -0.08284428 -0.2836852 -0.12077338 0.048301432 -0.16465217 -0.099734806
-0.058703173 0.116820395 0.2788168 -0.13049644 -0.22321093 0.14946182 -0.023623483 -0.10343182
0.12126425 0.01884764 0.1283138 0.092892446 0.0388149 -0.07601402 0.00078536547 -0.24844491
0.037112024 0.052046124 -0.17265594 0.23933029 -0.06713723 0.08504527 -0.06886623 -0.12028836
0.15049805 0.15758333 -0.0034106004 -0.1825956 -0.005149465 -0.016343419 -0.03521875 -0.0991854
0.002679701 0.12991457 -0.03117171 0.15422095 0.17055891 0.026252551 0.13472694 0.099292755
00000000: 0ac0 a03d e65a af3d 8376 a53d 0626 4fbe
00000010: 9a8c 30be 38b1 13be 5ca1 553e b877 b4bc
00000020: a109 383e 07cb b13c 4076 cebd 0910 183e
00000030: 3fe0 4b3c 407b 2c3e 29ca 413d fbf4 4cbe
00000040: 7ed9 6abe 86e5 873e 43aa a9bd 303f 91be
00000050: 0958 f7bd b9d7 453d 949a 28be c341 ccbd
00000060: bd72 70bd 883f ef3d 13c1 8e3e dca0 05be
00000070: 6891 64be 850c 193e 0986 c1bc 10d4 d3bd
00000080: 6459 f83d 5e66 9a3c b164 033e 653e be3d
00000090: 5ffc 1e3d 3dad 9bbd fce0 4d3a 5868 7ebe
000000a0: c702 183d 512e 553d b8cc 30be 0013 753e
000000b0: 3e7f 89bd 372c ae3d bd09 8dbd be59 f6bd
000000c0: 291c 1a3e 865d 213e 6184 5fbb 57fa 3abe
000000d0: d8bc a8bb a2e2 85bc 8941 10bd b721 cbbd
000000e0: ec9d 2f3b 5308 053e d05b ffbc 19ec 1d3e
000000f0: ffa6 2e3e 970f d73c dcf5 093e 005a cb3d

dynamicsFunction.startBlock.2.weight f4 [32, 64]
-0.063781016 -0.24848641 0.089113235 -0.07921254 -0.22059056 -0.058618855 0.2952644 -0.017115718
0.21407163 -0.00056098716 -0.29805988 0.057261262 0.13015975 0.27153534 -0.03030653 -0.10636167
-0.13075274 0.0009266584 0.0072404295 -0.20752108 -0.1581914 -0.06902978 0.13021691 -0.09482364
-0.18693787 0.17916936 0.26895693 -0.01967183 0.09993812 -0.13510448 0.03499892 0.0023510943
-0.07081364 -0.040434897 0.10926075 -0.44235185 -0.2782908 -0.03413194 0.22039475 -0.17920353
-0.06420383 -0.20135458 0.20959567 0.015150489 -0.3309274 -0.09061315 -0.0356671 0.0881425
-0.07457873 0.19901362 -0.20538354 0.20839071 0.043292634 -0.0732129 -0.22258115 -0.18354645
-0.26961535 0.08976544 0.31147033 0.18143974 0.24739178 -0.0662906 -0.066209085 -0.29112062
0.13021734 0.24203143 -0.37287372 -0.007705131 -0.026542984 -0.3967818 -0.3876315 -0.12384233
-0.32632422 -0.0029323124 0.27545223 -0.16799383 -0.10437137 -0.73361975 -0.120120555 0.075678
1.5491409 -0.12966661 0.0019929446 0.2388761 0.13327347 -0.00539113 0.11578183 0.10579273
0.25440854 0.46054775 -0.99564993 0.13140444 0.029506203 -0.17387185 -0.077597626 0.34475553
0.032785557 0.53217536 -0.16695727 -0.0991318 0.31754968 0.009018911 -0.07159383 0.22165751
-0.05294379 0.3889836 0.08778735 -0.17541328 0.4576047 0.099388234 0.14610276 0.14827575
0.19254608 -1.2388319 -0.070433445 -0.12974401 0.48250318 0.11102717 0.115809545 0.25909865
-0.31559148 0.03624554 0.1901846 0.06650053 -0.7672823 -0.8792114 0.06357491 -0.2950125
0.0647303 -0.33804438 0.22492364 -0.26442116 0.029003555 0.19614421 -0.074301414 -0.029786216
-0.00046687858 0.074907616 -0.1671651 0.10620613 0.17735834 0.30240333 -0.06568195 0.1685094
-0.18712616 0.3006551 -0.14703892 -0.12258161 -0.07533885 0.23175196 0.090182155 0.09071976
-0.025420731 -0.0606602 0.62519884 0.029460697 -0.0782739 0.12619251 -0.18278836 -0.16409306
0.04324796 0.20711504 -0.31904134 -0.029591104 -0.38102132 -0.094226114 -0.15720004 -0.051848006
-0.07694853 -0.084065594 0.019444397 -0.052338213 -0.48440352 0.03284134 -0.30154446 -0.24771935
-0.32672048 -0.25249738 0.021467803 0.15671933 0.46666333 -0.013160263 -0.18134071 -0.022871971
-0.36602694 0.06078503 -0.18396266 0.15082844 0.16892844 -0.1498757 0.1246603 0.07038582
-0.059741583 0.1225042 -0.2422593 -0.13935055 0.41773543 -0.05779534 0.012582965 -0.022363694
-0.3741285 0.11607102 0.09873155 0.06541427 -0.15074047 -0.21409355 -0.40511385 -0.01940003
-0.00397897 -0.4421555 0.6201892 -0.0024382763 0.0059241196 -0.07151453 -0.08778823 0.09220789
-0.28633565 0.07455326 0.04555513 0.025371479 0.010927211 -0.17579862 0.22980653 0.13235459
-0.124181464 -0.04799128 0.31634864 -0.18942381 0.032831 0.29210818 0.20610884 0.088755
0.02060861 -0.010516725 0.037321456 0.12944692 0.33115572 -0.26190698 -0.5619234 0.40933633
0.07935574 0.00089153636 -0.02125151 -0.08985343 0.18198489 0.085348964 -0.023500236 0.20511985
0.0007252144 0.0038736814 0.031315736 -0.07462093 0.027003976 -0.09637538 -0.1649715 0.23772334
00000000: 9f9f 82bd 3973 7ebe 0081 b63d 2f3a a2bd
00000010: 7ee2 61be 531a 70bd e52c 973e 4336 8cbc
00000020: 9835 5b3e 360f 13ba 4e9b 98be c98a 6a3d
00000030: 9948 053e ae06 8b3e 6645 f8bc 26d4 d9bd
00000040: 0ce4 05be feea 723a 2041 ed3b 6880 54be
00000050: edfc 21be 7c5f 8dbd 9557 053e e632 c2bd
00000060: a46c 3fbe 2c78 373e b9b4 893e d126 a1bc
00000070: 5bac cc3d d458 0abe 075b 0f3d d114 1a3b
00000080: be06 91bd 109f 25bd 1ac4 df3d f17b e2be
00000090: 227c 8ebe efcd 0bbd 29af 613e 2181 37be
000000a0: 4c7d 83bd e52f 4ebe 3fa0 563e c239 783c
000000b0: 516f a9be 6393 b9bd aa17 12bd 0e84 b43d
000000c0: bcbc 98bd 3aca 4b3e 1050 52be 6064 553e
000000d0: 9e53 313d a5f0 95bd 50ec 63be 9af3 3bbe
000000e0: 060b 8abe f1d6 b73d 0a79 9f3e 57cb 393e
000000f0: 4554 7d3e 5ec3 87bd a198 87bd c30d 95be
00000100: b257 053e 16d7 773e 4ee9 bebe 537b fcbb
00000110: ac70 d9bc fc26 cbbe a377 c6be 0ca1 fdbd
00000120: f813 a7be 0a2c 40bb 1308 8d3e 9306 2cbe
00000130: a8c0 d5bd 81ce 3bbf c401 f6bd 11fd 9a3d
00000140: 404a c63f 53c7 04be 109c 023b f09b 743e
00000150: d778 083e 14a8 b0bb 061f ed3d dca9 d83d
00000160: d641 823e eacc eb3e eae2 7ebf e38e 063e
00000170: feb6 f13c 760b 32be 81eb 9ebd cc83 b03e
00000180: 264a 063d a53c 083f d9f6 2abe 9d05 cbbd
00000190: df95 a23e 0ec4 133c c99f 92bd 30fa 623e
000001a0: 96db 58bd dc28 c73e dbc9 b33d 8a9f 33be
000001b0: 2a4b ea3e 0f8c cb3d f69b 153e 99d5 173e
000001c0: cd2a 453e 0b92 9ebf 693f 90bd 9ddb 04be
000001d0: a80a f73e 3762 e33d 8e2d ed3d 94a8 843e
000001e0: 3595 a1be 3476 143d c0bf 423e 6e31 883d
000001f0: 9d6c 44bf 0014 61bf 9033 823d e10b 97be
00000200: 5291 843d 2714 adbe 6252 663e 3662 87be
00000210: dd98 ed3c 07da 483e 572b 98bd 3902 f4bc
00000220: 62c7 f4b9 2a69 993d 542d 2bbe 9982 d93d
00000230: 6d9d 353e 9cd4 9a3e 4284 86bd ba8d 2c3e
00000240: 009e 3fbe 77ef 993e 5f91 16be 110c fbbd
00000250: 414b 9abd 6350 6d3e 6cb1 b83d 48cb b93d
00000260: 233f d0bc d476 78bd 080d 203f 8f57 f13c
00000270: 114e a0bd 9c38 013e df2c 3bbe 0308 28be
00000280: c624 313d f715 543e 6359 a3be 0b69 f2bc
00000290: 3a15 c3be 9ff9 c0bd 0cf9 20be 935e 54bd
000002a0: 3197 9dbd 952a acbd db49 9f3c 9860 56bd
000002b0: bd03 f8be a484 063d 0964 9abe 24aa 7dbe
000002c0: e847 a7be 5647 81be 3fdd af3c 087b 203e
000002d0: 7fee ee3e 259e 57bc 61b1 39be 005e bbbc
000002e0: e267 bbbe b9f9 783d b560 3cbe c572 1a3e
000002f0: 94fb 2c3e 0479 19be e64d ff3d 7126 903d
00000300: 97b3 74bd 7be3 fa3d d212 78be e9b1 0ebe
00000310: 6be1 d53e ceba 6cbd c828 4e3c 1134 b7bc
00000320: c58d bfbe a5b6 ed3d c433 ca3d ebf7 853d
00000330: b65b 1abe 573b 5bbe 156b cfbe d0ec 9ebc
00000340: 0562 82bb 3562 e2be b8c4 1e3f 7dcb 1fbb
00000350: 1e1f c23b 3676 92bd 51ca b3bd 7dd7 bc3d
00000360: 969a 92be 61af 983d 0498 3a3d d9d7 cf3c
00000370: 0b08 333c 8e04 34be 6752 6b3e f687 073e
00000380: da52 febd 8192 44bd 73f8 a13e 51f8 41be
00000390: cc79 063d 348f 953e 320e 533e 2ec5 b53d
000003a0: 63d3 a83c 574e 2cbc 62de 183d bc8d 043e
000003b0: 3e8d a93e ac18 86be 36da 0fbf 8894 d13e
000003c0: 4385 a23d feb5 693a a617 aebc 1305 b8bd
000003d0: 3f5a 3a3e 70cb ae3d 9183 c0bc f00a 523e
000003e0: 511c 3e3a 97dd 7d3b ee44 003d dcd2 98bd
000003f0: 7137 dd3c 7560 c5bd 4aee 28be bf6d 733e

dynamicsFunction.startBlock.2.bias f4 [32]
0.041450396 -0.39508864 0.07496519 -0.14202027 -0.050113846 0.03923909 0.053153988 0.042690888
-0.20192076 0.17808747 0.17287251 -0.113317646 0.1786202 -0.015495462 0.08024617 0.27999705
0.17342798 0.08806989 0.04958124 0.10206495 -0.18609613 -0.14592499 -0.14418651 0.18392634
-0.10792268 -0.14099377 0.16020793 -0.15911345 0.11588728 -0.001068471 0.12508017 0.04348454
00000000: e4c7 293d 0f49 cabe 5987 993d c36d 11be
00000010: 2d44 4dbd 2bb9 203d ffb7 593d a4dc 2e3d
00000020: 51c4 4ebe 905c 363e 7e05 313e 1513 e8bd
00000030: 37e8 363e aee0 7dbc 1b58 a43d c65b 8f3e
00000040: 1b97 313e fd5d b43d b315 4b3d 6e07 d13d
00000050: fc8f 3ebe 5c6d 15be a1a5 13be 3057 3c3e
00000060: 9106 ddbd ac60 10be 8c0d 243e a3ee 22be
00000070: 4f56 ed3d f00b 8cba 0415 003e d81c 323d
