AlphaGo/foersterrobert_MuZero/Environments/CartPole/Models/model_10.pt (torch, 84274 bytes, 20 tensors)

predictionFunction.startBlock.0.weight f4 [64, 32]
0	0xbdd32a89	-0.10310847
1	0x3f087139	0.53297764
2	0xbea83032	-0.3284927
3	0xbe9505cb	-0.29105982
4	0xbe98f1bb	-0.29871926
5	0xbdb1f9c8	-0.0869022
6	0xbd89b2aa	-0.067235306
7	0x3e83e03e	0.2575702
8	0x3e00af0e	0.12566778
9	0xbe35ed1a	-0.17766228
10	0xbe888eb3	-0.2667137
11	0xbe8bb420	-0.27285862
12	0xbed4f3f5	-0.41592374
13	0x3e968b1f	0.29403016
14	0x3cc4aee6	0.02400918
15	0xbe6c4794	-0.2307418
16	0xbdd701cd	-0.1049839
17	0x3e6c500c	0.2307741
18	0xbee958e2	-0.45575625
19	0x3e940bd8	0.28915286
20	0x3ed6eb70	0.419765
21	0x3f3bb9ff	0.7333068
22	0x3d586dbd	0.05283903
23	0x3d76fdbd	0.060300577
24	0xbcc41dcf	-0.023939995
25	0x3e06818c	0.13135356
26	0x3c247cca	0.010039518
27	0x3be6ed79	0.007047352
28	0x3ddf090e	0.10890399
29	0x3e138208	0.14405072
30	0xbe89bd61	-0.26902297
31	0x3ced6139	0.028977023
32	0xbe50d30b	-0.20393007
33	0xbe17add7	-0.14812408
34	0xbe8e4661	-0.2778807
35	0xbe000cf3	-0.1250494
36	0xbe7f4bf5	-0.24931319
37	0x3db37f58	0.08764523
38	0xbe45d49d	-0.19319387
39	0x3e619549	0.22029604
40	0xbd00c08d	-0.03143363
41	0xbe5c28ef	-0.2149999
42	0xbe6ff731	-0.2343414
43	0xbd2155ed	-0.039388586
44	0x3d02356a	0.03178922
45	0x3d9d6828	0.07685882
46	0x3d5eebd4	0.054424122
47	0x3df6de1e	0.12054084
48	0xbec6e726	-0.38848227
49	0xbe09bd8e	-0.13451216
50	0x3d819e4e	0.06329022
51	0x3e304c5d	0.1721663
52	0x3e91dbe3	0.28488073
53	0x3e01b88f	0.1266806
54	0x3e5bee81	0.21477701
55	0xbed8ef8e	-0.42370266
56	0x3d48a62c	0.0489866
57	0x3d504ff9	0.050857518
58	0xbc842bc7	-0.016134156
59	0x3d1e887d	0.038704384
60	0xbba812f1	-0.005129211
61	0x3ed1a9fb	0.40949997
62	0xbf23f6a7	-0.64048237
63	0xbe1f4626	-0.15554103
64	0xbeb310d0	-0.34973764
65	0x3e0bac01	0.13639833
66	0xbfd8fc12	-1.6951926
67	0x3d95e281	0.07318593
68	0x3d52c29c	0.051455125
69	0x3f1d9e4e	0.6156968
70	0xbd81d900	-0.063402176
71	0xbea9c52f	-0.33158252
72	0xbeae7446	-0.34073085
73	0x3dcdfb06	0.100576445
74	0xbed307eb	-0.41216978
75	0x3e249763	0.16073374
76	0x3f203eab	0.62595624
77	0x3d8a1868	0.067429364
78	0x3e6defc7	0.23235999
79	0x3e9230c6	0.28552836
80	0xbf1169cc	-0.5680206
81	0x3e9baa85	0.30403534
82	0x3d6a8b3b	0.057261687
83	0xbdf459aa	-0.119311646
84	0x3e97cb87	0.29647467
85	0x3dd84a7d	0.105610825
86	0x3f8c9237	1.0982121
87	0x3e4173b4	0.18891793
88	0x3e863c8b	0.26218066
89	0x3e93f1d9	0.28895453
90	0x3ef6c93f	0.48200414
91	0x3e809b56	0.25118512
92	0x3e3f16b5	0.18661006
93	0x3feff475	1.8746477
94	0xbf8dda55	-1.1082255
95	0x3eb7a7c4	0.35870183
96	0x3d2a9fd2	0.041656323
97	0x3ecea1c6	0.40357798
98	0xbf1bf800	-0.6092529
99	0xbdb7ad20	-0.08968568
100	0x3bf3da44	0.007441791
101	0x3ee8a20f	0.4543614
102	0xbc8576b8	-0.016291961
103	0xbe7475fa	-0.2387313
104	0xbea532c4	-0.32265294
105	0x3d584281	0.052797798
106	0xbd937ac7	-0.07201152
107	0xbea1c1bf	-0.3159313
108	0x3e65eb49	0.22453035
109	0xbc8c6dc8	-0.017142192
110	0x3d26958c	0.040669963
111	0x3ed1e729	0.40996674
112	0xba8515b9	-0.0010153569
113	0x3e55d73c	0.20882887
114	0xbe87de61	-0.2653685
115	0xbc87a83d	-0.016559714
116	0xbcf070e9	-0.029350715
117	0x3ee1c622	0.44096476
118	0x3e4c1b82	0.19932368
119	0x3eb4796d	0.3524889
120	0x3e803300	0.2503891
121	0x3c73d107	0.014881379
122	0x3dd6c830	0.104874015
123	0x3e3016b2	0.17196158
124	0x3e01e81e	0.12686202
125	0x3ddad84e	0.10685788
126	0xbed47361	-0.41494277
127	0x3eeafbd1	0.45895246
128	0xbeb132b8	-0.34609008
129	0xbf48cbdd	-0.7843607
130	0xbe5e1a41	-0.21689703
131	0x3eb35c19	0.35031202
132	0xbd6d2da0	-0.05790484
133	0xbe036436	-0.12831196
134	0xbe25491a	-0.16141167
135	0xbe31e957	-0.17374168
136	0x3d95a891	0.07307542
137	0xbddb88f4	-0.10719481
138	0x3de9092b	0.11378702
139	0x3f484ed1	0.78245264
140	0x3f30c3d2	0.690488
141	0x3f03e57b	0.51522034
142	0xbe4289b4	-0.18997842
143	0xbe8a4ca8	-0.2701161
144	0xbf01d6ff	-0.50718683
145	0xbf234741	-0.637806
146	0xbc199ae3	-0.009375307
147	0xbe107eec	-0.14110917
148	0x3dd2e059	0.10296697
149	0xbd2f6748	-0.042823106
150	0x3d860072	0.06543054
151	0xbee9d23f	-0.45668218
152	0x3e01d4d6	0.12678847
153	0x3f0b8cdc	0.5451181
154	0x3d28e0b4	0.04122992
155	0x3d184e36	0.037183963
156	0xbe8cd1df	-0.2750387
157	0x3ee1623f	0.44020268
158	0xbf75fa31	-0.96084887
159	0x3daef94d	0.08543644
160	0xbdfb1142	-0.12259151
161	0xbe2ed7a7	-0.17074452
162	0xbb34444d	-0.002750653
163	0xbe7cecc1	-0.2469969
164	0x3e1f6f86	0.15569887
165	0xbefadba4	-0.48995697
166	0xbba7bf43	-0.0051192357
167	0x3e984d0b	0.2974628
168	0xbd92d379	-0.071692415
169	0xbe58f1ae	-0.21185943
170	0xbd96da98	-0.07365912
171	0x3df860f8	0.1212787
172	0x3e927de1	0.28611663
173	0x3d180239	0.037111495
174	0xbd99290d	-0.07478533
175	0x3d1c9a4b	0.038233083
176	0xbdb9436f	-0.09046065
177	0xbd11a378	-0.035556287
178	0x3ef58091	0.4794965
179	0xbd2c1474	-0.042011693
180	0xbc34091a	-0.010988498
181	0xbe6457ff	-0.22299193
182	0x3e80e9c5	0.25178352
183	0xbd6cf459	-0.057850216
184	0xbcb8699d	-0.022511298
185	0xbbd67685	-0.0065448903
186	0xbd820a27	-0.06349593
187	0xbe6f7889	-0.23385824
188	0xbf13c936	-0.577289
189	0x3e3264c5	0.17421253
190	0x3e1763bb	0.14784138
191	0x3e4fc0e3	0.20288424
192	0xbe2deec1	-0.16985609
193	0xbd896abe	-0.067098126
194	0xbd84fe91	-0.06493867
195	0xbe21a771	-0.1578653
196	0xbdfe1080	-0.12405491
197	0x3e09f588	0.13472569
198	0xbf04df8d	-0.5190361
199	0x3ea2f1e0	0.3182516
200	0xbb7200a7	-0.0036926658
201	0x3ec5d1ea	0.38636714
202	0xbf2bee3e	-0.67160404
203	0xbe157481	-0.14595224
204	0xbd1a8c18	-0.03773126
205	0x3ca7f68d	0.020503307
206	0x3e826a4a	0.25471717
207	0x3e2dd4a0	0.16975641
208	0x3d0ee583	0.03488685
209	0xbda91424	-0.08255795
210	0x3eae042f	0.33987567
211	0x3dd85fae	0.105651245
212	0x3c9c3918	0.019070193
213	0x3d892f8d	0.06698523
214	0x3dc46a41	0.09590579
215	0xbdcff2fa	-0.10153766
216	0xbe5f0a9d	-0.21781392
217	0x3e089527	0.13338147
218	0xbdc8dd1a	-0.09807797
219	0xbef5e4c2	-0.4802609
220	0xbe7b72df	-0.24555539
221	0x3e6b57bb	0.22982685
222	0xbdfdbf5e	-0.12390016
223	0x3d95a73b	0.07307287
224	0xbe671b32	-0.22568968
225	0x3e03b73f	0.12862872
226	0xbf4c92b1	-0.79911333
227	0x3e725d2b	0.23668353
228	0xbdd9875d	-0.106215216
229	0xbc217607	-0.0098548
230	0x3cbef25f	0.02330893
231	0x3e16ce0f	0.14727043
232	0x3db957c6	0.090499446
233	0x3da65b90	0.08122933
234	0x3e446acd	0.19181366
235	0xbdecc13f	-0.11560296
236	0x3ec1285f	0.37726113
237	0xbded0988	-0.115740836
238	0xbe8370f8	-0.25672126
239	0x3ef6cbf6	0.48202485
240	0x3d3d2c36	0.04618474
241	0x3e164f74	0.14678746
242	0xbca2c4fc	-0.01986932
243	0x3e21880f	0.15774558
244	0x3e833668	0.25627446
245	0x3d87d60c	0.06632623
246	0x3f41c64d	0.7569321
247	0xbd7bd96d	-0.06148665
248	0x3e9e1c23	0.30880842
249	0x3e2e08a6	0.16995487
250	0x3eb150e9	0.34632042
251	0x3ed36f7e	0.41296
252	0x3e239cfc	0.15977854
253	0x3f0b7210	0.5447092
254	0xbf27258c	-0.65291667
255	0xbe5f8ebd	-0.21831794

predictionFunction.startBlock.0.bias f4 [64]
0	0xbce3020b	-0.027710935
1	0xbe70f492	-0.23530796
2	0xbe89c945	-0.2691137
3	0x3c9fb18b	0.019493839
4	0xbe5a52d6	-0.21320662
5	0xbb340e38	-0.0027474295
6	0x3d914a31	0.07094229
7	0xbdb5782b	-0.08860811
8	0x3e258b0f	0.16166328
9	0x3d868fb6	0.065703794
10	0xbe658eeb	-0.224178
11	0xbddfd2bb	-0.109288655
12	0xbe26c016	-0.16284212
13	0xbd2c10a5	-0.04200806
14	0xbdb782c6	-0.0896049
15	0xbe2cc345	-0.16871364
16	0xbe1cf086	-0.15326127
17	0x3da0176c	0.07816967
18	0xbe7617ce	-0.24032518
19	0xbd45d849	-0.04830197
20	0xbe759f52	-0.23986557
21	0xbdf271e0	-0.11838126
22	0xbd5df357	-0.054187145
23	0xbe04a2f3	-0.12952785
24	0xbd47be4e	-0.048765473
25	0xbd6e7bc6	-0.05822351
26	0x3d668209	0.056276355
27	0xbdb6b436	-0.08921091
28	0xbd8e674b	-0.06953295
29	0xbe3a2bf8	-0.18180835
30	0xbdeedf33	-0.116636656
31	0xbe1a4d57	-0.15068565
32	0x3db14e1d	0.08657477
33	0xbe83a99f	-0.25715348
34	0xbe35a331	-0.17738034
35	0xbce83459	-0.028345274
36	0xbe00d68a	-0.1258184
37	0xbe581ef6	-0.2110556
38	0xbe0b7a3e	-0.1362085
39	0xbe4fd708	-0.20296872
40	0xbdcd8c52	-0.100365296
41	0xbe269dce	-0.16271135
42	0xbeaedc37	-0.34152386
43	0xbdef3ec4	-0.116818935
44	0xbbb6c09c	-0.00557716
45	0xbe824e2c	-0.25450265
46	0x3ca8dcbb	0.020613065
47	0xbe210d1e	-0.1572766
48	0xbdf8ea2e	-0.12154041
49	0x3e0195e4	0.12654835
50	0xbe0d2511	-0.13783671
51	0xbcb50201	-0.022095682
52	0xbe066dfd	-0.13127895
53	0xbe3de42d	-0.18544073
54	0xbe475166	-0.19464645
55	0x3df6c6d3	0.120496415
56	0xbb1abd20	-0.0023611262
57	0x3dd47618	0.10374087
58	0xbe145fdb	-0.14489691
59	0x3ca36fe7	0.01995082
60	0x3de32fe3	0.11093118
61	0x3e445080	0.19171333
62	0xbe137fc6	-0.1440421
63	0x3dc957aa	0.09831174

predictionFunction.startBlock.2.weight f4 [64, 64]
0	0xbdcf8e04	-0.10134509
1	0xbe5b2820	-0.21402025
2	0x3e9f91a0	0.3116579
3	0xbe8c131f	-0.27358338
4	0xbdc156f3	-0.09440412
5	0xbee734b5	-0.451574
6	0x3e96c68f	0.29448363
7	0x3e18467e	0.1487064
8	0xbf2c2a89	-0.67252403
9	0xbd898a28	-0.06715804
10	0xbe1c6bd0	-0.15275502
11	0xbce0b1f7	-0.02742861
12	0x3cc84bb6	0.024450164
13	0x3efa56ac	0.4889425
14	0x3e2ce1f9	0.16883077
15	0x3dedd880	0.1161356
16	0x3e088ba1	0.13334514
17	0xbd952643	-0.072826885
18	0xbf06feb5	-0.527324
19	0xbe9ff093	-0.3123823
20	0xbdbd8e57	-0.09255665
21	0x3ce957e2	0.028484289
22	0x3e869d7f	0.26292035
23	0x3e203cc4	0.1564818
24	0xbf18880c	-0.5958259
25	0xbe65550d	-0.22395726
26	0x3f607fd9	0.8769508
27	0xbe204ec2	-0.15655044
28	0xbe20f241	-0.15717413
29	0x3d23ae75	0.039961297
30	0xbe7f481a	-0.24929848
31	0xbcf4051e	-0.029787596
32	0xbeec03bb	-0.46096596
33	0x3eb15ba5	0.34640232
34	0x3dc57f75	0.09643451
35	0xbea317eb	-0.31854185
36	0xbd27f4b0	-0.041004837
37	0x3ea8fddc	0.3300618
38	0xbde7a0b7	-0.11309951
39	0x3e3188c3	0.17337327
40	0xbdbf9137	-0.093538694
41	0xbb1e1697	-0.0024122351
42	0x3e25e219	0.1619953
43	0xbb5af923	-0.0033412657
44	0x3d996225	0.07489423
45	0xbe648af1	-0.22318627
46	0xbec72e17	-0.3890235
47	0xbd78d2e6	-0.060748003
48	0xbca13095	-0.019676486
49	0xbf1caf06	-0.61204565
50	0xbe9ed795	-0.3102385
51	0xbec0279b	-0.37530217
52	0xbdbd66da	-0.09248133
53	0xbe53dc60	-0.20689535
54	0x3ee03c4f	0.43796012
55	0xbebdce67	-0.37071535
56	0xbeb57943	-0.35444078
57	0xbe4dc140	-0.2009325
58	0xbe04f3c6	-0.12983617
59	0x3e749139	0.23883523
60	0x3e1e966c	0.15487069
61	0xbe43d42e	-0.19123909
62	0x3ba4e062	0.0050316313
63	0xbe54b25d	-0.20771165
64	0xbe27d19d	-0.16388555
65	0xbe92f724	-0.28704178
66	0x3e1c9c1b	0.15293925
67	0xbdf0253b	-0.11725851
68	0x3ebb6326	0.36599082
69	0xbd7db228	-0.06193748
70	0x3ea89a86	0.32930392
71	0x3ebc7c59	0.3681362
72	0xbf132fb1	-0.57494646
73	0x3e5c3b1e	0.21506926
74	0xbc680eeb	-0.014163713
75	0xbdacba5f	-0.08433985
76	0x3f21304e	0.6296433
77	0x3ed618e9	0.4181588
78	0x3ea9e966	0.3318588
79	0xbd566c2b	-0.05234925
80	0x3e1d7d90	0.1537993
81	0xbdba3b5b	-0.090933524
82	0xbefba70c	-0.49150884
83	0x3d143942	0.036187418
84	0xbd3a521d	-0.045488466
85	0xbdb7f89d	-0.08982966
86	0x3ded0d4a	0.115748
87	0x3e9444dd	0.2895879
88	0xbe77f90a	-0.24216095
89	0xbe2bfbe5	-0.16795309
90	0x3f22d6fb	0.63609284
91	0xbe592dc1	-0.2120886
92	0xbee7ac23	-0.45248517
93	0x3e3b410c	0.18286532
94	0xbbd031f5	-0.0063536116
95	0xbd0f6849	-0.035011563
96	0xbeb2afbe	-0.34899706
97	0x3eb39e35	0.3508164
98	0x3ec1b9c7	0.3783705
99	0xbdecc60e	-0.115612134
100	0x3eda9e33	0.4269882
101	0xbe220106	-0.15820703
102	0xbe96bb15	-0.29439607
103	0x3ddd3cee	0.10802637
104	0x3e85f736	0.2616517
105	0x3e992def	0.29917857
106	0xbb4060d1	-0.0029354582
107	0x3ddf4e63	0.10903623
108	0x3e835269	0.2564881
109	0x3d075266	0.033037566
110	0xbea222f0	-0.3166728
111	0xbd64b8f5	-0.05584045
112	0xbe16c502	-0.1472359
113	0xbe514557	-0.20436607
114	0xbe148046	-0.14502057
115	0xbe39cc01	-0.18144228
116	0x3e8aef93	0.27135906
117	0x3df7c699	0.12098426
118	0xbe42d54e	-0.19026682
119	0xbe8b023b	-0.2715014
120	0xbe83466a	-0.2563966
121	0x3e04036f	0.12891935
122	0x3cdcf3d8	0.026971743
123	0x3f3bbfcf	0.7333955
124	0x3eb0e394	0.34548628
125	0xbcd00128	-0.025391176
126	0xbd38a87b	-0.04508255
127	0xbe467266	-0.19379577
128	0xbd214d8c	-0.039380595
129	0x3cc19fef	0.023635833
130	0x3e7feefd	0.2499351
131	0x3bd2905c	0.0064259004
132	0xbe76e45a	-0.24110547
133	0xbf063622	-0.5242635
134	0x3e9337f5	0.2875363
135	0xbd37c768	-0.044867903
136	0xbe215358	-0.1575445
137	0xbe2e7d3b	-0.17039959
138	0x3d86e8b6	0.06587355
139	0x3ee1db35	0.44112554
140	0x3defa7c5	0.117019214
141	0x3dd1955d	0.10233567
142	0x3cc00276	0.023438673
143	0xbc30c75e	-0.01078972
144	0x3d2df714	0.04247196
145	0x3cdae92c	0.026722513
146	0x3cdf23bd	0.027238721
147	0xbcf352d4	-0.029702581
148	0x3d42e5ed	0.047582556
149	0xbe7fce68	-0.24981081
150	0x3dc7458f	0.09730064
151	0x3ce98750	0.028506905
152	0x3c9fedce	0.019522574
153	0xbe8cadbd	-0.27476302
154	0x3d2d5384	0.042315975
155	0xbd9bd9db	-0.07609912
156	0xbea69033	-0.3253189
157	0xbda4c8b7	-0.08046096
158	0x3e1c7940	0.15280628
159	0x3d050674	0.032476857
160	0xbd73a720	-0.059485555
161	0xbd67e6b4	-0.0566165
162	0xbd00f8f1	-0.03148741
163	0xbd0a1ecd	-0.03372078
164	0x3dd7f125	0.105440415
165	0xbe3572f9	-0.1771964
166	0x3cdbdc9b	0.026838591
167	0xbe344712	-0.17605236
168	0x3dc75b16	0.0973417
169	0xbdcf703e	-0.101288304
170	0xbdbdd1ea	-0.092685536
171	0xbebfdf58	-0.37475085
172	0x3ea589e8	0.32331777
173	0xbecda897	-0.40167686
174	0xbef7067e	-0.4824714
175	0xbe78e93a	-0.24307719
176	0xbe3b8562	-0.183126
177	0xbe7a3be6	-0.24436912
178	0x3d81a9b6	0.06331198
179	0xbe383795	-0.17989953
180	0x3df54882	0.119767204
181	0x3ce4ab1e	0.027913626
182	0x3ba48d6f	0.005021743
183	0xbdb4528f	-0.08804809
184	0x3ddca582	0.107737556
185	0xbe8357e2	-0.25652987
186	0x3e9fc03e	0.31201357
187	0xbe4c069f	-0.19924401
188	0xbd776fa2	-0.060409196
189	0xbe7bc3ce	-0.24586412
190	0xbe1896cc	-0.14901274
191	0x3d5c9211	0.053850237
192	0xbebfc09f	-0.37451646
193	0xbd109688	-0.035299808
194	0x3de96610	0.1139642
195	0x3e894dc9	0.26817158
196	0x3e6348d2	0.22195747
197	0x3d10bb95	0.035335142
198	0xbde26891	-0.11055101
199	0x3cfdda6e	0.030987944
200	0xbebfd787	-0.37469122
201	0x3e4253be	0.18977258
202	0xbeb231e9	-0.34803703
203	0xbd8019a5	-0.06254891
204	0x3d4ccf0b	0.05000214
205	0xbd09bb98	-0.03362617
206	0x3e28958b	0.16463296
207	0x3e4aa334	0.1978882
208	0x3de9125b	0.11380454
209	0xbb3ea316	-0.0029088906
210	0xbe4c7414	-0.19966155
211	0xbdd3ebe9	-0.10347731
212	0xbda2c65f	-0.079479925
213	0xbec95933	-0.39325866
214	0xb94e529a	-0.00019676462
215	0x3e76b3ad	0.24091978
216	0xbd083cf4	-0.033261254
217	0x3df04c05	0.117332496
218	0x3ca02ebc	0.019553535
219	0xbe641c7e	-0.22276494
220	0x3e37df7f	0.1795635
221	0xbde8a68c	-0.11359891
222	0xbd5d7d26	-0.05407443
223	0xbe937762	-0.2880202
224	0x3e7c889e	0.2466149
225	0x3d9ba54d	0.07599888
226	0x3e6fb72c	0.23409718
227	0xbe8f16ff	-0.27947232
228	0x3db29f28	0.08721763
229	0xbe16fa5c	-0.14743942
230	0xbf674344	-0.90337014
231	0x3e09d1cb	0.13458936
232	0x3efc0df8	0.49229407
233	0xbecf3f52	-0.40477997
234	0xbd6b8c2e	-0.057506733
235	0x3ebc3c86	0.36764926
236	0x3e511e7e	0.20421788
237	0xbe4f7ed2	-0.20263222
238	0xbd053b84	-0.03252746
239	0xbf40376a	-0.75084555
240	0x3ed55e36	0.4167344
241	0xc01f5d23	-2.4900596
242	0x3ca0293a	0.019550908
243	0xbdecb774	-0.115584284
244	0x3e9de7fb	0.3084105
245	0x3e6f4658	0.23366678
246	0x3de441f3	0.11145391
247	0x3d04c7a6	0.032416962
248	0xbe373b5f	-0.17893742
249	0x3e0f565e	0.1399779
250	0xbe1e4dd4	-0.15459377
251	0xbe9f22e0	-0.31081295
252	0xbed3d97c	-0.41376865
253	0xbddab97b	-0.10679909
254	0x3e0d4bd2	0.13798454
255	0xbd131f7e	-0.035918705

predictionFunction.startBlock.2.bias f4 [64]
0	0xbe7073b7	-0.23481642
1	0xbe449cd9	-0.19200458
2	0xbd737115	-0.059434015
3	0x3d5543b6	0.052066527
4	0xbeae8e66	-0.34093016
5	0xbe85aaba	-0.26106817
6	0xbd43737c	-0.047717556
7	0xbea0c2d8	-0.31398654
8	0xbe06d92f	-0.13168786
9	0xbcae4c09	-0.02127649
10	0xbe0e7fc6	-0.13915929
11	0x3c89132f	0.01673278
12	0x3e13fffa	0.14453116
13	0x3e2ab2be	0.16669747
14	0x3e8ecb48	0.27889466
15	0x3c45d81e	0.012075452
16	0xbd5b38b5	-0.053520877
17	0xbe210999	-0.15726317
18	0xbee6dbfe	-0.45089716
19	0x3ca03aed	0.019559348
20	0xbdfb947c	-0.122841805
21	0xbe0a9493	-0.13533239
22	0xbdabebc2	-0.083945766
23	0x3e0bc43d	0.13649078
24	0xbe007e1f	-0.12548111
25	0xbe22bc44	-0.1589213
26	0xbda65983	-0.08122542
27	0xbe2db51f	-0.16963623
28	0xbdf41998	-0.11918944
29	0x3d75d1fe	0.060014717
30	0xbe01a3d9	-0.12660159
31	0xbdb574a9	-0.08860142
32	0xbe0dd097	-0.13849102
33	0xbd53b504	-0.0516863
34	0xb9fbe818	-0.00048047374
35	0xbae69598	-0.001759219
36	0xbd9a0c75	-0.07521907
37	0xbe0aad71	-0.13542725
38	0xbe3f5bdf	-0.1868739
39	0x3c24f1d5	0.010067423
40	0xbe90161a	-0.28141862
41	0x3e23126d	0.15924998
42	0x3e3b4120	0.18286562
43	0xbe39bf24	-0.1813932
44	0x3e02e937	0.12784277
45	0xbde96166	-0.113955304
46	0x3de2e424	0.110786706
47	0xbeefc513	-0.46830043
48	0xbe06238e	-0.130995
49	0xbe556a09	-0.2084123
50	0xbdd3acbc	-0.10335681
51	0xbcf6071a	-0.030032683
52	0x3e01bba4	0.12669235
53	0xbe2220fa	-0.15832892
54	0xbea88b24	-0.32918656
55	0x3ed8fbbe	0.42379564
56	0x3d298024	0.04138197
57	0xbe44907e	-0.19195744
58	0x3e11fccd	0.14256592
59	0x3e20019c	0.15625614
60	0x3ddf23f2	0.10895528
61	0x3d8f91ce	0.07010232
62	0xbe15dd23	-0.14635138
63	0xbd74f09a	-0.059799768

predictionFunction.policy_head.0.weight f4 [2, 64]
0	0xbda058bb	-0.07829424
1	0x3c0d74a6	0.008633768
2	0xbda89183	-0.08230879
3	0x3e2319b7	0.15927778
4	0xbe6b5f77	-0.22985636
5	0x3ccaaf64	0.024741836
6	0x3e2d1dab	0.16905849
7	0x3f0191d8	0.50613165
8	0xbe1320df	-0.14368008
9	0x3cf34573	0.029696202
10	0x3dad474e	0.08460866
11	0x3c9fe8b6	0.019520145
12	0xbc68a066	-0.014198398
13	0xbd98097b	-0.07423683
14	0xbc4147f8	-0.011796944
15	0xbc9a43d5	-0.018831173
16	0xbc328b7a	-0.010897512
17	0x3e135199	0.14386596
18	0xbede2c58	-0.43393207
19	0xbddf26cf	-0.10896074
20	0x3e6e055e	0.23244235
21	0x3df15313	0.11783423
22	0x3d43db01	0.04781628
23	0x3e00c86b	0.12576453
24	0x3dbce387	0.09223085
25	0xbe878130	-0.2646575
26	0x3da3dbb0	0.080008864
27	0xbed83358	-0.42226672
28	0x3d6a5450	0.057209313
29	0xbeb7e09c	-0.3591355
30	0x3b71f672	0.0036920574
31	0x3dfcb7d4	0.1233975
32	0x3c74c914	0.014940519
33	0xbaafd3bd	-0.0013414543
34	0xbe50fde0	-0.20409346
35	0xbd86318f	-0.06552421
36	0xbd989d58	-0.07451886
37	0x3ec70b5a	0.38875848
38	0xbe3b47e9	-0.1828915
39	0x3d23b91b	0.039971452
40	0x3f25a7f6	0.64709413
41	0x3e92078a	0.28521377
42	0x3e1c85a3	0.15285353
43	0xbf1a28c8	-0.6021848
44	0xbdbe6646	-0.09296851
45	0xbd271773	-0.040793847
46	0xbe5bbe0f	-0.2145922
47	0x3e8b0e26	0.27159232
48	0x3edb3cf4	0.4281994
49	0x3ea9f34c	0.33193433
50	0xbdea72fd	-0.114477135
51	0xbb5c6f12	-0.003363554
52	0xbe35a5a4	-0.17738968
53	0x3d30e032	0.04318256
54	0x3eac81dd	0.33692828
55	0xbd16835c	-0.036746368
56	0x3da7de40	0.08196688
57	0xbe123ccb	-0.14281003
58	0x3d6d2a1a	0.05790148
59	0xbe01f2c2	-0.12690261
60	0x3d9b4f7b	0.07583519
61	0x3cf94539	0.030428516
62	0x3db79226	0.089634225
63	0x3da91dfb	0.082576714
64	0x3dda3386	0.106543586
65	0xbe49ea2a	-0.19718233
66	0x3daf5c67	0.08562546
67	0xbe3cd153	-0.18439226
68	0x3cae498f	0.02127531
69	0x3dea88ba	0.1145186
70	0x3c9b2f95	0.018943587
71	0xbec7df35	-0.3903748
72	0x3e37f20f	0.17963432
73	0xbcfb28f9	-0.030659186
74	0xbc2d806e	-0.010589702
75	0xbc01ac92	-0.007914679
76	0x3e1120fd	0.1417274
77	0x3ddf874a	0.10914476
78	0x3d28ba43	0.041193258
79	0x3df4d7d5	0.11955229
80	0x3d676099	0.056488607
81	0xbea2f769	-0.31829384
82	0x3ed92b2b	0.42415747
83	0x3b9c87f4	0.004776949
84	0xbdf878df	-0.12132429
85	0xbb414534	-0.0029490711
86	0xbd52d765	-0.051474947
87	0xbdf34c70	-0.11879814
88	0x3da6ad83	0.081385635
89	0x3e863387	0.26211187
90	0x3d6bc838	0.05756399
91	0x3ed62854	0.41827643
92	0x3bb6a395	0.0055736997
93	0x3ed31c2a	0.41232425
94	0x3dc266c1	0.09492255
95	0xbd1b1db6	-0.03787013
96	0xbdc4a6be	-0.09602116
97	0xbdeb6093	-0.114930294
98	0x3e5fc172	0.21851137
99	0x3c904f5a	0.017615963
100	0x3c13dbf1	0.009024606
101	0xbeb62974	-0.355785
102	0x3e95916d	0.29212514
103	0x3dc63e4c	0.09679851
104	0xbf25a7c4	-0.64709115
105	0xbe4ed208	-0.20197308
106	0xbd8f0418	-0.06983203
107	0x3f064da8	0.52462244
108	0xbd8e57e3	-0.06950357
109	0xbcd964ec	-0.026537381
110	0x3de53ae2	0.11192872
111	0xbe9b863c	-0.3037585
112	0xbefec16d	-0.49756947
113	0xbe96b0f6	-0.29431885
114	0x3dbbd157	0.09170788
115	0x3d513739	0.051078055
116	0x3d86f2db	0.0658929
117	0x3e1b6b3f	0.1517763
118	0xbe89ff5c	-0.26952636
119	0x3c39f689	0.0113502825
120	0x3c28ed15	0.010310431
121	0xbc199816	-0.009374639
122	0xbe542e9d	-0.20720907
123	0xbd234ad1	-0.039866272
124	0x3d49ddae	0.049283676
125	0x3e42a299	0.19007339
126	0xbde680d1	-0.112550385
127	0x3d0e17ce	0.03469067

predictionFunction.policy_head.0.bias f4 [2]
0	0xbccc67b9	-0.024951803
1	0x3c31098a	0.010805497

predictionFunction.value_head.0.weight f4 [64, 64]
0	0xbd99b8ac	-0.075059265
1	0xbcacba33	-0.02108488
2	0xbc0a0ea3	-0.008426341
3	0x3d6ae6f5	0.057349164
4	0x3d070f09	0.032973323
5	0xbd5fe399	-0.054660413
6	0x3d6156df	0.055014487
7	0xbd9c3411	-0.076271184
8	0xbd69f8a7	-0.0571219
9	0xbe0fb8c3	-0.14035325
10	0x3d13f227	0.036119606
11	0xbd0a38e6	-0.03374567
12	0xbdd4d76c	-0.10392651
13	0xbdeb9ea4	-0.11504868
14	0xbd90a86b	-0.07063373
15	0xbdcc315f	-0.09970354
16	0xbd50a584	-0.050939098
17	0xbdd899fd	-0.10576246
18	0xbdb9516a	-0.090487316
19	0x3d0ad88f	0.033897933
20	0xbda22d73	-0.07918825
21	0x3d506700	0.05087948
22	0x3c0b7bd0	0.008513406
23	0xbd9cf388	-0.076636374
24	0x3cad5f0b	0.021163484
25	0x3d9c0a40	0.076191425
26	0xbc73b41e	-0.014874486
27	0x3c5e0390	0.013550654
28	0x3dcfcd20	0.10146546
29	0xbd3c6742	-0.04599691
30	0x3ce11420	0.027475417
31	0x3d52190a	0.05129341
32	0xbe12bc3e	-0.14329621
33	0x3d97297e	0.07380961
34	0xbdca84c3	-0.098886035
35	0xbbd260a0	-0.00642021
36	0xbdba7a4a	-0.09105356
37	0x3cce15cc	0.025156878
38	0xbdcde6ac	-0.10053763
39	0xbd99fdcb	-0.0751911
40	0x3cb0ed80	0.021597624
41	0xbdbe9f97	-0.09307783
42	0xbcef803d	-0.029235953
43	0x3d98830b	0.074468695
44	0xbe22397e	-0.15842244
45	0xbda65716	-0.08122079
46	0xbdf01ffe	-0.11724852
47	0x3dab230b	0.08356293
48	0x3b9a15a7	0.004702288
49	0xbdd6ca12	-0.104877606
50	0xbe0f6a29	-0.1400534
51	0x3d844d38	0.06460041
52	0x3d55b4ab	0.05217425
53	0xbddc889c	-0.10768244
54	0xbbca58f5	-0.0061751553
55	0xbd7a24c8	-0.061070234
56	0x3c82c1ff	0.015961645
57	0xbdf0c108	-0.11755568
58	0x3d0488a4	0.032356873
59	0x3da44e1f	0.08022713
60	0x3bb40432	0.005493664
61	0xbd99c113	-0.07507529
62	0xbc5e042c	-0.013550799
63	0x3d5ceb04	0.053935066
64	0xbe2074c1	-0.15669538
65	0xbdfbc8f0	-0.12294185
66	0xbdd4ff40	-0.104002476
67	0x3c51d39c	0.012806799
68	0xbe141742	-0.14461997
69	0xbda5ca0d	-0.08095179
70	0xbd648685	-0.05579235
71	0xbecbd1d3	-0.3980852
72	0x3d50823d	0.050905455
73	0x3d1dc9af	0.03852242
74	0xbe02b353	-0.1276372
75	0xbd94bde8	-0.07262784
76	0xbdc377d2	-0.09544338
77	0xbe27f2f9	-0.1640128
78	0xbe1f645e	-0.15565631
79	0xbd633f8d	-0.05548053
80	0xbe92f9d8	-0.2870624
81	0xbec9b810	-0.3939824
82	0xbdad8d52	-0.0847422
83	0xbd0b088c	-0.033943698
84	0xbb0d537e	-0.0021564658
85	0x3d2fd67c	0.042929158
86	0xbd2e59e8	-0.04256621
87	0xbdc701fa	-0.09717174
88	0x3ed834ed	0.4222788
89	0x3e7a7ff7	0.24462877
90	0x3d88c4c9	0.06678159
91	0xbcad95d0	-0.0211896
92	0x3de4f05c	0.111786574
93	0xbe290900	-0.1650734
94	0xbe25552f	-0.16145776
95	0xbd8f85ca	-0.0700794
96	0xbef2ceba	-0.47423345
97	0xbe84f7da	-0.25970346
98	0xbdd1c7e3	-0.102432035
99	0x3cf43970	0.029812545
100	0x3daeb3d3	0.085303925
101	0x3b88be64	0.004173087
102	0x3c8b33cf	0.016992478
103	0x3e545307	0.20734797
104	0xbe5caf15	-0.21551163
105	0xbd753231	-0.05986232
106	0xbdbd2d2a	-0.0923713
107	0xbebc30ad	-0.36755887
108	0xbec18a51	-0.3780084
109	0x3deb4c5a	0.11489172
110	0xbe5f95d0	-0.21834493
111	0xbe18c875	-0.14920218
112	0x3e636f6a	0.2221047
113	0xbd52d89a	-0.0514761
114	0xbdfcc7da	-0.12342806
115	0x3d0e4dc7	0.034742143
116	0xbdc63875	-0.09678737
117	0xbeb099c6	-0.3449232
118	0xbdc3972e	-0.095503196
119	0x3e59be7f	0.21264075
120	0xbd74b3c3	-0.059741747
121	0xbbe231cc	-0.006902909
122	0x3e2bda32	0.16782454
123	0x3d602340	0.054721117
124	0xbde3d6dd	-0.11124966
125	0x3dff25f4	0.12458411
126	0xbe814d51	-0.252543
127	0xbd975f30	-0.073912024
128	0x3e4c06b4	0.19924432
129	0xbddf3fc7	-0.109008364
130	0x3d644249	0.055727277
131	0x3d435227	0.04768577
132	0x3da05a4a	0.07829721
133	0xbd7b3167	-0.06132641
134	0x3d9808ba	0.074235395
135	0xbe7c489b	-0.24637072
136	0x3dd3dd62	0.1034496
137	0x3e3e7e32	0.18602827
138	0xbe2dcc73	-0.16972522
139	0x3c699276	0.01425611
140	0xbe6592e5	-0.22419317
141	0xbe2762cc	-0.16346282
142	0xbe85aff1	-0.26110795
143	0x3d69c431	0.05707187
144	0xbe5152e2	-0.20441774
145	0xbf09f9c6	-0.5389675
146	0x3d828fdf	0.063750975
147	0x3e8bc83f	0.27301213
148	0xbf20269a	-0.625589
149	0x3d0e4cd3	0.034741234
150	0xbdb8e4cb	-0.09028014
151	0xbbb3cd6e	-0.0054871356
152	0x3e90ce36	0.28282326
153	0xbe19ffa8	-0.15038931
154	0x3c2ca2b0	0.010536835
155	0x3b35828c	0.002769622
156	0x3e11b5ad	0.1422946
157	0xbea3dc83	-0.32004175
158	0xbd477fad	-0.048705745
159	0x3e73f986	0.23825654
160	0xbdf672d9	-0.12033624
161	0xbecffdf8	-0.4062345
162	0xbea674a6	-0.3251087
163	0xbde45d4c	-0.111506075
164	0x3eb8bbda	0.3608082
165	0x3e623a36	0.22092518
166	0xbf0b4267	-0.54398197
167	0x3e308325	0.17237528
168	0x3e5aa3bd	0.21351524
169	0x3cf84d03	0.03031016
170	0x3ea82242	0.32838637
171	0xbdcc9aa5	-0.099904336
172	0xbef34dd7	-0.47520325
173	0xbdec85e8	-0.11548978
174	0xbe3b8699	-0.18313064
175	0xbf08851a	-0.53328097
176	0xbe69dc69	-0.22837986
177	0x3f0f444f	0.55963606
178	0xbdc387f2	-0.09547414
179	0x3dbc91ef	0.09207522
180	0x3e9a43b8	0.3012979
181	0xbed08d5d	-0.40732852
182	0xbccfd8b4	-0.025371887
183	0xbe201a1d	-0.15634961
184	0x3ee07d63	0.43845662
185	0xbe46b350	-0.1940434
186	0xbe6004b3	-0.21876793
187	0x3dd0a018	0.101867855
188	0x3d4893aa	0.04896895
189	0xbd52c505	-0.051457424
190	0x3e4a45b6	0.19753155
191	0x3d9a81da	0.075442985
192	0x3e9c6283	0.30543908
193	0x3e47a11c	0.19495052
194	0xbc8541c7	-0.016266717
195	0xbe5a01d3	-0.21289758
196	0x3e7cde99	0.2469429
197	0x3d8d2ab5	0.06892911
198	0xbdf30ea6	-0.11868028
199	0x3d69b663	0.057058703
200	0xbe9d85f9	-0.30766276
201	0x3daeed48	0.085413516
202	0xbea3cce2	-0.3199225
203	0xbebeddfb	-0.37278733
204	0xbf074c20	-0.5285053
205	0x3d08a7ec	0.033363268
206	0x3a9b660c	0.0011855974
207	0xbd9ce910	-0.07661641
208	0x3f4c41a7	0.7978768
209	0x3c3cb044	0.011516634
210	0xbe81d6ed	-0.25359288
211	0xbf14ac20	-0.5807514
212	0xbde0955b	-0.10965987
213	0x3c37ee8f	0.01122631
214	0xbdda2dd5	-0.10653273
215	0xbe537124	-0.20648628
216	0xbdb182a9	-0.086674996
217	0x3dd3f908	0.10350233
218	0xbca3d2bd	-0.019997949
219	0xbd9fa9a0	-0.07796025
220	0xbdc2114e	-0.09475957
221	0x3d56e511	0.05246455
222	0x3dd17fce	0.10229455
223	0xbe8f4d2c	-0.27988565
224	0x3e259893	0.16171484
225	0xbf160492	-0.58600724
226	0x3e162f56	0.14666495
227	0xbd11cbc2	-0.03559471
228	0x3e6cea63	0.23136286
229	0x3c930405	0.017946253
230	0xbc32e3e4	-0.010918591
231	0xbd200a2d	-0.039072204
232	0x3f14db91	0.5814753
233	0x3d6c9fcc	0.05776958
234	0xbe1db956	-0.15402731
235	0xbc81d57c	-0.015848868
236	0x3ebf96da	0.37419778
237	0x3d99581e	0.0748751
238	0xbee04568	-0.43802953
239	0xbd8f7b3f	-0.07005929
240	0x3e7c6b2e	0.24650261
241	0xbe5c2b4e	-0.21500894
242	0x3db1fd0c	0.08690843
243	0x3e891cfa	0.2677992
244	0xbe82654e	-0.25467914
245	0xbecca74e	-0.39971393
246	0x3e97154e	0.29508442
247	0xbb12b56b	-0.0022385966
248	0x3e0dfd17	0.13866077
249	0x3ea6f2c2	0.32607085
250	0xbe3bb00e	-0.18328878
251	0x3d1991e7	0.03749266
252	0xbd85b288	-0.06528193
253	0xbe1c3648	-0.15255082
254	0x3e5571a4	0.20844132
255	0xbda4a39d	-0.08039019

predictionFunction.value_head.0.bias f4 [64]
0	0xbe14adf7	-0.14519487
1	0xbe0e7d44	-0.13914973
2	0x3d8a192d	0.06743083
3	0xbe21ec03	-0.15812688
4	0x3cd15016	0.025550883
5	0xbd3ecc4a	-0.046581544
6	0x3d52e499	0.05148754
7	0xbe9744b7	-0.29544613
8	0x3d406931	0.04697532
9	0xbda69801	-0.08134461
10	0xbd9ff0aa	-0.07809575
11	0xbe5af4d9	-0.21382464
12	0x3c8b6866	0.017017554
13	0xbe6429f4	-0.22281629
14	0xbe3c9552	-0.18416336
15	0xbe852edd	-0.26012316
16	0x3caed45b	0.021341493
17	0xbd8e9964	-0.06962851
18	0xbc298074	-0.010345567
19	0x3ecd908b	0.4014934
20	0xbd891a0a	-0.0669442
21	0xbbad2924	-0.0052844454
22	0x3e9c0172	0.30469853
23	0xbe317df6	-0.17333207
24	0xbe1c1772	-0.15243319
25	0xbe33bac9	-0.17551722
26	0xbe0607d8	-0.1308893
27	0xbdc3f181	-0.095675476
28	0xbd0a390f	-0.03374582
29	0xbe26276c	-0.16225976
30	0x3d2d3ccd	0.042294312
31	0xbd113dcd	-0.03545933
32	0xbdffc65a	-0.124890044
33	0x3e0b2583	0.13588528
34	0x3ec23064	0.37927544
35	0xbe63646e	-0.2220628
36	0xbe9484ea	-0.29007655
37	0xbd876b15	-0.06612221
38	0x3cc2653b	0.023729911
39	0xbe25e6ef	-0.16201375
40	0xbe3d7f8a	-0.18505684
41	0xbd891771	-0.06693924
42	0xbdfdd5e9	-0.12394316
43	0xbdcd8b1f	-0.10036301
44	0x3d657c91	0.056027
45	0x3dab09cb	0.08351477
46	0xbe3993c7	-0.18122779
47	0xbe0dc645	-0.13845165
48	0xbe2da784	-0.16958433
49	0xbe0ab5f2	-0.13545969
50	0xbd9ef1e5	-0.077609815
51	0x3a9f8e8d	0.0012173221
52	0xbe2bf699	-0.16793288
53	0xbdbb8be9	-0.09157545
54	0xbe4e8bca	-0.20170513
55	0x3ec6d1bd	0.38831893
56	0x3e051bff	0.12998961
57	0x3e513858	0.2043165
58	0xbe0f2b22	-0.13981298
59	0xbe8f87ef	-0.28033397
60	0x3ec02b9e	0.37533277
61	0x3bacb2ff	0.0052703614
62	0x3e99f09c	0.30066383
63	0xbea6a095	-0.3254439

predictionFunction.value_head.2.weight f4 [41, 64]
0	0xbd9b7247	-0.07590156
1	0xbf2d4825	-0.6768821
2	0xbe95285a	-0.29132348
3	0xbecb9dc1	-0.39768794
4	0xbf9241f6	-1.142638
5	0xbf3d8b18	-0.74040365
6	0xbfc4df50	-1.538065
7	0xbf459c5e	-0.7719172
8	0xbfe81215	-1.8130518
9	0xbeac8a29	-0.33699158
10	0x3d0eaf80	0.03483534
11	0xbe158419	-0.14601173
12	0xbf333f58	-0.7001853
13	0xbf00c8ba	-0.50306284
14	0xbf8f03a5	-1.1172987
15	0xbfedaecc	-1.8568969
16	0xbeb062b7	-0.34450313
17	0xbe64e8d2	-0.22354439
18	0xbf987a77	-1.1912373
19	0xc0006b5d	-2.006553
20	0xbdeaf7cf	-0.11473047
21	0xbefac276	-0.48976487
22	0xbfc6ab95	-1.5521113
23	0xbf6ed2e4	-0.93290544
24	0xbf214cbe	-0.63007724
25	0x3d9c4a94	0.07631412
26	0x3b21b411	0.0024673978
27	0xbd3d5550	-0.04622394
28	0xbe3856e5	-0.18001898
29	0xbf59bb76	-0.8505167
30	0xbfc173e3	-1.5113491
31	0xbfe2b2d8	-1.7710829
32	0xbedef81e	-0.43548673
33	0xbf3609d5	-0.7110875
34	0xc00087eb	-2.0082958
35	0xbf167e7d	-0.58786756
36	0xbf1d60df	-0.6147594
37	0xbea21a93	-0.316609
38	0xbfe99b1b	-1.825046
39	0xbe8d54e4	-0.2760383
40	0xbe9290d0	-0.28626108
41	0xbf574a1f	-0.84097475
42	0xbdbf2b53	-0.09334435
43	0xbf11c091	-0.5693446
44	0xbfd9e895	-1.7024103
45	0xbfb2eb65	-1.3978087
46	0xbe1f2082	-0.15539744
47	0x3da7329f	0.08163952
48	0x3c35b46b	0.011090378
49	0xbfa6526d	-1.2993904
50	0xbf935681	-1.1510774
51	0xbf75a378	-0.9595256
52	0xbd0467bf	-0.032325502
53	0xbf482817	-0.7818617
54	0xbeda7ae7	-0.42671892
55	0xbfe4d103	-1.7876285
56	0xbfbf0690	-1.4923878
57	0xbf49e25e	-0.78861034
58	0xbde922ca	-0.113835886
59	0xbfb14564	-1.3849301
60	0xbfd68f92	-1.6762564
61	0xbec4ff5b	-0.3847607
62	0xbfd7f32a	-1.6871083
63	0xbef39ef0	-0.47582197
64	0xbcb12570	-0.021624297
65	0xbf3ea6ef	-0.7447347
66	0xbe0225a6	-0.12709674
67	0xbec679e7	-0.3876488
68	0xbf8fff94	-1.1249871
69	0xbf4b71af	-0.7947034
70	0xbfb6b378	-1.427352
71	0xbf2b435c	-0.6689966
72	0xbfe5bd1c	-1.7948337
73	0xbed897fb	-0.42303452
74	0xbd87333d	-0.0660157
75	0xbea13c04	-0.314911
76	0xbf660e51	-0.89865595
77	0xbf0ac64c	-0.54208827
78	0xbf892b2e	-1.0716302
79	0xbff25e2e	-1.8934991
80	0xbe433e46	-0.19066724
81	0xbe3a845e	-0.18214557
82	0xbfac717b	-1.3472131
83	0xbffa3987	-1.9548806
84	0xbd8ac1aa	-0.0677522
85	0xbee5362d	-0.44767895
86	0xbfd513c7	-1.664666
87	0xbf716684	-0.9429705
88	0xbf036758	-0.51329565
89	0x3d4245e7	0.047429945
90	0xbc0e8951	-0.008699731
91	0x3c7d0beb	0.015444736
92	0xbd977f23	-0.07397296
93	0xbf2a38e3	-0.6649305
94	0xbfbf3575	-1.4938189
95	0xbfd91127	-1.695836
96	0xbe7da1ef	-0.24768804
97	0xbf3fd05a	-0.74927294
98	0xc0005d58	-2.0056973
99	0xbf0f8b3b	-0.56071824
100	0xbf3adb89	-0.72991234
101	0xbedb8bd5	-0.4288012
102	0xbfdff5d3	-1.7496895
103	0xbe14d69c	-0.14534992
104	0xbe2a3632	-0.16622236
105	0xbf2bd8fc	-0.67127967
106	0xbd162e2d	-0.03666513
107	0xbf2156be	-0.63022983
108	0xbfd6957a	-1.6764367
109	0xbfbe5a47	-1.48713
110	0xbef627c5	-0.48077217
111	0xbd9739e7	-0.07384091
112	0x3cc08771	0.023502083
113	0xbfb87a4c	-1.4412322
114	0xbf91874a	-1.1369412
115	0xbf610b8d	-0.8790825
116	0x3cb7522e	0.022378054
117	0xbf0dfa82	-0.5546037
118	0xbf149988	-0.5804677
119	0xbfe53e10	-1.7909565
120	0xbfc1bdd8	-1.5136061
121	0xbf49fdf6	-0.7890314
122	0xbe36aa77	-0.17838465
123	0xbfab0870	-1.336195
124	0xbfdbecf7	-1.7181691
125	0xbebd8cdc	-0.3702153
126	0xbfdf934b	-1.7466825
127	0xbec54d79	-0.3853567
128	0xbd7a1130	-0.061051548
129	0xbf467ad4	-0.7753117
130	0xbe436e8e	-0.19085142
131	0xbed807d6	-0.42193478
132	0xbfa03d83	-1.2518772
133	0xbf409482	-0.75226605
134	0xbfc2ac34	-1.5208802
135	0xbf1e7d9b	-0.6191041
136	0xbfe1149c	-1.7584414
137	0xbed2f250	-0.41200495
138	0x3d69cc96	0.057079874
139	0xbe6c53d7	-0.23078857
140	0xbf49e6cb	-0.7886779
141	0xbef07ffe	-0.4697265
142	0xbf9a0c57	-1.2035016
143	0xbff523fa	-1.9151604
144	0xbeafcb80	-0.34334946
145	0xbd90847c	-0.070565194
146	0xbfa1526b	-1.2603277
147	0xbfed5fa8	-1.8544817
148	0x3cb6e26e	0.022324767
149	0xbeade548	-0.3396399
150	0xbfdb03e1	-1.7110559
151	0xbf7a423d	-0.9775732
152	0xbf10ff38	-0.5663943
153	0x3dc12e00	0.09432602
154	0x3c8154a3	0.015787428
155	0xbdb06bc8	-0.08614308
156	0xbe2eb88c	-0.17062587
157	0xbf534b89	-0.8253713
158	0xbfc88ec4	-1.5668569
159	0xbfd32e71	-1.6498548
160	0xbe7276c3	-0.23678117
161	0xbf5caf02	-0.8620454
162	0xc0008d3f	-2.008621
163	0xbedd51a6	-0.43226355
164	0xbf2a5f08	-0.66551256
165	0xbeca1e4b	-0.39476237
166	0xbfea6fc1	-1.8315355
167	0xbdfbdea1	-0.122983225
168	0xbe3f7c4f	-0.18699764
169	0xbf4099ba	-0.7523457
170	0xbd8c86e6	-0.06861667
171	0xbf40c540	-0.7530098
172	0xbfd6c97f	-1.6780242
173	0xbfc2640f	-1.5186785
174	0xbe6af896	-0.2294639
175	0x3db53cb1	0.088494666
176	0xbd84a815	-0.064773716
177	0xbfa9864b	-1.3244108
178	0xbfabf9dc	-1.3435626
179	0xbf6bec5c	-0.9215753
180	0x3de3855b	0.1110942
181	0xbf1d9d0a	-0.6156775
182	0xbf00ed71	-0.50362307
183	0xbfe484af	-1.7852992
184	0xbfb9ce0b	-1.4516004
185	0xbf44d512	-0.7688762
186	0xbe65b934	-0.2243393
187	0xbfb075cb	-1.3785948
188	0xbfe119b7	-1.7585973
189	0xbf00b137	-0.5027041
190	0xbfde2179	-1.7353965
191	0xbf0546c5	-0.5206111
192	0xbd94d53b	-0.07267233
193	0xbf1e646f	-0.61872
194	0xbea6ce3d	-0.32579222
195	0xbecdd5df	-0.40202233
196	0xbf9136a6	-1.1344802
197	0xbf5062a1	-0.81400496
198	0xbfb345af	-1.4005641
199	0xbf25aca8	-0.6471658
200	0xbfddd787	-1.7331399
201	0xbecd0259	-0.40040854
202	0xbc15d2e3	-0.009144518
203	0xbe0a08b4	-0.13479882
204	0xbf4c68bd	-0.7984732
205	0xbef5584a	-0.47918922
206	0xbf8c0608	-1.093934
207	0xc007bfbd	-2.1210778
208	0xbe577997	-0.21042477
209	0xbe055cf6	-0.13023743
210	0xbfaf919d	-1.3716313
211	0xbff436ec	-1.9079261
212	0xbdb740b7	-0.0894789
213	0xbecc29b9	-0.39875582
214	0xbfd83289	-1.6890422
215	0xbf5b8eb9	-0.8576465
216	0xbee13d81	-0.43992236
217	0xbd2087cd	-0.03919201
218	0x3d0d921f	0.03456318
219	0x3b6055d9	0.0034230857
220	0xbe2edca1	-0.17076351
221	0xbf426976	-0.7594217
222	0xbfb085b1	-1.3790799
223	0xbfe72967	-1.805951
224	0xbe8b2140	-0.27173805
225	0xbf2a7cd1	-0.66596705
226	0xc001ea0b	-2.0299098
227	0xbf075dc3	-0.52877444
228	0xbf3102ea	-0.6914507
229	0xbe5f6ec0	-0.21819592
230	0xbff21862	-1.8913691
231	0xbe12282b	-0.14273135
232	0xbeac59d0	-0.33662271
233	0xbf55618f	-0.8335199
234	0x3dc10241	0.09424258
235	0xbf25c1da	-0.6474892
236	0xbfdda3a7	-1.7315568
237	0xbfb3eb98	-1.4056273
238	0xbeed4e86	-0.4634897
239	0x3dd8a807	0.10578924
240	0xbd866428	-0.06562072
241	0xbfb84c7d	-1.4398342
242	0xbf98b262	-1.1929438
243	0xbf795cf8	-0.97407484
244	0xb9eb8f00	-0.00044929236
245	0xbf41cf2e	-0.75706756
246	0xbee2e9f1	-0.44319108
247	0xbfe33f4c	-1.7753692
248	0xbfc6e780	-1.5539398
249	0xbf4c5301	-0.79814154
250	0xbe7db943	-0.24777703
251	0xbfa29fcf	-1.270502
252	0xbfe270fa	-1.7690728
253	0xbf0a0d60	-0.5392666
254	0xbfd8197d	-1.6882778
255	0xbec83730	-0.39104605

predictionFunction.value_head.2.bias f4 [41]
0	0xbfdb87aa	-1.7150776
1	0xbfdf4ccd	-1.7445313
2	0xbfd5260b	-1.6652235
3	0xbfda69c8	-1.7063532
4	0xbfe1006f	-1.7578257
5	0xbfe0b84c	-1.7556243
6	0xbfd60c3e	-1.6722486
7	0xbfcf6c97	-1.6205014
8	0xbfe22a58	-1.7669172
9	0xbfd02098	-1.6259947
10	0xbfd23143	-1.6421283
11	0xbfd5f488	-1.671525
12	0xbfd6220f	-1.6729144
13	0xbfe7773d	-1.8083264
14	0xbfe6b8f6	-1.8025196
15	0xbfe0e659	-1.7570297
16	0xbfcc5bfb	-1.596557
17	0xbfde80f3	-1.7383102
18	0xbfec6a7d	-1.8469998
19	0xbfe6f818	-1.8044462
20	0xbf496904	-0.78675866
21	0xbf2a1783	-0.66442126
22	0xbed0d6f6	-0.40789002
23	0xbf748919	-0.95521694
24	0xbe86fa27	-0.26362726
25	0xbeb28682	-0.34868246
26	0xbeb97ae4	-0.3622657
27	0xbee57e45	-0.44822899
28	0xbe810b53	-0.25203952
29	0xbe8ecfc6	-0.27892894
30	0xbc0805ff	-0.008302211
31	0xbc9886fb	-0.018619051
32	0xbeb9d0d7	-0.36292145
33	0xbfd82b69	-1.6888248
34	0xbfe7a43d	-1.8096997
35	0xbfdea4c6	-1.7394035
36	0xbfe4e19e	-1.7881353
37	0xbfe37797	-1.7770871
38	0xbfda8081	-1.7070466
39	0xbfe9ef5c	-1.8276172
40	0xbfe4b7e4	-1.7868619

dynamicsFunction.startBlock.0.weight f4 [64, 34]
0	0x3e50353b	0.20332806
1	0x3ea3884b	0.3193992
2	0xbd7c24e2	-0.06155861
3	0x3ddd36b3	0.10801449
4	0x3e0dbad2	0.13840798
5	0x3e407cef	0.18797658
6	0x3c9cadbe	0.019125815
7	0xbd8d935c	-0.06912872
8	0xbd2f45c5	-0.042791147
9	0xbe5c369d	-0.21505208
10	0x3e9d85db	0.30766186
11	0x3dc47b49	0.09593827
12	0x3cbd9fde	0.02314752
13	0x3e27e246	0.1639491
14	0xbd5b0801	-0.05347443
15	0x3eacb0de	0.3372869
16	0x3e28453b	0.1643266
17	0x3d9d31c9	0.076755114
18	0xbcbfdd01	-0.023420813
19	0x3e6868ae	0.22696182
20	0x3e63f1b4	0.22260171
21	0x3e520f27	0.20513593
22	0xbe14e4b1	-0.14540364
23	0x3d90fe5c	0.07079765
24	0x3e735a29	0.23764862
25	0x3e051b15	0.12998612
26	0x3e621e6e	0.2208192
27	0x3d1d9668	0.038473517
28	0x3e76a45d	0.24086137
29	0xbc860146	-0.01635803
30	0xbe1370cf	-0.14398502
31	0x3e110374	0.14161474
32	0x3ea06b0c	0.3133167
33	0xbeb6b54b	-0.3568519
34	0xbeb0a839	-0.34503344
35	0x3e0dc1d9	0.13843478
36	0xbe31f715	-0.1737941
37	0xbd5753ec	-0.05257027
38	0xbdbb20c4	-0.09137109
39	0x3eb8f15c	0.36121643
40	0xbe987e6d	-0.29783955
41	0xbdbcd648	-0.092205584
42	0xbd71a0f1	-0.058991376
43	0x3eb3d8a8	0.35126233
44	0xbe38cd6f	-0.18047117
45	0x3d9f0913	0.07765403
46	0x3e793b0f	0.24338935
47	0x3eab7e6c	0.3349489
48	0x3e6ec4bf	0.2331724
49	0x3da53dc7	0.08068424
50	0xbd0ee569	-0.03488675
51	0x3deaa9c0	0.114581585
52	0xbe4c725a	-0.19965497
53	0xbd59db9f	-0.053187963
54	0xbd54e411	-0.051975314
55	0x3c3cb98c	0.011518847
56	0x3d7734ef	0.060353216
57	0x3e045d5f	0.12926243
58	0x3e7178ce	0.2358124
59	0x3de8da96	0.11369817
60	0x3d8d148c	0.06888685
61	0x3eb9c982	0.3628655
62	0xbdfa6ce3	-0.122278
63	0x3a8c1359	0.0010686918
64	0xbdf249b9	-0.11830468
65	0x3e158c2d	0.14604254
66	0x3e9fe32d	0.3122801
67	0xbeed9cef	-0.46408793
68	0x3e0d8d1a	0.13823357
69	0xbe5f1d54	-0.21788532
70	0x3f03ea6f	0.5152959
71	0xbe9193ca	-0.28433067
72	0x3d7294b3	0.059223842
73	0xbdfd4c30	-0.12368047
74	0x3d8c3115	0.06845299
75	0xbdafe367	-0.085882954
76	0x3dafb60b	0.08579644
77	0xbe521664	-0.20516354
78	0x3e180510	0.14845681
79	0x3e12d696	0.1433967
80	0xbe98777c	-0.2977866
81	0xbe861d9c	-0.26194465
82	0x3b0c943d	0.0021450662
83	0xbe64ea2b	-0.22354953
84	0xbe002184	-0.12512785
85	0xbbf30eda	-0.007417542
86	0xbe27f56b	-0.16402213
87	0x3dcb5809	0.09928901
88	0x3e2989a7	0.16556416
89	0xbe5d02db	-0.2158312
90	0xbe8dfc0a	-0.27731353
91	0xbe2f49e4	-0.17118031
92	0xbeab29da	-0.33430368
93	0xbe7f77f8	-0.24948108
94	0xbe8271fc	-0.25477588
95	0xbf05e97e	-0.52309406
96	0x3ddf8a05	0.10914997
97	0xbed18c4b	-0.40927348
98	0x3f1f04d9	0.6211677
99	0x3e2495db	0.1607279
100	0xbe4e358f	-0.20137618
101	0x3e796406	0.24354562
102	0x3cd87a03	0.026425367
103	0xbe7d4312	-0.24732617
104	0x3d46d5e3	0.048543822
105	0x3ee88767	0.45415804
106	0x3f43be24	0.76462007
107	0xbe1ad315	-0.15119584
108	0x3df1bc94	0.118035465
109	0xbdd0b687	-0.10191064
110	0x3edc6e17	0.43052742
111	0x3dfcdc63	0.12346723
112	0xbb5ad050	-0.0033388324
113	0x3eb843c6	0.35989207
114	0xbe57bc66	-0.21067962
115	0xbd65eda2	-0.056134827
116	0xbd815cb7	-0.06316512
117	0xbf1b8571	-0.6075049
118	0xbd202a53	-0.039102864
119	0xbe80364a	-0.2504142
120	0x3e35b669	0.17745365
121	0xbf2cd082	-0.6750566
122	0xbe29de35	-0.16588672
123	0xbea8ff7c	-0.3300742
124	0x3de60990	0.11232293
125	0xbd46ae03	-0.048505794
126	0x3ca6d12e	0.020363417
127	0x3b3c4db6	0.0028732843
128	0xbeaddd91	-0.33958104
129	0x3e1eff8b	0.1552717
130	0xbebd88b7	-0.37018368
131	0x3e764f85	0.24053772
132	0xbd8ed9bc	-0.06975123
133	0xbea29358	-0.3175304
134	0xbcb7934d	-0.022409106
135	0xbd7251d9	-0.059160087
136	0xbd958e1d	-0.073024966
137	0xbdbc5024	-0.09194973
138	0xbe96e2ef	-0.29470012
139	0x3f178246	0.59183156
140	0x3ecb8c0f	0.39755294
141	0xbdd04477	-0.10169309
142	0x3d9a1b1a	0.075247005
143	0xbf12d39e	-0.5735415
144	0xbe08891f	-0.13333558
145	0x3bea8a89	0.007157628
146	0x3c7423e6	0.014901137
147	0x39fb149d	0.0004788981
148	0x3dcdd464	0.10050276
149	0xbcc959f5	-0.024579028
150	0xbf0a8e12	-0.5412303
151	0x3e1db0a0	0.15399408
152	0xbc750d12	-0.0149567295
153	0xbd0061ab	-0.031343143
154	0xbe40cf18	-0.18829
155	0xbe4c86b9	-0.19973268
156	0xbe82f96a	-0.25580913
157	0xbcf8bc3d	-0.030363197
158	0xbc96400c	-0.018341087
159	0xbcf5065b	-0.029910257
160	0x3ed05ffc	0.4069823
161	0x3e534eb4	0.20635492
162	0x3e4bff93	0.19921713
163	0x3ec6b6d7	0.3881137
164	0x3d90b685	0.07066063
165	0xbd8a6644	-0.06757787
166	0x3e3fdf24	0.18737465
167	0xbdfffae1	-0.12499023
168	0xbe4fec47	-0.20304976
169	0xbda78abf	-0.081807606
170	0xbd50e5ae	-0.05100029
171	0xbe76b227	-0.24091397
172	0x3e27c572	0.16383913
173	0x3c4739ba	0.012159759
174	0xbcb38a42	-0.021916512
175	0xbdbc7fd4	-0.09204069
176	0xbcfe65ad	-0.031054342
177	0xbdd9c1f9	-0.106327005
178	0x3d4babad	0.04972427
179	0x3da76972	0.08174409
180	0x3d0fab2b	0.035075348
181	0x3e339f3f	0.17541216
182	0x3e57d51e	0.21077392
183	0x3cf38d4e	0.029730465
184	0x3dfe30fa	0.12411685
185	0xbe2e3fdb	-0.17016546
186	0xbe71b5fb	-0.23604576
187	0x3e921c89	0.28537396
188	0xbd8a494a	-0.0675226
189	0xbf02b0fd	-0.5105131
190	0xbdd15f1e	-0.1022322
191	0xbe72dd3e	-0.2371721
192	0x3d8fa1d6	0.0701329
193	0xbe223385	-0.15839966
194	0xbe06ce5a	-0.13164654
195	0xbe610a5e	-0.21976611
196	0x3ca6fe98	0.020385072
197	0x3e8aaf68	0.2708695
198	0x3d40ba47	0.047052648
199	0x3e47df4f	0.19518779
200	0x3e8f673d	0.28008452
201	0x3aad7a9c	0.0013235393
202	0xbd8061ad	-0.0626863
203	0xbaf8847a	-0.001896038
204	0x3e98b9be	0.2982921
205	0x3ce8760b	0.0283766
206	0x3d0b0cb3	0.033947658
207	0xbd042040	-0.03225732
208	0x3e7504b4	0.23927575
209	0xbe604369	-0.21900715
210	0xbe1754ac	-0.14778394
211	0xbe76bdde	-0.24095866
212	0x3e144ea1	0.1448312
213	0x3d9650e5	0.07339648
214	0xbc8724f7	-0.016497118
215	0x3e1cc71f	0.15310334
216	0xbea7d155	-0.32776895
217	0xbe99f09d	-0.30066386
218	0xbdefe846	-0.117142245
219	0xbdfb6052	-0.12274231
220	0x3e1112e6	0.14167365
221	0xbdc6d2aa	-0.0970815
222	0xbe1c73ed	-0.15278597
223	0xba8f291c	-0.0010922286
224	0x3dd92510	0.10602772
225	0x3e444bf0	0.19169593
226	0xbe8ffb25	-0.28121296
227	0x3d0576a4	0.032583848
228	0x3d9d2e3c	0.07674834
229	0xbe7584c2	-0.23976424
230	0xbe005f0f	-0.12536262
231	0xbe35d61c	-0.17757457
232	0x3e2920f5	0.16516478
233	0xbd6376db	-0.05553327
234	0x3c069c43	0.008215967
235	0xbe4b22b3	-0.19837455
236	0xbf160233	-0.58597106
237	0x3f135dd9	0.57565075
238	0x3d401b42	0.046900995
239	0xbd70d9b0	-0.058801353
240	0x3e519301	0.20466234
241	0x3d3a6f8b	0.045516532
242	0xbdaaf060	-0.08346629
243	0x3d8678b8	0.06565994
244	0xbe4fd400	-0.20295715
245	0xbdd93bc1	-0.106071
246	0x3d0b245e	0.03397023
247	0xbdb4293a	-0.08796926
248	0xbd9d39ef	-0.076770656
249	0x3b685331	0.0035449977
250	0x3d7cc8a8	0.0617148
251	0xbdcfeb6e	-0.101523265
252	0xbd20ecde	-0.039288394
253	0x3dcdb689	0.100445814
254	0x3e39fe36	0.1816338
255	0x3debcbd2	0.11513485

dynamicsFunction.startBlock.0.bias f4 [64]
0	0x3da0aa02	0.078449264
1	0x3da6be39	0.08141751
2	0x3db2daec	0.08733162
3	0xbe4928e3	-0.19644503
4	0xbe37c41b	-0.17945902
5	0xbe114f1d	-0.14190336
6	0x3e5028f9	0.2032813
7	0xbcbe6b8d	-0.023244644
8	0x3e3e5ede	0.18590876
9	0x3ca4ef11	0.020133527
10	0xbdd37a18	-0.10326022
11	0x3e1772f8	0.14789951
12	0x3c28d786	0.010305291
13	0x3e28a8ea	0.16470686
14	0x3d3e5dce	0.046476178
15	0xbe46901e	-0.19390914
16	0xbe667de7	-0.22508965
17	0x3e85e544	0.26151478
18	0xbd8e103c	-0.0693669
19	0xbe934982	-0.2876702
20	0xbe0254bd	-0.12727638
21	0x3d3b026c	0.045656607
22	0xbe2bb4d4	-0.16768199
23	0xbdd39db2	-0.10332812
24	0xbd87762f	-0.066143386
25	0x3dedde43	0.11614659
26	0x3e8e523f	0.27797124
27	0xbe05e048	-0.13073838
28	0xbe65b387	-0.22431765
29	0x3e10b13e	0.14130113
30	0xbca92182	-0.02064586
31	0xbdd5f227	-0.104465775
32	0x3e026453	0.12733583
33	0x3caea4f4	0.02131889
34	0x3e03c666	0.12868652
35	0x3dbecdac	0.093165725
36	0x3d108853	0.03528626
37	0xbd9d5782	-0.076827064
38	0xbba2f6df	-0.004973277
39	0xbe80dce7	-0.25168535
40	0x3c685e18	0.01418259
41	0x3d4b7612	0.049673147
42	0xbe315ae9	-0.17319836
43	0x3e6a1d5e	0.22862765
44	0xbd89177c	-0.066939324
45	0x3da9ebd4	0.08296934
46	0xbd80618f	-0.06268608
47	0xbdc310b9	-0.09524674
48	0x3e1e187b	0.15439026
49	0x3e2449d6	0.16043791
50	0xbc2cb3b9	-0.010540896
51	0xbe34a1f0	-0.17639899
52	0xbc1b55a9	-0.009480872
53	0xbc91fc5f	-0.017820535
54	0xbd554340	-0.052066088
55	0xbdc27d3a	-0.09496541
56	0xba43b173	-0.00074651017
57	0x3e03d40c	0.12873858
58	0xbd0e9bd7	-0.03481659
59	0x3e1fab19	0.15592612
60	0x3e2bbc84	0.16771132
61	0x3cf497c2	0.02985752
62	0x3e090b98	0.13383329
63	0x3dc5d86f	0.09660422
