AlphaGo/foersterrobert_MuZero/Environments/CartPole/Models/model_17.pt (torch, 84274 bytes, 20 tensors)

predictionFunction.startBlock.0.weight f4 [64, 32]
0	0xbdc5639a	-0.09638138
1	0x3f2cd9b4	0.6751969
2	0xbe9fa809	-0.31182888
3	0xbea3cee5	-0.31993786
4	0xbeb180a5	-0.3466846
5	0xbde34dcd	-0.11098824
6	0xbd4526e8	-0.048132807
7	0x3e5a1c8a	0.2129995
8	0x3e02cf41	0.12774374
9	0xbe4e8ed5	-0.20171674
10	0xbe87be10	-0.26512194
11	0xbe94f278	-0.2909124
12	0xbee5d198	-0.4488647
13	0x3edae0a2	0.42749506
14	0x3d73eb94	0.059550837
15	0xbe83074f	-0.25591514
16	0xbe166e7d	-0.14690585
17	0x3e8a29f9	0.26985148
18	0xbf12cab3	-0.57340544
19	0x3ea1a9aa	0.31574756
20	0x3f05328a	0.5203024
21	0x3f43918c	0.7639396
22	0x3d38e97d	0.045144547
23	0x3c44083c	0.011964854
24	0xbccbd9ee	-0.02488419
25	0x3de4ea5d	0.11177514
26	0x3c1851bd	0.009296832
27	0x3d3d9fa0	0.04629481
28	0x3e256942	0.16153434
29	0x3e0e3e51	0.1389096
30	0xbe85870b	-0.26079592
31	0x3c77d981	0.015127541
32	0xbc035a32	-0.00801711
33	0xbe925d55	-0.28586832
34	0xbe4d15dc	-0.2002787
35	0xbdcb7424	-0.099342614
36	0xbe863c62	-0.26217943
37	0xbe10fa12	-0.14157894
38	0xbe0f5dfd	-0.14000697
39	0x3e7e36b5	0.24825557
40	0x3e137bec	0.14402741
41	0xbea66cb7	-0.32504818
42	0xbd1db3b5	-0.03850146
43	0xbd5a5d1d	-0.053311456
44	0x3a767471	0.00094015064
45	0xbd88fd58	-0.066889465
46	0xbe0ae57b	-0.13564102
47	0x3d458860	0.04822576
48	0xbe837b76	-0.2568013
49	0xbe227751	-0.15865828
50	0x3df206e4	0.118177205
51	0x3e431f69	0.19054951
52	0x3e9cbd9a	0.30613405
53	0x3e18c010	0.14917016
54	0x3e06abb3	0.13151436
55	0xbf13cd37	-0.5773501
56	0x3c828739	0.01593362
57	0xbddb361e	-0.107036814
58	0x3d4c1df0	0.049833238
59	0x3d9cee72	0.07662667
60	0x3b2d2a4a	0.0026422911
61	0x3eab8fc6	0.33508128
62	0xbf32ba9f	-0.6981601
63	0xbebddb22	-0.37081248
64	0xbebd28ce	-0.36945194
65	0x3e058b24	0.13041359
66	0xbfe6a7d1	-1.8019964
67	0x3de99225	0.11404828
68	0x3d4e63b5	0.050388057
69	0x3f21eeb6	0.6325487
70	0xbd89873a	-0.067152455
71	0xbebb5852	-0.3659082
72	0xbeaeb28d	-0.34120598
73	0x3dbb457d	0.09144113
74	0xbeff88fa	-0.49909192
75	0x3e40e994	0.18839103
76	0x3f39913f	0.7248725
77	0x3d96e9ec	0.07368836
78	0x3e6d8f1c	0.23199123
79	0x3eafee8f	0.34361693
80	0xbf15eceb	-0.58564633
81	0x3e8a581f	0.27020356
82	0x3d87f2b4	0.06638089
83	0xbdb43370	-0.087988734
84	0x3e99d615	0.30046144
85	0x3dc50f1e	0.09622024
86	0x3fa3a1f7	1.2783803
87	0x3e495e26	0.19664821
88	0x3e97c9b8	0.29646087
89	0x3ece537f	0.40298077
90	0x3f029520	0.51008797
91	0x3e889e4e	0.26683277
92	0x3e2229b4	0.15836221
93	0x40067602	2.1009526
94	0xbf95937e	-1.1685636
95	0x3eca2378	0.39480186
96	0x3d6113c4	0.05495049
97	0x3ece4c77	0.40292713
98	0xbf1855cb	-0.5950591
99	0xbc9f81b2	-0.019471023
100	0xbca103ae	-0.019655075
101	0x3f0d290e	0.5514077
102	0xbcf03df8	-0.029326424
103	0xbe8847c7	-0.26617262
104	0xbea4c21b	-0.3217934
105	0x3ca34cea	0.019934136
106	0xbdcb91ba	-0.099399045
107	0xbeab3f6d	-0.33446828
108	0x3e72db8d	0.23716564
109	0xbd70d06a	-0.05879251
110	0xbc9b0d98	-0.01892738
111	0x3ec1d823	0.37860212
112	0xbc9e518f	-0.019326
113	0x3e3e6b39	0.1859559
114	0xbeb23943	-0.34809312
115	0xbc22e1c1	-0.009941519
116	0xbd048e15	-0.032362062
117	0x3ea7dab8	0.32784057
118	0x3e22574f	0.15853618
119	0x3eb1e04d	0.3474144
120	0x3e9f4af1	0.31111863
121	0xbc631ce4	-0.0138618685
122	0x3db0704c	0.08615169
123	0x3e39c632	0.18142012
124	0x3e8c5442	0.27408034
125	0x3dd8017c	0.10547158
126	0xbed53fe3	-0.41650304
127	0x3f01dd10	0.5072794
128	0xbeb7644e	-0.35818714
129	0xbf548400	-0.83013916
130	0xbe6f63ca	-0.2337791
131	0x3ebcdcf2	0.36887318
132	0xbd79c38b	-0.0609775
133	0xbd905450	-0.07047331
134	0xbe294de1	-0.16533615
135	0xbe1a16d6	-0.15047774
136	0xbda36af7	-0.07979386
137	0x3d3ac14e	0.045594506
138	0x3d01dec6	0.031706594
139	0x3f3edb9e	0.7455386
140	0x3f4e0fd7	0.8049292
141	0x3f0cfabd	0.55070096
142	0xbe29026f	-0.16504835
143	0xbe6b8e90	-0.23003602
144	0xbef6f460	-0.48233318
145	0xbf296586	-0.6617054
146	0xbc44f9c4	-0.012022439
147	0xbe3375da	-0.17525426
148	0xbcedcdb7	-0.029028757
149	0xbe27b064	-0.16375881
150	0x3de3198e	0.110888585
151	0xbf16550a	-0.5872351
152	0x3e034d1f	0.12822388
153	0x3f1018df	0.5628795
154	0x3cd0836d	0.025453294
155	0x3d8d12a1	0.06888319
156	0xbe6bddb1	-0.23033787
157	0x3ef5ad94	0.47983992
158	0xbf78e0a2	-0.9721776
159	0x3e474b90	0.19462419
160	0xbe187ad0	-0.14890599
161	0xbe4e58d7	-0.20151077
162	0xbb29d4e9	-0.0025914258
163	0xbe950ec6	-0.29112834
164	0x3e1c33c4	0.15254122
165	0xbf12cc27	-0.5734276
166	0xbe0022ba	-0.12513247
167	0x3e7df8e2	0.24801973
168	0xbdb13c21	-0.08654047
169	0xbdeefdac	-0.11669478
170	0xbdc7c8f8	-0.097551286
171	0x3e8a398e	0.26997036
172	0x3e9cf2d5	0.30654016
173	0x3c63addb	0.013896431
174	0xbd97bd43	-0.07409146
175	0x3d8f1dcc	0.06988105
176	0xbcdafb06	-0.026731025
177	0xbdcd042c	-0.10010561
178	0x3efe1e44	0.49632466
179	0xbc82f2fa	-0.015985
180	0xbd683e59	-0.056700084
181	0xbd2eb569	-0.042653475
182	0x3e777b23	0.24168067
183	0xbd6d9bd3	-0.058009934
184	0xbcc97543	-0.024592048
185	0x3d261c16	0.04055413
186	0xbe00b8bd	-0.12570472
187	0xbe77f5fe	-0.24214932
188	0xbf0cd6ab	-0.5501506
189	0x3e2a6283	0.16639142
190	0x3df3e328	0.11908561
191	0x3df3e596	0.119090244
192	0xbe1d2ba2	-0.15348676
193	0xbdc19e67	-0.09454041
194	0xbd46d251	-0.048540417
195	0xbe42e738	-0.19033515
196	0xbdbd0290	-0.092290044
197	0x3e167580	0.1469326
198	0xbf03e057	-0.5151419
199	0x3eb4ceb6	0.35313958
200	0xbceedd44	-0.029158242
201	0x3ec60ea7	0.38683054
202	0xbf20cd8b	-0.62813634
203	0xbde2dfbc	-0.1107783
204	0xbd118165	-0.03552379
205	0xba14e234	-0.0005679459
206	0x3e8bc719	0.27300337
207	0x3e3edd0a	0.18639007
208	0x3c279120	0.010227472
209	0xbe007c28	-0.12547362
210	0x3e924c35	0.28573766
211	0x3dde8623	0.10865428
212	0x3c81ca85	0.01584364
213	0x3c983eca	0.018584628
214	0x3db30dcd	0.08742867
215	0xbe32e741	-0.17471029
216	0xbe77faf5	-0.24216826
217	0x3e45b5b7	0.193076
218	0xbe09c456	-0.13453802
219	0xbee531ce	-0.4476456
220	0xbe9c1be9	-0.30490044
221	0x3e45ea30	0.19327617
222	0xbced7bc6	-0.028989684
223	0x3d0a9a27	0.033838417
224	0xbe5ad07a	-0.2136859
225	0x3de3ba35	0.111195005
226	0xbf30c62c	-0.69052386
227	0x3e81f5d9	0.2538288
228	0xbe000033	-0.12500076
229	0xbb14e188	-0.0022717435
230	0x3bac2c2d	0.0052542896
231	0x3e187ac8	0.14890587
232	0x3da45f5c	0.08026001
233	0x3ce068e8	0.027393773
234	0x3df146a1	0.117810495
235	0xbdd3ff36	-0.10351412
236	0x3ebdc71d	0.37065974
237	0xbdcc7ff8	-0.099853456
238	0xbe6267c7	-0.221099
239	0x3ec76172	0.38941532
240	0xbc8b39f0	-0.0169954
241	0x3e1c49d4	0.15262538
242	0xbcb1e3f2	-0.021715138
243	0x3df18a7b	0.11793991
244	0x3e999b2e	0.30001205
245	0x3d1bd323	0.038043153
246	0x3f3b262b	0.73105115
247	0xbe21a225	-0.1578451
248	0x3e784f23	0.24248938
249	0x3e5f57fe	0.2181091
250	0x3e9424ac	0.28934228
251	0x3eb9ea3c	0.3631152
252	0x3e18c982	0.14920619
253	0x3f1c79ca	0.61123335
254	0xbf222628	-0.6333947
255	0xbe3e1a75	-0.1856478

predictionFunction.startBlock.0.bias f4 [64]
0	0xbc162601	-0.009164334
1	0xbe6adf08	-0.22936642
2	0xbe9a9353	-0.30190524
3	0x3cc5f74a	0.024165768
4	0xbe7e61fc	-0.24842066
5	0xbbfc72a0	-0.007704094
6	0x3de6cb50	0.112692475
7	0xbdbcf5b3	-0.09226551
8	0x3e075e12	0.13219479
9	0x3d686a3e	0.056741945
10	0xbe829619	-0.2550514
11	0xbddd27d4	-0.10798612
12	0xbe3be75b	-0.18349974
13	0xbd681a94	-0.056665972
14	0xbe0787b9	-0.13235368
15	0xbe3e3909	-0.18576445
16	0xbe2e6c00	-0.17033386
17	0x3db01875	0.08598415
18	0xbe83d76c	-0.2575029
19	0xbe0935b5	-0.13399394
20	0xbea0bc16	-0.31393498
21	0xbe07251e	-0.13197753
22	0xbd2f818f	-0.042848166
23	0xbe336637	-0.1751946
24	0xbdb29f84	-0.087218314
25	0xbe371e41	-0.17882635
26	0x3d022c3f	0.031780478
27	0xbe0ad69d	-0.13558431
28	0xbde389d3	-0.11110272
29	0xbdd67dd8	-0.104732215
30	0xbe20c0c5	-0.15698536
31	0xbe5d8a03	-0.21634679
32	0x3d924b46	0.071432635
33	0xbe9ea154	-0.3098246
34	0xbe11e914	-0.14249068
35	0xbcdced84	-0.026968725
36	0xbd59305e	-0.053024642
37	0xbe841108	-0.25794244
38	0xbe10b8f0	-0.14133048
39	0xbe808388	-0.2510035
40	0xbde71feb	-0.11285385
41	0xbe65160b	-0.2237169
42	0xbeaf40ac	-0.34229028
43	0xbe08e683	-0.13369183
44	0xbd1d0015	-0.038330156
45	0xbe86620a	-0.26246673
46	0x3cb12fe3	0.02162928
47	0xbe8f2f54	-0.27965796
48	0xbe10ee94	-0.1415351
49	0x3df8d289	0.121495314
50	0xbdf73558	-0.120707214
51	0xbd555a77	-0.052088227
52	0xbe0512b2	-0.12995413
53	0xbe712b0c	-0.23551577
54	0xbe9262e2	-0.28591067
55	0x3dfc4e67	0.123196416
56	0xbbc52dc4	-0.0060174186
57	0x3dd5c972	0.10438813
58	0xbe07ff73	-0.1328104
59	0x3cbdc388	0.023164526
60	0x3d9c4f29	0.07632286
61	0x3e5268b6	0.20547757
62	0xbe548994	-0.20755607
63	0x3dc52c5e	0.09627603

predictionFunction.startBlock.2.weight f4 [64, 64]
0	0xbba51147	-0.00503746
1	0xbe04ada0	-0.12956858
2	0x3e9f91a0	0.3116579
3	0xbe67eee6	-0.22649726
4	0xbe7705e3	-0.2412334
5	0xbf1417a5	-0.5784858
6	0x3e868367	0.26272127
7	0x3ea33b64	0.3188125
8	0xbf098f58	-0.5373435
9	0xbd9096cf	-0.070600145
10	0xbe1c6bd0	-0.15275502
11	0xbce0b1f7	-0.02742861
12	0x3e9857f7	0.29754612
13	0x3f0d251f	0.5513477
14	0x3e04323c	0.12909788
15	0x3eac1637	0.336107
16	0x3dd0a98d	0.10188589
17	0xbde9c594	-0.11414638
18	0xbf15af47	-0.58470577
19	0xbeb183fd	-0.34671012
20	0xbdbd8e57	-0.09255665
21	0x3e142c05	0.14469917
22	0x3ed3528c	0.41273916
23	0x3e7aad8f	0.2448027
24	0xbf1b7afa	-0.6073452
25	0xbe073083	-0.132021
26	0x3f70a8b4	0.9400742
27	0xbe204ec2	-0.15655044
28	0xbe486561	-0.19569923
29	0x3e428591	0.18996264
30	0xbe8fe117	-0.28101417
31	0xbcd052a6	-0.025430035
32	0xbf0fd197	-0.56179184
33	0x3e7753b9	0.24153031
34	0x3d848363	0.064703725
35	0xbea317eb	-0.31854185
36	0xbd27f4b0	-0.041004837
37	0x3ea8fddc	0.3300618
38	0xbde41a9d	-0.111378886
39	0x3ad6f1db	0.0016398983
40	0x3b203663	0.002444648
41	0xbccf9ded	-0.02534386
42	0x3e25e219	0.1619953
43	0x3d5e7cc0	0.05431819
44	0xbe2ec278	-0.17066371
45	0xbe648af1	-0.22318627
46	0xbe9b4df2	-0.30332905
47	0xbe05b40e	-0.13056967
48	0xbe9cd023	-0.30627546
49	0xbee0e5f5	-0.43925443
50	0xbe644a40	-0.22293949
51	0xbebab62a	-0.36467105
52	0x3d253452	0.0403331
53	0xbe53dc60	-0.20689535
54	0x3ee03c4f	0.43796012
55	0xbe7f8528	-0.24953139
56	0xbeb57943	-0.35444078
57	0xbda883af	-0.08228242
58	0xbe0e2876	-0.13882622
59	0x3ebccdac	0.36875665
60	0xbc589b55	-0.013220628
61	0xbe373946	-0.17892942
62	0x3ba4e062	0.0050316313
63	0xbeb6f463	-0.35733327
64	0xbe79d962	-0.24399331
65	0xbead50af	-0.3385062
66	0x3ea7cda3	0.32774076
67	0xbe6a048c	-0.22853297
68	0x3eb88fee	0.3604731
69	0xbb983ec6	-0.004646155
70	0x3ec32dea	0.38120967
71	0x3ee4733b	0.44619164
72	0xbf1990d2	-0.59986603
73	0x3e318627	0.17336331
74	0x3de7ab9c	0.11312029
75	0xbe28d1b8	-0.16486251
76	0x3f01d54b	0.50716084
77	0x3ed1bcda	0.40964395
78	0x3ed64e85	0.4185678
79	0xbea6b6d7	-0.3256137
80	0x3e300e83	0.17193036
81	0xbe169562	-0.14705423
82	0xbf13004f	-0.57422346
83	0x3d03c972	0.032174535
84	0xbd859883	-0.0652323
85	0xbdcd427d	-0.10022447
86	0x3bf7b48c	0.0075593647
87	0x3e9d39bf	0.3070812
88	0xbe9cb1a8	-0.3060429
89	0xbe2d2add	-0.16910882
90	0x3f0e07f9	0.55480915
91	0xbe3ae025	-0.18249567
92	0xbecb71e6	-0.39735335
93	0x3c854144	0.016266473
94	0xbdd28638	-0.102795064
95	0xbe1c172f	-0.15243219
96	0xbedc9320	-0.43080997
97	0x3ee60636	0.44926614
98	0x3e8f7b4b	0.28023753
99	0xbe46694d	-0.19376107
100	0x3e93d0d9	0.28870276
101	0xbdda83a0	-0.10669637
102	0xbe57faca	-0.21091762
103	0x3e35ff6c	0.17773217
104	0x3e9663fc	0.29373157
105	0x3e10d190	0.14142442
106	0x3cc9a2d8	0.024613783
107	0x3e19d9be	0.15024468
108	0x3e6fcde6	0.23418388
109	0x3dbd3da9	0.09240276
110	0xbeb437f8	-0.3519895
111	0xbd56c012	-0.052429266
112	0xbe30beb7	-0.17260252
113	0xbe8ef67c	-0.27922428
114	0xbe4afe03	-0.1982346
115	0xbdcc08e0	-0.0996263
116	0x3e72e804	0.2372132
117	0x3da54255	0.080692925
118	0xbe3614d9	-0.1778139
119	0xbe862100	-0.26197052
120	0xbef0eb7c	-0.4705466
121	0x3ddbf15a	0.107393935
122	0x3d5ced47	0.053937223
123	0x3f2f3365	0.68437797
124	0x3f049c54	0.5180104
125	0xbdabe05c	-0.083924025
126	0xbdf0bc57	-0.11754673
127	0xbe5d3bdf	-0.2160487
128	0xbd170999	-0.036874387
129	0x3deb489d	0.11488459
130	0x3eb5caac	0.3550619
131	0x3bc4611d	0.005993022
132	0xbed6d8d0	-0.4196229
133	0xbedfd968	-0.43720555
134	0x3e56d860	0.20980978
135	0xbc9ff418	-0.019525573
136	0xbe424667	-0.18972169
137	0xbe81549e	-0.2525987
138	0x3d935103	0.07193186
139	0x3f30395e	0.68837535
140	0x3defa7c5	0.117019214
141	0x3dd1955d	0.10233567
142	0xbc6c4d07	-0.014422662
143	0xbe5f517e	-0.2180843
144	0x3e23e598	0.16005552
145	0x3d64b197	0.055833425
146	0xbc7bece1	-0.015376301
147	0xbb66a97e	-0.003519624
148	0x3c30a6e0	0.010781974
149	0xbed3d1ea	-0.4137109
150	0x3dc7458f	0.09730064
151	0x3ce98750	0.028506905
152	0x3d9eda4a	0.07756479
153	0xbe8faf04	-0.28063214
154	0xbccab7c0	-0.024745822
155	0xbe0a19f7	-0.13486467
156	0xbdfc4826	-0.12318449
157	0xbd98c1b1	-0.07458819
158	0x3ecd3d31	0.40085748
159	0x3e2264ae	0.15858719
160	0xbd757745	-0.059928197
161	0xbcb18ab7	-0.02167259
162	0x3e477bb3	0.19480781
163	0xbb4ba428	-0.0031073187
164	0x3e4f85ae	0.20265839
165	0xbe3572f9	-0.1771964
166	0xbe09a926	-0.13443431
167	0xb8507b80	-4.9706083e-05
168	0x3ea77cb8	0.3271234
169	0xbdcb7b8c	-0.09935674
170	0xbdbdd1ea	-0.092685536
171	0xbe4b760e	-0.19869253
172	0x3f07ee35	0.5309785
173	0xbf0e23cd	-0.5552338
174	0xbf36c4db	-0.7139413
175	0xbe918d02	-0.28427893
176	0xbe72e597	-0.23720394
177	0xbea13e7d	-0.31492987
178	0x3d3f50c7	0.046707895
179	0xbf05ddc6	-0.52291524
180	0xbc3e9b44	-0.011633698
181	0xbd1b04ca	-0.037846364
182	0x3ba48d6f	0.005021743
183	0xbe78cb5c	-0.24296325
184	0x3dd7a8d1	0.10530246
185	0xbdb06b42	-0.08614208
186	0x3e9a78db	0.3017033
187	0xbe228633	-0.15871505
188	0x3d6837a7	0.0566937
189	0xbe31e601	-0.17372896
190	0xbdfc669c	-0.12324259
191	0x3d289873	0.041161012
192	0xbe9d12c5	-0.30678383
193	0xbd75f79d	-0.060050596
194	0x3de96610	0.1139642
195	0x3e9cb9b5	0.30610433
196	0x3e2d33f3	0.16914348
197	0x3cbd25bb	0.02308928
198	0xbdb251b5	-0.08706991
199	0x3c38c73d	0.011277971
200	0xbea1e3b8	-0.31619048
201	0x3ebf952b	0.37418494
202	0xbedb8b00	-0.42879486
203	0xbd9ca314	-0.07648292
204	0x3e5d06d7	0.2158464
205	0xbdeb2b95	-0.11482922
206	0x3dca7e19	0.098873325
207	0x3e7c8d13	0.2466319
208	0x3de722d4	0.1128594
209	0x3d5446b7	0.05182525
210	0xbe2aafd9	-0.16668643
211	0xbda03d5c	-0.07824203
212	0xbcba1bfb	-0.02271842
213	0xbef9bc65	-0.48776546
214	0x3bf6593b	0.0075179613
215	0x3e1277f1	0.14303567
216	0xbd8f4ba9	-0.06996853
217	0x3d9a1f1c	0.07525465
218	0x3df351f5	0.118808664
219	0xbe56847a	-0.20948973
220	0x3e83c1cc	0.25733793
221	0xbd913ee5	-0.07092074
222	0xbe372c1d	-0.17887922
223	0xbe872f0e	-0.26403087
224	0x3e37fae3	0.179668
225	0x3da88c35	0.08229867
226	0x3e8c0f84	0.27355587
227	0xbecc5fe3	-0.39916906
228	0x3dd07f68	0.10180551
229	0xbdc04adf	-0.093892805
230	0xbf66583a	-0.89978373
231	0x3e0d7ba2	0.13816693
232	0x3ee4302c	0.44568002
233	0xbeb0b689	-0.34514263
234	0xbd348b84	-0.044078365
235	0x3ea2629b	0.31715855
236	0x3e55bfaf	0.20873903
237	0xbed0f5d0	-0.4081254
238	0xbd6c84bb	-0.05774377
239	0xbf0dac5e	-0.55341136
240	0x3ed3bbe3	0.41354284
241	0xc0463d19	-3.097479
242	0x3cbb651f	0.022875367
243	0xbe1c9d80	-0.15294456
244	0x3e4cb389	0.19990362
245	0x3e60fb29	0.2197081
246	0x3e3ddf9f	0.18542336
247	0xbdafda50	-0.08586562
248	0xbe3a2e41	-0.18181707
249	0x3e87be8f	0.26512572
250	0xbdd59b44	-0.10430005
251	0xbf0f215a	-0.55910265
252	0xbf135d5f	-0.5756435
253	0xbe089db5	-0.1334141
254	0x3e0d4bd2	0.13798454
255	0x3d9bd6bb	0.07609316

predictionFunction.startBlock.2.bias f4 [64]
0	0xbe04077c	-0.1289348
1	0xbe6eebe4	-0.23332173
2	0xbe0735fe	-0.1320419
3	0x3d7068fa	0.058693863
4	0xbec40708	-0.38286614
5	0xbe970dda	-0.29502755
6	0xbd43737c	-0.047717556
7	0xbeb5d994	-0.3551756
8	0xbe454828	-0.19265807
9	0xbcae4c09	-0.02127649
10	0xbe1eddb5	-0.15514262
11	0xbdea4481	-0.11438847
12	0x3db713eb	0.08939346
13	0x3e48651e	0.19569823
14	0x3ea2134f	0.31655356
15	0xbbaec95f	-0.005334064
16	0xbe2da4a7	-0.16957341
17	0xbe1f827f	-0.15577124
18	0xbef86563	-0.48514852
19	0x3c9b9c83	0.018995529
20	0xbdf37b80	-0.1188879
21	0xbe1fa5ea	-0.15590635
22	0xbdebb07f	-0.11508273
23	0x3e2e69fb	0.17032616
24	0xbe007e1f	-0.12548111
25	0xbe534565	-0.2063194
26	0xbda65983	-0.08122542
27	0xbe33010d	-0.1748087
28	0xbdf41998	-0.11918944
29	0x3da1581d	0.078781344
30	0xbe01a3d9	-0.12660159
31	0xbdac37bb	-0.08409067
32	0xbdfdc9cd	-0.12392006
33	0xbd99552f	-0.074869506
34	0xbd050971	-0.032479707
35	0xbae69598	-0.001759219
36	0xbdfea72b	-0.124342285
37	0xbdff7089	-0.12472636
38	0xbe1a09b3	-0.15042762
39	0x3c24f1d5	0.010067423
40	0xbea09b66	-0.3136856
41	0x3e150f7f	0.14556693
42	0x3e50fc10	0.20408654
43	0xbe4b79ea	-0.19870725
44	0x3dc4a35e	0.09601472
45	0xbde96166	-0.113955304
46	0x3dc3948d	0.09549818
47	0xbef471af	-0.47742984
48	0xbe1fdc47	-0.15611373
49	0xbe7cebbb	-0.24699299
50	0xbd8022a9	-0.06256611
51	0xbe3495d6	-0.17635283
52	0x3d054b22	0.032542355
53	0xbe28c5a7	-0.16481648
54	0xbea91983	-0.33027276
55	0x3edf60bb	0.43628487
56	0x3d35382a	0.044243015
57	0xbe7ecc69	-0.24882664
58	0x3e28859e	0.16457221
59	0x3e121353	0.14265184
60	0x3e210787	0.15725528
61	0x3ad41c10	0.001618268
62	0xbe1783af	-0.14796327
63	0xbd74f09a	-0.059799768

predictionFunction.policy_head.0.weight f4 [2, 64]
0	0x3d687416	0.056751333
1	0x3c0fc566	0.008775091
2	0x3e9dc7d3	0.30816516
3	0x3e8d265e	0.27568334
4	0xbe358710	-0.17727304
5	0xbb380463	-0.0028078787
6	0x3e2d1dab	0.16905849
7	0x3efcee15	0.49400392
8	0xbe8413c6	-0.25796336
9	0x3cf34573	0.029696202
10	0x3d59e223	0.053194176
11	0x3e318d32	0.17339018
12	0xbdc2418b	-0.094851576
13	0xbdf771f6	-0.12082283
14	0x3c9a93c0	0.01886928
15	0xbd3d74a4	-0.046253815
16	0x3e0ccad9	0.13749255
17	0x3e2f0027	0.17089902
18	0xbec1d664	-0.3785888
19	0xbd984538	-0.074350774
20	0x3e4fd07e	0.20294377
21	0x3eb9c024	0.36279404
22	0x3c96eaae	0.01842245
23	0x3df3d6d9	0.11906213
24	0x3dbce387	0.09223085
25	0xbe95ab14	-0.29232085
26	0x3da3dbb0	0.080008864
27	0xbeef0d2a	-0.4668973
28	0x3d6a5450	0.057209313
29	0xbeb83091	-0.35974553
30	0x3b71f672	0.0036920574
31	0x3dbd39f6	0.09239571
32	0x3e07f583	0.13277249
33	0x3b1a87c4	0.0023579458
34	0xbe477dcd	-0.19481583
35	0xbd86318f	-0.06552421
36	0xbe3c7764	-0.18404919
37	0x3ed35f69	0.4128373
38	0xbe881c58	-0.26584125
39	0x3d23b91b	0.039971452
40	0x3f13a55b	0.5767419
41	0x3e87af73	0.26501045
42	0x3e2a284f	0.16616939
43	0xbf1dc9aa	-0.6163584
44	0xbe11c26e	-0.14234325
45	0xbd271773	-0.040793847
46	0xbe4dc9be	-0.2009649
47	0x3ea60c9b	0.32431492
48	0x3ee56aae	0.44807953
49	0x3ec97fb9	0.39355257
50	0xbdeb470b	-0.1148816
51	0x3c0f07cf	0.008729889
52	0xbeb46f38	-0.35241103
53	0x3c4319af	0.011907979
54	0x3eaa8a9b	0.33308873
55	0xbd5373ad	-0.05162399
56	0x3cb33b37	0.021878822
57	0xbe73edd0	-0.23821187
58	0x3d25213c	0.040314898
59	0xbe02b36a	-0.12763754
60	0x3dc4c516	0.09607904
61	0x3c9b56b9	0.018962251
62	0x3e50685c	0.2035231
63	0x3da91dfb	0.082576714
64	0xbce97ce4	-0.028501935
65	0xbe4a0f30	-0.19732356
66	0xbe9c14fa	-0.30484754
67	0xbe9a022b	-0.3007978
68	0xbd003c7b	-0.03130768
69	0x3e117a70	0.14206862
70	0x3c9b2f95	0.018943587
71	0xbec1a9cb	-0.37824854
72	0x3e967c73	0.29391822
73	0xbcfb28f9	-0.030659186
74	0x3caa98f7	0.020824892
75	0xbe25aacf	-0.1617844
76	0x3e63b7b1	0.22238041
77	0x3e1f76e6	0.155727
78	0x3c2c6627	0.010522402
79	0x3e168003	0.1469727
80	0xbdbc3749	-0.09190232
81	0xbeb0ce46	-0.34532374
82	0x3ebcd536	0.36881417
83	0xbcf46dc1	-0.029837491
84	0xbdbc0f6e	-0.091826305
85	0xbe7ddbe8	-0.24790919
86	0xbcb4e378	-0.022081122
87	0xbde594a0	-0.112099886
88	0x3da6ad83	0.081385635
89	0x3e945d74	0.2897755
90	0x3d6bc838	0.05756399
91	0x3eed0273	0.4629093
92	0x3bb6a395	0.0055736997
93	0x3ed36c1a	0.41293412
94	0x3dc266c1	0.09492255
95	0xbbe133c2	-0.006872625
96	0xbe5afc48	-0.213853
97	0xbdf2f406	-0.1186295
98	0x3e564224	0.20923668
99	0x3c904f5a	0.017615963
100	0x3df2cc8f	0.11855423
101	0xbec27d0c	-0.37986028
102	0x3ec009e3	0.37507543
103	0x3dc63e4c	0.09679851
104	0xbf13a523	-0.57673854
105	0xbe3a22c6	-0.18177328
106	0xbdaa4a75	-0.08314983
107	0x3f09ee9d	0.5387972
108	0xbca4ebb2	-0.02013192
109	0xbcd964ec	-0.026537381
110	0x3dc94fba	0.0982966
111	0xbeb684ba	-0.35648137
112	0xbf04779d	-0.51745015
113	0xbeb63d0f	-0.3559346
114	0x3dbca581	0.09211255
115	0x3d1fae85	0.038984794
116	0x3e76b27b	0.24091522
117	0x3e3b71aa	0.18305078
118	0xbe8807c5	-0.26568428
119	0x3cd6d23f	0.0262233
120	0x3d902a39	0.07039303
121	0x3db02f07	0.0860272
122	0xbe422d49	-0.18962587
123	0xbd204bb7	-0.039134707
124	0x3cedd94c	0.02903428
125	0x3e4e6085	0.20154007
126	0xbe67dff4	-0.22644025
127	0x3d0e17ce	0.03469067

predictionFunction.policy_head.0.bias f4 [2]
0	0xbd0dcb68	-0.03461781
1	0x3ca7aa4c	0.020466946

predictionFunction.value_head.0.weight f4 [64, 64]
0	0xbd99b8ac	-0.075059265
1	0xbcacba33	-0.02108488
2	0xbc0a0ea3	-0.008426341
3	0x3d6ae6f5	0.057349164
4	0x3d070f09	0.032973323
5	0xbd5fe399	-0.054660413
6	0x3d6156df	0.055014487
7	0xbd9c3411	-0.076271184
8	0xbd69f8a7	-0.0571219
9	0xbe0fb8c3	-0.14035325
10	0x3d13f227	0.036119606
11	0xbd0a38e6	-0.03374567
12	0xbdd4d76c	-0.10392651
13	0xbdeb9ea4	-0.11504868
14	0xbd90a86b	-0.07063373
15	0xbdcc315f	-0.09970354
16	0xbd50a584	-0.050939098
17	0xbdd899fd	-0.10576246
18	0xbdb9516a	-0.090487316
19	0x3d0ad88f	0.033897933
20	0xbda22d73	-0.07918825
21	0x3d506700	0.05087948
22	0x3c0b7bd0	0.008513406
23	0xbd9cf388	-0.076636374
24	0x3cad5f0b	0.021163484
25	0x3d9c0a40	0.076191425
26	0xbc73b41e	-0.014874486
27	0x3c5e0390	0.013550654
28	0x3dcfcd20	0.10146546
29	0xbd3c6742	-0.04599691
30	0x3ce11420	0.027475417
31	0x3d52190a	0.05129341
32	0xbe12bc3e	-0.14329621
33	0x3d97297e	0.07380961
34	0xbdca84c3	-0.098886035
35	0xbbd260a0	-0.00642021
36	0xbdba7a4a	-0.09105356
37	0x3cce15cc	0.025156878
38	0xbdcde6ac	-0.10053763
39	0xbd99fdcb	-0.0751911
40	0x3cb0ed80	0.021597624
41	0xbdbe9f97	-0.09307783
42	0xbcef803d	-0.029235953
43	0x3d98830b	0.074468695
44	0xbe22397e	-0.15842244
45	0xbda65716	-0.08122079
46	0xbdf01ffe	-0.11724852
47	0x3dab230b	0.08356293
48	0x3b9a15a7	0.004702288
49	0xbdd6ca12	-0.104877606
50	0xbe0f6a29	-0.1400534
51	0x3d844d38	0.06460041
52	0x3d55b4ab	0.05217425
53	0xbddc889c	-0.10768244
54	0xbbca58f5	-0.0061751553
55	0xbd7a24c8	-0.061070234
56	0x3c82c1ff	0.015961645
57	0xbdf0c108	-0.11755568
58	0x3d0488a4	0.032356873
59	0x3da44e1f	0.08022713
60	0x3bb40432	0.005493664
61	0xbd99c113	-0.07507529
62	0xbc5e042c	-0.013550799
63	0x3d5ceb04	0.053935066
64	0xbe2074c1	-0.15669538
65	0xbdfbc8f0	-0.12294185
66	0xbdd4ff40	-0.104002476
67	0x3c51d39c	0.012806799
68	0xbe141742	-0.14461997
69	0xbda5ca0d	-0.08095179
70	0xbd648685	-0.05579235
71	0xbecbd1d3	-0.3980852
72	0x3d50823d	0.050905455
73	0x3d1dc9af	0.03852242
74	0xbe02b353	-0.1276372
75	0xbd94bde8	-0.07262784
76	0xbe021fcf	-0.12707447
77	0xbe27f2f9	-0.1640128
78	0xbe3fd790	-0.18734574
79	0xbd633f8d	-0.05548053
80	0xbe92f9d8	-0.2870624
81	0xbec9b810	-0.3939824
82	0xbdad8d52	-0.0847422
83	0xbd0b088c	-0.033943698
84	0xbb0d537e	-0.0021564658
85	0x3d2fd67c	0.042929158
86	0xbd2e59e8	-0.04256621
87	0xbe03e2e9	-0.12879528
88	0x3ed834ed	0.4222788
89	0x3e7a7ff7	0.24462877
90	0x3d88c4c9	0.06678159
91	0xbcad95d0	-0.0211896
92	0x3de4f05c	0.111786574
93	0xbe290900	-0.1650734
94	0xbe25552f	-0.16145776
95	0xbdd02348	-0.10162979
96	0xbef2ceba	-0.47423345
97	0xbe945aac	-0.28975427
98	0xbdd1c7e3	-0.102432035
99	0x3cf43970	0.029812545
100	0x3d5c2240	0.0537436
101	0x3b88be64	0.004173087
102	0xbc65ba35	-0.014021446
103	0x3e545307	0.20734797
104	0xbe5caf15	-0.21551163
105	0xbd753231	-0.05986232
106	0xbdfcf5b7	-0.12351554
107	0xbebc30ad	-0.36755887
108	0xbec18a51	-0.3780084
109	0x3deb4c5a	0.11489172
110	0xbe6fa193	-0.2340148
111	0xbe18c875	-0.14920218
112	0x3e636f6a	0.2221047
113	0xbd52d89a	-0.0514761
114	0xbdfcc7da	-0.12342806
115	0x3d0e4dc7	0.034742143
116	0xbdc63875	-0.09678737
117	0xbeb099c6	-0.3449232
118	0xbdc3972e	-0.095503196
119	0x3e394c52	0.1809552
120	0xbd74b3c3	-0.059741747
121	0xbbe231cc	-0.006902909
122	0x3e0b68e9	0.13614239
123	0x3d602340	0.054721117
124	0xbde3d6dd	-0.11124966
125	0x3dff25f4	0.12458411
126	0xbe814d51	-0.252543
127	0xbd975f30	-0.073912024
128	0x3e4c06b4	0.19924432
129	0x3e3e7a54	0.18601352
130	0x3df914f8	0.121622026
131	0xbd24f4b2	-0.040272422
132	0x3db2bea1	0.08727766
133	0xbdb36da1	-0.087611444
134	0x3d9808ba	0.074235395
135	0xbe29e66e	-0.16591808
136	0xbe6bae84	-0.23015791
137	0x3e3e7e32	0.18602827
138	0xbe0a2761	-0.13491584
139	0x3dbe4e2f	0.09292256
140	0xbecd2f68	-0.4007523
141	0x3e05070c	0.1299097
142	0xbe7835fc	-0.24239343
143	0x3e2599c0	0.16171932
144	0xbe8e9c2f	-0.27853534
145	0xbf1d8929	-0.61537415
146	0x3d68244a	0.056675233
147	0x3eb1022f	0.34571978
148	0xbf1814ee	-0.59406936
149	0x3eaeae8c	0.34117544
150	0xbdb8e4cb	-0.09028014
151	0xbe90fcda	-0.2831791
152	0x3e90ce36	0.28282326
153	0xbe645583	-0.22298245
154	0x3c2ca2b0	0.010536835
155	0x3de96445	0.11396078
156	0x3e11b5ad	0.1422946
157	0xbf0cff10	-0.55076694
158	0xbd477fad	-0.048705745
159	0x3c8b78fa	0.01702546
160	0xbe8b8ab0	-0.27254248
161	0xbdc7ca38	-0.09755367
162	0xbd15f42b	-0.03660981
163	0xbde45d4c	-0.111506075
164	0x3ebdbdba	0.37058812
165	0x3e8522e0	0.2600317
166	0xbf1f7e71	-0.6230231
167	0x3e308325	0.17237528
168	0x3e7fed71	0.2499292
169	0xbe135ba9	-0.14390434
170	0x3cdf6d17	0.027273698
171	0xbda86763	-0.082228445
172	0xbec6718d	-0.38758507
173	0xbdec85e8	-0.11548978
174	0xbe23d01b	-0.15997355
175	0xbeea5935	-0.45771185
176	0xbf12b0ef	-0.5730123
177	0x3f077a29	0.52920777
178	0x3d99b4c9	0.07505185
179	0x3dea8d42	0.11452724
180	0x3e5d20a5	0.21594484
181	0xbf464b69	-0.77458817
182	0xbddb3ae9	-0.107045956
183	0x3ca3417a	0.019928683
184	0x3e887278	0.26649833
185	0xbe4b7073	-0.19867115
186	0xbe0dffd2	-0.13867119
187	0x3e46b31c	0.19404262
188	0x3e7b13bb	0.24519245
189	0xbb86a7b7	-0.0041093486
190	0xbd3cd6da	-0.046103336
191	0x3d9a81da	0.075442985
192	0xbccd66b8	-0.025073394
193	0x3e81117b	0.2520865
194	0xbdff1635	-0.124554075
195	0xbdc5f807	-0.09666448
196	0x3e1647c3	0.14675812
197	0xbc4f6bac	-0.012659948
198	0xbdf30ea6	-0.11868028
199	0x3d1b71ea	0.037950434
200	0xbf210fff	-0.62915033
201	0x3daeed48	0.085413516
202	0xbed0bda9	-0.407697
203	0xbe38ae59	-0.18035258
204	0xbf411451	-0.75421625
205	0x3d2061f0	0.0391559
206	0xbdea8b35	-0.11452333
207	0xbe0957ff	-0.13412474
208	0x3f2f8cdb	0.68574303
209	0x3e28a897	0.16470562
210	0xbf00ddaa	-0.5033823
211	0xbef9b469	-0.48770455
212	0x3cc07315	0.023492375
213	0x3c37ee8f	0.01122631
214	0xbdda2dd5	-0.10653273
215	0xbdedd505	-0.11612896
216	0xbdb182a9	-0.086674996
217	0x3cca362c	0.024684034
218	0xbca3d2bd	-0.019997949
219	0xbe93b4a2	-0.2884875
220	0xbdc2114e	-0.09475957
221	0x3e120e1e	0.14263198
222	0x3dd17fce	0.10229455
223	0x3ccefb03	0.025266176
224	0x3dbec56e	0.093150005
225	0xbf34861f	-0.7051715
226	0x3e15036d	0.14552088
227	0xbd11cbc2	-0.03559471
228	0x3efa652e	0.4890532
229	0xbcd8b1e9	-0.026452022
230	0xbdcf310a	-0.10116775
231	0xbd200a2d	-0.039072204
232	0x3f163f34	0.5869019
233	0x3dc3366b	0.09531864
234	0x3e08d675	0.13363059
235	0xbe6398b5	-0.22226222
236	0x3e9c0b66	0.30477446
237	0x3d99581e	0.0748751
238	0xbf344da9	-0.70431
239	0x3e2e85ea	0.17043272
240	0x3e6802d7	0.22657333
241	0xbe7d44d0	-0.24733281
242	0xbdb70afa	-0.089376405
243	0x3e9b24f4	0.3030163
244	0xbe9cb81b	-0.3060921
245	0xbee99218	-0.45619273
246	0x3e7f6635	0.24941333
247	0xbed4abae	-0.4153723
248	0x3e1265f1	0.142967
249	0x3e575d07	0.21031581
250	0xbf0a3415	-0.5398572
251	0x3d56054d	0.05225115
252	0xbe414f9e	-0.18878028
253	0xbe212347	-0.15736113
254	0x3e08b970	0.13351989
255	0xbda4a39d	-0.08039019

predictionFunction.value_head.0.bias f4 [64]
0	0xbe14adf7	-0.14519487
1	0xbe2eddf5	-0.17076857
2	0xbca8375b	-0.020534208
3	0xbdce0f4e	-0.10061513
4	0xbe172f91	-0.14764239
5	0xbce3985f	-0.027782617
6	0x3d6e094b	0.05811433
7	0xbea9d95c	-0.33173645
8	0x3dadb78b	0.08482274
9	0xbe0d8161	-0.13818885
10	0xbd9ff0aa	-0.07809575
11	0xbea3ebae	-0.32015747
12	0xbc253ab4	-0.010084797
13	0xbe824a17	-0.2544715
14	0xbdad7534	-0.0846962
15	0xbeb272a4	-0.3485309
16	0xbdeb64df	-0.11493849
17	0xbd8e9964	-0.06962851
18	0xbdb2c4df	-0.087289564
19	0x3ec56932	0.3855682
20	0xbd891a0a	-0.0669442
21	0xbd30e33d	-0.04318546
22	0x3e94a297	0.29030296
23	0xbe50cef9	-0.20391454
24	0xbe969466	-0.29410094
25	0xbe33bac9	-0.17551722
26	0xbe0607d8	-0.1308893
27	0xbdc3f181	-0.095675476
28	0xbd0a390f	-0.03374582
29	0xbe599c01	-0.21250917
30	0xbdd0bef7	-0.10192674
31	0xbd77ca66	-0.060495757
32	0xbe4f4262	-0.20240167
33	0x3cecc303	0.028901583
34	0x3ece974a	0.403498
35	0xbe9b75f5	-0.30363432
36	0xbe8332ca	-0.25624686
37	0xbd876b15	-0.06612221
38	0x3dadc54f	0.08484899
39	0xbe25e6ef	-0.16201375
40	0xbe7196ba	-0.23592654
41	0xbdf81f17	-0.12115305
42	0xbe1f4ee6	-0.15557441
43	0xbe278f8a	-0.1636335
44	0x3db0df1c	0.08636305
45	0x3da3d3d4	0.079993874
46	0xbe587138	-0.2113694
47	0xbe0dc645	-0.13845165
48	0xbe4d152d	-0.20027609
49	0xbd6076e4	-0.054800883
50	0xbdf8bc63	-0.12145307
51	0x3ca6f31c	0.020379595
52	0xbe2bf699	-0.16793288
53	0x3d07e577	0.03317782
54	0xbe4e8bca	-0.20170513
55	0x3edd9191	0.4327512
56	0x3e4c4acb	0.19950406
57	0x3e555397	0.20832668
58	0xbe0f2b22	-0.13981298
59	0xbec18607	-0.37797567
60	0x3ed08ca5	0.40732303
61	0x3dcc7bb3	0.09984531
62	0x3e800c60	0.2500944
63	0xbea5fcea	-0.3241952

predictionFunction.value_head.2.weight f4 [41, 64]
0	0xbd9b7247	-0.07590156
1	0xbf2d4825	-0.6768821
2	0xbe954b2c	-0.29158914
3	0xbf2bf158	-0.67165136
4	0xbf92450a	-1.1427319
5	0xbf41d85a	-0.7572075
6	0xbfd55013	-1.6665062
7	0xbf459c5e	-0.7719172
8	0xbfe93ef4	-1.8222337
9	0xbed08247	-0.40724394
10	0x3d0eaf80	0.03483534
11	0xbe15c07d	-0.1462421
12	0xbf65bd6b	-0.89742154
13	0xbf00c8ba	-0.50306284
14	0xbfb9aee5	-1.4506499
15	0xbfedb39c	-1.8570437
16	0xbeb13e72	-0.34617954
17	0xbe64e8d2	-0.22354439
18	0xbf992a57	-1.1966046
19	0xc0130dd2	-2.2977185
20	0xbdeaf7cf	-0.11473047
21	0xbf0e211b	-0.55519265
22	0xbfe29e7c	-1.7704616
23	0xbf6f3c80	-0.9345169
24	0xbf229923	-0.6351492
25	0x3d9c4a94	0.07631412
26	0x3b21b411	0.0024673978
27	0xbd3d5550	-0.04622394
28	0xbe3856e5	-0.18001898
29	0xbf59bdc4	-0.85055184
30	0xbfc187ed	-1.5119606
31	0xbfe37e8a	-1.7772992
32	0xbee6986a	-0.45038158
33	0xbf8d9fd9	-1.1064407
34	0xc01a681d	-2.4126046
35	0xbf1c025f	-0.6094112
36	0xbf1db5a3	-0.6160528
37	0xbea21a93	-0.316609
38	0xbfffde48	-1.998971
39	0xbe8d54e4	-0.2760383
40	0xbe951808	-0.29119897
41	0xbf574a1f	-0.84097475
42	0xbdbf2b53	-0.09334435
43	0xbf11c091	-0.5693446
44	0xbffa0386	-1.9532325
45	0xbfbacccd	-1.459375
46	0xbe47e203	-0.1951981
47	0x3da7329f	0.08163952
48	0x3c35b46b	0.011090378
49	0xbfbc0747	-1.4689721
50	0xbfe120b0	-1.75881
51	0xbf9653e9	-1.1744357
52	0xbd0467bf	-0.032325502
53	0xbf6c7c59	-0.9237724
54	0xbeda7ae7	-0.42671892
55	0xc00ca03a	-2.1972795
56	0xbff1a442	-1.8878253
57	0xbf6cbcef	-0.9247579
58	0xbde922ca	-0.113835886
59	0xbfb746da	-1.4318497
60	0xc0047995	-2.0699208
61	0xbec706a1	-0.38872245
62	0xbfdc732e	-1.722265
63	0xbef39ef0	-0.47582197
64	0xbcb12570	-0.021624297
65	0xbf3ea6ef	-0.7447347
66	0xbe025ef4	-0.12731534
67	0xbf272de6	-0.6530441
68	0xbf9002e6	-1.1250885
69	0xbf4fd092	-0.8117763
70	0xbfc76143	-1.5576557
71	0xbf2b435c	-0.6689966
72	0xbfe6eb64	-1.8040586
73	0xbefb8464	-0.49124444
74	0xbd87333d	-0.0660157
75	0xbea15493	-0.31509838
76	0xbf89e635	-1.0773379
77	0xbf0ac64c	-0.54208827
78	0xbfb3a1eb	-1.4033788
79	0xbff260b6	-1.8935764
80	0xbe451a1f	-0.19248246
81	0xbe3a845e	-0.18214557
82	0xbfad1085	-1.3520666
83	0xc00f1297	-2.2355096
84	0xbd8ac1aa	-0.0677522
85	0xbf026f3a	-0.5095097
86	0xbff07449	-1.8785487
87	0xbf71d7d7	-0.9446997
88	0xbf04c6f0	-0.51866055
89	0x3d4245e7	0.047429945
90	0xbc0e8951	-0.008699731
91	0x3c7d0beb	0.015444736
92	0xbd977f23	-0.07397296
93	0xbf2a3b86	-0.66497076
94	0xbfbf4a0a	-1.494447
95	0xbfd9d8ff	-1.7019347
96	0xbe8677ea	-0.26263362
97	0xbf91d4eb	-1.1393102
98	0xc01a7c4b	-2.4138362
99	0xbf150dde	-0.58224285
100	0xbf3b2ef8	-0.73118544
101	0xbedb8bd5	-0.4288012
102	0xbff7d5ae	-1.9362085
103	0xbe14d69c	-0.14534992
104	0xbe2f77d0	-0.17135549
105	0xbf2bd8fc	-0.67127967
106	0xbd162e2d	-0.03666513
107	0xbf2156be	-0.63022983
108	0xbff6e0e8	-1.9287386
109	0xbfc539b0	-1.540823
110	0xbf01094b	-0.50404805
111	0xbd9739e7	-0.07384091
112	0x3cc08771	0.023502083
113	0xbfcd4bcc	-1.6038756
114	0xbfddb6a6	-1.7321365
115	0xbf8b6978	-1.0891562
116	0x3cb7522e	0.022378054
117	0xbf34dcee	-0.7064961
118	0xbf149988	-0.5804677
119	0xc00c90f9	-2.1963484
120	0xbff1bf5e	-1.8886526
121	0xbf6d9443	-0.92804354
122	0xbe36aa77	-0.17838465
123	0xbfb0b1fb	-1.3804315
124	0xc006b64b	-2.1048763
125	0xbebf92ce	-0.3741669
126	0xbfe454a6	-1.7838333
127	0xbec54d79	-0.3853567
128	0xbd7a1130	-0.061051548
129	0xbf467ad4	-0.7753117
130	0xbe43b4cf	-0.19111942
131	0xbf2d38f4	-0.6766503
132	0xbfa04005	-1.2519537
133	0xbf447362	-0.7673856
134	0xbfd16e56	-1.6361797
135	0xbf1e7d9b	-0.6191041
136	0xbfe25975	-1.768355
137	0xbef2a92a	-0.47394687
138	0x3d69cc96	0.057079874
139	0xbe6c9342	-0.2310305
140	0xbf78e2a6	-0.9722084
141	0xbef07ffe	-0.4697265
142	0xbfc0394f	-1.5017489
143	0xbff52799	-1.9152709
144	0xbeb07a3b	-0.34468254
145	0xbd90847c	-0.070565194
146	0xbfa1eea4	-1.2650952
147	0xc008bef5	-2.136655
148	0x3cb6e26e	0.022324767
149	0xbecd085b	-0.40045437
150	0xbff404a3	-1.9063915
151	0xbf7ab8dd	-0.9793833
152	0xbf122cdd	-0.57099706
153	0x3dc12e00	0.09432602
154	0x3c8154a3	0.015787428
155	0xbdb06bc8	-0.08614308
156	0xbe2eb88c	-0.17062587
157	0xbf534d80	-0.8254013
158	0xbfc8a2d6	-1.5674694
159	0xbfd3ea5a	-1.6555893
160	0xbe829960	-0.2550764
161	0xbf9d4163	-1.228558
162	0xc0187e26	-2.3826995
163	0xbee9b449	-0.4564536
164	0xbf2ab75e	-0.66686046
165	0xbeca1e4b	-0.39476237
166	0xbfff4d32	-1.9945433
167	0xbdfbdea1	-0.122983225
168	0xbe446b13	-0.1918147
169	0xbf4099ba	-0.7523457
170	0xbd8c86e6	-0.06861667
171	0xbf40c540	-0.7530098
172	0xbff3213d	-1.8994519
173	0xbfc91440	-1.5709305
174	0xbe854ca9	-0.2603505
175	0x3db53cb1	0.088494666
176	0xbd84a815	-0.064773716
177	0xbfbdfda9	-1.4843036
178	0xbff4da21	-1.9129068
179	0xbf9118c3	-1.1335682
180	0x3de3855b	0.1110942
181	0xbf3eeab8	-0.745769
182	0xbf00ed71	-0.50362307
183	0xc00b3f90	-2.1757545
184	0xbfeb8837	-1.8400944
185	0xbf669d33	-0.90083617
186	0xbe65b934	-0.2243393
187	0xbfb5e705	-1.4211127
188	0xc008ca20	-2.1373367
189	0xbf018aa4	-0.50602174
190	0xbfe266bb	-1.7687601
191	0xbf0546c5	-0.5206111
192	0xbd94d53b	-0.07267233
193	0xbf1e646f	-0.61872
194	0xbea6e9d9	-0.32600287
195	0xbf2c9f07	-0.67430156
196	0xbf913a31	-1.1345884
197	0xbf5460e5	-0.8296035
198	0xbfc32b40	-1.5247574
199	0xbf25aca8	-0.6471658
200	0xbfdee785	-1.7414404
201	0xbef1f5a9	-0.47257736
202	0xbc15d2e3	-0.009144518
203	0xbe0a3b02	-0.13499072
204	0xbf7bd49b	-0.98371285
205	0xbef5584a	-0.47918922
206	0xbfb54412	-1.4161398
207	0xc007c100	-2.1211548
208	0xbe5940cc	-0.21216124
209	0xbe055cf6	-0.13023743
210	0xbfb02588	-1.3761454
211	0xc00bc11e	-2.183662
212	0xbdb740b7	-0.0894789
213	0xbeefd9f1	-0.46845964
214	0xbff24e11	-1.8930074
215	0xbf5bf690	-0.859231
216	0xbee433a9	-0.44570664
217	0xbd2087cd	-0.03919201
218	0x3d0d921f	0.03456318
219	0x3b6055d9	0.0034230857
220	0xbe2edca1	-0.17076351
221	0xbf426c32	-0.7594634
222	0xbfb098f1	-1.3796674
223	0xbfe7dfb8	-1.8115149
224	0xbe9262a0	-0.2859087
225	0xbf86e3ae	-1.0538232
226	0xc01aa132	-2.4160886
227	0xbf0cae91	-0.5495387
228	0xbf31584a	-0.69275343
229	0xbe5f6ec0	-0.21819592
230	0xc00381a9	-2.0547888
231	0xbe12282b	-0.14273135
232	0xbeaed3f6	-0.34146088
233	0xbf55618f	-0.8335199
234	0x3dc10241	0.09424258
235	0xbf25c1da	-0.6474892
236	0xbffcbdce	-1.9745424
237	0xbfbabe0f	-1.4589251
238	0xbefa9eb7	-0.48949215
239	0x3dd8a807	0.10578924
240	0xbd866428	-0.06562072
241	0xbfcc564f	-1.5963839
242	0xbfe37fd7	-1.7773389
243	0xbf96da04	-1.1785283
244	0xb9eb8f00	-0.00044929236
245	0xbf63dcec	-0.89008975
246	0xbee2e9f1	-0.44319108
247	0xc00ab695	-2.167394
248	0xbff71f7e	-1.9306486
249	0xbf6d3516	-0.9265913
250	0xbe7db943	-0.24777703
251	0xbfa90b4c	-1.3206573
252	0xc0092adb	-2.1432407
253	0xbf0ae888	-0.54261065
254	0xbfdc36f4	-1.720427
255	0xbec83730	-0.39104605

predictionFunction.value_head.2.bias f4 [41]
0	0xc01666b1	-2.3500178
1	0xc017fd68	-2.3748417
2	0xc0116c56	-2.2722373
3	0xc0145e89	-2.31827
4	0xc016e2e3	-2.357598
5	0xc0182cb5	-2.3777287
6	0xc011a06f	-2.275417
7	0xc0105dab	-2.255717
8	0xc0178195	-2.367284
9	0xc00e6a14	-2.2252245
10	0xc0100272	-2.2501493
11	0xc011db29	-2.2790015
12	0xc0133554	-2.30013
13	0xc01b95dd	-2.431022
14	0xc019edb6	-2.4051337
15	0xc018b0bb	-2.3857868
16	0xc00dd1cd	-2.2159302
17	0xc015b409	-2.3391135
18	0xc01c14f0	-2.438778
19	0xc01bab7b	-2.4323413
20	0xbf6b29b9	-0.9186054
21	0xbf316b11	-0.69303995
22	0xbee358c5	-0.44403663
23	0xbf7ee0ed	-0.9956196
24	0xbe5aa950	-0.2135365
25	0xbe9516ee	-0.29119056
26	0xbec5d751	-0.38640836
27	0xbf00ba46	-0.5028423
28	0xbea8fe8c	-0.33006704
29	0xbe94f6e4	-0.29094613
30	0xbad613d2	-0.0016332811
31	0x3d11bf20	0.03558266
32	0xbead4b64	-0.3384658
33	0xc0147922	-2.3198934
34	0xc01b513a	-2.4268327
35	0xc016b392	-2.35471
36	0xc0178c6b	-2.3679454
37	0xc019ec53	-2.405049
38	0xc0163225	-2.3468106
39	0xc01a6bfc	-2.4128408
40	0xc017f918	-2.3745785

dynamicsFunction.startBlock.0.weight f4 [64, 34]
0	0x3e6da2e3	0.23206668
1	0x3eb66bce	0.35629123
2	0xbd7f7757	-0.06236967
3	0x3ddaf3ca	0.1069103
4	0x3e3bceb6	0.18340573
5	0x3e428cc8	0.18999016
6	0x3bbba7e0	0.0057267994
7	0xbdc83f0a	-0.09777649
8	0xbd62fee0	-0.05541885
9	0xbe58102b	-0.21099918
10	0x3e9b364e	0.3031487
11	0x3dd7acd9	0.10531015
12	0x3d5fbd75	0.05462404
13	0x3e111b30	0.14170527
14	0xbd234243	-0.039858114
15	0x3eb6dda4	0.35715973
16	0x3e51a3b9	0.20472611
17	0x3dbdccc5	0.09267572
18	0x3c9e52c5	0.019326577
19	0x3e856828	0.26056027
20	0x3e520099	0.2050804
21	0x3ea1a967	0.31574556
22	0xbe140643	-0.14455514
23	0x3dbcc86d	0.09217916
24	0x3e81afa7	0.25329325
25	0x3dbc45f7	0.09193032
26	0x3e944bf5	0.289642
27	0x3c93f61a	0.018061686
28	0x3e3b50de	0.18292567
29	0xbc765509	-0.015034922
30	0xbe179e98	-0.14806592
31	0x3e641286	0.22272691
32	0x3eae71c8	0.34071183
33	0xbed2f5be	-0.4120311
34	0xbebdaff9	-0.3704832
35	0x3e0d6cc3	0.1381102
36	0xbe397f57	-0.18114983
37	0xbd16bfd0	-0.03680402
38	0xbdd180c0	-0.10229635
39	0x3ed2fbab	0.41207632
40	0xbe825b9b	-0.25460514
41	0xbdfee7e4	-0.124465734
42	0xbd98fefb	-0.07470509
43	0x3ec9ce1a	0.39415056
44	0xbe5ef79c	-0.21774143
45	0x3d82b380	0.06381893
46	0x3e8ea563	0.27860555
47	0x3eaa8e41	0.33311656
48	0x3e558439	0.2085122
49	0x3dedf23e	0.1161847
50	0xbd4523f1	-0.04812998
51	0x3df926d1	0.12165607
52	0xbe8103dc	-0.25198257
53	0xbd72b626	-0.05925574
54	0xbd8e8031	-0.06958044
55	0x3cdad895	0.026714602
56	0x3da6f9c5	0.081531085
57	0x3e10c80f	0.14138816
58	0x3e758ae1	0.2397876
59	0x3e1badc9	0.15203013
60	0x3d741a08	0.059595138
61	0x3ec59416	0.38589543
62	0xbde56d8c	-0.11202535
63	0x3c1ef694	0.0097023435
64	0xbdd7d879	-0.10539336
65	0x3da048de	0.07826398
66	0x3eb19b8a	0.3468898
67	0xbf03cdfe	-0.51486194
68	0x3e23c0be	0.15991494
69	0xbeabae0b	-0.33531222
70	0x3f07340d	0.528138
71	0xbe8e13f2	-0.27749592
72	0x3d8d0e77	0.068875246
73	0xbe1372b4	-0.14399225
74	0x3d8c60ff	0.06854438
75	0xbd7ee5e8	-0.062230974
76	0x3dd0f4c0	0.10202932
77	0xbe719540	-0.2359209
78	0x3de90abf	0.11379003
79	0x3e170ba2	0.14750531
80	0xbea4c281	-0.32179645
81	0xbe84ecd7	-0.25961944
82	0xbd6869a6	-0.05674138
83	0xbe74e855	-0.23916753
84	0xbe264da6	-0.16240558
85	0xbc50c332	-0.012741851
86	0xbe270a75	-0.16312583
87	0x3de6221e	0.11236976
88	0x3e0df832	0.1386421
89	0xbe8d457e	-0.2759208
90	0xbe9cac7a	-0.3060034
91	0xbe2748b6	-0.16336331
92	0xbe97e127	-0.29663965
93	0xbe5cb1cf	-0.21552204
94	0xbe91843d	-0.28421202
95	0xbf0dad18	-0.55342245
96	0x3ddf819d	0.10913394
97	0xbee8b55b	-0.45450863
98	0x3f2886c8	0.6583066
99	0x3d9375e8	0.07200223
100	0xbea5f993	-0.32416973
101	0x3e99cb78	0.30038047
102	0x3a25b8ad	0.00063217693
103	0xbe92d613	-0.2867895
104	0x3cfd5546	0.03092445
105	0x3efe414a	0.49659187
106	0x3f492a01	0.7857972
107	0xbdff2d82	-0.12459852
108	0x3e108170	0.14111876
109	0xbe08f1b2	-0.1337345
110	0x3ef91d99	0.48655394
111	0x3ddcc1d0	0.10779154
112	0xbcfceada	-0.030873705
113	0x3eca2e3a	0.39488393
114	0xbe7d0480	-0.24708748
115	0xbd01c079	-0.031677697
116	0xbda00eb6	-0.07815306
117	0xbf272bf5	-0.6530145
118	0xbd5ca129	-0.05386463
119	0xbead294d	-0.33820572
120	0x3e4fffeb	0.20312469
121	0xbf488811	-0.7833262
122	0xbe1f17c8	-0.15536416
123	0xbee159cc	-0.44013822
124	0x3e05868b	0.13039605
125	0xbd8b66ff	-0.06806754
126	0x3d1fec77	0.03904387
127	0x3ca826a5	0.02052624
128	0xbed0c92e	-0.40778488
129	0x3e2f3e49	0.17113604
130	0xbec4b71e	-0.38420957
131	0x3e8b407c	0.27197635
132	0xbd9f6189	-0.07782275
133	0xbeaf7997	-0.34272453
134	0xbd2b3703	-0.04180051
135	0xbe07546e	-0.13215801
136	0xbdb42cb3	-0.08797588
137	0xbda21e93	-0.07915988
138	0xbe8e7b02	-0.27828223
139	0x3f28d447	0.6594891
140	0x3ee8a3ab	0.4543737
141	0xbde7ec90	-0.113244176
142	0x3dbe1130	0.09280622
143	0xbf263a16	-0.6493238
144	0xbde221c8	-0.110415995
145	0xbd32be22	-0.043638356
146	0x3cdf11a8	0.027230099
147	0xbd850175	-0.064944185
148	0x3d4bf2fa	0.049792267
149	0xbc5936f4	-0.013257731
150	0xbf16c60c	-0.58895946
151	0x3e0ef90f	0.13962196
152	0xbd6d6d0f	-0.057965335
153	0xbd6390cf	-0.055558022
154	0xbe9a2f4a	-0.30114204
155	0xbe808c03	-0.2510682
156	0xbe95bfd3	-0.29247913
157	0x3c8e54ac	0.01737436
158	0xbc957d73	-0.018248295
159	0xbd479469	-0.04872552
160	0x3eeea079	0.46606806
161	0x3e40147f	0.18757819
162	0x3e41866a	0.18898931
163	0x3edc2708	0.42998528
164	0x3d81605d	0.06317208
165	0xbd992051	-0.07476867
166	0x3e4df15d	0.20111604
167	0xbe707da4	-0.23485428
168	0xbe2becb4	-0.16789514
169	0xbe07e79b	-0.13271944
170	0xbd301339	-0.042987082
171	0xbe8cf269	-0.27528694
172	0x3e3f04be	0.18654153
173	0xbc0492dc	-0.008091655
174	0xbdb426aa	-0.08796437
175	0xbdbab2db	-0.09116145
176	0xbdb00a3f	-0.08595704
177	0xbe084431	-0.13307263
178	0x3cc2820c	0.023743652
179	0x3da3f7c1	0.0800624
180	0x3d406b92	0.046977587
181	0x3e71a49d	0.23597951
182	0x3e6d21b7	0.23157392
183	0x3b4650fc	0.0030260673
184	0x3dec600c	0.11541757
185	0xbe4792c9	-0.19489588
186	0xbe5e4362	-0.21705392
187	0x3e99f469	0.30069283
188	0xbe0284b6	-0.12745938
189	0xbf0ecc95	-0.5578092
190	0xbdd814ae	-0.10550819
191	0xbe68c2fc	-0.2273063
192	0x3d6f0d2f	0.058362182
193	0xbe353ac6	-0.17698202
194	0xbe2af44c	-0.16694754
195	0xbe4561fe	-0.19275662
196	0xbc50fb78	-0.012755267
197	0x3e983631	0.29728845
198	0x3d431024	0.047622815
199	0x3e645b7f	0.22300528
200	0x3e8c78ed	0.2743601
201	0x3d3cd30c	0.046099707
202	0xbd65687f	-0.05600786
203	0xbb3162b7	-0.0027066895
204	0x3ea4e8c2	0.3220883
205	0x3c3ec629	0.011643925
206	0x3d41c3d9	0.047305916
207	0xbd2befdf	-0.041976806
208	0x3e7ac663	0.24489741
209	0xbe6ac970	-0.22928405
210	0xbe18cffc	-0.1492309
211	0xbe91e951	-0.2849832
212	0x3e200eb1	0.15630604
213	0x3dac2cdc	0.08406994
214	0xbba03149	-0.0048886877
215	0x3e114a6a	0.14188543
216	0xbeb45e90	-0.35228395
217	0xbeaa3f68	-0.332515
218	0xbe249570	-0.16072631
219	0xbe07cb52	-0.13261154
220	0x3da8b059	0.08236761
221	0xbdd3eb1c	-0.10347578
222	0xbe331a2b	-0.17490451
223	0xbc56b172	-0.01310383
224	0x3dad94b1	0.08475626
225	0x3e41f9ec	0.18942994
226	0xbe9cfe4f	-0.30662772
227	0x3d9f7c0b	0.07787331
228	0x3dccb5a4	0.09995583
229	0xbe7b8b43	-0.24564843
230	0xbdf585f6	-0.11988442
231	0xbe38fab6	-0.18064389
232	0x3e562ad9	0.20914783
233	0xbd7b764f	-0.061392125
234	0x3c6c7583	0.014432314
235	0xbe5359a7	-0.20639668
236	0xbf27037e	-0.65239704
237	0x3f2858fb	0.65760773
238	0x3d84eecc	0.064908594
239	0xbd8ace13	-0.06777587
240	0x3e493b42	0.19651511
241	0x3d29d488	0.04146245
242	0xbd822b01	-0.063558586
243	0x3d607640	0.054800272
244	0xbda1aa41	-0.078938015
245	0xbe2d5bc8	-0.16929543
246	0x3de0b896	0.10972707
247	0xbd92da34	-0.07170525
248	0xbc9bb7c6	-0.019008528
249	0xbd6bdd21	-0.05758393
250	0x3cec0ef9	0.028815733
251	0xbe0e54bc	-0.13899511
252	0xbd035103	-0.03205968
253	0x3df6b5f2	0.12046422
254	0x3e2342fe	0.15943524
255	0x3e158195	0.14600213

dynamicsFunction.startBlock.0.bias f4 [64]
0	0x3d999a9d	0.07500193
1	0x3d86606a	0.06561358
2	0x3dc0aa7e	0.09407519
3	0xbe73a832	-0.2379463
4	0xbe3bf3c9	-0.18354715
5	0xbe0e7aee	-0.13914081
6	0x3e5ee9b9	0.21768846
7	0xbc87a981	-0.016560318
8	0x3e517bf8	0.20457447
9	0xb92281ec	-0.00015497924
10	0xbdeb58fb	-0.11491581
11	0x3e0ef5e4	0.13960987
12	0x3bf1cd49	0.007379208
13	0x3e452955	0.19254048
14	0x3d812c36	0.06307261
15	0xbe571015	-0.21002229
16	0xbe839b51	-0.25704435
17	0x3e8a2e20	0.26988316
18	0xbdf306b6	-0.118665144
19	0xbe746583	-0.23866849
20	0xbdf7cd56	-0.120997116
21	0x3d8220ce	0.06353913
22	0xbe1be9d2	-0.15225914
23	0xbdc13292	-0.09433474
24	0xbd588a21	-0.052866105
25	0x3debea9a	0.11519356
26	0x3e9b9795	0.30389085
27	0xbe168757	-0.14700066
28	0xbe66acc7	-0.22526847
29	0x3e193786	0.14962587
30	0xbcdaed8b	-0.026724597
31	0xbdfa4ca2	-0.12221648
32	0x3deccca3	0.11562469
33	0x3d2a5a25	0.041589875
34	0x3dd16611	0.10224546
35	0x3dc6da43	0.09709599
36	0x3cc55fde	0.024093565
37	0xbdab4db5	-0.08364431
38	0x3b7365a1	0.0037139433
39	0xbe899da9	-0.26878098
40	0x3d28471c	0.04108344
41	0x3d23ea81	0.040018562
42	0xbe2dac52	-0.16960266
43	0x3e76b8e7	0.24093972
44	0xbdcd7c06	-0.10033421
45	0x3dafb5bd	0.08579586
46	0xbd86fe2e	-0.0659145
47	0xbdd9193f	-0.106005184
48	0x3e11fd8d	0.14256878
49	0x3e361097	0.17779766
50	0xbbaa22be	-0.00519213
51	0xbe5246a4	-0.2053476
52	0x3c1f8e47	0.009738511
53	0xbcbc5c52	-0.02299324
54	0xbd1279ca	-0.03576068
55	0xbddd900c	-0.108184904
56	0xbc21c1aa	-0.009872833
57	0x3e1693fc	0.14704889
58	0xbcdf7cc8	-0.02728118
59	0x3e185e36	0.14879689
60	0x3e3d14b3	0.18464927
61	0x3d0d33cb	0.03447322
62	0x3e11b43d	0.14228912
63	0x3dd42791	0.10359109
