AlphaGo/foersterrobert_MuZero/Environments/CartPole/Models/model_6.pt (torch, 83738 bytes, 20 tensors)

predictionFunction.startBlock.0.weight f4 [64, 32]
-0.1014989 0.44659582 -0.30379623 -0.28613928 -0.25488853 -0.05566467 -0.053266015 0.25534505
0.08966779 -0.10844348 -0.21981785 -0.21894556 -0.36319086 0.20720239 0.057083633 -0.20701697
-0.06701384 0.21337552 -0.41961986 0.28784746 0.34291208 0.67872846 0.03609145 0.03843669
-0.04144623 0.10971637 0.03114807 -0.0026597157 0.06435911 0.12712045 -0.2913625 0.057106897
-0.20725873 -0.2380964 -0.24332888 -0.13761412 -0.18626568 0.072896585 -0.19146287 0.19711573
0.037582986 -0.20205857 -0.25109035 0.04610202 0.0424453 0.10395634 0.06414457 0.064599775
-0.4824638 -0.18076791 0.080263056 0.09819324 0.2132589 -0.082373455 0.19894493 -0.4720465
0.03948895 0.063635826 -0.078195564 -0.052821156 -0.1182005 0.40682924 -0.47133693 -0.19362028
-0.3322591 0.14354925 -1.6341146 0.05241265 0.056391116 0.61427104 -0.0737735 -0.33665317
-0.36274976 0.1502946 -0.3828496 0.15415819 0.5697956 0.06601271 0.25374663 0.24022122
-0.55535716 0.3100644 0.046510484 -0.102140374 0.29640368 0.1011796 0.96154445 0.20293222
0.2537035 0.24640137 0.48603898 0.23818398 0.19031082 1.7035471 -1.0430151 0.32926473
-0.0068973717 0.34183872 -0.6154184 -0.10989329 0.10583134 0.3646677 0.077019945 -0.2535359
-0.33581924 0.030135555 -0.015574349 -0.19369401 0.24584286 0.0068669957 -0.032297485 0.43391585
0.062621295 0.19936137 -0.35848907 0.019378334 -0.06638168 0.3539512 0.2196235 0.36736506
0.22816056 0.06783158 0.16196445 0.18754654 0.088345215 0.09663167 -0.43385896 0.4527206
-0.4924073 -0.14742155 -0.34359732 0.33491728 0.13541082 0.12320424 0.019605001 -0.27075875
0.017545676 0.05679244 -0.017619291 0.53759307 0.3011718 0.49512464 0.014761432 -0.16270843
-0.38897154 -0.40810585 0.114348345 -0.2840289 -0.08738457 -0.3065471 0.18977082 -0.19279274
0.16644405 0.5211495 -0.029057976 0.026064187 -0.093111455 0.25746328 -0.124739766 0.28800556
-0.051652502 -0.16791789 0.015087279 -0.2859782 0.24904135 -0.3255919 -0.24252619 0.25668117
-0.041483793 -0.15713376 0.054703806 0.094398394 0.25908053 0.024345594 -0.06363325 0.01938113
0.0034177017 -0.07473973 0.5210175 -0.061483435 -0.012031559 0.06520259 0.20374441 -0.053912707
-0.029234724 0.022413308 -0.056989275 -0.2495001 -0.6262138 0.18291955 0.15282784 0.13821013
-0.12085286 -0.052503094 -0.062703125 -0.15163831 -0.1549889 0.106980115 -0.5225388 0.32011473
-0.033232875 0.5028008 -0.6746515 -0.20472734 -0.0037784402 0.020933226 0.3466306 0.19930723
0.056727733 -0.035980344 0.32642445 0.0905922 0.02329786 0.10092883 0.05897602 -0.11507208
-0.21284787 0.0323657 -0.05875066 -0.41760623 -0.2981951 0.22746065 -0.11963589 0.085342996
-0.4476829 0.14429119 -0.7371407 0.15160514 -0.10346302 0.1791636 0.01712205 0.1431663
-0.01963319 0.23987363 -0.024673242 -0.096668854 0.37114763 9.776704e-06 -0.15622091 0.4410906
-0.13347088 0.12840338 -0.012155608 0.024491917 0.23943242 0.013771404 0.78261465 -0.07895395
0.22587621 0.22321811 0.21817346 0.34840956 0.14252532 0.5415414 -0.54233986 -0.1697057
00000000: a8de cfbd 35a8 e43e 2e8b 9bbe d980 92be
00000010: c080 82be a300 64bd 772d 5abd 96bc 823e
00000020: bfa3 b73d 9e17 debd ee17 61be 4433 60be
00000030: 27f4 b9be dd2c 543e 87d0 693d 42fc 53be
00000040: 8d3e 89bd 1d7f 5a3e 6ad8 d6be be60 933e
00000050: 2c92 af3e 26c1 2d3f a1d4 133d ca6f 1d3d
00000060: 86c3 29bd fab2 e03d 3d2a ff3c a04e 2ebb
00000070: b6ce 833d dd2b 023e 772d 95be ece8 693d
00000080: a23b 54be 8bcf 73be 352b 79be b7ea 0cbe
00000090: 6ebc 3ebe ce4a 953d d80e 44be b5d8 493e
000000a0: 9ef0 193d 71e8 4ebe ea8e 80be 79d5 3c3d
000000b0: 1fdb 2d3d 10e7 d43d 3a5e 833d e34c 843d
000000c0: 7f05 f7be 391b 39be f560 a43d 8a19 c93d
000000d0: 8b60 5a3e 6ab3 a8bd 38b8 4b3e 14b0 f1be
000000e0: 2abf 213d 8053 823d ff24 a0bd ff5a 58bd
000000f0: 1b13 f2bd ec4b d03e 1353 f1be 6544 46be
00000100: dd1d aabe 93fe 123e ab2a d1bf a6ae 563d
00000110: 5ffa 663d de40 1d3f 9016 97bd ce5d acbe
00000120: 56ba b9be d4e6 193e dd04 c4be a5db 1d3e
00000130: 20de 113f ac31 873d 14eb 813e 8dfc 753e
00000140: e32b 0ebf c3c0 9e3e c781 3e3d f92e d1bd
00000150: 39c2 973e 4037 cf3d c727 763f 77cd 4f3e
00000160: 6de5 813e a450 7c3e 1ada f83e 80e6 733e
00000170: d7e0 423e d50d da3f 8581 85bf 6395 a83e
00000180: 5903 e2bb 7c05 af3e 0f8c 1dbf bc0f e1bd
00000190: 1abe d83d bab5 ba3e a2bc 9d3d 75cf 81be
000001a0: 80f0 abbe d7de f63c 8e2b 7fbc b957 46be
000001b0: 3bbe 7b3e 8904 e13b 5e4a 04bd 382a de3e
000001c0: 983f 803d 6325 4c3e e18b b7be 50bf 9e3c
000001d0: 1ef3 87bd 1739 b53e fce4 603e 4617 bc3e
000001e0: eca2 693e 49eb 8a3d 02da 253e 330c 403e
000001f0: 56ee b43d d3e6 c53d c322 debe ffca e73e
00000200: cf1c fcbe adf5 16be fdeb afbe 477a ab3e
00000210: 22a9 0a3e 8152 fc3d ab9a a03c e4a0 8abe
00000220: f3bb 8f3c 319f 683d 5556 90bc b39f 093f
00000230: 3133 9a3e fa80 fd3e efd9 713c 0a9d 26be
00000240: 4727 c7be 40f3 d0be 772f ea3d 3c6c 91be
00000250: aef6 b2bd bef3 9cbe 4853 423e 766b 45be
00000260: 4f70 2a3e 0e6a 053f fe0a eebc 9084 d53c
00000270: 38b1 bebd 3ad2 833e 9077 ffbd 7775 933e
00000280: 9391 53bd abf2 2bbe a230 773c bc6b 92be
00000290: b204 7f3e fbb3 a6be c958 78be b76b 833e
000002a0: e9ea 29bd ace7 20be 1911 603d f253 c13d
000002b0: 34a6 843e 6970 c73c 2652 82bd 2dc5 9e3c
000002c0: 85fb 5f3b 2511 99bd 6761 053f 0ed6 7bbd
000002d0: 0420 45bc ef88 853d 60a2 503e 92d3 5cbd
000002e0: a97d efbc 1d9c b73c 966d 69bd f47c 7fbe
000002f0: 8c4f 20bf 434f 3b3e e77e 1c3e f586 0d3e
00000300: b481 f7bd 7c0d 57bd 7f6a 80bd 1347 1bbe
00000310: 69b5 1ebe 6418 db3d 1ac5 05bf 14e6 a33e
00000320: 321f 08bd 8eb7 003f f6b5 2cbf 0ba4 51be
00000330: b59f 77bb 287c ab3c 9179 b13e 3217 4c3e
00000340: 575b 683d 2060 13bd 1b21 a73e 6788 b93d
00000350: 27db be3c c6b3 ce3d d790 713d e9aa ebbd
00000360: cbf4 59be e591 043d 88a4 70bd 7cd0 d5be
00000370: 07ad 98be 72eb 683e a903 f5bd 4fc8 ae3d
00000380: b136 e5be 12c1 133e 41b5 3cbf 613e 1b3e
00000390: 6be4 d3bd aa76 373e 8b43 8c3c 309a 123e
000003a0: c9d5 a0bc 6fa1 753e 8a1f cabc 52fa c5bd
000003b0: 1007 be3e a006 2437 60f8 1fbe a1d6 e13e
000003c0: 97ac 08be 2d7c 033e 5128 47bc 46a3 c83c
000003d0: c62d 753e 74a1 613c 6f59 483f 9cb2 a1bd
000003e0: 184c 673e 4a93 643e dd68 5f3e bd62 b23e
000003f0: 28f2 113e 75a2 0a3f c9d6 0abf 55c7 2dbe

predictionFunction.startBlock.0.bias f4 [64]
-0.031060638 -0.23724045 -0.24587886 0.006477674 -0.24807127 0.033195425 0.06924052 -0.1007033
0.17955811 0.08505743 -0.23676595 -0.18768066 -0.13908651 -0.14156245 -0.098076485 -0.13852929
-0.18414417 0.11200506 -0.2886521 -0.019770041 -0.28743663 -0.1163457 -0.046153575 -0.04253357
-0.036158558 -0.025645731 0.05829381 -0.10813131 -0.11797516 -0.32356417 -0.01791525 -0.27698845
-0.052778006 -0.2055983 -0.23040213 0.028697394 -0.08523036 -0.117045 -0.11542876 -0.19143428
-0.11855257 -0.09023694 -0.28607905 -0.12448529 -0.010743848 -0.24043596 0.016610956 -0.14248744
0.0037053847 0.13724431 -0.11623032 -0.0316694 -0.16840926 -0.08294785 -0.18721287 0.13054898
-0.037983745 0.015838357 -0.08629086 -0.023950947 0.13902558 0.20518349 -0.11810602 0.07553193
00000000: e172 febc 29ef 72be abc7 7bbe ab42 d43b
00000010: 6506 7ebe edf7 073d f9cd 8d3d 883d cebd
00000020: 15de 373e 9732 ae3d c672 72be 5c2f 40be
00000030: b26c 0ebe bff5 10be 53dc c8bd 9fda 0dbe
00000040: 4a90 3cbe e962 e53d 35ca 93be c8f4 a1bc
00000050: e52a 93be a846 eebd 880b 3dbd ae37 2ebd
00000060: ff1a 14bd ff16 d2bc 7dc5 6e3d f373 ddbd
00000070: f69c f1bd 34aa a5be 01c3 92bc 6ed1 8dbe
00000080: c02d 58bd 5c88 52be 89ee 6bbe cc16 eb3c
00000090: 418d aebd 4ab5 efbd ea65 ecbd 5907 44be
000000a0: b1cb f2bd 25ce b8bd f478 92be 25f2 febd
000000b0: f706 30bc d834 76be b313 883c 3ae8 11be
000000c0: 0ad6 723b c689 0c3e 290a eebd c6b7 01bd
000000d0: 7a73 2cbe 90e0 a9bd bbb4 3fbe a2ae 053e
000000e0: d894 1bbd 71bf 813c 43b9 b0bd c734 c4bc
000000f0: b95c 0e3e 9f1b 523e 92e1 f1bd 7cb0 9a3d

predictionFunction.startBlock.2.weight f4 [64, 64]
-0.082652934 0.010721166 0.29592317 -0.05678973 -0.15323114 -0.38663465 0.13703272 0.23775306
-0.54713845 -0.30473542 -0.10824183 0.057308443 0.36087418 0.5932176 0.08439947 0.03484655
0.13334514 -0.15258038 -0.505699 -0.23602915 -0.09255665 0.119379975 0.24005787 0.28408062
-0.52469355 -0.03681028 0.9371294 0.05309493 -0.3278806 0.40228227 -0.16488822 -0.13391322
-0.2538184 0.2904989 0.08464713 -0.30142412 -0.11242695 -0.023790836 -0.16429484 -0.05715814
-0.44765612 0.08360016 0.1619953 0.01635151 -0.12462643 -0.29176164 -0.19260505 0.1466128
-0.22942585 -0.49894702 -0.31496426 -0.3165814 -0.027552433 0.00065507344 0.6558211 -0.4404957
-0.5319014 0.08599185 -0.1348069 0.33326414 0.050165847 -0.05625782 0.13280094 -0.05480752
-0.07640527 0.25775567 -0.07067648 -0.28966573 0.5554606 -0.10324061 0.43034756 0.28010204
-0.446364 0.16521454 -0.06346663 0.5623195 0.4887644 0.3343015 0.004191924 -0.28317282
0.87691146 0.046020675 0.11099443 -0.2032951 -0.0108802635 -0.06663716 -0.0038271316 0.24713545
-0.30193165 -0.19392116 -0.010113784 -0.17795053 -0.41434553 0.044368286 0.14200395 0.05469068
-0.22467564 0.15620221 0.5223619 -0.23255545 0.41100153 -0.51542044 -0.32682642 0.048197538
0.24035576 0.051866867 -0.0022884225 0.040887937 0.43590316 0.15381303 -0.32525015 0.13694158
-0.3299606 -0.12558389 -0.04376449 -0.2507183 0.22218531 -0.1585686 -0.69002485 -0.26221982
0.35062107 -0.069925584 0.009231116 0.6445917 0.364121 -0.037991736 0.11239103 0.033671975
-0.6297892 -0.18306482 0.27754915 -0.18275222 -0.23861259 -0.268487 0.34936664 -0.017382488
-0.008924992 -0.8874967 -0.033902507 0.15545443 0.117019214 0.10233567 -0.045748085 -0.18044011
-0.023334663 0.049869545 -0.076616764 0.019680057 0.040934723 -0.19670984 0.09730064 0.028506905
0.12098224 -0.28784868 0.011713084 -0.008750713 -0.29876056 -0.070220746 -0.056584787 0.032476857
0.00974657 -0.006487432 -0.36025047 0.019489797 -0.0762138 -0.1771964 0.026838591 -0.07384405
-0.20682903 -0.073809974 -0.092685536 -0.36120227 -0.09069621 -0.20765534 -0.19977951 -0.20754476
-0.17930657 -0.31764644 0.13469937 0.041069087 -0.28703597 0.10132569 0.005021743 -0.095392175
0.08031718 -0.194205 -0.054561015 -0.194273 -0.02461475 -0.14509784 -0.13707441 0.19558418
-0.49019822 -0.118967116 0.0863733 0.24090867 0.0996942 0.11331376 0.05054568 0.3039319
-0.47714883 0.08094014 -0.10640008 -0.26061374 0.1244876 -0.26355055 0.10910253 0.13837214
-0.27504617 -0.10443643 -0.19094905 -0.041405566 -0.04756749 -0.25564536 -0.20948873 0.060280703
-0.046824854 -0.22571419 0.065487124 -0.12062369 0.29372332 -0.08510208 0.31751737 0.057859723
0.0695161 0.122089796 -0.07846562 -0.03644629 0.07585342 -0.15849622 -0.8416203 0.09096367
0.55483645 -0.23884907 -0.005326736 0.45728934 0.13836546 0.4830512 -0.06847435 -0.4921973
0.17048262 -1.9902054 -0.056761995 -0.14963166 0.3564363 0.07154352 0.12923591 -0.045424424
-0.30806094 0.25590283 -0.006916859 -0.30730987 -0.2644125 -0.09143207 0.11394747 -0.020872552
00000000: f145 a9bd d4a7 2f3c 3e83 973e 599c 68bd
00000010: a0e8 1cbe faf4 c5be 4e52 0c3e 8a75 733e
00000020: 4411 0cbf 4806 9cbe e4ad ddbd 42bc 6a3d
00000030: 80c4 b83e 1cdd 173f a1d9 ac3d 42bb 0e3d
00000040: a18b 083e 083e 1cbe 7d75 01bf a0b1 71be
00000050: 578e bdbd 7d7d f43d bbd1 753e 0473 913e
00000060: 5152 06bf 60c6 16bd b6e7 6f3f 127a 593d
00000070: f7df a7be f1f7 cd3e 75d8 28be 8c20 09be
00000080: 7cf4 81be 46bc 943e 795b ad3d 4354 9abe
00000090: 1a40 e6bd 00e5 c2bc e83c 28be a71e 6abd
000000a0: 2f33 e5be 9036 ab3d 19e2 253e 9af3 853c
000000b0: 243c ffbd c861 95be 423a 45be aa21 163e
000000c0: 9cee 6abe fc75 ffbe ff42 a1be f516 a2be
000000d0: a4b5 e1bc 3cb9 2b3a e4e3 273f a788 e1be
000000e0: b12a 08bf 7f1c b03d d20a 0abe 99a1 aa3e
000000f0: b47a 4d3d 9a6e 66bd f8fc 073e da7d 60bd
00000100: 5e7a 9cbd 8df8 833e d5be 90bd 114f 94be
00000110: aa32 0e3f d06f d3bd 8456 dc3e 8969 8f3e
00000120: d289 e4be 002e 293e cbfa 81bd 2cf4 0f3f
00000130: 543f fa3e 9129 ab3e 685c 893b 07fc 90be
00000140: 457d 603f 2d80 3c3d 0c51 e33d 972c 50be
00000150: 2243 32bc 1079 88bd 9dd0 7abb 1311 7d3e
00000160: c996 9abe 4593 46be 49b4 25bc aa38 36be
00000170: 1925 d4be 85bb 353d 7c69 113e 5603 603d
00000180: 5f11 66be 79f3 1f3e 82b9 053f 0423 6ebe
00000190: cb6e d23e 98f2 03bf cb55 a7be c86a 453d
000001a0: d21f 763e 5a72 543d 5cf9 15bb 1c7a 273d
000001b0: b32e df3e 2a81 1d3e 3087 a6be 6a3a 0c3e
000001c0: 99f0 a8be 1099 00be 6542 33bd 265e 80be
000001d0: 8c84 633e cf5f 22be 78a5 30bf ad41 86be
000001e0: 9b84 b33e 2535 8fbd 1b3e 173c f603 253f
000001f0: 116e ba3e 399d 1bbd 452d e63d a0eb 093d
00000200: dd39 21bf 5875 3bbe ec1a 8e3e 6623 3bbe
00000210: dc56 74be 2177 89be 2fe0 b23e b865 8ebc
00000220: 213a 12bc fc32 63bf 5bdd 0abd 722f 1f3e
00000230: c5a7 ef3d 5d95 d13d 5862 3bbd 4bc5 38be
00000240: 5628 bfbc 0244 4c3d 40e9 9cbd 1238 a13c
00000250: 2bab 273d 4e6e 49be 8f45 c73d 5087 e93c
00000260: 89c5 f73d e760 93be 3ce8 3f3c 275f 0fbc
00000270: 25f7 98be e5cf 8fbd 73c5 67bd 7406 053d
00000280: 14b0 1f3c 8694 d4bb c072 b8be 11a9 9f3c
00000290: fb15 9cbd f972 35be 9bdc db3c 8d3b 97bd
000002a0: fdca 53be af29 97bd ead1 bdbd 81ef b8be
000002b0: efbe b9bd 9aa3 54be 0093 4cbe 9d86 54be
000002c0: 249c 37be 8ea2 a2be a2ee 093e 0f38 283d
000002d0: 61f6 92be d883 cf3d 6f8d a43b f95c c3bd
000002e0: 557d a43d addd 46be 5f7b 5fbd 80ef 46be
000002f0: dfa4 c9bc 8794 14be 3c5d 0cbe 3847 483e
00000300: 43fb fabe 08a5 f3bd 7ce4 b03d c3b0 763e
00000310: 792c cc3d 0b11 e83d fd08 4f3d f69c 9b3e
00000320: da4c f4be f2c3 a53d 49e8 d9bd 2a6f 85be
00000330: 5bf3 fe3d 19f0 86be 2671 df3d 6db1 0d3e
00000340: dad2 8cbe c4e2 d5bd 2688 43be e298 29bd
00000350: 21d6 42bd f3e3 82be 3784 56be e6e8 763d
00000360: 6bcb 3fbd 9f21 67be 1d1e 863d 8e09 f7bd
00000370: e762 963e 004a aebd a391 a23e 51fe 6c3d
00000380: 755e 8e3d 370a fa3d 95b2 a0bd b448 15bd
00000390: 0a59 9b3d d54c 22be 6e74 57bf 294b ba3d
000003a0: c309 0e3f da94 74be e68b aebb d421 ea3e
000003b0: adaf 0d3e 7d52 f73e 483c 8cbd 4901 fcbe
000003c0: ff92 2e3e 0dbf febf 447f 68bd 0b39 19be
000003d0: d27e b63e 6985 923d 6b56 043e f60e 3abd
000003e0: 2aba 9dbe b205 833e d2a6 e2bb b857 9dbe
000003f0: 1361 87be bd40 bbbd 4b5d e93d eafc aabc

predictionFunction.startBlock.2.bias f4 [64]
-0.13533223 -0.10284269 -0.044217773 0.02894363 -0.30209 -0.20655401 -0.05921411 -0.300088
-0.11011172 -0.02127649 -0.15311237 0.0084889475 0.10228578 0.13471778 0.18235867 -0.06492059
-0.083920464 -0.091222145 -0.41095924 0.04548937 -0.0107499985 -0.11016531 -0.083945766 0.1314568
-0.09439796 -0.020792063 -0.017235741 -0.14884897 -0.118793085 0.0788138 -0.12660159 -0.057002798
-0.12694131 -0.017596472 -0.009700047 -0.001759219 -0.025215192 -0.15053257 -0.17210129 0.006760628
-0.24044701 0.17826127 0.22976908 -0.14103597 0.11563343 -0.113955304 0.093724445 -0.47485125
-0.11079688 -0.22721341 -0.04217118 -0.04725036 0.14843364 -0.1957899 -0.259434 0.41700456
0.038079374 -0.16468856 0.13432702 0.16448212 0.23094045 0.11936285 -0.13687219 -0.059799768
00000000: 8894 0abe 309f d2bd b21d 35bd 311b ed3c
00000010: 8aab 9abe e582 53be 7f8a 72bd 22a5 99be
00000020: 4182 e1bd 094c aebc 7dc9 1cbe 3a15 0b3c
00000030: 357b d13d 75f3 093e 3bbc 3a3e 16f5 84bd
00000040: 7ede abbd add2 babd 4069 d2be 1053 3a3d
00000050: c320 30bc 5a9e e1bd c2eb abbd 9d9c 063e
00000060: b853 c1bd 1e54 aabc f831 8dbc dd6b 18be
00000070: ca49 f3bd 2169 a13d d9a3 01be c47b 69bd
00000080: e7fc 01be 7a26 90bc f2ec 1ebc 9895 e6ba
00000090: 1790 cebc 3625 1abe 523b 30be 4288 dd3b
000000a0: be37 76be 1f8a 363e 9648 6b3e bc6b 10be
000000b0: 38d1 ec3d 6661 e9bd 9af2 bf3d b41f f3be
000000c0: 7ae9 e2bd a2aa 68be b0bb 2cbd 9889 41bd
000000d0: fdfe 173e 267d 48be 89d4 84be 9f81 d53e
000000e0: 1ef9 1b3d 1ea4 28be 068d 093e 006e 283e
000000f0: a77b 6c3e 8374 f43d 3928 0cbe 9af0 74bd

predictionFunction.policy_head.0.weight f4 [2, 64]
-0.11001679 -0.079052076 -0.0696059 0.13599744 -0.3329177 0.093593754 0.10693285 0.49206674
0.13415885 0.029696202 0.088288225 0.08599442 0.016171055 -0.07958064 -0.033039466 -0.1461422
-0.2624328 0.08862954 -0.42405584 -0.104906164 0.18195781 0.11944449 0.04781628 0.11468041
0.07695729 -0.11979356 0.047086857 -0.35790738 0.01387721 -0.119878344 0.0036920574 0.095209874
0.035312504 -0.03293424 -0.26277754 -0.06552421 -0.059131365 0.3973725 0.023186017 0.052026328
0.91860867 0.30527765 0.106542625 -0.49809965 -0.111376174 -0.040793847 -0.20467989 0.24566524
0.43429816 0.34304082 -0.123126775 0.0040244996 -0.12193224 0.081928186 0.37024558 -0.046053477
0.099003464 -0.042073537 0.049411155 -0.11767144 0.037632957 0.0067524845 0.08150185 0.082576714
0.13826959 -0.10948589 0.07296805 -0.1610577 0.12433898 0.045697954 0.0810697 -0.37630203
-0.0981655 -0.030659186 -0.014256118 -0.074342735 0.111423515 0.114547595 0.06251467 0.24690978
0.30803406 -0.26303205 0.4142905 0.00079983834 -0.07081396 -0.0045574885 -0.051474947 -0.10764103
0.09665919 0.11725314 0.09049072 0.3539543 0.04890581 0.1730991 0.09492255 -0.009616585
-0.116382375 -0.083281085 0.277233 0.017615963 -0.0063400413 -0.36436126 0.08605574 0.08474364
-0.91859955 -0.2219686 -0.02345788 0.42054796 -0.05102483 -0.026537381 0.102090985 -0.27782667
-0.50365853 -0.3053925 0.100414455 0.04370443 0.010494511 0.11306945 -0.3028332 0.020739812
-0.0066501405 -0.110092364 -0.19866526 -0.049043342 0.08756662 0.21381551 -0.104382254 0.03469067
00000000: 7c50 e1bd 0ee6 a1bd 8a8d 8ebd ea42 0b3e
00000010: 3074 aabe 15ae bf3d 9cff da3d 2cf0 fb3e
00000020: f060 093e 7345 f33c 75d0 b43d d81d b03d
00000030: 2979 843c 2dfb a2bd 6454 07bd 4da6 15be
00000040: 985d 86be 6783 b53d d91d d9be 0bd9 d6bd
00000050: 2653 3a3e 509f f43d 01db 433d 90dd ea3d
00000060: c99b 9d3d 5356 f5bd 26de 403d a33f b7be
00000070: 3d5d 633c c782 f5bd 72f6 713b 65fd c23d
00000080: d8a3 103d 0ee6 06bd c78a 86be 8f31 86bd
00000090: bb33 72bd 6974 cb3e 9af0 bd3c 8f19 553d
000000a0: f029 6b3f 5a4d 9c3e 0533 da3d eb06 ffbe
000000b0: 3119 e4bd 7317 27bd 9b97 51be ab8f 7b3e
000000c0: 545c de3e 0ca3 af3e e429 fcbd f3df 833b
000000d0: 9cb7 f9bd f7c9 a73d d490 bd3e 92a2 3cbd
000000e0: 54c2 ca3d 4d55 2cbd 5a63 4a3d b9fd f0bd
000000f0: 0425 1a3d f243 dd3b 71ea a63d fb1d a93d
00000100: 8b96 0d3e 233a e0bd 4670 953d 4fec 24be
00000110: 6fa5 fe3d c72d 3b3d df07 a63d a9aa c0be
00000120: fe0a c9bd f928 fbbc 7e92 69bc 0141 98bd
00000130: 0332 e43d ee97 ea3d b107 803d ebd5 7c3e
00000140: a4b6 9d3e 23ac 86be e21d d43e 3eac 513a
00000150: e906 91bd fc56 95bb 65d7 52bd e672 dcbd
00000160: 41f5 c53d 6a22 f03d 3353 b93d 7f39 b53e
00000170: 7551 483d e440 313e c166 c23d e28e 1dbc
00000180: e259 eebd 468f aabd 7cf1 8d3e 5a4f 903c
00000190: 1fc0 cfbb 8f8d babe fe3d b03d 138e ad3d
000001a0: 5729 6bbf bd4b 63be bd2a c0bc 1052 d73e
000001b0: 6aff 50bd ec64 d9bc 1415 d13d 4c3f 8ebe
000001c0: c4ef 00bf 685c 9cbe 18a6 cd3d 6b03 333d
000001d0: 2bf1 2b3c f590 e73d f40c 9bbe 8ae6 a93c
000001e0: 6ce9 d9bb 1b78 e1bd e86e 4bbe ace1 48bd
000001f0: 2156 b33d 74f2 5a3e 5dc6 d5bd ce17 0e3d

predictionFunction.policy_head.0.bias f4 [2]
-0.015030015 0.00096584624
00000000: 7440 76bc d830 7d3a

predictionFunction.value_head.0.weight f4 [64, 64]
-0.075059265 -0.02108488 -0.008426341 0.057349164 0.032973323 -0.054660413 0.055014487 -0.076271184
-0.0571219 -0.14035325 0.036119606 -0.03374567 -0.10392651 -0.11504868 -0.07063373 -0.09970354
-0.050939098 -0.10576246 -0.090487316 0.033897933 -0.07918825 0.05087948 0.008513406 -0.076636374
0.021163484 0.076191425 -0.014874486 0.013550654 0.10146546 -0.04599691 0.027475417 0.05129341
-0.14329621 0.07380961 -0.098886035 -0.00642021 -0.09105356 0.025156878 -0.10053763 -0.0751911
0.021597624 -0.09307783 -0.029235953 0.074468695 -0.15842244 -0.08122079 -0.11724852 0.08356293
0.004702288 -0.104877606 -0.1400534 0.06460041 0.05217425 -0.10768244 -0.0061751553 -0.061070234
0.015961645 -0.11755568 0.032356873 0.08022713 0.005493664 -0.07507529 -0.013550799 0.053935066
-0.15669538 -0.12294185 -0.104002476 -0.018635074 -0.14461997 -0.052008577 -0.05579235 -0.3980852
0.050905455 0.03852242 -0.1276372 -0.07262784 -0.12616064 -0.19517232 -0.15578362 -0.05548053
-0.2870624 -0.3939824 -0.0847422 -0.035039254 -0.032678265 0.042929158 -0.04256621 -0.09717174
0.4222788 0.24462877 0.06678159 -0.04706671 0.111786574 -0.1650734 -0.16145776 -0.039281514
-0.47423345 -0.2339669 -0.102432035 0.029812545 0.11403128 0.004173087 0.016992478 0.20734797
-0.21551163 -0.09142918 -0.0923713 -0.36755887 -0.3780084 0.11489172 -0.22188018 -0.14920218
0.2221047 -0.0514761 -0.093415946 0.06391497 -0.072834246 -0.3449232 -0.095503196 0.21221462
-0.03034087 -0.006902909 0.16782454 0.023477092 -0.13909285 0.10842712 -0.23491256 -0.073912024
0.035466 0.06992109 0.12848186 -0.095888056 -0.11925566 -0.07937099 0.074235395 -0.15191215
-0.060582187 0.18602827 0.04130417 -0.15807147 -0.14056365 -0.024056958 -0.020425906 -0.1128712
-0.10065396 -0.23917134 -0.08987937 0.019879343 -0.06027122 -0.07379633 -0.09028014 -0.18069103
0.28282326 -0.10930243 0.010536835 0.05852828 0.1422946 -0.25083655 -0.048705745 -0.02939832
-0.20368795 -0.27925727 -0.12878022 -0.111506075 -0.010129985 -0.01659309 -0.15477693 0.14316712
0.08898058 -0.019555693 -0.054002065 -0.26824972 -0.3294893 -0.11548978 -0.04970785 -0.21595867
-0.06851923 0.15363976 -0.13026479 -0.011581267 -0.08325053 -0.23925976 -0.07203598 -0.09696344
0.078616165 -0.011250974 0.1484469 0.09138358 0.019528084 -0.15203527 -0.18922839 0.075442985
0.44739902 0.2764613 -0.062016323 -0.17150901 0.38075873 0.13870224 -0.11868028 -0.11854222
-0.47990602 0.085413516 0.16958927 -0.18172295 -0.2584765 0.12607762 -0.045032248 -0.17189512
0.71093464 0.04199211 -0.014972636 -0.3397634 0.11565375 -0.04204929 -0.10653273 -0.36962664
-0.086674996 0.07700076 -0.26612088 -0.063222304 -0.09475957 0.33060735 0.10229455 -0.35969526
0.34557092 -0.58221215 0.2724483 -0.03559471 0.31897232 0.26840246 0.03619174 -0.039072204
0.46785724 -0.0710611 -0.21795045 -0.09591277 -0.079110235 0.0748751 -0.19867243 -0.112524815
-0.19454506 -0.08179618 -0.0058047203 -0.22710085 -0.21095225 -0.2975779 0.059758417 -0.2279993
-0.09710564 0.15847984 0.1710195 -0.13328297 -0.1783698 -0.2709073 0.20193285 -0.08039019
00000000: acb8 99bd 33ba acbc a30e 0abc f5e6 6a3d
00000010: 090f 073d 99e3 5fbd df56 613d 1134 9cbd
00000020: a7f8 69bd c3b8 0fbe 27f2 133d e638 0abd
00000030: 6cd7 d4bd a49e ebbd 6ba8 90bd 5f31 ccbd
00000040: 84a5 50bd fd99 d8bd 6a51 b9bd 8fd8 0a3d
00000050: 732d a2bd 0067 503d d07b 0b3c 88f3 9cbd
00000060: 0b5f ad3c 400a 9c3d 1eb4 73bc 9003 5e3c
00000070: 20cd cf3d 4267 3cbd 2014 e13c 0a19 523d
00000080: 3ebc 12be 7e29 973d c384 cabd a060 d2bb
00000090: 4a7a babd cc15 ce3c ace6 cdbd cbfd 99bd
000000a0: 80ed b03c 979f bebd 3d80 efbc 0b83 983d
000000b0: 7e39 22be 1657 a6bd fe1f f0bd 0b23 ab3d
000000c0: a715 9a3b 12ca d6bd 296a 0fbe 384d 843d
000000d0: abb4 553d 9c88 dcbd f558 cabb c824 7abd
000000e0: ffc1 823c 08c1 f0bd a488 043d 1f4e a43d
000000f0: 3204 b43b 13c1 99bd 2c04 5ebc 04eb 5c3d
00000100: c174 20be f0c8 fbbd 40ff d4bd 95a8 98bc
00000110: 4217 14be f206 55bd 8586 64bd d3d1 cbbe
00000120: 3d82 503d afc9 1d3d 53b3 02be e8bd 94bd
00000130: 4130 01be 41db 47be be85 1fbe 8d3f 63bd
00000140: d8f9 92be 10b8 c9be 528d adbd 5285 0fbd
00000150: a5d9 05bd 7cd6 2f3d e859 2ebd fa01 c7bd
00000160: ed34 d83e f77f 7a3e c9c4 883d 06c9 40bd
00000170: 5cf0 e43d 0009 29be 2f55 25be a7e5 20bd
00000180: bace f2be 0595 6fbe e3c7 d1bd 7039 f43c
00000190: 3b89 e93d 64be 883b cf33 8b3c 0753 543e
000001a0: 15af 5cbe 393f bbbd 2a2d bdbd ad30 bcbe
000001b0: 518a c1be 5a4c eb3d 8f34 63be 75c8 18be
000001c0: 6a6f 633e 9ad8 52bd dc50 bfbd dae5 823d
000001d0: 1f2a 95bd c699 b0be 2e97 c3bd ca4e 593e
000001e0: 6b8d f8bc cc31 e2bb 32da 2b3e 0853 c03c
000001f0: 5b6e 0ebe 0a0f de3d eb8c 70be 305f 97bd
00000200: cc44 113d ca32 8f3d c090 033e f560 c4bd
00000210: 503c f4bd 428d a2bd ba08 983d dc8e 1bbe
00000220: 0725 78bd 327e 3e3e 902e 293d 7ddd 21be
00000230: ebef 0fbe 1913 c5bc 3b54 a7bc 0429 e7bd
00000240: aa23 cebd 55e9 74be ad12 b8bd 01da a23c
00000250: f4de 76bd 8822 97bd cbe4 b8bd 1207 39be
00000260: 36ce 903e f4d9 dfbd b0a2 2c3c 5abb 6f3d
00000270: adb5 113e a66d 80be ad7f 47bd bfd4 f0bc
00000280: 9393 50be cffa 8ebe f6de 03be 4c5d e4bd
00000290: 3df8 25bc 3bee 87bc d87d 1ebe 679a 123e
000002a0: 733b b63d 4333 a0bc 4531 5dbd 0758 89be
000002b0: d2b2 a8be e885 ecbd 759a 4bbd 4524 5dbe
000002c0: cf53 8cbd be53 1d3e 2264 05be 5bbf 3dbc
000002d0: 417f aabd 8300 75be 9a87 93bd c594 c6bd
000002e0: 8301 a13d 0156 38bc 7702 183e 5027 bb3d
000002f0: 5cf9 9f3c 22af 1bbe 16c5 41be da81 9a3d
00000300: 7c11 e53e 568c 8d3e d404 7ebd 0fa0 2fbe
00000310: cff2 c23e f607 0e3e a60e f3bd 43c6 f2bd
00000320: 3eb6 f5be 48ed ae3d cfa8 2d3e 9515 3abe
00000330: 0857 84be 7e1a 013e bc73 38bd 4605 30be
00000340: d0ff 353f ebff 2b3d c94f 75bc 78f5 adbe
00000350: e0db ec3d e03b 2cbd d52d dabd b43f bdbe
00000360: a982 b1bd 93b2 9d3d ff40 88be b27a 81bd
00000370: 4e11 c2bd 5e45 a93e ce7f d13d fa29 b8be
00000380: acee b03e db0b 15bf 587e 8b3e c2cb 11bd
00000390: 5750 a33e 0c6c 893e ca3d 143d 2d0a 20bd
000003a0: fc8a ef3e 7b88 91bd 672e 5fbe ea6d c4bd
000003b0: 8c04 a2bd 1e58 993d c970 4bbe 6973 e6bd
000003c0: d236 47be c184 a7bd 8635 bebb 208d 68be
000003d0: de03 58be 215c 98be 3ec5 743d a678 69be
000003e0: 52df c6bd 8a48 223e bc1f 2f3e 557b 08be
000003f0: 93a6 36be 5db4 8abe 7cc7 4e3e 9da3 a4bd

predictionFunction.value_head.0.bias f4 [64]
-0.14519487 -0.14019501 -0.0048546046 -0.13214456 -0.10217087 -0.04760822 0.019591065 -0.2768803
0.10839836 -0.08134381 -0.109308444 -0.20588325 -0.10016076 -0.19165738 -0.23473692 -0.26239204
-0.09581236 -0.08979899 -0.046453554 0.34380037 -0.0662663 -0.18705887 0.3760778 -0.19695143
-0.07332953 -0.17551722 -0.10854068 0.19096446 -0.03374582 -0.11624707 0.087400936 0.002430877
-0.14253323 0.021784535 0.29666588 -0.20591016 -0.22356981 0.05930266 0.026349625 -0.160086
-0.04832924 0.06850024 -0.12394316 0.0698625 0.08331891 0.096035786 -0.17068094 -0.13602354
0.014721866 -0.17318511 -0.064892 0.08411406 -0.16793288 0.0048792725 -0.2032549 0.29211223
0.17678832 -0.09708751 -0.13246214 -0.14314319 0.33990148 0.41775697 0.091639444 -0.31523988
00000000: f7ad 14be 488f 0fbe 6013 9fbb e750 07be
00000010: f63e d1bd d600 43bd 717d a03c 41c3 8dbe
00000020: f6ff dd3d 9597 a6bd 1bdd dfbd 0fd3 52be
00000030: 1621 cdbd d541 44be e05e 70be 4058 86be
00000040: 4539 c4bd 88e8 b7bd 1546 3ebd 9a06 b03e
00000050: a0b6 87bd 5c8c 3fbe 458d c03e a3ad 49be
00000060: cb2d 96bd c9ba 33be 934a debd 308c 433e
00000070: 0f39 0abd f212 eebd 43ff b23d 594f 1f3b
00000080: 3bf4 11be 7b75 b23c 97e4 973e 1dda 52be
00000090: 7cef 64be 59e7 723d 2bdb d73c 96ed 23be
000000a0: e2f4 45bd db49 8c3d e9d5 fdbd 1214 8f3d
000000b0: 1ba3 aa3d 69ae c43d fcc6 2ebe c149 0bbe
000000c0: fb33 713c 7057 31be 19e6 84bd fe43 ac3d
000000d0: 99f6 2bbe 4ee2 9f3b 0d22 50be bc8f 953e
000000e0: ff07 353e d1d5 c6bd 28a4 07be 2194 12be
000000f0: 9107 ae3e 3ee4 d53e 76ad bb3d 1f67 a1be

predictionFunction.value_head.2.weight f4 [41, 64]
-0.07590156 -0.6768821 -0.26320368 -0.8160342 -0.9854746 -0.96477216 -1.3323897 -0.7720012
-1.697336 -0.42998216 0.03483449 -0.17238756 -0.43788418 -0.50306284 -1.0861318 -1.856743
-0.28392538 -0.22354439 -1.4528825 -2.0589707 -0.114721514 -0.43495846 -1.7268784 -0.92254883
-0.74449027 0.07631412 -0.41502544 -0.5160213 -0.18001898 -1.0324873 -1.568377 -1.734335
-0.32557252 -0.4516791 -1.7169616 -0.5912311 -0.48491335 -0.69248194 -1.7056495 -0.2760383
-0.28864327 -0.8094356 -0.09334435 -0.6084741 -1.4867336 -1.1508226 -0.15531504 0.08163952
-0.21306966 -1.0666134 -0.71524537 -1.3033813 -0.032325502 -0.8248465 -0.42671892 -1.6215067
-1.5126166 -0.042208105 -0.113835886 -1.6082407 -1.7239727 -1.09029 -1.5873073 -0.47581705
-0.021624297 -0.7447347 -0.09866124 -0.7986866 -0.9585067 -1.0174979 -1.2251949 -0.66908634
-1.6851028 -0.5097116 -0.0660164 -0.33871597 -0.6352341 -0.54208827 -1.0236005 -1.8933588
-0.12439563 -0.18214557 -1.5970281 -1.9817078 -0.06774264 -0.38955984 -1.8204626 -0.93220484
-0.6153801 0.047429945 -0.41700336 -0.45540988 -0.07397296 -0.8322125 -1.5342119 -1.6245502
-0.12340028 -0.47128913 -1.729315 -0.5481319 -0.6050353 -0.78762126 -1.6167699 -0.14534992
-0.1682921 -0.6444447 -0.03666513 -0.66799456 -1.44423 -1.2455038 -0.48069316 -0.07384091
-0.18530908 -1.2153552 -0.67465246 -1.2365125 0.022378054 -0.60000604 -0.5804677 -1.628411
-1.4894992 -0.046610527 -0.17838465 -1.5509623 -1.7744383 -1.0817409 -1.6468699 -0.38535377
-0.061051548 -0.7753117 -0.16080569 -0.8297311 -1.0875629 -0.98240954 -1.3236068 -0.6191667
-1.6381716 -0.5051489 0.057079133 -0.25354505 -0.5239485 -0.4697265 -1.1819805 -1.9149873
-0.28709924 -0.070565194 -1.5105093 -1.8687074 0.022335082 -0.29140875 -1.8771621 -0.9652668
-0.67798066 0.09432602 -0.4015949 -0.54981965 -0.17062587 -1.0161918 -1.6023436 -1.5923218
-0.13787985 -0.6121808 -1.7352554 -0.43925324 -0.53694546 -0.75035614 -1.6969959 -0.122983225
-0.18884218 -0.7212418 -0.06861667 -0.78895587 -1.4271467 -1.2515309 -0.22938052 0.088494666
-0.28216588 -1.0779191 -0.8942776 -1.267489 0.1110942 -0.66122466 -0.50362307 -1.6100537
-1.4287587 -0.06660917 -0.2243393 -1.5776561 -1.805369 -1.2076032 -1.624673 -0.52060926
-0.07267233 -0.61872 -0.30033103 -0.8161987 -0.9652819 -1.028065 -1.1920089 -0.64728004
-1.6178708 -0.49246445 -0.009145271 -0.1603682 -0.53478324 -0.47918922 -1.0759972 -2.120954
-0.14359903 -0.13023743 -1.6186297 -1.919246 -0.089468315 -0.33781466 -1.8465201 -0.8462953
-0.5350762 -0.03919201 -0.3670425 -0.47941193 -0.17076351 -0.9217336 -1.4094282 -1.7340381
-0.13752317 -0.38839242 -1.7561399 -0.50638556 -0.571519 -0.5852357 -1.7719965 -0.14273135
-0.33876127 -0.80803436 0.09424258 -0.6828533 -1.5097862 -1.1633998 -0.46341756 0.10578924
-0.29485512 -1.2111367 -0.737044 -1.3196474 -0.00044929236 -0.8019894 -0.44319108 -1.6440264
-1.5255839 -0.1049175 -0.24777703 -1.4814986 -1.8168561 -1.2468866 -1.5753186 -0.39104122
00000000: 4772 9bbd 2548 2dbf a2c2 86be 9ee7 50bf
00000010: 1048 7cbf 4ffb 76bf bf8b aabf dfa1 45bf
00000020: 4e42 d9bf 9f26 dcbe 9cae 0e3d 5d86 30be
00000030: 5b32 e0be bac8 00bf 5e06 8bbf c1a9 edbf
00000040: ab5e 91be d2e8 64be 0ef8 b9bf 2dc6 03c0
00000050: 1df3 eabd e0b2 debe 5a0a ddbf 292c 6cbf
00000060: ea96 3ebf 944a 9c3d 377e d4be f919 04bf
00000070: e556 38be 8b28 84bf 94c0 c8bf b0fe ddbf
00000080: 71b1 a6be 7c42 e7be 66c5 dbbf ec5a 17bf
00000090: 9046 f8be 7f46 31bf b952 dabf e454 8dbe
000000a0: 0dc9 93be 2c37 4fbf 532b bfbd f5c4 1bbf
000000b0: 494d bebf 284e 93bf e80a 1fbe 9f32 a73d
000000c0: ef2e 5abe ca86 88bf 521a 37bf 33d5 a6bf
000000d0: bf67 04bd 2429 53bf e77a dabe 888d cfbf
000000e0: 6c9d c1bf 68e2 2cbd ca22 e9bd d5da cdbf
000000f0: 23ab dcbf 9f8e 8bbf e32c cbbf 4b9e f3be
00000100: 7025 b1bc efa6 3ebf e70e cabd ba76 4cbf
00000110: b260 75bf 5f3d 82bf 30d3 9cbf 3e49 2bbf
00000120: 73b1 d7bf 767c 02bf 9b33 87bd 2e6c adbe
00000130: b49e 22bf 4cc6 0abf 5705 83bf 9559 f2bf
00000140: 23c3 febd 5e84 3abe 6b6b ccbf 9aa8 fdbf
00000150: a7bc 8abd 6374 c7be eb04 e9bf faa4 6ebf
00000160: 8d89 1dbf e745 423d 7781 d5be 7c2b e9be
00000170: 237f 97bd e10b 55bf 0e61 c4bf 43f1 cfbf
00000180: 49b9 fcbd cf4c f1be 325a ddbf 5f52 0cbf
00000190: 98e3 1abf 8ca1 49bf 51f2 cebf 9cd6 14be
000001a0: c454 2cbe 54fa 24bf 2d2e 16bd b101 2bbf
000001b0: 87dc b8bf ab6c 9fbf 6a1d f6be e739 97bd
000001c0: aac1 3dbe c290 9bbf 06b6 2cbf 0b46 9ebf
000001d0: 2e52 b73c ff99 19bf 8899 14bf c66f d0bf
000001e0: e9a7 bebf aeea 3ebd 77aa 36be ef85 c6bf
000001f0: cb20 e3bf 7c76 8abf a2cc d2bf 174d c5be
00000200: 3011 7abd d47a 46bf 3faa 24be 4269 54bf
00000210: 4335 8bbf 317f 7bbf f36b a9bf b581 1ebf
00000220: 9baf d1bf 7051 01bf cfcb 693d a8d0 81be
00000230: 7d21 06bf fe7f f0be 234b 97bf 4e1e f5bf
00000240: acfe 92be 7c84 90bd 5e58 c1bf ce31 efbf
00000250: 10f8 b63c 8733 95be d946 f0bf ba1b 77bf
00000260: 2490 2dbf 002e c13d d99d cdbe fbc0 0cbf
00000270: 8cb8 2ebe 9312 82bf 9819 cdbf 33d1 cbbf
00000280: 6030 0dbe e2b7 1cbf d91c debf cde5 e0be
00000290: 4275 09bf 5717 40bf 2937 d9bf a1de fbbd
000002a0: d85f 41be 4da3 38bf e686 8cbd 03f9 49bf
000002b0: beac b6bf 2a32 a0bf bae2 6abe b13c b53d
000002c0: 0c78 90be 41f9 89bf 60ef 64bf 143d a2bf
000002d0: 5b85 e33d 0546 29bf 71ed 00bf 3d16 cebf
000002e0: 91e1 b6bf 636a 88bd 34b9 65be a3f0 c9bf
000002f0: 5516 e7bf be92 9abf 49f5 cfbf a646 05bf
00000300: 3bd5 94bd 6f64 1ebf fdc4 99be 66f2 50bf
00000310: b71c 77bf a297 83bf bf93 98bf 25b4 25bf
00000320: 6416 cfbf 4d24 fcbe 0cd6 15bc 9037 24be
00000330: 8ee7 08bf 4a58 f5be 47ba 89bf b6bd 07c0
00000340: a00b 13be f65c 05be 422f cfbf daa9 f5bf
00000350: 2a3b b7bd 0bf6 acbe c55a ecbf cfa6 58bf
00000360: c1fa 08bf cd87 20bd ffec bbbe 7b75 f5be
00000370: a1dc 2ebe bcf6 6bbf 2568 b4bf f6f4 ddbf
00000380: e0d2 0cbe 5fdb c6be 31c9 e0bf 7ca2 01bf
00000390: 124f 12bf 02d2 15bf c8d0 e2bf 2b28 12be
000003a0: 1e72 adbe 57db 4ebf 4102 c13d 79cf 2ebf
000003b0: ad40 c1bf 49ea 94bf 1145 edbe 07a8 d83d
000003c0: 40f7 96be 8706 9bbf eaae 3cbf 35ea a8bf
000003d0: 008f ebb9 2d4f 4dbf f1e9 e2be 756f d2bf
000003e0: 5546 c3bf fcde d6bd 43b9 7dbe bfa1 bdbf
000003f0: be8e e8bf fb99 9fbf 0aa4 c9bf 8e36 c8be

predictionFunction.value_head.2.bias f4 [41]
-1.6683457 -1.6951342 -1.6117506 -1.6380228 -1.6846075 -1.7024959 -1.6295831 -1.5559835
-1.7164237 -1.5709273 -1.5945839 -1.5862241 -1.6054001 -1.7589065 -1.7622055 -1.720219
-1.5292416 -1.7102109 -1.792772 -1.7512616 -0.69287634 -0.6064582 -0.4343493 -0.7071756
-0.04689494 -0.02331326 -0.024930986 -0.20101506 -0.0065245912 -0.0038074162 0.0036507957 -0.14147542
-0.5240161 -1.628276 -1.7318624 -1.6841718 -1.7310088 -1.7335896 -1.6630082 -1.7665613
-1.7341037
00000000: 5a8c d5bf 28fa d8bf d84d cebf bbaa d1bf
00000010: 38a1 d7bf 63eb d9bf 2e96 d0bf 782a c7bf
00000020: c6b3 dbbf 2514 c9bf 531b ccbf 6409 cbbf
00000030: c07d cdbf d923 e1bf f38f e1bf 2330 dcbf
00000040: 30be c3bf 31e8 dabf 8e79 e5bf 5729 e0bf
00000050: 5860 31bf d840 1bbf 0863 debe 7609 35bf
00000060: e914 40bd 73fb bebc 113c ccbc e4d6 4dbe
00000070: 3dcc d5bb d885 79bb 3042 6f3b efde 10be
00000080: eb25 06bf 596b d0bf abad ddbf f192 d7bf
00000090: b291 ddbf 44e6 ddbf 74dd d4bf ae1e e2bf
000000a0: 1cf7 ddbf

dynamicsFunction.startBlock.0.weight f4 [64, 34]
0.19843623 0.3184173 -0.06991285 0.10650263 0.12470232 0.1685096 -0.031074153 -0.04209558
-0.06267664 -0.15398352 0.29602075 0.056975465 -0.008996758 0.14895688 -0.021984128 0.32802224
0.15846843 0.087618895 -0.049516913 0.20203727 0.22497357 0.20072615 -0.11409671 0.1055775
0.25343767 0.117630765 0.21843766 0.022692852 0.25529173 -0.0118474215 -0.09704815 0.06494081
0.29036188 -0.31715333 -0.27867195 0.14010203 -0.15850618 -0.056743667 -0.08640677 0.3482667
-0.2503582 -0.051028162 -0.054776613 0.30774418 -0.1442508 0.075708844 0.23748268 0.29433683
0.25366822 0.07087971 -0.016144482 0.11670549 -0.16795285 -0.049109157 -0.052292466 -0.003891443
0.036322366 0.12503465 0.22485287 0.11564555 0.057409577 0.3683614 -0.1171769 -0.01943549
-0.11602502 0.15375756 0.284423 -0.4062457 0.10071547 -0.1650093 0.52487785 -0.2828775
0.04648119 -0.08931486 0.11826657 -0.09302299 0.073121354 -0.1861975 0.16582036 0.13324569
-0.27412093 -0.24689269 0.028139532 -0.18735217 -0.068901315 0.003971137 -0.18115464 0.08668691
0.15131786 -0.19496754 -0.26153415 -0.18060131 -0.34240338 -0.28595337 -0.20081235 -0.4467832
0.11849641 -0.4125859 0.55577147 0.20731355 -0.10681383 0.20310618 0.033643045 -0.22732785
0.04575326 0.4331588 0.72483516 -0.15482979 0.1318641 -0.13500136 0.47978055 0.11184223
0.021452963 0.28996378 -0.1841447 -0.059125863 -0.024283396 -0.57093626 -0.012036019 -0.16106461
0.14380121 -0.58702993 -0.13575613 -0.24230137 0.11758788 -0.0749472 0.014520591 -0.0051777326
-0.2489224 0.17264563 -0.3328712 0.19723673 -0.07558186 -0.23597139 -0.0014363508 -0.04457046
0.0008685028 -0.007759717 -0.26167724 0.56194067 0.24023648 -0.08307851 0.040774405 -0.4185514
-0.11138103 -0.1013976 0.031510487 -0.06901973 0.15800494 -0.04458722 -0.48468018 0.123520084
-0.03726426 -0.00668414 -0.23525783 -0.23281725 -0.2079197 -0.06552692 -0.05108668 -0.053107668
0.22926977 0.19165175 0.20362927 0.40683335 0.079765886 -0.08560981 0.12103054 -0.13730218
-0.1741405 -0.071126066 -0.0014857716 -0.25367254 0.18995936 0.041031245 -0.08882768 -0.17416658
-0.03692943 -0.10451908 0.06671882 -0.012064781 0.051959652 0.15491511 0.24478556 0.031215578
0.06434585 -0.17884076 -0.28689384 0.24622379 -0.05908025 -0.4809039 -0.03789457 -0.2053234
0.07700042 -0.15361364 -0.13877828 -0.21781552 0.034159265 0.22161932 0.07011524 0.2036308
0.23608342 -0.04937907 -0.06970548 -0.022471087 0.30205837 0.03535753 0.030591277 -0.037729625
0.21173105 -0.21392752 -0.13100772 -0.20499183 0.16178492 0.05603636 -0.02087813 0.13600023
-0.3116311 -0.2904526 -0.09123636 -0.11461615 0.1421015 -0.09618157 -0.1399782 0.012525783
0.12136497 0.18225826 -0.27359787 0.00303672 0.054414768 -0.2574632 -0.08979292 -0.17483099
0.15385713 -0.040321738 0.003423348 -0.1774191 -0.5358643 0.5264609 0.03654117 -0.0585475
0.21261775 0.023608655 -0.0619998 0.0524193 -0.19145949 -0.039113197 0.009082219 0.06636198
-0.048115335 0.07391145 0.06980346 -0.10138725 0.016062051 0.09099801 0.12431272 0.10740586
00000000: de32 4b3e 9807 a33e 782e 8fbd 0d1e da3d
00000010: ee63 ff3d c88d 2c3e 398f febc 6a6c 2cbd
00000020: 9c5c 80bd dbad 1dbe 0890 973e 1b5f 693d
00000030: 2367 13bc 2788 183e 0f18 b4bc 88f2 a73e
00000040: 8c45 223e 8971 b33d 3fd2 4abd dce2 4e3e
00000050: 795f 663e 288b 4d3e 89ab e9bd 0439 d83d
00000060: 95c2 813e 66e8 f03d 1fae 5f3e 5ce6 b93c
00000070: 99b5 823e b01b 42bc 2ec1 c6bd b0ff 843d
00000080: 50aa 943e ec61 a2be 17ae 8ebe e876 0f3e
00000090: 724f 22be 0c6c 68bd 08f6 b0bd 0350 b23e
000000a0: f32e 80be e802 51bd 715d 60bd a590 9d3e
000000b0: 7bb6 13be 3d0d 9b3d a92e 733e 51b3 963e
000000c0: cde0 813e 6229 913d 6f41 84bc 4a03 ef3d
000000d0: d5fb 2bbe af26 49bd a030 56bd 9407 7fbb
000000e0: c3c6 143d 1509 003e d53f 663e 93d7 ec3d
000000f0: 4e26 6b3d de99 bc3e 71fa efbd 2d37 9fbc
00000100: 879e edbd 9f72 1d3e e49f 913e 70ff cfbe
00000110: ea43 ce3d 33f8 28be 655e 063f 52d5 90be
00000120: 0f63 3e3d b6ea b6bd be35 f23d d682 bebd
00000130: a6c0 953d 8faa 3ebe d0cc 293e 8f71 083e
00000140: 9459 8cbe 70d1 7cbe e084 e63c 3fd9 3fbe
00000150: 221c 8dbd 5020 823b 9a80 39be e888 b13d
00000160: 12f3 1a3e 92a5 47be cee7 85be 8def 38be
00000170: 7f4f afbe 7b68 92be c1a1 4dbe c5c0 e4be
00000180: 3fae f23d 763e d3be 0a47 0e3f 014a 543e
00000190: 36c1 dabd 11fb 4f3e 4acd 093d a2c8 68be
000001a0: c567 3b3d fdc6 dd3e cc8e 393f b38b 1ebe
000001b0: 6207 073e cc3d 0abe cca5 f53e 8a0d e53d
000001c0: 20be af3c 2276 943e 6e90 3cbe f62d 72bd
000001d0: f9ed c6bc e128 12bf b932 45bc 1fee 24be
000001e0: a040 133e 9847 16bf a803 0bbe da1d 78be
000001f0: ead1 f03d eb7d 99bd c6e7 6d3c f8a9 a9bb
00000200: 83e5 7ebe 04ca 303e 186e aabe 6df8 493e
00000210: aaca 9abd 7ca2 71be ef43 bcba 848f 36bd
00000220: 3cac 633a 3945 febb 8ffa 85be 58db 0f3f
00000230: 8d00 763e 1125 aabd 1003 273d 5e4c d6be
00000240: bd1b e4bd 8ba9 cfbd 2411 013d 375a 8dbd
00000250: 0ccc 213e 17a1 36bd 0028 f8be 19f8 fc3d
00000260: 69a2 18bd a106 dbbb 6ee7 70be a567 6ebe
00000270: e7e8 54be fa32 86bd 4440 51bd 6d87 59bd
00000280: b2c5 6a3e 5b40 443e 3184 503e 764c d03e
00000290: 4c5c a33d 3254 afbd dcde f73d f198 0cbe
000002a0: e351 32be 8baa 91bd 39be c2ba 5ee1 81be
000002b0: b584 423e 6110 283d 49eb b5bd b958 32be
000002c0: 5043 17bd 190e d6bd e0a3 883d 5cab 45bc
000002d0: a5d3 543d 11a2 1e3e 11a9 7a3e d0b7 ff3c
000002e0: c2c7 833d 0822 37be c0e3 92be 1722 7c3e
000002f0: 22fe 71bd 0939 f6be 5637 1bbd 4c40 52be
00000300: 65b2 9d3d e54c 1dbe e51b 0ebe 080b 5fbe
00000310: 96ea 0b3d 2df0 623e 9498 8f3d 9884 503e
00000320: dabf 713e b541 4abd bfc1 8ebd 4915 b8bc
00000330: 65a7 9a3e 0fd3 103d 8f9a fa3c 618a 1abd
00000340: 06d0 583e d10f 5bbe e326 06be 61e9 51be
00000350: f2aa 253e 6286 653d 9d08 abbc a543 0b3e
00000360: 1d8e 9fbe 34b6 94be 21da babd dfbb eabd
00000370: 0e83 113e d8fa c4bd 7256 0fbe f138 4d3c
00000380: 338e f83d e9a1 3a3e 0515 8cbe b503 473b
00000390: 05e2 5e3d 37d2 83be 5ae5 b7bd e506 33be
000003a0: b98c 1d3e 6828 25bd 405a 603b 5aad 35be
000003b0: 672e 09bf 24c6 063f 32ac 153d 81cf 6fbd
000003c0: 78b8 593e f066 c13c 81f3 7dbd 9fb5 563d
000003d0: f50d 44be 2935 20bd 96cd 143c cae8 873d
000003e0: 9614 45bd e35e 973d 1ef5 8e3d 1ea4 cfbd
000003f0: 9094 833c 2a5d ba3d ab97 fe3d 9bf7 db3d

dynamicsFunction.startBlock.0.bias f4 [64]
0.08217483 0.10560881 0.08652541 -0.17424558 -0.15303908 -0.154257 0.19947873 -0.04362612
0.17392872 0.05000881 -0.06707929 0.1547142 0.013583506 0.14680462 0.048773095 -0.18219995
-0.20713523 0.21046264 -0.040051717 -0.2627675 -0.16472566 0.032667413 -0.17542826 -0.108946234
-0.043307476 0.103218846 0.26140994 -0.11482349 -0.2179224 0.14133364 -0.02728605 -0.08755005
0.110707134 0.009534037 0.10216069 0.09691671 0.048658725 -0.033938993 -0.0001242643 -0.22801149
0.010270195 0.053208172 -0.18062058 0.23683603 -0.043518405 0.07892527 -0.04088581 -0.06426069
0.14069618 0.14933956 0.02912132 -0.15305014 -0.00039365332 -0.0050741024 -0.004470887 -0.09543844
-0.0042898078 0.12199418 -0.040983167 0.14364633 0.14482774 0.043962296 0.116245516 0.09725712
00000000: 474b a83d 6f49 d83d 3c34 b13d 6f6d 32be
00000010: 47b6 1cbe 8cf5 1dbe 2744 4c3e 4db1 32bd
00000020: 5f1a 323e 0ad6 4c3d de60 89bd 666d 1e3e
00000030: 5b8d 5e3c f353 163e 4cc6 473d a092 3abe
00000040: 421b 54be 8583 573e 450d 24bd 7689 86be
00000050: d8ad 28be 44ce 053d 77a3 33be 341f dfbd
00000060: 2e63 31bd 6764 d33d 86d7 853e 9428 ebbd
00000070: 0d27 5fbe c4b9 103e ff86 dfbc 714d b3bd
00000080: 6cba e23d a634 1c3c a039 d13d 457c c63d
00000090: 5f4e 473d 9d03 0bbd f24c 02b9 d87b 69be
000000a0: 5244 283c d0f0 593d 9af4 38be 2585 723e
000000b0: 5b40 32bd 92a3 a13d e177 27bd 1c9b 83bd
000000c0: a912 103e 78ec 183e d68f ee3c 2db9 1cbe
000000d0: 4163 ceb9 a844 a6bb 8580 92bb 3b75 c3bd
000000e0: 8491 8cbb 16d8 f93d f7dd 27bd 0618 133e
000000f0: b94d 143e cf11 343d 2112 ee3d be2e c73d

dynamicsFunction.startBlock.2.weight f4 [32, 64]
-0.04736468 -0.23541793 0.071121246 -0.07505198 -0.19595969 -0.06272708 0.2705499 0.031459726
0.20872307 0.051284462 -0.23279557 0.050433375 0.12021876 0.22970606 -0.028371474 -0.120848276
-0.10597255 0.005823656 -0.00023849287 -0.19977042 -0.1487549 -0.06989427 0.047901876 -0.085200466
-0.062005464 0.18091792 0.22968693 -0.006566589 0.10457016 -0.09469648 0.0048525757 -0.023416748
-0.07286372 -0.04055163 0.086865745 -0.42619836 -0.22647859 -0.03942931 0.21528335 -0.17387547
-0.07881293 -0.1502571 0.22580503 0.0101305125 -0.2912012 -0.076804206 0.023598379 0.091325745
-0.11941513 0.14599478 -0.17520571 0.19461288 0.06802855 -0.07165187 -0.22716707 -0.18026029
-0.28931093 0.0875262 0.33316603 0.20261897 0.15920387 -0.09312442 -0.05519946 -0.27214378
0.06393404 0.27811489 -0.4989724 -0.028724423 -0.007317006 -0.39757946 -0.45490825 -0.08494273
-0.31808278 -0.121345006 0.25661466 -0.14991683 -0.103234254 -0.74342763 -0.11471926 0.119572856
1.1786836 -0.10280112 0.0011868796 0.21910451 0.11843826 0.022225318 0.19562869 0.0811391
0.07776227 0.31131843 -0.8312688 0.091413155 0.016861275 -0.18002838 -0.09185181 0.3266687
0.026462995 0.44679335 -0.13584477 -0.040492512 0.3326287 -0.008637059 -0.088651806 0.1759052
-0.07453214 0.398593 0.065744735 -0.16117816 0.38930935 0.1156979 0.08324799 0.14598015
0.18963464 -1.1663344 -0.02255617 -0.14709623 0.5115866 0.09128393 0.17383288 0.32232103
-0.19148996 0.056601886 0.08470031 -0.023656324 -0.63857037 -0.7955025 0.102217026 -0.23931298
0.019866614 -0.25954932 0.22756135 -0.29908776 0.06561001 0.54099286 -0.062422212 -0.068406664
0.06772459 0.29101172 -0.19321962 0.057411548 0.16818205 0.26741004 0.06352039 0.13206981
-0.14897594 0.5308019 -0.3349087 -0.11273174 -0.04640321 0.3010946 0.056938224 0.097620964
-0.04498001 -0.41073534 0.3828258 -0.24772485 -0.045671154 0.11732406 -0.29907614 -0.22981213
0.030841697 0.14782636 -0.33372778 0.20326789 -0.20543614 -0.13184273 -0.30976814 -0.030327978
-0.08199153 0.033523455 -0.07594061 -0.067811 -0.40837383 0.20956625 0.4258426 -0.11659515
-0.24996077 -0.19185883 0.012437234 0.20821331 0.5009323 -0.012363084 -0.14082973 -0.12862001
-0.18853168 0.04923881 -0.21424909 0.17516567 -0.024928572 -0.11527446 0.35914597 0.15147536
-0.021585044 0.110127166 -0.19300994 -0.051675476 0.28376514 -0.07492365 -0.019275527 -0.013536371
-0.31596023 0.10183376 0.19472627 0.08136008 -0.14552787 -0.19749163 -0.4149077 0.03387892
0.06161294 -0.37056398 0.48871356 -0.0060045295 -0.00271315 -0.21796787 -0.09849409 0.09102366
-0.2223168 0.056823168 0.023934545 0.053441513 -0.07982699 -0.14448258 0.16928795 0.1479892
-0.1402747 -0.08836915 0.24154627 -0.20051439 0.098575726 0.2528767 0.14510955 0.08176198
0.014459413 0.04332762 0.024559714 0.13314861 0.31383866 -0.25186992 -0.5050758 0.30909854
0.17325582 -0.077009626 -0.023301186 -0.19164291 0.102779895 0.027141111 -0.02999353 0.21600756
0.01421815 -0.024661304 -0.004744013 -0.08086533 -0.003981025 -0.13074526 -0.16086312 0.17612983
00000000: 7701 42bd 6611 71be 04a8 913d dab4 99bd
00000010: a8a9 48be 0e77 80bd 8485 8a3e eadb 003d
00000020: 80bb 553e a80f 523d f661 6ebe 3a93 4e3d
00000030: 4135 f63d 1138 6b3e 4b6b e8bc 4d7f f7bd
00000040: 2308 d9bd 5ed4 be3b f113 7ab9 9e90 4cbe
00000050: 3453 18be ba24 8fbd c234 443d 957d aebd
00000060: 71f9 7dbd 8c42 393e 0d33 6b3e 8b2c d7bb
00000070: e128 d63d 3af0 c1bd 5b02 9f3b 7bd4 bfbc
00000080: 9339 95bd 7719 26bd abe6 b13d ac36 dabe
00000090: 01ea 67be a180 21bd 3d73 5c3e 690c 32be
000000a0: ac68 a1bd ffdc 19be 6f39 673e 73fa 253c
000000b0: 5318 95be 864b 9dbd 6351 c13c fe08 bb3d
000000c0: eb8f f4bd a87f 153e 2069 33be 9948 473e
000000d0: 8d52 8b3d 37be 92bd 7c9e 68be 2796 38be
000000e0: 9020 94be f040 b33d bd94 aa3e 597b 4f3e
000000f0: 5706 233e 04b8 bebd d418 62bd 6e56 8bbe
00000100: daef 823d 1365 8e3e 4f79 ffbe 7b4f ebbc
00000110: 7fc3 efbb 898f cbbe bce9 e8be 74f6 adbd
00000120: bfdb a2be bb83 f8bd ff62 833e cc83 19be
00000130: 7b6c d3bd 4651 3ebf eef1 eabd 9de2 f43d
00000140: 1bdf 963f 6589 d2bd 1291 9b3a ef5c 603e
00000150: c28f f23d df11 b63c e352 483e 422c a63d
00000160: d341 9f3d 2165 9f3e 08ce 54bf d236 bb3d
00000170: a820 8a3c 5c59 38be cd1c bcbd 1f41 a73e
00000180: ecc8 d83c 19c2 e43e e41a 0bbe 7adb 25bd
00000190: 4f4e aa3e 7382 0dbc 148f b5bd 7e20 343e
000001a0: 4ea4 98bd 6214 cc3e 2da5 863d e30b 25be
000001b0: 8e53 c73e 05f3 ec3d ec7d aa3d d27b 153e
000001c0: 952f 423e 724a 95bf b8c7 b8bc 65a0 16be
000001d0: 57f7 023f 12f3 ba3d 3f01 323e 4307 a53e
000001e0: f215 44be 61d7 673d 5b77 ad3d e8ca c1bc
000001f0: 5979 23bf 0da6 4bbf 2957 d13d 760e 75be
00000200: 4fbf a23c a6e3 84be d805 693e 0822 99be
00000210: 8a5e 863d 827e 0a3f 6fae 7fbd cb18 8cbd
00000220: 31b3 8a3d 7dff 943e 5ddb 45be 5f28 6b3d
00000230: ea37 2c3e f8e9 883e fa16 823d 4f3d 073e
00000240: 268d 18be a2e2 073f 2779 abbe e6df e6bd
00000250: 4b11 3ebd 1229 9a3e 0e38 693d 80ed c73d
00000260: f53c 38bd e74b d2be be01 c43e 95ab 7dbe
00000270: ad11 3bbd 9947 f03d 8220 99be df53 6bbe
00000280: baa7 fc3c cb5f 173e 5ede aabe 7525 503e
00000290: da5d 52be c801 07be ee99 9ebe 6172 f8bc
000002a0: 2deb a7bd e44f 093d c086 9bbd 7ee0 8abd
000002b0: 6016 d1be 8998 563e 0b08 da3e 70c9 eebd
000002c0: b7f5 7fbe a476 44be 8ac5 4b3c df35 553e
000002d0: 193d 003f 888e 4abc ab35 10be f7b4 03be
000002e0: 730e 41be a2ae 493d 1d64 5bbe a15e 333e
000002f0: 0137 ccbc 0415 ecbd fbe1 b73e 5b1c 1b3e
00000300: 1ed3 b0bc 5a8a e13d 66a4 45be aaa9 53bd
00000310: aa49 913e 9271 99bd b6e7 9dbc a8c7 5dbc
00000320: 8ac5 a1be 388e d03d 5366 473e 1da0 a63d
00000330: 4205 15be 3f3b 4abe c86e d4be 9fc4 0a3d
00000340: da5d 7c3d 90ba bdbe aa38 fa3e a5c1 c4bb
00000350: 1bcf 31bb f832 5fbe 45b7 c9bd 9d6a ba3d
00000360: 04a7 63be 69bf 683d 6112 c43c 7de5 5a3d
00000370: 557c a3bd 3ef3 13be d259 2d3e 7b8a 173e
00000380: 2ca4 0fbe e3fa b4bd e857 773e a553 4dbe
00000390: 12e2 c93d 0e79 813e 9997 143e d372 a73d
000003a0: 2ce7 6c3c 4d78 313d 7431 c93c 1c58 083e
000003b0: 76af a03e 18f5 80be a64c 01bf 2a42 9e3e
000003c0: f969 313e 39b7 9dbd 21e2 bebc 0a3e 44be
000003d0: 447e d23d 0957 de3c feb4 f5bc 1631 5d3e
000003e0: 3ef3 683c 8106 cabc aa73 9bbb b99c a5bd
000003f0: 4273 82bb 16e2 05be 4db9 24be 615b 343e

dynamicsFunction.startBlock.2.bias f4 [32]
0.032781508 -0.375145 0.081110425 -0.13533336 -0.041296132 0.048879307 0.06071016 0.021542251
-0.19284059 0.14223528 0.1580781 -0.09914052 0.14874753 0.0114725055 0.08826129 0.26947874
0.12818582 0.04083796 0.03292946 0.10605924 -0.16509147 -0.118770815 -0.18742384 0.16004296
-0.11313472 -0.16774148 0.132008 -0.14334923 0.11854279 0.011928736 0.11697572 0.025564851
00000000: e745 063d 0113 c0be 391d a63d d494 0abe
00000010: 2226 29bd ab35 483d 37ab 783d 6079 b03c
00000020: 0178 45be 20a6 113e 3adf 213e 2f0a cbbd
00000030: 4651 183e 2df7 3b3c 56c2 b43d 1ef9 893e
00000040: 2543 033e b445 273d 0be1 063d 9635 d93d
00000050: bd0d 29be 1d3e f3bd 09ec 3fbe 4de2 233e
00000060: 2db3 e7bd 6cc4 2bbe 1b2d 073e 24ca 12be
00000070: 90c6 f23d bf70 433c f790 ef3d 616d d13c
