AlphaGo/foersterrobert_MuZero/Environments/CartPole/Models/model_8.pt (torch, 83738 bytes, 20 tensors)

predictionFunction.startBlock.0.weight f4 [64, 32]
000000 fd f9 d2 bd d0 f8 ff 3e a2 0b a3 be b1 9c a1 be
       -0.10301588 0.49994516 -0.31844813 -0.3156486
000010 dc 68 8a be 2c 01 93 bd 34 55 9a bd 3e 27 84 3e
       -0.27033126 -0.07177958 -0.075357825 0.2581119
000020 67 fa f0 3d de c9 11 be 4d f4 7d be 9b cc 82 be
       0.117665105 -0.14237162 -0.24800225 -0.25546727
000030 20 f8 cf be 04 c3 80 3e c8 f2 2b 3d 26 e6 62 be
       -0.40618992 0.25148785 0.04197958 -0.22158107
000040 0e f8 99 bd e9 f3 5d 3e 69 b2 df be 55 e6 99 3e
       -0.07518016 0.21675076 -0.43690804 0.30058542
000050 7e 61 b7 3e 98 40 35 3f 2d 41 32 3d b1 48 a5 3d
       0.35816568 0.7080169 0.043519188 0.080705054
000060 d3 79 e5 bc cd 37 de 3d ee 44 6d 3b ea f3 7f bc
       -0.028012192 0.10850487 0.0036204415 -0.0156221185
000070 30 97 c4 3d 37 7c 00 3e 80 c7 84 be b9 1f 4c 3d
       0.09599149 0.12547384 -0.25933456 0.04983494
000080 d8 5c ff bd f5 9b 42 be 00 1f 8a be 45 ae 33 bd
       -0.124688804 -0.19004805 -0.26976776 -0.04386737
000090 c5 71 81 be 45 23 8f bc 88 da 18 be 05 0d 1f 3e
       -0.25282112 -0.017472873 -0.14927113 0.1553231
0000a0 60 d2 f9 3c 10 f4 53 be 80 95 02 be 1e ea a9 bd
       0.030495822 -0.20698571 -0.12752342 -0.082966074
0000b0 94 97 a7 3d 87 b2 f2 3b c1 bc 08 bd 21 f9 30 3e
       0.08183208 0.007406536 -0.033383135 0.17282535
0000c0 f3 61 9f be 90 91 ef bd 17 51 93 3d 22 25 04 3e
       -0.31129417 -0.11697686 0.07193201 0.1290479
0000d0 6d b5 92 3e cd f6 1a 3e 42 94 70 3e f7 8b f6 be
       0.28654042 0.1513321 0.23494056 -0.4815366
0000e0 5c f6 64 3d ba b0 09 bd 58 4d 97 3d 2e 1b 01 3e
       0.05589901 -0.033615805 0.07387799 0.12608024
0000f0 02 d7 07 3d bf 93 b8 3e 80 bb 25 bf 05 95 81 be
       0.03316403 0.3605022 -0.6473923 -0.25309005
000100 38 5d ac be 97 1c 11 3e 52 5f d1 bf 51 60 a2 3d
       -0.3366487 0.14171062 -1.6357214 0.07928527
000110 4e 04 5a 3d 2e 98 19 3f 2b 12 8d bd bf df ad be
       0.05322676 0.5999783 -0.06888231 -0.33959767
000120 fe 50 af be 11 7d eb 3d 97 ad d0 be df 2f 27 3e
       -0.3424148 0.11498464 -0.4075744 0.16326855
000130 1b 9e 17 3f 0f d7 77 3d 25 ef 6c 3e f8 2f 81 3e
       0.59225625 0.06050783 0.23138101 0.2523191
000140 26 68 0f bf c9 ce 99 3e 4e b2 6d 3d cd e8 f9 bd
       -0.5601829 0.30040577 0.058031373 -0.12202606
000150 3f f8 97 3e ce 16 ec 3d 3b 23 85 3f f3 da 30 3e
       0.29681584 0.11527787 1.0401376 0.17271022
000160 a1 50 83 3e ab 68 8e 3e d5 27 ea 3e f5 6a 6a 3e
       0.25647452 0.2781423 0.45733514 0.22892363
000170 19 38 3c 3e 33 e8 e3 3f a1 3b 8a bf e7 38 bb 3e
       0.18380775 1.7805237 -1.0799447 0.3656685
000180 aa 74 b7 3d d4 38 b6 3e 83 aa 16 bf b2 46 f7 bd
       0.08957799 0.3559023 -0.5885393 -0.12074031
000190 1b 7b cb 3b c2 c1 dd 3e 3b 1b c2 3c 86 9b a1 be
       0.0062097437 0.43311888 0.023694625 -0.31563967
0001a0 7d aa b0 be 27 39 67 3d b1 cf b3 bd c4 26 a5 be
       -0.34505072 0.05645099 -0.08779848 -0.32256138
0001b0 13 bf 81 3e 59 57 85 bd ae 34 0b bc ae 4f e2 3e
       0.2534109 -0.06510801 -0.008496447 0.44201416
0001c0 69 8f 39 3d 88 7c 66 3e 33 db 8c be 9e fc aa 3a
       0.045302782 0.22508442 -0.27510986 0.0013045256
0001d0 2e de 5e bd 13 89 c5 3e 9f ed 4d 3e 1c ad bb 3e
       -0.054411106 0.38581142 0.20110177 0.3665551
0001e0 ed c6 68 3e df bf 1a 3d 76 28 e4 3d 3e c1 6f 3e
       0.22732134 0.03778064 0.1114053 0.2341356
0001f0 10 53 9f 3d b1 7d b0 3d f1 55 b9 be 5d 71 e5 3e
       0.07779515 0.08617724 -0.3619838 0.44813052
000200 47 9f ab be be f8 39 bf 93 a7 32 be bf 47 9d 3e
       -0.33519956 -0.72645175 -0.17446737 0.307188
000210 15 18 b6 bd a8 3e f9 bd 0f 22 43 be 98 74 19 be
       -0.08891312 -0.12170154 -0.19055961 -0.14985883
000220 9d f3 71 3d 23 9b 19 be 13 dd a0 3d 97 5a 4a 3f
       0.05907022 -0.15000586 0.078546666 0.7904448
000230 45 f5 12 3f 03 3e 0c 3f 41 29 05 be a1 85 a4 be
       0.574055 0.5478212 -0.13004018 -0.321332
000240 53 5c 07 bf 22 e3 1e bf 3e 52 34 bd ba 2b 07 be
       -0.5287525 -0.6206533 -0.044023745 -0.13200274
000250 1b 19 fa 3d 2a ca 61 bd a4 3e ca 3c 0e 0b e3 be
       0.1221182 -0.05512444 0.024688073 -0.44344372
000260 27 83 b0 3d f5 3d 05 3f 69 66 18 bd cf 8e 43 bc
       0.08618765 0.52047664 -0.03720704 -0.011935904
000270 11 bf 88 be 84 5a ba 3e 72 85 5c bf 7f e1 94 3d
       -0.26708272 0.36397183 -0.8614112 0.072695725
000280 62 9a 03 be e5 0a 32 be 35 ef 95 bb 2a 6e 79 be
       -0.12851861 -0.17386968 -0.004575635 -0.2435843
000290 05 8d 51 3e 76 ee e1 be f6 8a d3 bc 3e 3d 86 3e
       0.20463951 -0.44127244 -0.025823098 0.262186
0002a0 62 a1 3c bd 15 d6 48 be 16 4d 6c bd 1a d1 23 3e
       -0.046052344 -0.19612916 -0.057690702 0.15997735
0002b0 c9 ec 8c 3e eb 01 20 3d 54 64 6c bd 78 6b d0 3c
       0.27524403 0.03906433 -0.057712868 0.02544187
0002c0 d2 9a 82 bd 10 20 90 bd 8a 7d fc 3e c0 09 8e bd
       -0.06377186 -0.070373654 0.4931453 -0.069354534
0002d0 c3 d3 0b bc 2e f0 0d be 11 44 74 3e be d7 9a bd
       -0.008534375 -0.13861153 0.2385409 -0.07560681
0002e0 54 a6 8e bc b0 82 dd 3c 3d b8 91 bd e3 72 69 be
       -0.017413296 0.027039856 -0.07115219 -0.22797732
0002f0 07 8c 13 bf 95 cd 40 3e 1a 7d b7 3d a8 2a 52 3e
       -0.5763554 0.18828423 0.08959408 0.20524085
000300 61 92 30 be a6 98 81 bd 97 20 57 bd fe a8 34 be
       -0.17243339 -0.063279435 -0.052521314 -0.1764259
000310 2a a7 0b be b3 06 28 3e 2a 62 ef be 72 1c a5 3e
       -0.13637987 0.16408806 -0.4675458 0.32248265
000320 34 30 28 b8 1e 16 c7 3e 52 b3 2a bf dd b3 28 be
       -4.0099214e-05 0.38884062 -0.6667987 -0.16474862
000330 33 d4 0b bd e2 e8 a5 3c 9b e2 88 3e 5c 93 31 3e
       -0.034137916 0.020252649 0.26735386 0.1734137
000340 4a 47 a3 3c 0e 22 5c bd eb 63 83 3e 8d ab d6 3d
       0.019931454 -0.053743415 0.2566217 0.104819395
000350 16 aa 58 3c af 5b ad 3d 40 be 8c 3d 6b a8 93 bd
       0.013224145 0.08464753 0.06872225 -0.072098576
000360 ee b8 71 be 18 01 cf 3d 4a 69 a2 bd fe fc dd be
       -0.23605701 0.101076305 -0.079302385 -0.4335708
000370 65 54 79 be 79 83 66 3e 16 18 10 be 53 47 a7 3c
       -0.243486 0.2251109 -0.14071688 0.020419752
000380 a3 ae 84 be f6 71 f1 3d 88 a5 48 bf b4 a8 7f 3e
       -0.25914487 0.117893144 -0.7837758 0.24966699
000390 35 21 db bd 84 ad ad 3c d2 8e 64 3c 09 4c e8 3d
       -0.10699693 0.021200903 0.013950067 0.113426276
0003a0 e6 ef 90 3d fb 48 df 3d fc 8c 2c 3e 83 6c cb bd
       0.07077007 0.10902592 0.16850656 -0.09932806
0003b0 eb ac d6 3e 7a c7 c3 bd 36 73 84 be 8d 83 f5 3e
       0.419288 -0.095595315 -0.2586915 0.47951928
0003c0 c3 fd 4c bb 2b ac 07 3e b5 40 4d bc 55 cd 12 3e
       -0.0031279183 0.1324927 -0.012527634 0.1433614
0003d0 42 36 6f 3e 2e 7c 2c 3d 89 db 3b 3f da d0 6d bd
       0.23360541 0.042110614 0.7338186 -0.058060504
0003e0 f9 f4 9d 3e ae c1 31 3e ca c9 a9 3e ca 85 ca 3e
       0.30850962 0.17359039 0.33161765 0.39555198
0003f0 13 eb 13 3e 0c 78 0a 3f d4 8a 2d bf a3 b2 5a be
       0.14445142 0.54089427 -0.6778996 -0.21357207

predictionFunction.startBlock.0.bias f4 [64]
000000 d9 5d c6 bc e7 fc 6e be 41 33 86 be 40 43 0e 3d
       -0.024214672 -0.23338662 -0.2621098 0.034732103
000010 07 e1 2a be ed 07 bf bb f0 ea bf 3d a1 ce d6 bd
       -0.16687404 -0.0058298022 0.09370983 -0.1048863
000020 6e 67 2a 3e 8e c7 94 3d a0 1c 66 be 76 ab f3 bd
       0.16641018 0.072646245 -0.22471857 -0.11897938
000030 23 92 36 be a0 e3 12 bb 5a 02 37 bd 2e 4e 1a be
       -0.17829184 -0.0022413507 -0.044679977 -0.15068886
000040 9e 78 0b be 11 1a ac 3d 7a e0 6f be 29 df 11 bd
       -0.1362023 0.08403409 -0.23425475 -0.035613213
000050 52 9f 75 be c5 c1 de bd 3b 52 30 bd 3f ed dc bd
       -0.23986557 -0.10876802 -0.04304717 -0.107874386
000060 82 a0 1b bd 15 2b 06 be 81 69 32 3d c5 7f be bd
       -0.03799487 -0.13102372 0.043557648 -0.09301714
000070 f0 c0 83 bd 0d 98 28 be dd 36 bb bd 4c 02 3e be
       -0.06433284 -0.16464253 -0.09141324 -0.18555564
000080 1b 31 58 3d ba 7c 7b be 43 82 4e be ba ae 7c bc
       0.052781206 -0.24559298 -0.20166878 -0.015422517
000090 0c 7f d3 bd f6 1e 58 be 99 13 fe bd 8b 83 25 be
       -0.10326967 -0.2110556 -0.12406082 -0.16163461
0000a0 ca b0 d0 bd 2a 4a 21 be 37 dc ae be f1 e2 f5 bd
       -0.1018997 -0.15750948 -0.34152386 -0.12006176
0000b0 98 80 a4 bc e7 32 83 be ff 0d ab 3c 47 b8 1d be
       -0.02008085 -0.25624773 0.020880697 -0.15402327
0000c0 89 96 e4 bd 99 ec f8 3d 3c af 03 be d4 db a5 bc
       -0.11161525 0.121545024 -0.12859815 -0.020246424
0000d0 e4 42 0d be f4 9e 3d be cc cf 26 be 65 83 07 3e
       -0.13795048 -0.18517667 -0.16290206 0.13233717
0000e0 af 70 f5 3c 75 66 7d 3d d8 6d 06 be e5 5d 06 3c
       0.029960958 0.06186529 -0.1312784 0.008201097
0000f0 d9 26 d2 3d 77 6f 41 3e 0e 14 04 be 6c 1f bc 3d
       0.10261316 0.18890177 -0.12898275 0.09185681

predictionFunction.startBlock.2.weight f4 [64, 64]
000000 36 a8 9f bd 20 28 5b be 06 ea a1 3e 3e 4a 88 be
       -0.077957556 -0.21402025 0.31623858 -0.26619142
000010 f3 56 c1 bd b5 34 e7 be f9 62 a2 3e 60 a3 17 3e
       -0.09440412 -0.451574 0.31716135 0.14808416
000020 b7 b5 21 bf dc f7 4a bd 5b 68 08 be f7 b1 e0 bc
       -0.631679 -0.049552783 -0.13321058 -0.02742861
000030 21 a3 9b 3d 6a 86 0c 3f 45 2a 20 3e ea d4 e8 3d
       0.07599474 0.548926 0.15641125 0.11368735
000040 a1 8b 08 3e a3 fa 45 bd d5 00 07 bf 8c 03 86 be
       0.13334514 -0.04833473 -0.52735645 -0.2617458
000050 57 8e bd bd d8 e0 b0 3d be c6 9b 3e e5 68 5f 3e
       -0.09255665 0.086366355 0.30425066 0.21817358
000060 dd 1d 12 bf d9 d1 21 be 6e d2 65 3f 7a c2 18 be
       -0.5707682 -0.15802707 0.89774215 -0.14917937
000070 fa 93 b0 bd 82 ff ba 3d 1a 48 7f be 5a 6a ea 3c
       -0.08621974 0.091307655 -0.24929848 0.028615166
000080 11 05 ec be 27 25 b8 3e 6e af d2 3d eb 17 a3 be
       -0.46097615 0.35965845 0.10287367 -0.31854185
000090 b0 f4 27 bd dc fd a8 3e 6e a4 e7 bd 7b 9a 35 3e
       -0.041004837 0.3300618 -0.11310659 0.17734711
0000a0 cd fe b6 bd f5 28 e6 3c 19 e2 25 3e 69 e3 77 3d
       -0.08935318 0.028095702 0.1619953 0.06051961
0000b0 04 4b 99 3d f1 8a 64 be ce 7f b0 be 6e 89 68 bd
       0.07485011 -0.22318627 -0.34472507 -0.05677169
0000c0 95 30 a1 bc a8 40 1a bf 35 b6 9c be fc b3 b9 be
       -0.019676486 -0.6025491 -0.30607763 -0.3627013
0000d0 d8 7c 64 bd 60 dc 53 be 4f 3c e0 3e 52 61 ab be
       -0.055783123 -0.20689535 0.43796012 -0.33472687
0000e0 43 79 b5 be 09 10 43 be f8 64 10 be 0a 87 91 3e
       -0.35444078 -0.19049086 -0.14101017 0.2842334
0000f0 62 43 26 3e e8 11 16 be 62 e0 a4 3b 5b 1d 45 be
       0.16236642 -0.14655268 0.0050316313 -0.1924948
000100 7c 20 6e be 2a 9d c0 bd 0a 59 79 3e 18 cb 30 be
       -0.2325458 -0.09404977 0.24350372 -0.17264974
000110 b8 4a de 3e 7d 70 b6 bd d1 78 98 3e 4d 5d 8b 3e
       0.4341638 -0.08908174 0.29779676 0.2721962
000120 0c 6f 23 bf e4 24 62 3e 2c 20 58 bd df d2 b4 bd
       -0.6384132 0.22084385 -0.052765056 -0.08829283
000130 34 84 07 3f c5 6b ba 3e a3 55 f9 3d ac ae 51 bd
       0.529361 0.36410347 0.12174537 -0.05119197
000140 76 23 11 3e b8 1d 0a be 50 25 b4 be f0 eb af bc
       0.14173684 -0.134879 -0.35184717 -0.021474808
000150 1d 52 3a bd f6 dd 96 bd c9 49 c5 3d d4 95 86 3e
       -0.045488466 -0.073665544 0.09633214 0.26286185
000160 e9 9f 96 be 8c d4 6b be 1c b4 c8 3e 90 c7 30 be
       -0.29418877 -0.23030299 0.39199913 -0.17263627
000170 09 c9 da be 82 67 18 3e 29 fd 7e bc 7f 79 8b bc
       -0.42731503 0.14883235 -0.015563288 -0.017025707
000180 88 c3 b4 be 19 31 58 3e 2d cd aa 3e 76 21 f8 bd
       -0.35305429 0.2111248 0.33359662 -0.12115757
000190 00 bf b8 3e 06 01 22 be 3a 73 b6 be ef e9 fd 3d
       0.3608322 -0.15820703 -0.35634786 0.12398135
0001a0 ac ac 66 3e 8b 6c cc 3d d1 60 40 bb 63 10 d8 3d
       0.22526807 0.099816404 -0.0029354582 0.105500005
0001b0 e4 4f 4b 3e e9 0d 00 3e 8f 81 ae be e5 78 0a be
       0.19854695 0.12505306 -0.3408322 -0.1352268
0001c0 66 1d be bd c4 1e 9a be 43 72 28 be fb 39 7a be
       -0.09282951 -0.30101597 -0.16449837 -0.2443618
0001d0 38 14 7d 3e 4b 36 89 3d 45 c8 22 be 92 2f 91 be
       0.24714744 0.06699809 -0.1589671 -0.28356606
0001e0 7e 21 59 be 51 3a 63 3d 08 dc 02 be d4 1f 35 3f
       -0.21204183 0.055475537 -0.12779248 0.7075169
0001f0 ec 0d 90 3e d3 38 0c bd e9 52 e1 3d 33 e6 73 be
       0.28135622 -0.03423388 0.11002142 -0.23818283
000200 3b 31 d2 bd fe 29 28 3d ec 1a 8e 3e 67 55 38 bc
       -0.10263296 0.041055672 0.27754915 -0.01125083
000210 26 0e 57 be 87 dc ee be 31 44 29 3e b8 65 8e bc
       -0.21001491 -0.46652624 0.16529919 -0.017382488
000220 bf aa f1 bd 00 7b 1a be 1f c9 dc 3c e8 1f dd 3e
       -0.11800145 -0.15085983 0.02695137 0.43188405
000230 c5 a7 ef 3d 5d 95 d1 3d 76 02 c0 3c 39 dd 8f bd
       0.117019214 0.10233567 0.023438673 -0.07024617
000240 14 f7 2d 3d 2c e9 da 3c 75 6b 89 3d d4 52 f3 bc
       0.04247196 0.026722513 0.06709949 -0.029702581
000250 ed e5 42 3d 68 ce 7f be 8f 45 c7 3d 50 87 e9 3c
       0.047582556 -0.24981081 0.09730064 0.028506905
000260 f4 72 79 3d bd ad 8c be 84 53 2d 3d 0f 60 21 bd
       0.060900643 -0.27476302 0.042315975 -0.03939825
000270 33 90 a6 be b7 c8 a4 bd 24 cb e2 3d 74 06 05 3d
       -0.3253189 -0.08046096 0.11073902 0.032476857
000280 bd 1f 39 bd 86 94 d4 bb 49 b6 6b be cd 1e 0a bd
       -0.045196284 -0.006487432 -0.23018755 -0.03372078
000290 a6 bb 15 3c f9 72 35 be 9b dc db 3c ff c5 09 be
       0.009138977 -0.1771964 0.026838591 -0.13454436
0002a0 16 5b c7 3d 3e 70 cf bd ea d1 bd bd 58 df bf be
       0.0973417 -0.101288304 -0.092685536 -0.37475085
0002b0 e8 89 a5 3e 2e 5b 9d be 16 91 09 bf 63 4d 4f be
       0.32331777 -0.30733627 -0.5373701 -0.20244364
0002c0 62 85 3b be 11 ae 37 be f0 dc d9 bb c1 5a 8a be
       -0.183126 -0.17937495 -0.0066486523 -0.27022365
0002d0 82 48 f5 3d 2a 6c 1b bc 6f 8d a4 3b a2 d0 44 be
       0.119767204 -0.009486238 0.005021743 -0.19220212
0002e0 3e 58 20 3e 7f bd bd be 31 f1 2a 3e 9f 06 4c be
       0.15658662 -0.37058637 0.1669357 -0.19924401
0002f0 15 8f 9a bd f9 67 52 be ec c2 0e be bd 7a 5e bd
       -0.07546822 -0.20547475 -0.13941544 -0.05431627
000300 9f 81 fa be a8 38 6d be 10 66 e9 3d df 04 91 3e
       -0.48927018 -0.23166144 0.1139642 0.2832403
000310 48 ec a3 3d 67 5f 97 3c 91 a6 1d be 9e a1 ac 3c
       0.080040514 0.018478109 -0.15395571 0.021073159
000320 5f 29 d7 be aa 03 5a 3e 4c 7b 8f be 9b 69 94 bb
       -0.4202375 0.2129046 -0.28023756 -0.0045291907
000330 36 57 5c bd ad 4e e8 bc 8b 95 28 3e 14 39 15 3e
       -0.05379411 -0.028357828 0.16463296 0.14572555
000340 5c 2c e1 3d 5f 43 8d bd bf f5 76 be b5 fe 05 be
       0.10994789 -0.06897616 -0.24117182 -0.13085444
000350 5f c6 a2 bd 5c 30 c8 be db bc 46 3d be a9 5e 3e
       -0.079479925 -0.39099395 0.04851995 0.21744439
000360 64 be 10 bd c2 7c 5f 3d df 90 23 3c 83 d6 78 be
       -0.03533782 0.054562338 0.00998327 -0.2430058
000370 70 18 5a 3e 6f fa 61 be 04 b3 5e bc ea 6b 2b be
       0.21298385 -0.22068189 -0.013592485 -0.16740385
000380 6a fd 56 3e 4d a5 9b 3d 08 99 4a 3e ff 16 8f be
       0.20995107 0.07599888 0.1978494 -0.27947232
000390 28 9f b2 3d 5c fa 16 be ee 11 5f bf ea b6 e2 3d
       0.08721763 -0.14743942 -0.87136734 0.11070044
0003a0 da d8 06 3f 05 7f 8c be 2e 8c 6b bd 3a f0 d9 3e
       0.5267464 -0.27440658 -0.057506733 0.4256609
0003b0 20 4c 80 3e 9a df 61 be 12 ed 91 bd 76 b2 44 bf
       0.2505808 -0.22057953 -0.07125296 -0.7683481
0003c0 66 9b cc 3e 11 c9 17 c0 35 fe 9c bc 59 80 03 be
       0.3996231 -2.3716471 -0.019164184 -0.1284193
0003d0 c1 d8 98 3e 58 46 6f 3e f3 41 e4 3d 55 fd 76 bc
       0.2985287 0.23366678 0.11145391 -0.0150750475
0003e0 5e 66 29 be bc dc 7c 3e de ba 19 bd b1 39 a5 be
       -0.16542956 0.24693578 -0.037531726 -0.32270578
0003f0 97 8c c3 be a2 fb 14 be d2 4b 0d 3e ee 28 5c bd
       -0.381932 -0.14549115 0.13798454 -0.05374997

predictionFunction.startBlock.2.bias f4 [64]
000000 5b 5d 44 be ac 9d 57 be 04 00 28 be ff 7a b1 3c
       -0.19176237 -0.21056241 -0.16406256 0.021665094
000010 ed f7 b2 be a6 01 80 be 7c 73 43 bd 8b 8e a6 be
       -0.34954777 -0.25001258 -0.047717556 -0.32530627
000020 39 35 19 be 09 4c ae bc 2a c0 38 be 65 20 40 3d
       -0.14961709 -0.02127649 -0.18042055 0.046905894
000030 8d f8 1f 3e 95 fb 03 3e 6c 4e 71 3e d6 28 b8 bb
       0.15622158 0.1288894 0.23565072 -0.0056201024
000040 72 4c d0 bd df 64 fa bd 20 0d df be 59 2d dd 3c
       -0.10170831 -0.12226271 -0.435647 0.026999163
000050 c7 c6 cf bd 2b 59 c9 bd c2 eb ab bd 1b c7 1c 3e
       -0.10145336 -0.098314606 -0.083945766 0.15310328
000060 1f 7e 00 be da cf e4 bd 83 59 a6 bd 96 04 12 be
       -0.12548111 -0.11172457 -0.08122542 -0.14259562
000070 98 19 f4 bd 0e bb 40 3d d9 a3 01 be 1b 10 00 be
       -0.11918944 0.04705339 -0.12660159 -0.12506144
000080 1a 63 d7 bd af a3 87 bd 9f 92 b3 bc 98 95 e6 ba
       -0.10516949 -0.06623017 -0.0219205 -0.001759219
000090 c8 eb c6 bd 9c 79 00 be 7f 2b 55 be d5 f1 24 3c
       -0.097129405 -0.1254639 -0.20817374 0.010067423
0000a0 06 dc 8a be e2 7a 23 3e ef d7 26 3e 3b 23 21 be
       -0.2712099 0.15964845 0.1629331 -0.15736096
0000b0 b3 e9 16 3e 66 61 e9 bd 0e eb b6 3d 28 9b e3 be
       0.14737587 -0.113955304 0.08931552 -0.44454312
0000c0 a1 68 e0 bd a3 4a 6d be ba 96 b5 bd 3a 44 94 bc
       -0.109574564 -0.23173003 -0.088666394 -0.01809894
0000d0 32 b7 1d 3e e1 b6 1b be 29 4d 96 be c0 9a d0 3e
       0.15401915 -0.15206482 -0.29355744 0.40743065
0000e0 a3 74 65 3c 61 3b 42 be a5 b5 0c 3e 70 e2 1a 3e
       0.014004859 -0.18967964 0.13741167 0.15125442
0000f0 d3 c1 d9 3d 85 fe a4 3d f9 0c 07 be 9a f0 74 bd
       0.10632672 0.08056358 -0.13188542 -0.059799768

predictionFunction.policy_head.0.weight f4 [2, 64]
000000 f0 86 ca bd cc 7a 9b 3d af 23 ca bb 88 d5 5e 3e
       -0.098890185 0.07591781 -0.0061688046 0.21761143
000010 dc 22 a7 be 09 f5 86 3d ab 1d 2d 3e 45 a1 01 3f
       -0.32643783 0.065897055 0.16905849 0.506367
000020 55 1c 20 3c 73 45 f3 3c c2 12 b3 3d 45 be 80 3b
       0.00977238 0.029696202 0.08743812 0.003928932
000030 18 ca 25 3d 8f f0 bc bd e0 6e ba bc 38 0d 3f bc
       0.040475935 -0.092255704 -0.022757947 -0.011660866
000040 74 65 e4 bd ab 1f 07 3e 7d 39 d1 be 7a ed dd bd
       -0.11152163 0.13195674 -0.40864173 -0.10836311
000050 70 fb 35 3e 88 26 ea 3c 01 db 43 3d 81 fa e3 3d
       0.17771697 0.028582826 0.04781628 0.11131764
000060 87 e3 bc 3d 24 92 8c be b0 db a3 3d 88 02 d1 be
       0.09223085 -0.27455246 0.080008864 -0.40822244
000070 50 54 6a 3d 15 0c 93 be 72 f6 71 3b dd b5 15 3e
       0.057209313 -0.28720155 0.0036920574 0.14620157
000080 73 cb 3b 3c 36 f1 76 3c 71 a0 6f be 8f 31 86 bd
       0.01146208 0.015072158 -0.23401047 -0.06552421
000090 e4 40 3c bd a9 b9 d5 3e 8b 07 fd bd 1b b9 23 3d
       -0.045960322 0.4174321 -0.12354954 0.039971452
0000a0 4d 48 1e 3f a1 38 91 3e 16 5e e9 3d 76 6c 0c bf
       0.6182907 0.28363517 0.113948986 -0.54853
0000b0 56 57 f0 bd 73 17 27 bd 73 55 4c be 21 61 49 3e
       -0.11735408 -0.040793847 -0.19954471 0.19665958
0000c0 9e 75 d6 3e 47 ff ba 3e 30 31 0d be f7 d7 21 3d
       0.4188661 0.36522886 -0.13788295 0.0395126
0000d0 d3 c0 c0 bd 59 c7 bf 3d b0 43 97 3e df c1 34 bd
       -0.09411778 0.093641944 0.2954383 -0.044130202
0000e0 fa dd 8b 3d 41 56 7b bd 0d ff c5 3d c3 81 23 be
       0.06829448 -0.061361555 0.09667788 -0.15967469
0000f0 49 05 9a 3d 38 8d 26 3b ce 91 1d 3e fb 1d a9 3d
       0.07520539 0.0025413763 0.15387651 0.082576714
000100 df 30 02 3e 1f 68 87 be c1 68 1b 3c 2b 8d 78 be
       0.12713955 -0.26446626 0.0094854245 -0.24272601
000110 ee 5e f1 3d 88 3f 96 3d 95 2f 9b 3c 3c fe c7 be
       0.117856845 0.073363364 0.018943587 -0.39061153
000120 60 7b d6 3c f9 28 fb bc 68 dc 5b bc b5 8c fb 3b
       0.026181877 -0.030659186 -0.013419248 0.0076766857
000130 14 49 b2 3d 5e 37 02 3e 26 a1 55 3d 01 29 e6 3d
       0.08705345 0.12716433 0.052155636 0.112382896
000140 30 e2 20 3e 83 de 9c be 51 38 cc 3e 34 fb 88 3b
       0.15711284 -0.30638513 0.39886716 0.0041803364
000150 24 65 88 bd 6b bf b0 3d 65 d7 52 bd 64 b5 d5 bd
       -0.06659916 0.0863026 -0.051474947 -0.10434988
000160 83 ad a6 3d 7c 44 8b 3e 38 c8 6b 3d 5f f7 ce 3e
       0.081385635 0.27200687 0.05756399 0.40423104
000170 95 a3 b6 3b a2 47 ae 3e c1 66 c2 3d b1 84 78 bd
       0.0055736997 0.34039026 0.09492255 -0.06067342
000180 04 87 bd bd 19 7f 06 be ce 63 7e 3e 5a 4f 90 3c
       -0.09254268 -0.13134421 0.2484276 0.017615963
000190 62 05 a0 bc e2 d7 c4 be a5 5e 6e 3e 4c 3e c6 3d
       -0.019533817 -0.38445956 0.23278292 0.09679851
0001a0 19 48 1e bf f6 33 4d be f7 59 fd bc ca 22 f1 3e
       -0.6182876 -0.20039353 -0.030926688 0.47096854
0001b0 78 cc 38 bd ec 64 d9 bc 7c 6a c6 3d 44 51 6a be
       -0.04511687 -0.026537381 0.09688279 -0.22882563
0001c0 3d fa f9 be 0a bd a7 be 80 c0 eb 3d 1c 63 06 3c
       -0.4882373 -0.32761413 0.11511326 0.00820234
0001d0 c9 5d 8e bc 59 7f cf 3d 95 82 69 be 94 7b 99 3c
       -0.017378705 0.101317115 -0.2280372 0.018735684
0001e0 5a 7b c4 3c 56 01 ba bd 51 e3 7b be 91 6a e8 bb
       0.0239846 -0.09082286 -0.24598433 -0.007092782
0001f0 6e 73 4c 3d ff 30 5f 3e 1a 09 35 be ce 17 0e 3d
       0.04991477 0.21796034 -0.17679253 0.03469067

predictionFunction.policy_head.0.bias f4 [2]
000000 3a f7 f3 bc 1a 17 80 3c
       -0.029780973 0.015636016

predictionFunction.value_head.0.weight f4 [64, 64]
000000 ac b8 99 bd 33 ba ac bc a3 0e 0a bc f5 e6 6a 3d
       -0.075059265 -0.02108488 -0.008426341 0.057349164
000010 09 0f 07 3d 99 e3 5f bd df 56 61 3d 11 34 9c bd
       0.032973323 -0.054660413 0.055014487 -0.076271184
000020 a7 f8 69 bd c3 b8 0f be 27 f2 13 3d e6 38 0a bd
       -0.0571219 -0.14035325 0.036119606 -0.03374567
000030 6c d7 d4 bd a4 9e eb bd 6b a8 90 bd 5f 31 cc bd
       -0.10392651 -0.11504868 -0.07063373 -0.09970354
000040 84 a5 50 bd fd 99 d8 bd 6a 51 b9 bd 8f d8 0a 3d
       -0.050939098 -0.10576246 -0.090487316 0.033897933
000050 73 2d a2 bd 00 67 50 3d d0 7b 0b 3c 88 f3 9c bd
       -0.07918825 0.05087948 0.008513406 -0.076636374
000060 0b 5f ad 3c 40 0a 9c 3d 1e b4 73 bc 90 03 5e 3c
       0.021163484 0.076191425 -0.014874486 0.013550654
000070 20 cd cf 3d 42 67 3c bd 20 14 e1 3c 0a 19 52 3d
       0.10146546 -0.04599691 0.027475417 0.05129341
000080 3e bc 12 be 7e 29 97 3d c3 84 ca bd a0 60 d2 bb
       -0.14329621 0.07380961 -0.098886035 -0.00642021
000090 4a 7a ba bd cc 15 ce 3c ac e6 cd bd cb fd 99 bd
       -0.09105356 0.025156878 -0.10053763 -0.0751911
0000a0 80 ed b0 3c 97 9f be bd 3d 80 ef bc 0b 83 98 3d
       0.021597624 -0.09307783 -0.029235953 0.074468695
0000b0 7e 39 22 be 16 57 a6 bd fe 1f f0 bd 0b 23 ab 3d
       -0.15842244 -0.08122079 -0.11724852 0.08356293
0000c0 a7 15 9a 3b 12 ca d6 bd 29 6a 0f be 38 4d 84 3d
       0.004702288 -0.104877606 -0.1400534 0.06460041
0000d0 ab b4 55 3d 9c 88 dc bd f5 58 ca bb c8 24 7a bd
       0.05217425 -0.10768244 -0.0061751553 -0.061070234
0000e0 ff c1 82 3c 08 c1 f0 bd a4 88 04 3d 1f 4e a4 3d
       0.015961645 -0.11755568 0.032356873 0.08022713
0000f0 32 04 b4 3b 13 c1 99 bd 2c 04 5e bc 04 eb 5c 3d
       0.005493664 -0.07507529 -0.013550799 0.053935066
000100 c1 74 20 be f0 c8 fb bd 40 ff d4 bd 9c d3 51 3c
       -0.15669538 -0.12294185 -0.104002476 0.012806799
000110 42 17 14 be 0d ca a5 bd 85 86 64 bd d3 d1 cb be
       -0.14461997 -0.08095179 -0.05579235 -0.3980852
000120 3d 82 50 3d af c9 1d 3d 53 b3 02 be e8 bd 94 bd
       0.050905455 0.03852242 -0.1276372 -0.07262784
000130 d2 77 c3 bd f9 f2 27 be 5e 64 1f be 8d 3f 63 bd
       -0.09544338 -0.1640128 -0.15565631 -0.05548053
000140 d8 f9 92 be 10 b8 c9 be 52 8d ad bd 8c 08 0b bd
       -0.2870624 -0.3939824 -0.0847422 -0.033943698
000150 7e 53 0d bb 7c d6 2f 3d e8 59 2e bd fa 01 c7 bd
       -0.0021564658 0.042929158 -0.04256621 -0.09717174
000160 ed 34 d8 3e f7 7f 7a 3e c9 c4 88 3d d0 95 ad bc
       0.4222788 0.24462877 0.06678159 -0.0211896
000170 5c f0 e4 3d 00 09 29 be 2f 55 25 be ca 85 8f bd
       0.111786574 -0.1650734 -0.16145776 -0.0700794
000180 ba ce f2 be da f7 84 be e3 c7 d1 bd 70 39 f4 3c
       -0.47423345 -0.25970346 -0.102432035 0.029812545
000190 d3 b3 ae 3d 64 be 88 3b cf 33 8b 3c 07 53 54 3e
       0.085303925 0.004173087 0.016992478 0.20734797
0001a0 15 af 5c be 31 32 75 bd 2a 2d bd bd ad 30 bc be
       -0.21551163 -0.05986232 -0.0923713 -0.36755887
0001b0 51 8a c1 be 5a 4c eb 3d d0 95 5f be 75 c8 18 be
       -0.3780084 0.11489172 -0.21834493 -0.14920218
0001c0 6a 6f 63 3e 9a d8 52 bd da c7 fc bd c7 4d 0e 3d
       0.2221047 -0.0514761 -0.12342806 0.034742143
0001d0 75 38 c6 bd c6 99 b0 be 2e 97 c3 bd 7f be 59 3e
       -0.09678737 -0.3449232 -0.095503196 0.21264075
0001e0 c3 b3 74 bd cc 31 e2 bb 32 da 2b 3e 40 23 60 3d
       -0.059741747 -0.006902909 0.16782454 0.054721117
0001f0 dd d6 e3 bd f4 25 ff 3d 51 4d 81 be 30 5f 97 bd
       -0.11124966 0.12458411 -0.252543 -0.073912024
000200 f4 31 4e 3e 50 db 07 be 5d ad a1 3e 06 8c b7 3b
       0.20136243 -0.13267255 0.31577578 0.005601409
000210 57 22 f8 3c 66 c8 b6 bd ba 08 98 3d 3c 73 94 bd
       0.030289812 -0.08924942 0.074235395 -0.07248542
000220 53 9d 2c 3d 32 7e 3e 3e e6 df 3f 3d fb 63 35 3c
       0.042142224 0.18602827 0.046844386 0.0110712005
000230 43 79 88 be 81 55 a9 bd 76 29 3b be 2e 89 90 3d
       -0.26655015 -0.08268262 -0.18277535 0.07057415
000240 6d 0a 92 bd 8a 49 d7 be ad 0c fe 3d 3d d8 b3 3e
       -0.07130895 -0.42048293 0.124047615 0.35125914
000250 33 10 00 bf 35 8a 2a 3d cb e4 b8 bd d5 e7 86 bc
       -0.5002472 0.04163571 -0.09028014 -0.016467968
000260 36 ce 90 3e ae c1 81 bd b0 a2 2c 3c dc e8 f1 3c
       0.28282326 -0.063357696 0.010536835 0.029529981
000270 ad b5 11 3e f3 2a 87 be ad 7f 47 bd c9 88 33 3e
       0.1422946 -0.26399955 -0.048705745 0.17532648
000280 1a f7 b5 bd 32 ca cb be 1d 3f 93 be 4c 5d e4 bd
       -0.088850215 -0.398027 -0.2875909 -0.111506075
000290 34 4d d2 3e 00 18 a7 3e b8 af d8 be 25 83 30 3e
       0.41074526 0.32635498 -0.42321563 0.17237528
0002a0 cb 9b 5a 3e a0 a3 8f 3d 38 86 4b 3e 4f f4 ec bc
       0.21348493 0.07013631 0.19875419 -0.02892509
0002b0 04 6e fd be e8 85 ec bd f0 17 e5 bd 0d be f4 be
       -0.49497998 -0.11548978 -0.11186206 -0.47801247
0002c0 a1 95 3c be da be 09 3f f8 06 4c bc 85 d9 07 3e
       -0.18416454 0.5380684 -0.012452833 0.13266571
0002d0 09 7e 96 3e 73 45 fb be 99 b6 51 3a 10 4b a6 bd
       0.29393032 -0.49076423 0.00079999265 -0.08119786
0002e0 3b 0a 0b 3f a2 f3 42 be cf 52 e9 bd f2 25 9d 3e
       0.54312485 -0.19038251 -0.113927476 0.30693012
0002f0 47 a1 c7 3b 73 e0 19 bd f7 db 9f 3d da 81 9a 3d
       0.006092224 -0.037567567 0.07805627 0.075442985
000300 e3 3e b3 3e 01 6a 50 3e c7 41 85 bc 19 b1 3a be
       0.35008916 0.20352937 -0.016266717 -0.1823162
000310 ba e8 81 3e af e2 cc 3d a6 0e f3 bd 58 98 1d bd
       0.2537287 0.10004174 -0.11868028 -0.038475364
000320 81 70 58 be 48 ed ae 3d b2 9c 94 be 1a 9b c1 be
       -0.21136667 0.085413516 -0.290258 -0.37813646
000330 1a cc e3 be d5 1b 89 3d 5f c9 14 bd 67 35 1a bd
       -0.44491655 0.06694762 -0.036324855 -0.037648585
000340 a7 41 4c 3f 2a e5 90 3d 98 ed 90 be 24 a7 16 bf
       0.7978768 0.070749596 -0.2830627 -0.58848786
000350 22 f5 06 be 8a e3 46 3c d5 2d da bd 4e 58 b1 bd
       -0.13179448 0.0121392105 -0.10653273 -0.08659421
000360 a9 82 b1 bd 7a 24 1f 3e bd d2 a3 bc a5 15 cf bd
       -0.086674996 0.15541258 -0.019997949 -0.1011155
000370 4e 11 c2 bd 64 ff 71 bc ce 7f d1 3d 74 fc 7f be
       -0.09475957 -0.0147703625 0.10229455 -0.24998647
000380 86 d3 31 3e 07 b7 19 bf 8f 34 0d 3e c2 cb 11 bd
       0.17365846 -0.600449 0.13789581 -0.03559471
000390 c2 7c 3d 3e 8c 1c 1b 3d ee 0f 58 bb 2d 0a 20 bd
       0.18504623 0.03786902 -0.003296848 -0.039072204
0003a0 4d 95 f3 3e 60 fe e1 3d 70 5a ff bd 7c d5 81 bc
       0.47574845 0.11034846 -0.124684215 -0.015848868
0003b0 0c 09 3b 3e 1e 58 99 3d 6d b6 db be 3f 7b 8f bd
       0.1826517 0.0748751 -0.42912617 -0.07005929
0003c0 34 85 26 3e 95 7a a8 3a c7 e8 01 3d ee 12 7a 3e
       0.1626175 0.0012853915 0.031716134 0.24421284
0003d0 1e 28 55 be 04 65 d1 be 20 23 61 3e 81 b0 21 bd
       -0.20816085 -0.4089738 0.21986055 -0.039474968
0003e0 c5 0e 1b 3e c2 f2 a6 3e 0e b0 3b be 68 a0 74 bd
       0.15142353 0.32607085 -0.18328878 -0.059723288
0003f0 ef 32 9d bd 29 3f 0f be bc 32 9c 3e 9d a3 a4 bd
       -0.076757304 -0.13988937 0.30507457 -0.08039019

predictionFunction.value_head.0.bias f4 [64]
000000 f7 ad 14 be 44 7d 0e be 55 9e f5 3d 4d 47 08 be
       -0.14519487 -0.13914973 0.1199309 -0.13308449
000010 52 0f 3f 3d 62 46 60 3b 2f 01 b9 3c 41 fc 91 be
       0.04664547 0.003422164 0.022583572 -0.28512767
000020 11 1d d1 3c 5b 8f f1 bc aa f0 9f bd 0e 21 61 be
       0.025526555 -0.029487303 -0.07809575 -0.21985266
000030 62 86 7d 3d f4 29 64 be ae 50 0d be ce bc 56 be
       0.061895736 -0.22281629 -0.13800308 -0.20970461
000040 dc cb 8b 3d 64 99 8e bd 70 22 b7 3c 2f 0d cf 3e
       0.068259925 -0.06962851 0.022355288 0.40439746
000050 0a 1a 89 bd a8 5e 86 bd e2 3a a8 3e 5b 6f 32 be
       -0.0669442 -0.06561023 0.32857424 -0.17425291
000060 a0 1d 06 be c9 ba 33 be d8 07 06 be 81 f1 c3 bd
       -0.13097239 -0.17551722 -0.1308893 -0.095675476
000070 0f 39 0a bd a2 b2 26 be ed a3 8d 3d 82 8e f5 3c
       -0.03374582 -0.1627908 0.06916032 0.02997518
000080 39 74 1d be 5f 9a d3 3d 5f 89 a8 3e e8 46 36 be
       -0.15376367 0.10332178 0.32917306 -0.17800486
000090 26 6b 87 be 15 6b 87 bd f3 78 35 3d ef e6 25 be
       -0.26448935 -0.06612221 0.0443048 -0.16201375
0000a0 1d 52 4a be 6d fd c6 bd e9 d5 fd bd 1f 8b cd bd
       -0.19757886 -0.09716306 -0.12394316 -0.10036301
0000b0 ec 05 83 3d 82 d1 e1 3d c7 93 39 be 45 c6 0d be
       0.06397614 0.110262886 -0.18122779 -0.13845165
0000c0 84 a7 2d be b5 46 24 be eb d5 54 bd eb 8b bb bb
       -0.16958433 -0.16042598 -0.05196182 -0.0057234666
0000d0 99 f6 2b be a2 64 12 be ca 8b 4e be ac e2 be 3e
       -0.16793288 -0.14296201 -0.20170513 0.37282312
0000e0 1b 85 18 3e db 85 5a 3e 22 2b 0f be 90 a1 8b be
       0.14894526 0.21340124 -0.13981298 -0.272717
0000f0 9f 95 a7 3e 3b 14 38 3d 19 81 8f 3e 95 a0 a6 be
       0.3273134 0.04494117 0.2802818 -0.3254439

predictionFunction.value_head.2.weight f4 [41, 64]
000000 47 72 9b bd 25 48 2d bf fa b4 94 be 19 83 cb be
       -0.07590156 -0.6768821 -0.29044324 -0.39748457
000010 17 37 92 bf dc 50 3b bf 16 7a c1 bf 5e 9c 45 bf
       -1.1423062 -0.73170257 -1.5115383 -0.7719172
000020 d3 6f e7 bf f1 89 ac be 80 af 0e 3d af 60 15 be
       -1.8081001 -0.3369899 0.03483534 -0.14587663
000030 39 c3 31 bf ba c8 00 bf a6 6e 8d bf b6 ab ed bf
       -0.6943851 -0.50306284 -1.1049392 -1.8568027
000040 b4 5d b0 be d2 e8 64 be 66 25 97 bf e6 75 fa bf
       -0.3444649 -0.22354439 -1.1808288 -1.956723
000050 cf f7 ea bd 4d 3b fa be 4e 6d c5 bf dc d2 6e bf
       -0.11473047 -0.48873368 -1.5423982 -0.93290496
000060 f3 44 21 bf 94 4a 9c 3d 11 b4 21 3b 50 55 3d bd
       -0.62995833 0.07631412 0.0024673978 -0.04622394
000070 e5 56 38 be 92 a1 59 bf 0c e9 bf bf f0 ec e1 bf
       -0.18001898 -0.8501216 -1.4992995 -1.7650433
000080 11 00 dd be 0c ac 35 bf 78 ba fa bf 4d 5b 16 bf
       -0.43164113 -0.7096565 -1.9588156 -0.58733064
000090 b7 1e 1d bf 93 1a a2 be 14 7a e8 bf e4 54 8d be
       -0.6137499 -0.316609 -1.8162255 -0.2760383
0000a0 d0 90 92 be 1f 4a 57 bf 53 2b bf bd 91 c0 11 bf
       -0.28626108 -0.84097475 -0.09334435 -0.5693446
0000b0 3b 89 d6 bf 5f 8e b1 bf 82 20 1f be 9f 32 a7 3d
       -1.676063 -1.3871573 -0.15539744 0.08163952
0000c0 6b b4 35 3c 10 e4 a4 bf af 79 90 bf 42 3b 75 bf
       0.011090378 -1.2882099 -1.1287135 -0.95793545
0000d0 bf 67 04 bd a1 db 47 bf e7 7a da be 00 3a e3 bf
       -0.032325502 -0.780695 -0.42671892 -1.7752075
0000e0 95 a8 be bf a4 83 41 bf ca 22 e9 bd c1 00 b1 bf
       -1.4895197 -0.7559149 -0.113835886 -1.3828355
0000f0 23 42 d3 bf b9 fe c4 be ea be d6 bf f0 9e f3 be
       -1.6504558 -0.38475588 -1.6777012 -0.47582197
000100 70 25 b1 bc ef a6 3e bf a6 36 01 be b1 61 c6 be
       -0.021624297 -0.7447347 -0.12618503 -0.38746408
000110 72 f4 8f bf 5d 58 49 bf 33 0e b3 bf 5c 43 2b bf
       -1.1246474 -0.78650457 -1.3988708 -0.6689966
000120 26 18 e5 bf a7 97 d8 be 3d 33 87 bd 21 2f a1 be
       -1.7897995 -0.42303202 -0.0660157 -0.3148127
000130 e6 ad 64 bf 4c c6 0a bf 2c 65 87 bf 21 5b f2 bf
       -0.8932785 -0.54208827 -1.057775 -1.893406
000140 96 31 43 be 5e 84 3a be 4c 2d ab bf c0 f4 f3 bf
       -0.19061884 -0.18214557 -1.3373199 -1.9059067
000150 aa c1 8a bd d5 b1 e4 be 08 cd d3 bf 7a 66 71 bf
       -0.0677522 -0.44666925 -1.6546946 -0.9429699
000160 94 5f 03 bf e7 45 42 3d 51 89 0e bc eb 0b 7d 3c
       -0.51317716 0.047429945 -0.008699731 0.015444736
000170 23 7f 97 bd 16 1f 2a bf a5 ab bd bf 4f 53 d8 bf
       -0.07397296 -0.66453683 -1.4818007 -1.6900424
000180 58 45 79 be 3f 77 3f bf 1d 1b fa bf 43 6a 0f bf
       -0.24342859 -0.7479133 -1.9539524 -0.5602152
000190 60 8f 3a bf d5 8b db be 81 c8 de bf 9c d6 14 be
       -0.7287502 -0.4288012 -1.7404939 -0.14534992
0001a0 32 36 2a be fc d8 2b bf 2d 2e 16 bd be 56 21 bf
       -0.16622236 -0.67127967 -0.03666513 -0.63022983
0001b0 38 3b d3 bf 96 f4 bc bf c5 27 f6 be e7 39 97 bd
       -1.6502447 -1.4762142 -0.48077217 -0.07384091
0001c0 71 87 c0 3c 02 12 b7 bf 91 b9 8e bf 1b a6 60 bf
       0.023502083 -1.430237 -1.115038 -0.87753457
0001d0 2e 52 b7 3c 5c ac 0d bf 88 99 14 bf 58 91 e3 bf
       0.022378054 -0.55341125 -0.5804677 -1.777873
0001e0 1e 61 c1 bf a5 e0 40 bf 77 aa 36 be a0 ca aa bf
       -1.5107763 -0.7534278 -0.17838465 -1.3343086
0001f0 f1 78 d8 bf 0e 8c bd be 0c 57 de bf 79 4d c5 be
       -1.6911908 -0.37020916 -1.7370315 -0.3853567
000200 30 11 7a bd d4 7a 46 bf dd 7a 42 be b7 ef d7 be
       -0.061051548 -0.7753117 -0.18992181 -0.42175075
000210 a2 32 a0 bf 83 28 3e bf 4f 6b bf bf 9b 7d 1e bf
       -1.2515452 -0.74280566 -1.4954623 -0.6191041
000220 0b 6e e0 bf 21 f2 d2 be 96 cc 69 3d e5 2f 6c be
       -1.7533582 -0.41200355 0.057079874 -0.23065145
000230 d3 54 48 bf fe 7f f0 be 36 a9 98 bf 4a 21 f5 bf
       -0.7825443 -0.4697265 -1.1926639 -1.9150784
000240 30 c7 af be 7c 84 90 bd 8d d0 9f bf a0 65 e6 bf
       -0.34331656 -0.070565194 -1.248552 -1.7999763
000250 6e e2 b6 3c c0 57 ad be 09 da d9 bf 31 42 7a bf
       0.022324767 -0.3385601 -1.7019664 -0.9775725
000260 40 f6 10 bf 00 2e c1 3d a3 54 81 3c c8 6b b0 bd
       -0.5662575 0.09432602 0.015787428 -0.08614308
000270 8c b8 2e be 3d 32 53 bf b5 ec c6 bf 28 55 d2 bf
       -0.17062587 -0.8249853 -1.5540987 -1.6432238
000280 8d 9e 6e be c0 4e 5c bf 8c ce fa bf 76 fb dc be
       -0.2330267 -0.8605766 -1.9594283 -0.431606
000290 f3 25 2a bf 4b 1e ca be fe 4d e9 bf a1 de fb bd
       -0.66464156 -0.39476237 -1.8226926 -0.122983225
0002a0 4f 7c 3f be ba 99 40 bf e6 86 8c bd 40 c5 40 bf
       -0.18699764 -0.7523457 -0.06861667 -0.7530098
0002b0 00 33 d3 bf 5c 0e c1 bf 96 f8 6a be b1 3c b5 3d
       -1.6499939 -1.5082507 -0.2294639 0.088494666
0002c0 15 a8 84 bd fc 0b a8 bf b5 ec a8 bf 63 89 6b bf
       -0.064773716 -1.3128657 -1.3197237 -0.9200651
0002d0 5b 85 e3 3d 60 4c 1d bf 71 ed 00 bf 04 09 e3 bf
       0.1110942 -0.61444664 -0.50362307 -1.7737126
0002e0 d0 6c b9 bf a0 39 3d bf 34 b9 65 be 7e 29 b0 bf
       -1.4486332 -0.73916054 -0.2243393 -1.3762662
0002f0 bd c0 dd bf 17 b1 00 bf 49 f3 dc bf c5 46 05 bf
       -1.7324444 -0.5027022 -1.7261745 -0.5206111
000300 3b d5 94 bd 6f 64 1e bf f9 6a a6 be 65 bd cd be
       -0.07267233 -0.61872 -0.3250349 -0.4018356
000310 c2 2b 91 bf 8a 41 4e bf 8d b1 af bf a8 ac 25 bf
       -1.1341479 -0.80568755 -1.3726059 -0.6471658
000320 76 3c dd bf f7 01 cd be e3 d2 15 bc ad e7 09 be
       -1.7284076 -0.40040562 -0.009144518 -0.13467284
000330 de 05 4b bf 4a 58 f5 be 69 62 8a bf 8b be 07 c0
       -0.7930583 -0.47918922 -1.0811282 -2.1210048
000340 1d 6c 57 be f6 5c 05 be e2 46 ae bf 77 df ed bf
       -0.21037336 -0.13023743 -1.3615382 -1.8583821
000350 b7 40 b7 bd 70 a6 cb be 08 09 d7 bf b2 8e 5b bf
       -0.0894789 -0.3977542 -1.6799631 -0.8576461
000360 88 2a e1 be cd 87 20 bd 1f 92 0d 3d d9 55 60 3b
       -0.4397776 -0.03919201 0.03456318 0.0034230857
000370 a1 dc 2e be 1c 52 42 bf a6 e7 ae bf 5d 6d e6 bf
       -0.17076351 -0.7590654 -1.3664443 -1.8002125
000380 9a ff 88 be 9f 24 2a bf 8f 59 fd bf 3f 39 07 bf
       -0.2675751 -0.6646213 -1.9792956 -0.52821726
000390 45 bf 30 bf c0 6e 5f be 33 01 f1 bf 2b 28 12 be
       -0.69041854 -0.21819592 -1.8828491 -0.14273135
0003a0 d0 59 ac be 8f 61 55 bf 41 02 c1 3d da c1 25 bf
       -0.33662271 -0.8335199 0.09424258 -0.6474892
0003b0 6a 38 da bf 7a 79 b2 bf 86 4e ed be 07 a8 d8 3d
       -1.7048466 -1.3943322 -0.4634897 0.10578924
0003c0 28 64 86 bd b4 dd b6 bf 25 e9 95 bf 3c ff 78 bf
       -0.06562072 -1.4286408 -1.1711775 -0.97264457
0003d0 00 8f eb b9 bb 86 41 bf f1 e9 e2 be d1 be e1 bf
       -0.00044929236 -0.7559621 -0.44319108 -1.7636358
0003e0 7d 96 c6 bf 73 c6 43 bf 43 b9 7d be 08 5f a2 bf
       -1.5514675 -0.76474684 -0.24777703 -1.2685251
0003f0 e4 0b df bf 44 0d 0a bf 18 db d6 bf 30 37 c8 be
       -1.7425504 -0.5392649 -1.6785612 -0.39104605

predictionFunction.value_head.2.bias f4 [41]
000000 f7 db d6 bf 2a 89 da bf 07 46 d0 bf d2 a7 d5 bf
       -1.6785878 -1.7073109 -1.6271371 -1.669184
000010 f0 4c dc bf 71 af db bf 83 db d0 bf b2 77 ca bf
       -1.721098 -1.7162915 -1.631699 -1.5817778
000020 b4 6e dd bf 76 a9 cb bf 32 65 cd bf 54 3d d1 bf
       -1.7299409 -1.591109 -1.6046507 -1.6346841
000030 e6 1a d1 bf 45 82 e2 bf b4 e6 e1 bf d3 5c dc bf
       -1.6336334 -1.7696005 -1.764853 -1.7215828
000040 c2 57 c7 bf ec 5a d9 bf e1 c4 e7 bf 38 22 e2 bf
       -1.5573657 -1.6980872 -1.8106958 -1.7666693
000050 b7 b7 3c bf e0 90 26 bf 1f 31 cd be 5f d9 65 bf
       -0.73717827 -0.6506481 -0.4007654 -0.89784807
000060 b2 8a 99 be ac aa c0 be f4 e3 b6 be 7d 89 ea be
       -0.2998863 -0.37630212 -0.3572079 -0.4580802
000070 1d 71 77 be 81 13 80 be e8 ce 8b 3c 04 a2 9d bd
       -0.24164243 -0.2501488 0.017066434 -0.07696918
000080 ef 10 ba be 40 5d d3 bf 92 81 e2 bf a9 d2 d9 bf
       -0.36341044 -1.6512833 -1.7695792 -1.7017413
000090 a6 d0 df bf 6a d2 de bf 54 f1 d5 bf d0 5d e5 bf
       -1.748555 -1.7407963 -1.6714272 -1.7919254
0000a0 b2 16 e0 bf
       -1.7506926

dynamicsFunction.startBlock.0.weight f4 [64, 34]
000000 27 66 49 3e 67 48 a0 3e 60 04 80 bd 57 81 d9 3d
       0.19667874 0.3130524 -0.062508345 0.10620373
000010 38 a2 f9 3d b6 22 35 3e b2 9c 94 3c 88 dd 82 bd
       0.12189144 0.17689022 0.018141124 -0.0638991
000020 c2 d2 5f bd 06 82 62 be da d8 a5 3e f5 f6 8b 3d
       -0.054644354 -0.22119913 0.32392007 0.06834213
000030 37 90 cc 3a 11 42 1d 3e de 0b 64 bd 6c d6 a6 3e
       0.0015606944 0.15357234 -0.05567538 0.32585466
000040 8b 88 35 3e bc a4 d3 3d 9e e4 b7 bc 18 16 6f 3e
       0.17727868 0.10334155 -0.02244788 0.23348272
000050 49 dd 62 3e 85 fd 43 3e f8 f0 09 be 39 a7 d7 3d
       0.22154726 0.19139679 -0.13470829 0.10529942
000060 ff 9a 74 3e 05 dd f2 3d f7 9d 64 3e 54 40 5b 3d
       0.23887251 0.118585624 0.22325884 0.053528145
000070 4f ae 76 3e eb 5c 6c bc 81 0a fe bd fc 21 00 3e
       0.24089931 -0.01442645 -0.12404347 0.12512964
000080 8e e0 9a 3e 4d dd a8 be 7c 73 a3 be 82 19 07 3e
       0.30249447 -0.3298134 -0.31924045 0.13193324
000090 13 18 33 be c5 5b 7d bd 09 67 ab bd 12 42 b6 3e
       -0.17489652 -0.061855096 -0.08369262 0.35597283
0000a0 a7 12 9d be 04 27 b3 bd 98 70 64 bd bd a6 ac 3e
       -0.30678293 -0.08747676 -0.05577144 0.3372096
0000b0 53 30 35 be fa 3f ae 3d 75 15 6e 3e 7f e2 9e 3e
       -0.17694215 0.08508296 0.23250373 0.31032178
0000c0 16 48 76 3e 43 76 96 3d ec cd fc bc 73 4c e2 3d
       0.24050936 0.073467754 -0.03085991 0.11049738
0000d0 e5 4c 40 be 34 90 68 bd 73 51 28 bd df bb db 3c
       -0.18779333 -0.056778148 -0.0410933 0.026822982
0000e0 15 20 84 3d a7 4f f3 3d 23 be 74 3e 89 00 00 3e
       0.06451432 0.11880427 0.23900656 0.12500204
0000f0 a2 69 6b 3d 83 33 b9 3e 00 58 00 be 27 9f 00 3b
       0.057473786 0.36172113 -0.1253357 0.0019626112
000100 b8 2f 08 be 98 0e 2a 3e 2e e9 9b 3e d9 1a e7 be
       -0.13299453 0.1660713 0.3045134 -0.4513767
000110 ba 79 0f 3e 9e 88 3f be c2 9b 01 3f 9a d4 89 be
       0.14011279 -0.18704459 0.5062829 -0.26920015
000120 03 0f 71 3d 11 69 f6 bd 65 5e da 3d c3 03 d3 bd
       0.058852207 -0.120317586 0.106625356 -0.10303452
000130 ce 5d ae 3d 32 90 22 be 05 e3 2d 3e 71 44 11 3e
       0.085139856 -0.15875319 0.16981132 0.14186265
000140 ec 62 94 be 72 5c 8b be fc aa 0e 3c 93 28 49 be
       -0.2898172 -0.27218968 0.008707758 -0.19644384
000150 1c 47 b5 bd 8b e5 c1 bb e2 86 21 be 57 c5 a6 3d
       -0.08851454 -0.005917256 -0.1577411 0.08143108
000160 8d d8 19 3e 2a b6 4f be 57 40 80 be 9b a2 30 be
       0.15024014 -0.20284334 -0.25049087 -0.17249529
000170 fc fc a6 be c5 73 85 be 25 42 75 be 01 a6 04 bf
       -0.32614887 -0.26064888 -0.23951013 -0.518158
000180 f8 14 e3 3d f1 e6 cf be ce 45 1d 3f 66 7f 45 3e
       0.11087984 -0.40605882 0.6143464 0.1928688
000190 cd 04 29 be ed b2 63 3e b3 4e f6 3c 6b 74 6b be
       -0.16505738 0.22236224 0.030066824 -0.22993629
0001a0 24 cd 49 3d 04 04 e9 3e 31 66 41 3f 5e 60 1a be
       0.049267903 0.45510876 0.75546557 -0.15075824
0001b0 9d 84 de 3d 6d 81 da bd 15 c4 d5 3e 2e 61 16 3e
       0.10865138 -0.10669217 0.4175116 0.14685509
0001c0 30 1a df bb ef 6c aa 3e ad 46 36 be c9 f1 50 bd
       -0.0068085417 0.33286235 -0.17800398 -0.051011834
0001d0 92 63 14 bd e2 ba 11 bf b7 31 33 bd 34 7d 65 be
       -0.03622777 -0.56925786 -0.043748584 -0.22411042
0001e0 ae f8 19 3e aa 0f 2a bf 11 34 0f be ea 73 93 be
       0.1503627 -0.6643015 -0.13984706 -0.28799373
0001f0 7f a5 ed 3d 77 c0 96 bd 8c 52 b9 3c 43 1e 98 ba
       0.116038315 -0.073609285 0.02262237 -0.0011605698
000200 d1 e0 9e be 9c 27 29 3e 9a de b1 be 78 48 6b 3e
       -0.31030896 0.16519016 -0.34740144 0.22976863
000210 4e 4d 9c bd 91 df 95 be b5 3f 8b bc 62 72 33 bd
       -0.07631932 -0.2927213 -0.016998151 -0.043810256
000220 b2 4b 87 bd 31 40 83 bd 41 88 91 be c7 f2 10 3f
       -0.066062346 -0.06408728 -0.28424266 0.5662045
000230 06 63 c0 3e 24 38 c2 bd 7b 71 8c 3d c2 9b 15 bf
       0.3757555 -0.09483364 0.06857582 -0.5844079
000240 e3 79 07 be fc 9b 00 3d 2a 61 2b 3c f4 93 10 bd
       -0.1323009 0.03139876 0.010460177 -0.03529735
000250 43 07 b8 3d 79 97 db bc ba d9 03 bf 60 30 12 3e
       0.0898576 -0.026805626 -0.515041 0.14276266
000260 e2 83 02 3b 59 18 f5 bc e0 33 54 be 84 fa 68 be
       0.0019915034 -0.029918836 -0.20722914 -0.22751814
000270 03 1e 7c be 01 69 3b bc 91 3d da bc 96 ad 53 bd
       -0.24620824 -0.011438609 -0.026640685 -0.051679216
000280 ee ff c3 3e 13 22 4f 3e 9b 95 37 3e 87 97 cf 3e
       0.38281196 0.20227842 0.17928164 0.40545294
000290 5c 6f 88 3d b1 4a 9d bd ad dd 37 3e 86 c9 f4 bd
       0.06661865 -0.07680262 0.17955656 -0.119525
0002a0 1c 43 43 be 5e 09 b5 bd 2e b8 c4 bc 16 d6 69 be
       -0.19068569 -0.08839677 -0.024013605 -0.22835574
0002b0 06 c4 2c 3e f4 9f b5 3c 26 4c af bc 6a 00 c4 bd
       0.16871652 0.022170998 -0.021398615 -0.095703915
0002c0 a3 3a d3 bc f5 40 d6 bd 13 7f 52 3d 65 08 86 3d
       -0.025784796 -0.10461608 0.05139072 0.0654457
0002d0 41 ac 95 3c 62 ee 10 3e 1e ea 68 3e 1e c3 e0 3c
       0.018270614 0.14153436 0.22745559 0.02743679
0002e0 fd d2 06 3e 70 71 2f be ab e7 82 be 01 6b 8a 3e
       0.13166423 -0.17133117 -0.25567374 0.27034763
0002f0 2f 97 a9 bd 36 60 03 bf 9c 88 bc bd 92 81 6b be
       -0.08280789 -0.5131868 -0.09205744 -0.22998646
000300 ae c0 7e 3d fe 8f 12 be 87 ef e6 bd 16 6b 5e be
       0.062195472 -0.14312741 -0.11276155 -0.21720538
000310 bc 27 5b 3c 73 62 69 3e dd be 6f 3d 0b 23 43 3e
       0.013376173 0.22791462 0.05853163 0.19056337
000320 94 3e 8e 3e 87 81 88 bc ab a5 6c bd 50 e7 9e bb
       0.27782118 -0.016663326 -0.05777518 -0.004849352
000330 5b c3 91 3e 14 60 32 3d 5b 5b 04 3d fc 7c f8 bc
       0.28469357 0.04354866 0.032313686 -0.030333035
000340 60 74 6d 3e 65 ef 5a be 34 be 12 be 1c b1 69 be
       0.23188925 -0.21380384 -0.14330369 -0.22821468
000350 97 ac 11 3e 11 87 d8 3d 32 81 d5 bc 31 ad 15 3e
       0.14225994 0.10572637 -0.026062582 0.14616849
000360 db c4 a4 be 11 a0 90 be 87 bf c7 bd 6b 2d e4 bd
       -0.3218144 -0.2824712 -0.09753328 -0.11141475
000370 40 7b 15 3e cc ff b9 bd 47 14 15 be 9b ef 25 3b
       0.14597797 -0.090819925 -0.14558516 0.0025319818
000380 cf 52 dd 3d d3 a7 3c 3e c2 e6 8e be 95 18 dd 3c
       0.1080681 0.18423395 -0.2791043 0.02698926
000390 c2 4b 86 3d d5 b5 7b be 4f 47 f1 bd 75 45 3e be
       0.065574184 -0.24581082 -0.11781179 -0.18581183
0003a0 23 bb 28 3e 1b a1 6c bd 21 63 72 3c 13 62 36 be
       0.16477637 -0.05777083 0.014794142 -0.1781085
0003b0 96 08 12 bf 12 0c 10 3f 02 30 47 3d ed 8d 9c bd
       -0.5704435 0.5626842 0.04862977 -0.07644258
0003c0 c0 bd 51 3e 3b 0e 28 3d fc b4 aa bd 52 b2 55 3d
       0.2048254 0.041029196 -0.08335301 0.052172013
0003d0 e1 aa 40 be 4d 89 89 bd ee 87 bc 3c 9e ef b0 bc
       -0.18815185 -0.06715641 0.023014035 -0.021598633
0003e0 cd ae 37 bd a1 66 43 3d 59 d3 17 3d 09 18 d8 bd
       -0.044844437 0.047705296 0.03706679 -0.10551459
0003f0 a2 56 54 bc 98 0e e1 3d 19 8f 45 3e ac 46 ec 3d
       -0.012960108 0.10989112 0.19292869 0.11536917

dynamicsFunction.startBlock.0.bias f4 [64]
000000 5c f2 a6 3d 36 88 b0 3d b9 e5 a6 3d ed 10 3f be
       0.08151695 0.0861973 0.08149285 -0.186588
000010 e7 39 33 be d0 a4 0f be 5d b3 50 3e 09 3e d2 bc
       -0.17502557 -0.14027715 0.20380922 -0.025664346
000020 21 e7 42 3e 24 5b c9 3c fe d7 b4 bd 09 a5 0e 3e
       0.19033481 0.024579592 -0.0883026 0.13930143
000030 f4 90 fe 3b 51 e7 1e 3e 3b 93 50 3d b7 0e 4a be
       0.0077687446 0.15517928 0.05092166 -0.19732176
000040 c5 f8 62 be 8c 27 82 3e 9e 0a 78 bd 55 1b 6d be
       -0.2216521 0.25420797 -0.060557 -0.23154958
000050 1f 4f 14 be 04 31 13 3d 76 f3 36 be 2c 62 dc bd
       -0.14483307 0.035935417 -0.1786631 -0.10760912
000060 4f cd f2 bc 9e 4d f0 3d 86 15 8a 3e 8d ce 02 be
       -0.029638914 0.11733554 0.26969546 -0.12774105
000070 38 ce 60 be ad 81 17 3e 0a b6 da bc 8a ee da bd
       -0.21953666 0.14795561 -0.026698131 -0.10690029
000080 46 41 03 3e 2d b5 0e 3d b1 a2 dc 3d 6c a4 aa 3d
       0.12817869 0.03484075 0.107732184 0.08332142
000090 dc af 35 3d de e7 85 bd 66 c4 02 3b 9a 61 7e be
       0.044357166 -0.06538366 0.0019953488 -0.2484192
0000a0 01 94 91 3c ab a8 58 3d 7f db 30 be 72 41 66 3e
       0.01777077 0.05289523 -0.17271231 0.22485903
0000b0 7d 75 5c bd 33 4e 9d 3d 41 ae 75 bd 33 df 9e bd
       -0.053822983 0.07680931 -0.059980635 -0.077574156
0000c0 28 b0 18 3e fe 3b 21 3e f4 dc 4b 3b 52 de 1f be
       0.14910948 0.15745541 0.003110704 -0.15612152
0000d0 7e 06 7f bc 6d 61 dc bb 5a eb 20 bd 53 46 c9 bd
       -0.015565513 -0.0067254812 -0.03928695 -0.098278664
0000e0 0c 10 06 3c f6 a0 f1 3d 4f ad 02 bd f3 11 11 3e
       0.008182537 0.11798279 -0.03190356 0.14167003
0000f0 ad 9c 11 3e 9c a6 0b 3d 38 18 f0 3d 5e a2 cc 3d
       0.14219923 0.034094438 0.11723369 0.099919066
