AlphaGo/foersterrobert_MuZero/Environments/CartPole/Models/model_1.pt (torch, 83738 bytes, 20 tensors)

predictionFunction.startBlock.0.weight f4 [64, 32]
-0.08158876 0.41545132 -0.32138497 -0.27526054 -0.23713352 -0.069160394 -0.029125318 0.2202103
0.12634204 -0.110259555 -0.20995592 -0.20706983 -0.365262 0.13662769 -0.04812075 -0.19220583
-0.044461507 0.18538274 -0.33228007 0.20562282 0.30247074 0.6341916 0.048748188 0.035175927
-0.030827409 0.0962261 0.032777574 -0.03159549 0.0349534 0.12975691 -0.2578288 0.04047621
-0.20783861 -0.16703887 -0.23576796 -0.16381547 -0.19820215 0.054143175 -0.2061265 0.24641086
0.11454956 -0.24443024 -0.124822915 0.058468975 -0.08016539 0.057810526 0.059106395 0.03534435
-0.3611072 -0.2157752 0.07023861 0.20828088 0.17009039 -0.012054646 0.16178156 -0.3421433
0.008799713 0.056719974 -0.06930423 -0.08653878 -0.117574655 0.33995795 -0.3964622 -0.110057935
-0.27072585 0.1623245 -1.4028741 0.061540365 0.06061608 0.55025315 -0.03330001 -0.40173486
-0.3672289 0.18096657 -0.3021794 0.15517795 0.42811504 0.07336629 0.25901276 0.15248916
-0.48757327 0.3111003 0.045493934 -0.1799285 0.28790858 0.12712401 0.777868 0.11375793
0.23205595 0.15689786 0.40250605 0.17915635 0.19468766 1.4621801 -0.86353 0.31626415
0.08821727 0.2935303 -0.5838562 -0.17137322 0.07286244 0.2960704 -0.0060275397 -0.19064355
-0.3634212 0.09301752 -0.15304835 -0.19615385 0.25540257 0.01618849 -0.01592548 0.44494087
0.024550049 0.20852233 -0.15627323 0.025704946 -0.06648369 0.4572728 0.19745386 0.36158475
0.1695394 0.050631877 0.09162425 0.19498847 -0.0018000224 0.077875495 -0.47186774 0.36815026
-0.4947976 -0.19838503 -0.28746432 0.31515568 0.12380703 0.12769234 0.014920127 -0.23797949
0.0127097415 0.008063217 -0.02106172 0.59112096 0.34604016 0.50317794 0.025520913 -0.2135825
-0.39517853 -0.4421749 0.10289985 -0.27538007 -0.030155309 -0.2552587 0.13771579 -0.19130252
0.14818892 0.52378684 -0.037822455 -0.025597049 -0.13934207 0.3115606 -0.12673949 0.33878717
-0.10639408 -0.14957589 0.0014847283 -0.2691785 0.3387079 -0.15132642 -0.29375973 0.2771265
-0.025882978 0.06585653 0.09724246 0.063261084 0.21348777 0.035436124 0.04514212 -0.0041705593
-0.1326007 -0.119979754 0.47452065 -0.06728754 -0.01526627 -0.023617787 0.21206975 -0.051890463
0.008261305 0.06685831 -0.11872465 -0.24545549 -0.65875226 0.19632381 0.09453657 0.10976684
-0.15978238 -0.047308855 -0.06747847 -0.1543624 -0.12368119 0.1830783 -0.4655313 0.30724072
-0.025779057 0.29583076 -0.600219 -0.14829034 -0.011523693 0.037918184 0.19117618 0.19722703
0.05330793 -0.008112783 0.30797338 0.090353556 0.02526232 0.024144022 0.06165479 -0.07103074
-0.21438228 0.023148574 0.02072233 -0.45433578 -0.19652432 0.24732324 -0.08380257 0.06528384
-0.24738699 0.17593056 -0.5278968 0.13428348 -0.115114756 -0.024343008 0.039916728 0.18125376
0.09342794 0.11038937 0.16522992 -0.14304245 0.23482317 -0.10392832 -0.2084567 0.36744344
0.078793935 0.15430571 -0.0262117 0.07822278 0.25387707 0.09829927 0.5950045 -0.11828501
0.149734 0.10439325 0.22316417 0.36569202 0.1818808 0.34594634 -0.48869577 -0.23290765
00000000: 0218 a7bd 09b6 d43e 928c a4be f3ee 8cbe
00000010: 21d3 72be f7a3 8dbd 3898 eebc cf7e 613e
00000020: cf5f 013e c3cf e1bd affe 56be 1d0a 54be
00000030: 9f03 bbbe 21e8 0b3e 431a 45bd 9bd1 44be
00000040: 451d 36bd f9d4 3d3e 9d20 aabe ca8e 523e
00000050: 72dd 9a3e 615a 223f 2eac 473d a214 103d
00000060: c389 fcbc 3112 c53d c741 063d 466a 01bd
00000070: 4c2b 0f3d ffde 043e 2302 84be 62ca 253d
00000080: a5d3 54be 3d0c 2bbe 286d 71be 3ebf 27be
00000090: 81f5 4abe 3cc5 5d3d d312 53be 2153 7c3e
000000a0: f698 ea3d ec4b 7abe 28a3 ffbd 2a7d 6f3d
000000b0: c12d a4bd bbca 6c3d 8c19 723d 3dc5 103d
000000c0: 0be3 b8be 2df4 5cbe 43d9 8f3d 9547 553e
000000d0: 2d2c 2e3e da80 45bc 11aa 253e 682d afbe
000000e0: ac2c 103c 3453 683d 60ef 8dbd 3e3b b1bd
000000f0: fbca f0bd f80e ae3e 18fd cabe 0e66 e1bd
00000100: 949c 8abe 6538 263e 6191 b3bf c011 7c3d
00000110: 9148 783d 64dd 0c3f 9765 08bd 31b0 cdbe
00000120: 6d05 bcbe 4d4f 393e 42b7 9abe f8e6 1e3e
00000130: e531 db3e 1141 963d 529d 843e 1e26 1c3e
00000140: 34a3 f9be 8a48 9f3e d957 3a3d 2d3f 38be
00000150: c168 933e cc2c 023e 5b22 473f ebf9 e83d
00000160: 13a0 6d3e d5a9 203e 4615 ce3e c374 373e
00000170: 345c 473e b828 bb3f 4d10 5dbf 60ed a13e
00000180: 42ab b43d 9a49 963e 9a77 15bf 767c 2fbe
00000190: e738 953d 8a96 973e ab82 c5bb 1038 43be
000001a0: 5812 babe f87f be3d b5b8 1cbe 8edc 48be
000001b0: 20c4 823e b99d 843c 2776 82bc 4acf e33e
000001c0: 2f1d c93c e186 553e 1706 20be 2e93 d23c
000001d0: 9a28 88bd a91f ea3e 5831 4a3e a321 b93e
000001e0: bd9b 2d3e 5f63 4f3d 7fa5 bb3d 0fab 473e
000001f0: bbee ebba 307d 9f3d a698 f1be 317e bc3e
00000200: 1c56 fdbe 7225 4bbe 862e 93be 165c a13e
00000210: 8a8e fd3d c8c1 023e 8c73 743c e5b0 73be
00000220: 853c 503c 951b 043c a189 acbc b453 173f
00000230: 2d2c b13e 45d0 003f 3c11 d13c 5fb5 5abe
00000240: d754 cabe c064 e2be 28bd d23d 9efe 8cbe
00000250: 4408 f7bc 45b1 82be 5e05 0d3e cfe4 43be
00000260: d6be 173e e516 063f b8eb 1abd e7b0 d1bc
00000270: b0af 0ebe df84 9f3e ffc7 01be 8375 ad3e
00000280: 24e5 d9bd 6c2a 19be 379b c23a c4d1 89be
00000290: 1f6b ad3e 50f5 1abe ad67 96be 86e3 8d3e
000002a0: 8a08 d4bc cadf 863d 0e27 c73d 078f 813d
000002b0: 8a9c 5a3e 7825 113d f2e6 383d 30a9 88bb
000002c0: 7ac8 07be f2b7 f5bd 5ff4 f23e 0dce 89bd
000002d0: 611f 7abc 177a c1bc d028 593e 188b 54bd
000002e0: 6d5a 073c 02ed 883d e925 f3bd af58 7bbe
000002f0: fda3 28bf 1c09 493e 649c c13d 70cd e03d
00000300: fe9d 23be eec6 41bd 2732 8abd 2d11 1ebe
00000310: 904c fdbd e178 3b3e 1e5a eebe a84e 9d3e
00000320: 9a2e d3bc 2177 973e f4a7 19bf 6cd9 17be
00000330: dfcd 3cbc 1950 1b3d b0c3 433e e2f5 493e
00000340: 6a59 5a3d 7aeb 04bc b0ae 9d3e 490b b93d
00000350: edf2 ce3c afc9 c53c bc89 7c3d 9178 91bd
00000360: 0787 5bbe 14a2 bd3c e0c1 a93c b39e e8be
00000370: ac3d 49be 4e42 7d3e afa0 abbd 89b3 853d
00000380: 0453 7dbe 2427 343e 3f24 07bf 9c81 093e
00000390: 49c1 ebbd fd6a c7bc b97f 233d 969a 393e
000003a0: 2657 bf3d d213 e23d 0832 293e b879 12be
000003b0: 7c75 703e 5fd8 d4bd ac75 55be 8c21 bc3e
000003c0: b75e a13d 5102 1e3e ebb9 d6bc 4433 a03d
000003d0: 2dfc 813e 2151 c93d 3752 183f 693f f2bd
000003e0: df53 193e 21cc d53d 2685 643e fc3b bb3e
000003f0: f63e 3a3e e11f b13e 5536 fabe 587f 6ebe

predictionFunction.startBlock.0.bias f4 [64]
-0.051018637 -0.18938671 -0.2132132 0.045948982 -0.20081596 0.02057153 0.07125777 -0.041726258
0.18225129 0.09295351 -0.22028953 -0.13633345 -0.083437964 -0.066633224 -0.09439072 -0.07690007
-0.113405995 0.121840104 -0.21297742 0.013164412 -0.22598092 -0.0893203 -0.030119749 -0.102162085
-0.020440591 -0.018484011 0.10484908 -0.09105348 -0.0338669 -0.19700375 -0.025603725 -0.17916998
0.051994085 -0.22646184 -0.20769255 0.02290436 -0.116915695 -0.16542172 -0.09217434 -0.08286186
-0.12307042 -0.12589721 -0.25437355 -0.08628358 0.02040781 -0.22298655 0.019366918 -0.12527466
0.04623214 0.11211959 -0.08968178 0.0071857614 -0.186873 -0.039880764 -0.09210438 0.13130051
-0.01842055 0.056780018 -0.08038551 0.0040693777 0.1472051 0.17258789 -0.10219838 0.06774127
00000000: ebf8 50bd 97ee 41be 9054 5abe 0035 3c3d
00000010: b3a2 4dbe a085 a83c 98ef 913d 27e9 2abd
00000020: 15a0 3a3e 695e be3d 9493 61be ff9a 0bbe
00000030: 86e1 aabd 0077 88bd ec4f c1bd c97d 9dbd
00000040: 6741 e8bd 4e87 f93d c116 5abe 8caf 573c
00000050: 8b67 67be 90ed b6bd b1bd f6bc 5b3a d1bd
00000060: 0773 a7bc c86b 97bc 1dbb d63d 3f7a babd
00000070: 05b8 0abd 5abb 49be e7be d1bc 5678 37be
00000080: c0f7 543d 9de5 67be 5bad 54be eda1 bb3c
00000090: 7f71 efbd 5064 29be e6c5 bcbd 7bb3 a9bd
000000a0: 580c fcbd 33eb 00be 403d 82be 72b5 b0bd
000000b0: 482e a73c 9656 64be 5fa7 9e3c 0048 00be
000000c0: ea5d 3d3d f59e e53d 15ab b7bd 8976 eb3b
000000d0: a35b 3fbe 035a 23bd 39a1 bcbd a473 063e
000000e0: b1e6 96bc 2a92 683d 29a1 a4bd 6a58 853b
000000f0: efbc 163e e1ba 303e 624d d1bd efbb 8a3d

predictionFunction.startBlock.2.weight f4 [64, 64]
-0.15417697 0.010721166 0.24991383 -0.13813934 -0.15323114 -0.3356004 0.27233213 0.18408796
-0.6018774 -0.23479751 -0.13009742 -0.028039167 0.3085848 0.5097133 0.08439947 0.08560579
0.13334514 -0.18502821 -0.5425325 -0.246287 -0.09255665 0.10419478 0.29698393 0.25604942
-0.47386155 -0.07141379 0.76843834 -0.027613873 -0.33200327 0.34163225 -0.11578301 -0.10331011
-0.20246705 0.27339277 0.08464713 -0.16559847 -0.13808902 0.14428987 -0.20164305 -0.14199987
-0.48888177 0.08393657 0.1619953 0.059088152 -0.052444514 -0.14279899 -0.1782285 0.12217835
-0.10236304 -0.5242946 -0.26929474 -0.36103374 -0.024907904 -0.09567552 0.42997926 -0.3694353
-0.36571065 0.01843892 -0.077062145 0.30309865 0.10848305 -0.038899947 0.13280094 -0.14323783
-0.100370355 0.12851728 0.164399 -0.09783159 0.49833775 -0.09349087 0.23463865 0.16253291
-0.41532338 0.20331004 0.025297195 0.47436833 0.4710105 0.26726857 -0.2342634 -0.28036824
0.517852 -0.21725087 0.1056705 0.030235285 -0.042447746 -0.13020705 0.03222906 0.17594144
-0.1344437 -0.3231181 0.38710383 -0.09321953 -0.4033215 0.02472713 -0.13887317 0.03917148
-0.38342068 0.0017652605 0.39848885 -0.11026583 0.29768565 -0.19225138 -0.28060478 -0.018020244
0.1323273 0.09658914 0.028742189 0.15446135 0.3313732 0.08105544 -0.29777542 -0.0031992744
-0.22033104 -0.14357972 -0.09712175 -0.16422707 0.1790068 -0.047663745 -0.48879743 -0.29843268
0.17410217 -0.016695745 -0.21680015 0.62623644 0.3260314 0.053132445 0.22534466 -0.11543003
-0.21566154 -0.18306482 0.27754915 -0.0258502 -0.23861259 -0.33441427 0.094922155 -0.017382488
-0.060540434 -0.49417964 -0.022013383 0.15545443 0.117019214 0.10233567 -0.09209886 0.08509468
0.05041136 0.049869545 -0.076616764 0.019680057 0.040934723 -0.19670984 0.09730064 0.028506905
0.12098224 -0.31439352 0.011713084 0.0762473 -0.29876056 -0.070220746 -0.10487139 0.032476857
0.004815497 -0.006487432 -0.11734072 0.019489797 0.091650784 -0.1771964 0.026838591 -0.07384405
0.010800459 -0.073809974 -0.092685536 -0.36120227 0.046451777 -0.2775559 -0.12752739 -0.18793185
-0.17943846 -0.15385868 0.12848873 0.1075988 -0.25718522 5.7303885e-05 0.005021743 -0.0068953945
0.106216975 -0.26343328 -0.20184289 -0.19101372 -0.09891531 -0.14509784 -0.16572921 0.1587117
-0.6489816 -0.13402556 0.08252535 0.25832558 0.052402038 0.101641804 -0.0058675287 0.18616682
-0.6009726 0.2216122 -0.12075018 0.06503109 0.20427014 -0.09561284 0.037914656 0.107958265
0.13459581 -0.10186396 -0.14151812 -0.09856098 -0.0789384 -0.35189056 -0.1310292 0.03664773
-0.080334365 -0.09244329 0.072653405 -0.20275186 0.2442948 -0.025230803 0.21031077 -0.14518262
0.051287487 0.11096256 -0.08342904 -0.2551366 0.14311929 -0.023603711 -0.88962257 0.12092324
0.5815933 -0.09588294 0.025730772 0.48524532 0.19171916 0.13490823 0.0030300939 -0.5275506
0.17965707 -1.557591 0.029512133 -0.11305637 0.2435973 0.1055766 0.040814407 0.05426913
-0.28625053 0.12108252 0.16911882 -0.12133471 -0.3668055 -0.12593034 0.12837677 0.035585705
00000000: 91e0 1dbe d4a7 2f3c 69e9 7f3e 6674 0dbe
00000010: a0e8 1cbe d1d3 abbe 1e6f 8b3e 8e81 3c3e
00000020: a314 1abf c26e 70be 4238 05be 65b2 e5bc
00000030: d4fe 9d3e 927c 023f a1d9 ac3d 1752 af3d
00000040: a18b 083e 0978 3dbe 69e3 0abf a932 7cbe
00000050: 578e bdbd 1364 d53d 470e 983e e918 833e
00000060: fb9d f2be 6541 92bd 60b8 443f 7d36 e2bc
00000070: 55fc a9be 6cea ae3e a51f edbd 4094 d3bd
00000080: 8653 4fbe 23fa 8b3e 795b ad3d a592 29be
00000090: 3567 0dbe b9c0 133e 847b 4ebe 6a68 11be
000000a0: b64e fabe f0e6 ab3d 19e2 253e 6b06 723d
000000b0: 0fd0 56bd e639 12be 8881 36be a538 fa3d
000000c0: b7a3 d1bd 2c38 06bf 00e1 89be 6ad9 b8be
000000d0: a90b ccbc 87f1 c3bd 3e26 dc3e a026 bdbe
000000e0: 6d3e bbbe 380d 973c c2d2 9dbd bf2f 9b3e
000000f0: 5c2c de3d 8d55 1fbd f8fc 073e f0ac 12be
00000100: f98e cdbd 099a 033e 3658 283e ee5b c8bd
00000110: 2026 ff3e 2478 bfbd 1d45 703e 076f 263e
00000120: 44a5 d4be 8230 503e 103c cf3c 68e0 f23e
00000130: 4a28 f13e 6dd7 883e bfe2 6fbe 6d8c 8fbe
00000140: f391 043f 0377 5ebe c669 d83d fdaf f73c
00000150: b0dd 2dbd ff54 05be 9e02 043d fe29 343e
00000160: 9cab 09be bc6f a5be 7932 c63e e2e9 bebd
00000170: 2880 cebe 8d90 ca3c c534 0ebe 4672 203d
00000180: b74f c4be 5060 e73a bb06 cc3e 0dd3 e1bd
00000190: 416a 983e 8cdd 44be 6eab 8fbe 319f 93bc
000001a0: cf80 073e 87d0 c53d bd74 eb3c 1e2b 1e3e
000001b0: c0a9 a93e 6500 a63d 0576 98be ebaa 51bb
000001c0: 769e 61be 9006 13be c5e7 c6bd 242b 28be
000001d0: 8f4d 373e 0f3b 43bd a843 fabe 2bcc 98be
000001e0: d747 323e 84c5 88bc dc00 5ebe 0851 203f
000001f0: 96ed a63e 68a1 593d c0c0 663e 9466 ecbd
00000200: 61d6 5cbe 5875 3bbe ec1a 8e3e ccc3 d3bc
00000210: dc56 74be 5938 abbe 8c66 c23d b865 8ebc
00000220: 3ff9 77bd 1d05 fdbe 6955 b4bc 722f 1f3e
00000230: c5a7 ef3d 5d95 d13d 549e bcbd 1f46 ae3d
00000240: 247c 4e3d 0244 4c3d 40e9 9cbd 1238 a13c
00000250: 2bab 273d 4e6e 49be 8f45 c73d 5087 e93c
00000260: 89c5 f73d 30f8 a0be 3ce8 3f3c 8b27 9c3d
00000270: 25f7 98be e5cf 8fbd d0c6 d6bd 7406 053d
00000280: 51cb 9d3b 8694 d4bb 5550 f0bd 11a9 9f3c
00000290: 68b3 bb3d f972 35be 9bdc db3c 8d3b 97bd
000002a0: 69f4 303c af29 97bd ead1 bdbd 81ef b8be
000002b0: 3844 3e3d cf1b 8ebe 8a96 02be 3571 40be
000002c0: b7be 37be 218d 1dbe 8d92 033e c25c dc3d
000002d0: c8ad 83be 9459 7038 6f8d a43b c3f2 e1bb
000002e0: 4988 d93d bae0 86be e7af 4ebe 1a99 43be
000002f0: 1c94 cabd 8794 14be ebb4 29be 5285 223e
00000300: a823 26bf ff3d 09be 0d03 a93d 4043 843e
00000310: 85a3 563d 9429 d03d 6644 c0bb 84a2 3e3e
00000320: 57d9 19bf 4fee 623e df4b f7bd 052f 853d
00000330: 312c 513e aad0 c3bd 664c 1b3d 3919 dd3d
00000340: 7cd3 093e 0d9e d0bd 20ea 10be 57da c9bd
00000350: 75aa a1bd 002b b4be 852c 06be ee1b 163d
00000360: 5886 a4bd e852 bdbd 4fcb 943d 2f9e 4fbe
00000370: 6b28 7a3e d4b0 cebc b55b 573e c1aa 14be
00000380: d412 523d 5740 e33d d8dc aabd 44a1 82be
00000390: dd8d 123e 925c c1bc 4ebe 63bf 9ba6 f73d
000003a0: 4ce3 143f 465e c4bd 57c9 d23c 1372 f83e
000003b0: 0752 443e 6225 0a3e 8a94 463b 8e0d 07bf
000003c0: 06f8 373e 245f c7bf 6ec3 f13c 198a e7bd
000003d0: 9271 793e 8b38 d83d 022d 273d 4f49 5e3d
000003e0: 6e8f 92be 1dfa f73d 7c2d 2d3e 557e f8bd
000003f0: eecd bbbe e2f3 00be 3375 033e 51c2 113d

predictionFunction.startBlock.2.bias f4 [64]
-0.106200054 -0.1598644 -0.043796282 0.11664736 -0.23844518 -0.1631496 -0.0107295755 -0.30831861
-0.10593863 -0.02127649 -0.13151102 0.08152871 0.13674961 0.13244092 0.21570157 -0.021864442
-0.1012644 -0.13154393 -0.35654998 0.050108597 0.050852194 -0.11016531 -0.083945766 0.11845939
-0.09439796 -0.09314428 -0.049660176 -0.120863296 -0.118793085 0.07663832 -0.12660159 0.006584948
-0.072500356 0.010552893 0.025764737 -0.001759219 -0.019655183 -0.12551385 -0.06907098 0.020347876
-0.20879304 0.19842777 0.18688044 -0.11976176 0.06904728 -0.113955304 0.090286754 -0.42165902
-0.053804796 -0.16963619 -0.0217243 0.01743263 0.20417142 -0.106217265 -0.22123025 0.37614527
-0.004792451 -0.13342312 0.09620326 0.14435405 0.091341384 0.13670486 -0.06937794 -0.059799768
00000000: 6a7f d9bd 7eb3 23be bb63 33bd d0e4 ee3d
00000010: f92a 74be b010 27be 1acb 2fbc f0db 9dbe
00000020: 5af6 d8bd 094c aebc d3aa 06be 86f8 a63d
00000030: 1708 0c3e 989e 073e dfe0 5c3e 0f1d b3bc
00000040: b663 cfbd 74b3 06be b88d b6be ac3e 4d3d
00000050: 644a 503d 5a9e e1bd c2eb abbd d69a f23d
00000060: b853 c1bd 6ec2 bebd 7868 4bbd 2d87 f7bd
00000070: ca49 f3bd 8df4 9c3d d9a3 01be 8cc6 d73b
00000080: 117b 94bd 0be6 2c3c 9210 d33c 9895 e6ba
00000090: e803 a1bc b486 00be 1675 8dbd 97b0 a63c
000000a0: d8cd 55be a630 4b3e 965d 3f3e a745 f5bd
000000b0: a968 8d3d 6661 e9bd 43e8 b83d b1e3 d7be
000000c0: 6b62 5cbd 1cb5 2dbe 29f7 b1bc e0ce 8e3c
000000d0: 5012 513e 7088 d9bd 2f8a 62be 1d96 c03e
000000e0: fe09 9dbb 12a0 08be 3706 c53d 8cd1 133e
000000f0: 3111 bb3d 5cfc 0b3e 0516 8ebd 9af0 74bd

predictionFunction.policy_head.0.weight f4 [2, 64]
-0.09829893 -0.005885336 -0.07849048 0.114603795 -0.19956887 0.082631774 0.11478765 0.5113292
0.087229684 0.029696202 0.11436429 0.045761514 0.007753836 -0.10717084 0.026971012 -0.012487893
-0.17132583 0.07200782 -0.36074266 -0.11577342 0.08083255 0.11944449 0.04781628 0.12376529
0.07695729 -0.16554986 0.09690635 -0.26710796 0.01387721 -0.16124585 0.0036920574 0.12802233
-0.005279744 -0.018501308 -0.20074552 -0.06552421 -0.067936175 0.3223095 0.033392057 0.020319695
0.40687183 0.28409213 0.067080915 -0.33755773 -0.096036784 -0.040793847 -0.19290257 0.13283186
0.3195897 0.2575405 -0.17413355 0.0446443 -0.06643064 0.06686053 0.21090688 -0.02012294
0.08508314 0.022196446 0.03640114 -0.10581608 0.02979285 0.0029212206 0.06125236 0.082576714
0.12654921 -0.18265893 0.08182569 -0.13969307 -0.009011334 0.056644194 0.073214784 -0.39557317
-0.051259555 -0.030659186 -0.040339366 -0.03413604 0.11980805 0.142106 0.0024638458 0.11323706
0.2169201 -0.24642709 0.35097182 0.011625621 0.030298084 -0.0045574885 -0.051474947 -0.11676573
0.09665919 0.16300511 0.04066649 0.26313022 0.04890581 0.21444885 0.09492255 -0.042463385
-0.07579537 -0.097748324 0.21517546 0.017615963 0.00245378 -0.28932223 0.07584512 0.116450235
-0.4068677 -0.20082034 0.015966265 0.25999844 -0.0664052 -0.026537381 0.09027283 -0.16499522
-0.38895595 -0.21991509 0.15138862 0.0030814412 -0.04503505 0.12811807 -0.14350316 -0.005235371
0.007230229 -0.17437302 -0.18568832 -0.06093103 0.09536029 0.21761039 -0.08415001 0.03469067
00000000: f350 c9bd c7d9 c0bb 9ebf a0bd 65b5 ea3d
00000010: c85b 4cbe d93a a93d ca15 eb3d 78e6 023f
00000020: 7aa5 b23d 7345 f33c d337 ea3d 6d70 3b3d
00000030: e413 fe3b 637c dbbd 50f2 dc3c 059a 4cbc
00000040: 0a70 2fbe d678 933d 43b3 b8be 9d1a edbd
00000050: 898b a53d 509f f43d 01db 433d a878 fd3d
00000060: c99b 9d3d e785 29be d676 c63d 60c2 88be
00000070: 3d5d 633c a21d 25be 72f6 713b 4918 033e
00000080: b401 adbb 0e90 97bc 3c90 4dbe 8f31 86bd
00000090: 1f22 8bbd c005 a53e 1cc6 083d 7d75 a63c
000000a0: 8151 d03e 8674 913e b861 893d 5ed4 acbe
000000b0: efae c4bd 7317 27bd 4088 45be 1305 083e
000000c0: 43a1 a33e 59dc 833e 1150 32be f1dc 363d
000000d0: ca0c 88bd 2cee 883d f9f7 573e ddd8 a4bc
000000e0: 1240 ae3d 52d5 b53c 5d19 153d 1ab6 d8bd
000000f0: 2310 f43c f371 3f3b c1e3 7a3d fb1d a93d
00000100: 1e96 013e f10a 3bbe 3a94 a73d b30b 0fbe
00000110: 46a4 13bc be03 683d a2f1 953d 9188 cabe
00000120: 8af5 51bd f928 fbbc e43a 25bd 3bd2 0bbd
00000130: ec5d f53d 3c84 113e 7978 213b d5e8 e73d
00000140: 4d20 5e3e 6257 7cbe 94b2 b33e 6379 3e3c
00000150: b033 f83c fc56 95bb 65d7 52bd df22 efbd
00000160: 41f5 c53d d0ea 263e e891 263d 01b9 863e
00000170: 7551 483d 7b98 5b3e c166 c23d 16ee 2dbd
00000180: 9a3a 9bbd 4630 c8bd f556 5c3e 5a4f 903c
00000190: 99cf 203b 0b22 94be b054 9b3d 767d ee3d
000001a0: f750 d0be d9a3 4dbe afcb 823c 841e 853e
000001b0: 73ff 87bd ec64 d9bc f6e0 b83d 82f4 28be
000001c0: 3c25 c7be 6c31 61be 9e05 1b3e 01f2 493b
000001d0: ac76 38bd 6231 033e 7ef2 12be 7a8d abbb
000001e0: 8feb ec3b d78e 32be 1425 3ebe d192 79bd
000001f0: 414c c33d 42d5 5e3e d756 acbd ce17 0e3d

predictionFunction.policy_head.0.bias f4 [2]
-0.00013776596 -0.013971322
00000000: 4575 10b9 f9e7 64bc

predictionFunction.value_head.0.weight f4 [64, 64]
-0.075059265 -0.02108488 -0.008426341 0.057349164 0.032973323 -0.054660413 0.055014487 -0.076271184
-0.0571219 -0.14035325 0.036119606 -0.03374567 -0.10392651 -0.11504868 -0.07063373 -0.09970354
-0.050939098 -0.10576246 -0.090487316 0.033897933 -0.07918825 0.05087948 0.008513406 -0.076636374
0.021163484 0.076191425 -0.014874486 0.013550654 0.10146546 -0.04599691 0.027475417 0.05129341
-0.14329621 0.07380961 -0.098886035 -0.00642021 -0.09105356 0.025156878 -0.10053763 -0.0751911
0.021597624 -0.09307783 -0.029235953 0.074468695 -0.15842244 -0.08122079 -0.11724852 0.08356293
0.004702288 -0.104877606 -0.1400534 0.06460041 0.05217425 -0.10768244 -0.0061751553 -0.061070234
0.015961645 -0.11755568 0.032356873 0.08022713 0.005493664 -0.07507529 -0.013550799 0.053935066
-0.15669538 -0.12294185 -0.104002476 0.012806799 -0.14461997 -0.052008577 -0.05579235 -0.3980852
0.050905455 0.03852242 -0.1276372 -0.07262784 -0.09544338 -0.1640128 -0.12451291 -0.05548053
-0.2870624 -0.3939824 -0.0847422 -0.0034667118 -0.0021564658 0.042929158 -0.04256621 -0.09717174
0.4222788 0.24462877 0.06678159 -0.0211896 0.111786574 -0.1650734 -0.16145776 -0.039281514
-0.47423345 -0.2339669 -0.102432035 0.029812545 0.11403128 0.004173087 0.016992478 0.20734797
-0.21551163 -0.05986232 -0.0923713 -0.36755887 -0.3780084 0.11489172 -0.19034666 -0.14920218
0.2221047 -0.0514761 -0.093415946 0.06391497 -0.072834246 -0.3449232 -0.095503196 0.2438582
-0.03034087 -0.006902909 0.16782454 0.054721117 -0.11124966 0.13976127 -0.23491256 -0.073912024
0.035466 0.06992109 0.12848186 -0.095888056 -0.11925566 -0.074495025 0.074235395 -0.15191215
-0.060582187 0.18602827 0.04130417 -0.15807147 -0.11670366 -0.0022741596 0.0383772 -0.1128712
-0.10065396 -0.23917134 -0.08987937 0.07481074 -0.06027122 -0.07379633 -0.09028014 -0.1680158
0.28282326 -0.10930243 0.010536835 0.05852828 0.1422946 -0.25083655 -0.048705745 0.028706374
-0.20368795 -0.24963598 -0.12878022 -0.111506075 0.016772164 -0.01659309 -0.15477693 0.14316712
0.08898058 -0.019555693 -0.0013751693 -0.26824972 -0.3294893 -0.11548978 0.0023601567 -0.21595867
-0.06851923 0.15363976 -0.07901579 -0.011581267 -0.033010073 -0.23925976 -0.07203598 -0.03743221
0.13141407 -0.011250974 0.1484469 0.09138358 0.065348335 -0.14943227 -0.18922839 0.075442985
0.36550522 0.07555839 0.019391606 -0.31137368 0.31508988 0.15809661 -0.11868028 -0.05652101
-0.32259372 0.085413516 -0.061052687 -0.3440212 -0.31629744 0.06234566 -0.18517764 -0.09443358
0.7412726 0.10982329 -0.099644 -0.41795808 -0.08322155 -0.04204929 -0.10653273 -0.27702034
-0.086674996 0.012952534 -0.019997949 -0.124946155 -0.09475957 0.14855538 0.10229455 -0.33812094
0.28400788 -0.6086888 0.17972952 -0.03559471 0.03753297 0.06513469 -0.09558479 -0.039072204
0.21368064 -0.10948668 -0.034839295 -0.09636888 0.112304024 0.0748751 -0.2606355 -0.17795229
-0.26556578 -0.12535673 0.058616 -0.10028458 -0.23784856 -0.38556874 0.14405985 -0.23304424
0.0569614 0.15847984 0.034873866 -0.16662914 -0.009555161 -0.15887062 0.2176533 -0.08039019
00000000: acb8 99bd 33ba acbc a30e 0abc f5e6 6a3d
00000010: 090f 073d 99e3 5fbd df56 613d 1134 9cbd
00000020: a7f8 69bd c3b8 0fbe 27f2 133d e638 0abd
00000030: 6cd7 d4bd a49e ebbd 6ba8 90bd 5f31 ccbd
00000040: 84a5 50bd fd99 d8bd 6a51 b9bd 8fd8 0a3d
00000050: 732d a2bd 0067 503d d07b 0b3c 88f3 9cbd
00000060: 0b5f ad3c 400a 9c3d 1eb4 73bc 9003 5e3c
00000070: 20cd cf3d 4267 3cbd 2014 e13c 0a19 523d
00000080: 3ebc 12be 7e29 973d c384 cabd a060 d2bb
00000090: 4a7a babd cc15 ce3c ace6 cdbd cbfd 99bd
000000a0: 80ed b03c 979f bebd 3d80 efbc 0b83 983d
000000b0: 7e39 22be 1657 a6bd fe1f f0bd 0b23 ab3d
000000c0: a715 9a3b 12ca d6bd 296a 0fbe 384d 843d
000000d0: abb4 553d 9c88 dcbd f558 cabb c824 7abd
000000e0: ffc1 823c 08c1 f0bd a488 043d 1f4e a43d
000000f0: 3204 b43b 13c1 99bd 2c04 5ebc 04eb 5c3d
00000100: c174 20be f0c8 fbbd 40ff d4bd 9cd3 513c
00000110: 4217 14be f206 55bd 8586 64bd d3d1 cbbe
00000120: 3d82 503d afc9 1d3d 53b3 02be e8bd 94bd
00000130: d277 c3bd f9f2 27be a000 ffbd 8d3f 63bd
00000140: d8f9 92be 10b8 c9be 528d adbd c631 63bb
00000150: 7e53 0dbb 7cd6 2f3d e859 2ebd fa01 c7bd
00000160: ed34 d83e f77f 7a3e c9c4 883d d095 adbc
00000170: 5cf0 e43d 0009 29be 2f55 25be a7e5 20bd
00000180: bace f2be 0595 6fbe e3c7 d1bd 7039 f43c
00000190: 3b89 e93d 64be 883b cf33 8b3c 0753 543e
000001a0: 15af 5cbe 3132 75bd 2a2d bdbd ad30 bcbe
000001b0: 518a c1be 5a4c eb3d 3cea 42be 75c8 18be
000001c0: 6a6f 633e 9ad8 52bd dc50 bfbd dae5 823d
000001d0: 1f2a 95bd c699 b0be 2e97 c3bd f7b5 793e
000001e0: 6b8d f8bc cc31 e2bb 32da 2b3e 4023 603d
000001f0: ddd6 e3bd 941d 0f3e eb8c 70be 305f 97bd
00000200: cc44 113d ca32 8f3d c090 033e f560 c4bd
00000210: 503c f4bd d990 98bd ba08 983d dc8e 1bbe
00000220: 0725 78bd 327e 3e3e 902e 293d 7ddd 21be
00000230: 5402 efbd 110a 15bb 6931 1d3d 0429 e7bd
00000240: aa23 cebd 55e9 74be ad12 b8bd 6036 993d
00000250: f4de 76bd 8822 97bd cbe4 b8bd 550c 2cbe
00000260: 36ce 903e f4d9 dfbd b0a2 2c3c 5abb 6f3d
00000270: adb5 113e a66d 80be ad7f 47bd a129 eb3c
00000280: 9393 50be 93a0 7fbe f6de 03be 4c5d e4bd
00000290: c765 893c 3bee 87bc d87d 1ebe 679a 123e
000002a0: 733b b63d 4333 a0bc 063f b4ba 0758 89be
000002b0: d2b2 a8be e885 ecbd dcac 1a3b 4524 5dbe
000002c0: cf53 8cbd be53 1d3e 08d3 a1bd 5bbf 3dbc
000002d0: 9235 07bd 8300 75be 9a87 93bd 8452 19bd
000002e0: 6991 063e 0156 38bc 7702 183e 5027 bb3d
000002f0: 59d5 853d c604 19be 16c5 41be da81 9a3d
00000300: 8023 bb3e 5bbe 9a3d 25db 9e3c 5f6c 9fbe
00000310: 7653 a13e 14e4 213e a60e f3bd 9382 67bd
00000320: 012b a5be 48ed ae3d 6212 7abd 8c23 b0be
00000330: bdf1 a1be 2a5e 7f3d 359f 3dbe 6566 c1bd
00000340: 0bc4 3d3f 08eb e03d 2712 ccbd 9afe d5be
00000350: 0f70 aabd e03b 2cbd d52d dabd 9cd5 8dbe
00000360: a982 b1bd dd36 543c bdd2 a3bc c5e3 ffbd
00000370: 4e11 c2bd e71e 183e ce7f d13d 301e adbe
00000380: 7b69 913e 07d3 1bbf 040b 383e c2cb 11bd
00000390: 2cbc 193d 5665 853d f5c1 c3bd 2d0a 20bd
000003a0: 19cf 5a3e 8d3a e0bd a6b3 0ebd 0c5d c5bd
000003b0: a7ff e53d 1e58 993d 0472 85be 2039 36be
000003c0: 3df8 87be 845d 00be 5517 703d 0062 cdbd
000003d0: 938e 73be 4469 c5be 6d84 133e 26a3 6ebe
000003e0: 5b50 693d 8a48 223e e6d7 0e3d d4a0 2abe
000003f0: 408d 1cbc fbae 22be 82e0 5e3e 9da3 a4bd

predictionFunction.value_head.0.bias f4 [64]
-0.14519487 -0.10859572 0.0507183 -0.23471756 0.14655359 0.0027177548 -0.01094603 -0.25596106
0.20291999 -0.092512086 -0.07809575 -0.053424783 -0.018214632 -0.19165738 -0.16148166 -0.22479519
-0.08579389 -0.06962851 -0.09253534 0.37575582 -0.050138086 -0.15657458 0.28404242 -0.09572744
-0.0024471204 -0.17551722 -0.09935967 -0.066342115 -0.03374582 -0.1064169 0.08892792 0.08833715
-0.1569005 0.04808811 0.24087736 -0.08534006 -0.2034613 -0.024899362 -0.046079345 -0.160086
-0.22750188 -0.002679123 -0.12394316 -0.058920708 0.13215639 0.03841836 -0.17068094 -0.11739037
-0.039871275 -0.23133668 -0.036221977 0.080168486 -0.16793288 0.023111027 -0.17198494 0.2532008
-0.0038725396 -0.045920644 -0.10131759 -0.18674473 0.28191954 0.036534727 0.22027634 -0.22844107
00000000: f7ad 14be 6f67 debd febd 4f3d cd59 70be
00000010: 2512 163e 5c1c 323b fa56 33bc 540d 83be
00000020: 42ca 4f3e fa76 bdbd aaf0 9fbd f2d3 5abd
00000030: da36 95bc d541 44be 735b 25be b630 66be
00000040: b5b4 afbd 6499 8ebd 2b83 bdbd 1163 c03e
00000050: 985d 4dbd 1655 20be 026e 913e c00c c4bd
00000060: de5f 20bb c9ba 33be 157d cbbd 60de 87bd
00000070: 0f39 0abd 1bf1 d9bd d71f b63d 1cea b43d
00000080: 86aa 20be 0af8 443d 8ea8 763e c5c6 aebd
00000090: 2958 50be bff9 cbbc b2bd 3cbd 96ed 23be
000000a0: 41f6 68be 3a94 2fbb e9d5 fdbd d756 71bd
000000b0: 0154 073e 925c 1d3d fcc6 2ebe 5d6a f0bd
000000c0: 1050 23bd 86e3 6cbe 7f5d 14bd 602f a43d
000000d0: 99f6 2bbe 5653 bd3c d21c 30be 89a3 813e
000000e0: 6fca 7dbb 4917 3cbd 997f cfbd 033a 3fbe
000000f0: c257 903e 70a5 153d 1f90 613e 75ec 69be

predictionFunction.value_head.2.weight f4 [41, 64]
-0.07590156 -0.6768821 -0.26320368 -0.38718686 -0.87638557 -0.65161496 -0.85711557 -0.7718334
-1.0077387 -0.22258897 0.03483534 -0.14443783 -0.43648735 -0.50306284 -0.8766247 -1.8566844
-0.2712157 -0.22354439 -0.9812453 -1.221636 -0.114721514 -0.43495846 -1.1596931 -0.9225266
-0.5874015 0.07631412 0.002467398 -0.04622394 -0.18001898 -0.76139694 -0.9980306 -1.3200998
-0.32440424 -0.22047052 -1.0032299 -0.38909593 -0.43137982 -0.316609 -1.306351 -0.2760383
-0.28626108 -0.7818034 -0.09334435 -0.5693446 -0.968316 -0.87847495 -0.15531504 0.08163952
-0.04960131 -0.840437 -0.5443897 -0.72607255 -0.032325502 -0.78409934 -0.42671892 -0.9315503
-0.9313847 -0.042208105 -0.113835886 -1.1394733 -0.91905344 -0.2989007 -0.9769144 -0.47581545
-0.021624297 -0.7447347 -0.09866124 -0.37528297 -0.8531062 -0.7109116 -0.7539979 -0.66890657
-0.99448216 -0.30700558 -0.0660157 -0.31351215 -0.63382864 -0.54208827 -0.82476705 -1.8932703
-0.11101525 -0.18214557 -1.1331189 -1.1401569 -0.06774264 -0.38955984 -1.2594725 -0.93218267
-0.4619681 0.047429945 -0.008699731 0.015444744 -0.07397296 -0.5644015 -0.9706553 -1.2166198
-0.122030385 -0.24766418 -1.0160972 -0.3527182 -0.5616372 -0.4288012 -1.2093177 -0.14534992
-0.16622236 -0.6163939 -0.03666513 -0.63022983 -0.9280546 -0.9917476 -0.48069316 -0.07384091
-0.030772924 -1.014912 -0.5020184 -0.6644274 0.022378054 -0.55796266 -0.5804677 -0.93477935
-0.9149059 -0.046610527 -0.17838465 -1.0961549 -0.9690453 -0.28730294 -1.0476973 -0.38535184
-0.061051548 -0.7753117 -0.16080569 -0.41060314 -0.97679406 -0.66909057 -0.85959965 -0.6190201
-0.9688494 -0.3111927 0.057079874 -0.22882646 -0.52284646 -0.4697265 -0.98964584 -1.9149249
-0.2772945 -0.070565194 -1.0395015 -1.0387657 0.022335082 -0.29140875 -1.3104404 -0.96523947
-0.5238257 0.09432602 0.015787428 -0.08614308 -0.17062587 -0.7446692 -1.0281843 -1.1732141
-0.13679647 -0.3854178 -1.0331281 -0.24010853 -0.4915471 -0.39476237 -1.2976254 -0.122983225
-0.18699764 -0.6944934 -0.06861667 -0.7530098 -0.91394573 -0.99801415 -0.22938052 0.088494666
-0.12280222 -0.8753951 -0.72347593 -0.6995131 0.1110942 -0.61908424 -0.50362307 -0.9225994
-0.857991 -0.06660917 -0.2243393 -1.1309452 -1.0113587 -0.4204729 -1.0246375 -0.5206081
-0.07267233 -0.61872 -0.30033103 -0.38699046 -0.8596353 -0.7248928 -0.7161141 -0.6470914
-0.94088036 -0.28206053 -0.009144518 -0.1330841 -0.53328466 -0.47918922 -0.8681305 -2.1209047
-0.12797658 -0.13023743 -1.1496321 -1.0942922 -0.089468315 -0.33781466 -1.2975597 -0.8462738
-0.37975955 -0.03919201 0.03456318 0.0034230992 -0.17076351 -0.65371656 -0.84376174 -1.3286132
-0.1362319 -0.1652337 -1.0368158 -0.31130314 -0.519644 -0.21819592 -1.3695987 -0.14273135
-0.33662271 -0.77906454 0.09424258 -0.6474892 -0.99786246 -0.8799835 -0.46341756 0.10578924
-0.13016224 -0.98907584 -0.56457937 -0.75461954 -0.00044929236 -0.7605472 -0.44319108 -0.964122
-0.96963394 -0.1049175 -0.24777703 -1.0215423 -1.0017152 -0.45769954 -0.9757971 -0.39103955
00000000: 4772 9bbd 2548 2dbf a2c2 86be 5b3d c6be
00000010: ce5a 60bf 3dd0 26bf ed6b 5bbf e096 45bf
00000020: 95fd 80bf 5dee 63be 80af 0e3d 83e7 13be
00000030: 457b dfbe bac8 00bf 7a6a 60bf d6a7 edbf
00000040: c9dc 8abe d2e8 64be e432 7bbf 925e 9cbf
00000050: 1df3 eabd e0b2 debe d370 94bf b42a 6cbf
00000060: f25f 16bf 944a 9c3d 12b4 213b 5055 3dbd
00000070: e556 38be e9ea 42bf ef7e 7fbf 08f9 a8bf
00000080: 5018 a6be 06c3 61be d669 80bf 9537 c7be
00000090: d1dd dcbe 931a a2be 8236 a7bf e454 8dbe
000000a0: d090 92be 4524 48bf 532b bfbd 91c0 11bf
000000b0: 8fe3 77bf bce3 60bf e80a 1fbe 9f32 a73d
000000c0: be2a 4bbd e126 57bf 205d 0bbf e4df 39bf
000000d0: bf67 04bd bcba 48bf e77a dabe 157a 6ebf
000000e0: 3a6f 6ebf 68e2 2cbd ca22 e9bd 43da 91bf
000000f0: 1647 6bbf 8309 99be 1017 7abf 159e f3be
00000100: 7025 b1bc efa6 3ebf e70e cabd 1725 c0be
00000110: 2b65 5abf 4dfe 35bf 0206 41bf 763d 2bbf
00000120: 6296 7ebf d62f 9dbe 3d33 87bd aa84 a0be
00000130: 9842 22bf 4cc6 0abf ef23 53bf ae56 f2bf
00000140: f75b e3bd 5e84 3abe 0a0a 91bf a9f0 91bf
00000150: a7bc 8abd 6374 c7be 6536 a1bf 86a3 6ebf
00000160: 1587 ecbe e745 423d 5189 0ebc f40b 7d3c
00000170: 237f 97bd 9e7c 10bf de7c 78bf 33ba 9bbf
00000180: 11eb f9bd ae9b 7dbe 790f 82bf 7b97 b4be
00000190: 75c7 0fbf d58b dbbe ecca 9abf 9cd6 14be
000001a0: 3236 2abe fecb 1dbf 2d2e 16bd be56 21bf
000001b0: fc94 6dbf 2ce3 7dbf 6a1d f6be e739 97bd
000001c0: 8017 fcbc a3e8 81bf 4784 00bf ea17 2abf
000001d0: 2e52 b73c a4d6 0ebf 8899 14bf b34d 6fbf
000001e0: 4637 6abf aeea 3ebd 77aa 36be ce4e 8cbf
000001f0: 5a13 78bf 5f19 93be f21a 86bf d64c c5be
00000200: 3011 7abd d47a 46bf 3faa 24be 933a d2be
00000210: 2d0f 7abf 8549 2bbf b90e 5cbf 1a78 1ebf
00000220: 8406 78bf a654 9fbe 96cc 693d 7c51 6abe
00000230: 44d9 05bf fe7f f0be 6e59 7dbf 421c f5bf
00000240: 8bf9 8dbe 7c84 90bd 630e 85bf 46f6 84bf
00000250: 10f8 b63c 8733 95be 83bc a7bf ef19 77bf
00000260: 7119 06bf 002e c13d a354 813c c86b b0bd
00000270: 8cb8 2ebe a4a2 3ebf 8b9b 83bf e12b 96bf
00000280: 6014 0cbe 7b55 c5be 8b3d 84bf 03df 75be
00000290: 10ac fbbe 4b1e cabe 9718 a6bf a1de fbbd
000002a0: 4f7c 3fbe 52ca 31bf e686 8cbd 40c5 40bf
000002b0: 59f8 69bf db7d 7fbf bae2 6abe b13c b53d
000002c0: bb7f fbbd e519 60bf b835 39bf 4a13 33bf
000002d0: 5b85 e33d 4e7c 1ebf 71ed 00bf 792f 6cbf
000002e0: 4ca5 5bbf 636a 88bd 34b9 65be d0c2 90bf
000002f0: 3474 81bf 3948 d7be 5227 83bf 9346 05bf
00000300: 3bd5 94bd 6f64 1ebf fdc4 99be 9d23 c6be
00000310: 0f11 5cbf 9392 39bf 4153 37bf c8a7 25bf
00000320: 89dd 70bf 3d6a 90be e3d2 15bc 3347 08be
00000330: 5885 08bf 4a58 f5be cd3d 5ebf e7bc 07c0
00000340: 4b0c 03be f65c 05be 2527 93bf c411 8cbf
00000350: 2a3b b7bd 0bf6 acbe 7016 a6bf 66a5 58bf
00000360: d86f c2be cd87 20bd 1f92 0d3d 1356 603b
00000370: a1dc 2ebe f859 27bf c500 58bf ff0f aabf
00000380: 6080 0bbe 0633 29be 61b6 84bf 2063 9fbe
00000390: 6407 05bf c06e 5fbe 034f afbf 2b28 12be
000003a0: d059 acbe c670 47bf 4102 c13d dac1 25bf
000003b0: ea73 7fbf 9946 61bf 1145 edbe 07a8 d83d
000003c0: 4049 05be 1334 7dbf 4688 10bf bf2e 41bf
000003d0: 008f ebb9 39b3 42bf f1e9 e2be b3d0 76bf
000003e0: ee39 78bf fcde d6bd 43b9 7dbe e6c1 82bf
000003f0: 3438 80bf 9857 eabe d7cd 79bf 5636 c8be

predictionFunction.value_head.2.bias f4 [41]
-1.006678 -1.0396086 -0.955802 -0.9888932 -1.0391176 -1.0378965 -0.97203255 -0.89762264
-1.0630027 -0.9215382 -0.9398024 -0.9456328 -0.9360559 -1.0978475 -1.1177596 -1.0728886
-0.8810668 -1.0386437 -1.1375968 -1.094374 -0.5927043 -0.5483503 -0.40335223 -0.6450703
-0.2420685 -0.19026534 0.014517332 -0.20066917 -0.01407979 -0.059097428 0.08203036 -0.2438631
-1.1298801 -0.9769632 -1.0937827 -1.0411175 -1.0855517 -1.0697793 -1.0078964 -1.1295284
-1.0837618
00000000: d3da 80bf e511 85bf 71af 74bf 1b28 7dbf
00000010: ce01 85bf cbd9 84bf 20d7 78bf 99ca 65bf
00000020: 7910 88bf ede9 6bbf e496 70bf fe14 72bf
00000030: 5ca1 6fbf 4486 8cbf bf12 8fbf 6a54 89bf
00000040: 988d 61bf 47f2 84bf c69c 91bf 7214 8cbf
00000050: 78bb 17bf af60 0cbf 2f84 cebe 5423 25bf
00000060: cee0 77be ebd4 42be 1bda 6d3c 387c 4dbe
00000070: ebae 66bc 2510 72bd 89ff a73d 40b7 79be
00000080: e99f 90bf 431a 7abf 1201 8cbf 5743 85bf
00000090: 5cf3 8abf 87ee 88bf c002 81bf 6394 90bf
000000a0: b5b8 8abf

dynamicsFunction.startBlock.0.weight f4 [64, 34]
0.15530641 0.26859835 -0.04810793 0.095627986 0.10284705 0.18704233 -0.032248102 -0.034224637
-0.063269936 -0.12979387 0.2806131 0.027892016 0.00047576972 0.13889146 0.0036660142 0.320565
0.1469522 0.118582785 -0.058795054 0.21180023 0.18834017 0.1512425 -0.13749911 0.1596485
0.24772298 0.10277221 0.21291533 0.04803433 0.29920772 -0.028639311 -0.10643443 0.037226014
0.24512763 -0.23167627 -0.29025903 0.14083807 -0.1561943 -0.07247173 -0.08695836 0.29794514
-0.25357383 -0.03178755 -0.036553558 0.25243536 -0.15990658 0.07980611 0.20482503 0.29626268
0.23437728 0.04902889 -0.051119484 0.10986891 -0.12370534 -0.035591997 -0.03592316 -0.028468557
0.032918647 0.12476597 0.21842186 0.12821774 0.06298275 0.3450927 -0.12763603 -0.020594168
-0.13916337 0.17841317 0.21646652 -0.34968442 0.05831975 -0.106861904 0.42032477 -0.25942567
0.059809994 -0.09962206 0.17351061 -0.11469465 0.07015534 -0.14798644 0.20645918 0.13344125
-0.22677268 -0.19462919 0.026454873 -0.14445364 -0.093389034 0.0048354967 -0.1770226 0.09062857
0.16449386 -0.21375719 -0.18627189 -0.16904992 -0.32223827 -0.26621023 -0.17997932 -0.4095321
0.11732422 -0.3219342 0.54594475 0.19422781 -0.108641386 0.17909142 0.0641376 -0.19550382
0.06237009 0.40612388 0.6511124 -0.17635208 0.10843325 -0.09291935 0.37008828 0.16556759
0.016282741 0.24910402 -0.15802152 -0.07785992 0.0018189182 -0.44506276 -0.011037421 -0.117695406
0.14222103 -0.52406037 -0.12670955 -0.16218418 0.101911485 -0.05035803 -0.0023831646 -0.030964533
-0.21997266 0.17129853 -0.3097623 0.14491735 -0.05794672 -0.27071783 0.03274289 -0.0009090464
0.0008715023 -0.020519786 -0.22726148 0.5074295 0.21188769 -0.08861693 0.028408285 -0.45255402
-0.12512225 -0.07389981 0.009164732 -0.052215762 0.15561205 -0.053634815 -0.45303196 0.08785545
-0.002010653 -0.024898458 -0.19406973 -0.2528166 -0.20390792 -0.07060306 -0.07799013 -0.078608535
0.1998692 0.20404041 0.1814632 0.40103978 0.06353446 -0.08850281 0.11107914 -0.09728394
-0.17587143 -0.08684094 -0.0014266121 -0.21587159 0.17019998 -0.00432948 -0.0326675 -0.1535232
-0.024311434 -0.15930659 0.06351225 0.086038485 0.043774948 0.13148026 0.19221082 0.01226608
0.061567515 -0.18483193 -0.22610955 0.22195351 -0.03888103 -0.44630468 -0.07987967 -0.21237592
0.060989328 -0.15968733 -0.14033252 -0.22591308 -0.0032707255 0.2163401 0.056224823 0.15408017
0.2600028 -0.09500891 -0.045580056 -0.03181321 0.2929211 0.043180358 0.011337099 -0.025540192
0.21494648 -0.21453741 -0.110264815 -0.16523343 0.13169004 0.01765159 0.0070067714 0.14530289
-0.28556335 -0.24560426 -0.08105681 -0.10394685 0.15502976 -0.083677925 -0.11455358 -0.005663551
0.12172393 0.18353674 -0.2619806 0.005243022 0.045675594 -0.26359963 -0.09756039 -0.19677211
0.14375691 -0.02291746 0.053660985 -0.1671132 -0.46146423 0.4471579 0.04701558 -0.041025832
0.19970578 0.03272537 -0.07729847 0.02906335 -0.2309733 -0.023298468 -0.011840644 0.04748034
-0.026210217 0.109085776 0.056051932 -0.05236352 0.02526869 0.07966064 0.086160205 0.12979957
00000000: a508 1f3e b985 893e d20c 45bd 9bd8 c33d
00000010: 79a1 d23d 0688 3f3e 9616 04bd 222f 0cbd
00000020: ab93 81bd afe8 04be 85ac 8f3e cc7d e43c
00000030: bb70 f939 9039 0e3e 8341 703b 1821 a43e
00000040: a37a 163e 88db f23d 15d3 70bd 29e2 583e
00000050: 3fdc 403e 50df 1a3e 91cc 0cbe e57a 233e
00000060: 18ab 7d3e 3d7a d23d 7a06 5a3e a5bf 443d
00000070: c131 993e fd9c eabc 4bfa d9bd 4e7a 183d
00000080: bd02 7b3e 8b3c 6dbe d59c 94be db37 103e
00000090: 66f1 1fbe 0f6c 94bd 3a17 b2bd 448c 983e
000000a0: 6ed4 81be a933 02bd 2fb9 15bd 353f 813e
000000b0: 8dbe 23be 6371 a33d a7bd 513e beaf 973e
000000c0: 9900 703e 84d2 483d aa62 51bd f302 e13d
000000d0: 3a59 fdbd eac8 11bd 2a24 13bd e436 e9bc
000000e0: b4d5 063d 4d85 ff3d fba9 5f3e 834b 033e
000000f0: 1afd 803d feaf b03e 05b3 02be 1ab5 a8bc
00000100: d880 0ebe f1b1 363e 66a9 5d3e d609 b3be
00000110: b1e0 6e3d 6ada dabd cf34 d73e 71d3 84be
00000120: 53fb 743d a706 ccbd c4ac 313e 07e5 eabd
00000130: 9aad 8f3d c289 17be 096a 533e d3a4 083e
00000140: 1937 68be e04c 47be e4b7 d83c a8eb 13be
00000150: c042 bfbd 1673 9e3b 6a45 35be 799b b93d
00000160: 1471 283e 2ae3 5abe 0fbe 3ebe 6c1b 2dbe
00000170: 6afc a4be b54c 88be 804c 38be 31ae d1be
00000180: ae47 f03d 8fd4 a4be 09c3 0b3f a8e3 463e
00000190: 607f debd be63 373e 935a 833d 2732 48be
000001a0: c877 7f3d 78ef cf3e 4daf 263f a495 34be
000001b0: 4012 de3d 804c bebd 367c bd3e 8d8a 293e
000001c0: 6263 853c 2015 7f3e 65d0 21be 0675 9fbd
000001d0: c468 ee3a 44df e3be 4dd6 34bc 4a0a f1bd
000001e0: 64a2 113e d228 06bf 26c0 01be 9c13 26be
000001f0: f8b6 d03d 3944 4ebd de2e 1cbb 55a9 fdbc
00000200: 8340 61be e268 2f3e 2a99 9ebe 3765 143e
00000210: 8a59 6dbd 879b 8abe 691d 063d 124d 6eba
00000220: 8875 643a 1c19 a8bc 3cb7 68be e6e6 013f
00000230: 16f9 583e cb7c b5bd 7eb8 e83c 29b5 e7be
00000240: 0c20 00be c958 97bd ac27 163c 32e0 55bd
00000250: c458 1f3e 2eb0 5bbd cef3 e7be 8fed b33d
00000260: 29c5 03bb daf7 cbbc 37ba 46be 2d71 81be
00000270: 3dcd 50be 5698 90bd 4ab9 9fbd 83fd a0bd
00000280: 83aa 4c3e f8ef 503e 7dd1 393e 1655 cd3e
00000290: 5b1e 823d f640 b5bd 767d e33d cd3c c7bd
000002a0: a417 34be aad9 b1bd 29fd baba 710d 5dbe
000002b0: e748 2e3e 50de 8dbb 5bce 05bd 3035 1dbe
000002c0: c628 c7bc 4421 23be b612 823d f234 b03d
000002d0: 5c4d 333d c3a2 063e ead2 443e abf7 483c
000002e0: 382e 7c3d 9544 3dbe 4389 67be c847 633e
000002f0: b741 1fbd 0c82 e4be f497 a3bd 1379 59be
00000300: f2cf 793d 1385 23be 54b3 0fbe c255 67be
00000310: ab59 56bb 4288 5d3e 004c 663d 31c7 1d3e
00000320: 161f 853e 0894 c2bd 27b2 3abd 924e 02bd
00000330: c1f9 953e e3dd 303d 3dbf 393c aa39 d1bc
00000340: ee1a 5c3e b2af 5bbe 85d2 e1bd f432 29be
00000350: c1d9 063e 119a 903c 0f99 e53b 48ca 143e
00000360: 5c35 92be af7f 7bbe 1d01 a6bd 16e2 d4bd
00000370: 1fc0 1e3e 555f abbd 119b eabd 4f95 b9bb
00000380: 654a f93d 0ef1 3b3e 5222 86be a8cd ab3b
00000390: 5516 3b3d 88f6 86be becd c7bd a17e 49be
000003a0: 0335 133e 66bd bbbc 9fcb 5b3d b91f 2bbe
000003b0: 0a45 ecbe e1f1 e43e 6993 403d b40a 28bd
000003c0: ac7f 4c3e 0a0b 063d a94e 9ebd 4316 ee3c
000003d0: 4484 6cbe 6edc bebc 43ff 41bc bf7a 423d
000003e0: cfb6 d6bc 5d68 df3d b696 653d 217b 56bd
000003f0: 4900 cf3c 1e25 a33d c374 b03d 2eea 043e

dynamicsFunction.startBlock.0.bias f4 [64]
0.08417627 0.11044967 0.06682113 -0.13205132 -0.16421756 -0.14424469 0.1889705 -0.040827163
0.17781402 0.04547845 -0.066576466 0.14854376 -0.001727285 0.1257342 0.059747454 -0.18119316
-0.16362165 0.21893823 -0.03219849 -0.20263189 -0.12962441 0.027249407 -0.18070284 -0.09976367
0.019222043 0.11879226 0.22829679 -0.09340814 -0.20530975 0.121510684 -0.03073498 -0.10577629
0.12634501 0.010544132 0.12034609 0.07765024 0.055827435 -0.048941124 0.009083174 -0.25470144
0.014632403 0.044791665 -0.16938682 0.21174169 -0.027471274 0.08424281 -0.034795817 -0.0344539
0.14209196 0.136812 0.0068425033 -0.12983608 -0.0006967649 0.017223628 -0.053308543 -0.096212775
-0.0026710338 0.10206172 -0.04146023 0.15760826 0.12233699 0.055985924 0.105636224 0.094366886
00000000: 9c64 ac3d 7033 e23d 84d9 883d 7638 07be
00000010: a628 28be e1b4 13be 7c81 413e 623a 27bd
00000020: e114 363e 9c47 3a3d 3e59 88bd db1b 183e
00000030: 1166 e2ba 77c0 003e bfb9 743d b38a 39be
00000040: 6f8c 27be 5831 603e 90e2 03bd bc7e 4fbe
00000050: 43bc 04be 263a df3c 2a0a 39be e550 ccbd
00000060: 8c77 9d3c 5b49 f33d a2c6 693e c44c bfbd
00000070: b83c 52be 98da f83d edc7 fbbc 3da1 d8bd
00000080: 9660 013e 4cc1 2c3c 0378 f63d 1707 9f3d
00000090: 4fab 643d 7d76 48bd 98d1 143c 3a68 82be
000000a0: bfbc 6f3c 7777 373d bd73 2dbe d0d2 583e
000000b0: 700b e1bc 7f87 ac3d 0f86 0ebd 881f 0dbd
000000c0: 8e80 113e 7218 0c3e 1437 e03b c0f3 04be
000000d0: 1aa7 36ba 9118 8d3c 0f5a 5abd 340b c5bd
000000e0: 830c 2fbb bc05 d13d 34d2 29bd 0f64 213e
000000f0: d18b fa3d 7f51 653d ce57 d83d 6d43 c13d

dynamicsFunction.startBlock.2.weight f4 [32, 64]
-0.034515414 -0.2206602 0.05546531 -0.067882426 -0.21854343 -0.095445365 0.23400138 0.057826225
0.16309974 -0.030417113 -0.19603254 0.04296789 0.11560403 0.22262326 -0.039749496 -0.10454224
-0.08506152 0.0012505886 0.005246214 -0.19437385 -0.14706694 -0.07054124 0.080142565 -0.08019742
-0.047309726 0.17551085 0.1788346 -0.014417616 0.10142778 -0.05488396 0.0073737497 2.2270593e-05
-0.039914697 -0.034199078 0.068833165 -0.39973742 -0.23083778 -0.0315176 0.2210356 -0.15875849
-0.13547516 -0.16487648 0.21874133 0.0054703485 -0.25229442 -0.07672093 -0.0009197025 0.09555052
-0.07178415 0.18024604 -0.1655686 0.1912611 0.13200553 -0.06903668 -0.23251098 -0.15203954
-0.2753849 0.079884626 0.31903064 0.20103832 0.13432102 -0.12513815 -0.012321583 -0.2693063
0.033019826 0.26387835 -0.5213525 -0.062296342 0.013249679 -0.33556074 -0.40997237 -0.06971492
-0.30718273 -0.026112929 0.24146946 -0.1184567 -0.07892837 -0.7439451 -0.11618436 0.12981853
0.8400211 -0.11133838 0.0045778234 0.18179813 0.1055407 0.050241638 0.12951586 0.11628617
-0.0023740367 0.28449976 -0.58929765 0.104559384 -0.01120821 -0.22267276 -0.10517087 0.33285362
-0.0059594926 0.29467198 -0.08442542 -0.109415054 0.29606876 -0.022686468 -0.052383143 0.14270617
-0.067325026 0.3649811 0.056708924 -0.12952295 0.37134776 0.11966358 0.012266065 0.12953913
0.121339366 -1.0192813 -0.039193247 -0.18091378 0.44004813 0.060085185 0.1388486 0.3562111
-0.08274396 0.09082663 0.020508908 -0.023104222 -0.5309767 -0.73898077 0.0822874 -0.16145411
0.027005231 -0.21574962 0.4462611 -0.234781 0.011429223 0.31831867 0.009873756 -0.053176444
0.06662964 0.13014595 -0.22508568 0.0803307 0.15795864 0.41257408 0.09587095 0.04841822
-0.2755798 0.37829635 -0.12583591 -0.09412995 -0.045843463 0.20279887 0.114127755 0.06937392
0.1080429 -0.23660983 0.2962851 -0.09168565 -0.05599781 0.05733316 -0.18406689 -0.20156078
0.15833284 0.09232265 -0.26058078 0.120656356 -0.32848686 0.038606588 -0.19694453 0.008836494
-0.04360499 -0.05535522 0.046224274 -0.060242385 -0.49258003 0.08928309 0.006074729 -0.18726657
-0.17938758 0.0689846 0.045745675 0.18448359 0.42181218 0.004606844 -0.11950981 -0.21888177
-0.3054064 0.03267611 -0.117166065 0.10736723 0.09305135 0.13075837 0.19423656 0.041236456
-0.05733921 0.011303569 -0.12371977 0.020987187 0.3052849 0.037898093 -0.0009239365 0.025971204
-0.22853713 0.1899567 0.14224878 0.06130444 -0.15524325 -0.14550866 -0.37186807 -0.01161915
0.011818251 -0.38655913 0.31465632 -0.0030966976 0.010510614 -0.27249247 -0.11964667 0.09128461
-0.15630737 -0.01821538 0.0560384 0.12151124 -0.011417503 -0.15539572 0.18396814 0.12713599
-0.17452449 -0.08203684 0.19506612 -0.16292192 0.06804946 0.30373052 0.12264803 0.0783778
0.013284247 0.015241163 0.017433695 0.118076794 0.22828425 -0.253944 -0.31253543 0.35548773
-0.09845676 -0.09480912 -0.028818564 -0.13962032 0.17328143 0.04030272 -0.04217629 0.20422015
0.016589876 -0.010494104 -0.0018823803 -0.06076868 0.008349506 -0.05218983 -0.109040335 0.2140401
00000000: 0960 0dbd bff4 61be 982f 633d f105 8bbd
00000010: d9c9 5fbe dc78 c3bd 0f9e 6f3e 31db 6c3d
00000020: 9e03 273e 4f2d f9bc c1bc 48be 19ff 2f3d
00000030: cec1 ec3d 5af7 633e 5ed0 22bd 3e1a d6bd
00000040: bc34 aebd caea a33a 6fe8 ab3b f009 47be
00000050: b798 16be ed77 90bd c921 a43d 8c3e a4bd
00000060: d8c7 41bd 1eb9 333e 6b20 373e dd37 6cbc
00000070: 5eb9 cf3d 01ce 60bd 7f9f f13b bcd1 ba37
00000080: 987d 23bd 5514 0cbd 67f8 8c3d 62aa ccbe
00000090: bd60 6cbe 9918 01bd 2857 623e 9691 22be
000000a0: 00ba 0abe 61d5 28be bafd 5f3e 9c40 b33b
000000b0: bc2c 81be dd1f 9dbd 3118 71ba feaf c33d
000000c0: 9203 93bd 6b92 383e d18a 29be f3d9 433e
000000d0: 752c 073e 1a63 8dbd 5c17 6ebe 41b0 1bbe
000000e0: 40ff 8cbe 8d9a a33d fc57 a33e fddc 4d3e
000000f0: 738b 093e 3724 00be 77e0 49bc 84e2 89be
00000100: cc3f 073d 101b 873e 5c77 05bf 732a 7fbd
00000110: 2e15 593c 9ece abbe e6e7 d1be b2c6 8ebd
00000120: 0e47 9dbe c8ea d5bc c543 773e 6d99 f2bd
00000130: 32a5 a1bd 3073 3ebf 11f2 edbd 26ef 043e
00000140: 9f0b 573f 6005 e4bd 9101 963b 4a29 3a3e
00000150: b925 d83d 2dca 4d3d ce9f 043e 7227 ee3d
00000160: ba95 1bbb f4a9 913e 36dc 16bf 3b23 d63d
00000170: a4a2 37bc 5404 64be d363 d7bd ca6b aa3e
00000180: d947 c3bb 3fdf 963e 3ce7 acbd 0015 e0bd
00000190: 5396 973e f9d8 b9bc b58f 56bd 9121 123e
000001a0: b4e1 89bd cede ba3e 9e47 683d aaa1 04be
000001b0: 4b21 be3e 2e12 f53d 9bf7 483c e8a5 043e
000001c0: c680 f83d cf77 82bf 1989 20bd 7641 39be
000001d0: fd4d e13e e21b 763d 542e 0e3e 4d61 b63e
000001e0: aa75 a9bd 5003 ba3d 4c02 a83c 1145 bdbc
000001f0: 17ee 07bf d82d 3dbf 4c86 a83d 3a54 25be
00000200: 133a dd3c 78ed 5cbe 567c e43e 6e6a 70be
00000210: a341 3b3c aafa a23e 89c5 213c 8bcf 59bd
00000220: 1f75 883d fb44 053e dc7c 66be 6c84 a43d
00000230: e9bf 213e e93c d33e fd57 c43d 2f52 463d
00000240: cc18 8dbe 0fb0 c13e 21db 00be 34c7 c0bd
00000250: 5bc6 3bbd 82aa 4f3e d0bb e93d ea13 8e3d
00000260: 9945 dd3d d949 72be aeb2 973e b0c5 bbbd
00000270: f65d 65bd 2dd6 6a3d 087c 3cbe f365 4ebe
00000280: 0122 223e a813 bd3d d86a 85be ae1a f73d
00000290: 6e2f a8be f121 1e3d d4ab 49be f1c6 103c
000002a0: 259b 32bd 28bc 62bd aa55 3d3d b8c0 76bd
000002b0: 7333 fcbe 0dda b63d 850e c73b cfc2 3fbe
000002c0: 61b1 37be cc47 8d3d d15f 3b3d 44e9 3c3e
000002d0: c4f7 d73e 02f5 963b 8fc1 f4bd 8b22 60be
000002e0: 3a5e 9cbe 62d7 053d c3f4 efbd 5ae3 db3d
000002f0: b591 be3d 86e5 053e f3e5 463e 8fe7 283d
00000300: 85dc 6abd 9b32 393c ca60 fdbd 52ed ab3c
00000310: 4d4e 9c3e 083b 1b3d 5434 72ba 90c1 d43c
00000320: a305 6abe 0284 423e aaa9 113e 5d1a 7b3d
00000330: 16f8 1ebe 3900 15be 7e65 bebe 3f5e 3ebc
00000340: 56a1 413c 14eb c5be a21a a13e f7f1 4abb
00000350: b634 2c3c 2284 8bbe 5009 f5bd 6df3 ba3d
00000360: 0a0f 20be 6c38 95bc 8588 653d e3da f83d
00000370: 7a10 3bbc 0e20 1fbe 2562 3c3e f02f 023e
00000380: 8cb6 32be ee02 a8bd 6abf 473e 01d5 26be
00000390: 845d 8b3d 9182 9b3e e42e fb3d 8a84 a03d
000003a0: 2ca6 593c 12b6 793c 1cd1 8e3c 3fd2 f13d
000003b0: 59c3 693e f304 82be a504 a0be 7d02 b63e
000003c0: b3a3 c9bd 492b c2bd e914 ecbc a1f8 0ebe
000003d0: b070 313e 7714 253d 0cc1 2cbd 161f 513e
000003e0: 7ee7 873c 76ef 2bbc 34ba f6ba 94e8 78bd
000003f0: 5ecc 083c 01c5 55bd 8a50 dfbd 542d 5b3e

dynamicsFunction.startBlock.2.bias f4 [32]
0.026328426 -0.3364413 0.04388355 -0.13255136 -0.031417888 0.05461457 0.06751377 0.035473123
-0.15300252 0.13885723 0.16676897 -0.086919226 0.1318695 0.019839384 0.09233574 0.23907739
0.1394509 0.021434486 0.045866534 0.09672422 -0.16015868 -0.11382851 -0.03752984 0.15107997
-0.1010082 -0.108505465 0.111946836 -0.13885947 0.10368523 0.038283985 0.10925202 0.015778495
00000000: b6ae d73c 0942 acbe 3dbf 333d 8bbb 07be
00000010: 0bb0 00bd 87b3 5f3d a944 8a3d 444c 113d
00000020: b1ac 1cbe 9730 0e3e 7cc5 2a3e b502 b2bd
00000030: cc08 073e 3486 a23c 851a bd3d b4d0 743e
00000040: 37cc 0e3e 6097 af3c 8cde 3b3d 5917 c63d
00000050: a300 24be ec1e e9bd e4b8 19bd b5b4 1a3e
00000060: 63dd cebd 1d38 debd 6244 e53d 2d31 0ebe
00000070: ec58 d43d abcf 1c3d 86bf df3d e741 813c
