AlphaGo/foersterrobert_MuZero/Environments/CartPole/Models/model_4.pt (torch, 83738 bytes, 20 tensors)

predictionFunction.startBlock.0.weight f4 [64, 32]
00000000: 8e69 b3bd 4b04 df3e c3fc a3be 5f90 8bbe
00000010: e55b 7fbe 5e43 5abd 2c93 03bd 5d12 6b3e
00000020: 7903 c43d 6d0e c3bd 9080 72be 34d6 78be
00000030: 9a7c bcbe afb0 2e3e 19bc cc3c 68c9 38be
00000040: 0a7c 69bd 7f8a 7c3e 3597 c0be c56a 643e
00000050: 4a83 b03e 46fc 2b3f 53b8 5d3d d7e6 173d
00000060: 5bae a9bc 6972 bb3d 91e4 2f3d dc56 99bb
00000070: d559 b23d 70b7 053e 74dd 82be 06a5 1f3d
00000080: abef 63be 2fbd 3fbe e36a 7cbe 7d4b 14be
00000090: b2cc 1ebe abb4 8b3d 1d65 14be 40d1 5a3e
000000a0: 5767 d83d 32b5 49be 790d 11be 5b53 ae3d
000000b0: e13d a2bd e462 793d 4959 593d 21d5 563d
000000c0: 0ceb bebe fe83 60be bbb6 d03d 7cf2 f83d
000000d0: 6bfb 163e 62b7 a8bd 61ac 3d3e 5632 c1be
000000e0: 5490 063d c1ab 223d 8e7a c6bd 86cf c1bd
000000f0: 98b9 0fbe d0c7 aa3e ba5b aabe 71e4 01be
00000100: 769d a1be 45fd 1a3e e4fc c8bf be0f 973d
00000110: 736f 7d3d f0eb 193f d271 64bd 8677 c2be
00000120: b9de bdbe 657d 3f3e 8daf b5be 6bc7 223e
00000130: b01d 083f 1e0f 963d 017a 823e 1eae 703e
00000140: 8866 06bf fcfe 9b3e 4296 473d 7ae2 0cbe
00000150: d636 943e e0c2 fa3d 313c 6b3f c3e1 283e
00000160: 105c 893e 5c23 603e d418 f13e f0ed 5e3e
00000170: fd97 413e 074f d03f fdbb 7bbf e744 ad3e
00000180: f52d 4439 9f23 a03e b4f4 1abf 826a fdbd
00000190: 6bde db3d 2f46 ab3e d6c4 923d 60ef 43be
000001a0: 9e06 b2be c2b5 8e3d fd8c e6bd a721 3cbe
000001b0: 27e3 803e f288 5dbc 6a4a afbc 7d8e dd3e
000001c0: 4b33 cf3c 9951 393e 014d a5be 1ea1 a43b
000001d0: ce1f 7fbd 2f46 cb3e d6fd 5f3e 2288 b33e
000001e0: 6e60 523e dc2f 993d 4299 df3d 229e 363e
000001f0: 1f3e 303d 1d10 c93d 14f5 e8be e393 d03e
00000200: cf1c fcbe adf5 16be fdeb afbe 477a ab3e
00000210: 22a9 0a3e 8152 fc3d ab9a a03c e4a0 8abe
00000220: f3bb 8f3c 319f 683d 5556 90bc b39f 093f
00000230: 3133 9a3e fa80 fd3e efd9 713c 0a9d 26be
00000240: 4727 c7be 40f3 d0be 772f ea3d 3c6c 91be
00000250: aef6 b2bd bef3 9cbe 4853 423e 766b 45be
00000260: 4f70 2a3e 0e6a 053f fe0a eebc 9084 d53c
00000270: 38b1 bebd 3ad2 833e 9077 ffbd 7775 933e
00000280: be3c bdbd 2b8f 21be df18 323c dcd8 91be
00000290: 044e 8d3e eb25 8ebe 1645 73be 1a91 923e
000002a0: 17b6 25bd 9e8d ccbd 686b a43d 2ab1 433d
000002b0: a166 793e 1397 d93c 4600 dfbc 7d98 5f3c
000002c0: e005 85bd f679 b9bd 974d f63e e575 27bd
000002d0: 92ae 5cbc d5f5 bebc 5fde 4e3e 811a 45bd
000002e0: 9e17 fbbb 830f 423d 5e70 07be 345f 7ebe
000002f0: 7c23 0dbf d378 323e 81a3 d63d c191 193e
00000300: 5bdd fcbd b745 2ebd 4599 7fbd d446 28be
00000310: 630e 2ebe f2bc 8b3d 824e 02bf 8c53 aa3e
00000320: ba2a 1cbd d660 e13e a280 18bf cc44 6ebe
00000330: cb1c 08bc cfac 203d 3bdf a33e b21a 4b3e
00000340: 15a9 d23d 4d87 e23b d62a d83e 2e06 da3d
00000350: 02a4 f83c 179e cb3d 66b8 613d be99 22bd
00000360: 35fd 64be 9c9d 323c 3260 ca3c 4fc3 dbbe
00000370: 96ba 6abe 36d8 653e 44a2 bfbd 8e0d c43d
00000380: 4353 d5be 4cc9 183e 8102 24bf e3c4 113e
00000390: 303b c9bd bd9e 013e 7108 963b 4891 293e
000003a0: 0f64 983c 0706 543e c8b3 113c f476 d5bd
000003b0: b816 9e3e 81b9 f6bc 64cc 2fbe cb5a c83e
000003c0: 9506 61bd 941c 063e fb34 33bc 5cb6 213d
000003d0: 5f86 733e 8c58 103d 74f0 2f3f 810b acbd
000003e0: cd0c 3c3e b4d0 483e f850 3f3e 7d05 a33e
000003f0: 2603 183e 8ff2 f23e 76f6 07bf 49d4 1bbe
-0.08760367 0.43557963 -0.3202878 -0.27258584 -0.24937399 -0.053286903 -0.032122776 0.22956224
0.09570975 -0.09524236 -0.23681855 -0.24300462 -0.36813813 0.17059587 0.024992036 -0.1804558
-0.05700306 0.24662207 -0.37615362 0.22306354 0.34475166 0.67181814 0.054130863 0.03708538
-0.020713022 0.091526814 0.042942587 -0.004679544 0.0870854 0.13058257 -0.2555958 0.038975738
-0.22259395 -0.18724512 -0.24650149 -0.14481921 -0.15507773 0.06821569 -0.14491697 0.21368885
0.105665855 -0.19698027 -0.14165296 0.085119925 -0.07921959 0.060885325 0.053063665 0.05244935
-0.37288702 -0.21925351 0.10191103 0.12155625 0.14744346 -0.082381025 0.18522789 -0.37733716
0.032852486 0.03971458 -0.09691344 -0.0946341 -0.14035642 0.3335557 -0.33273107 -0.126848
-0.31565446 0.15135677 -1.5702176 0.073760495 0.061873864 0.6012564 -0.05577261 -0.37981814
-0.37083986 0.18700178 -0.35485497 0.15896384 0.531703 0.07327102 0.25483707 0.2350392
-0.525002 0.30467975 0.04872728 -0.13758269 0.28948087 0.12244201 0.9188872 0.16492371
0.2682805 0.21888489 0.47089255 0.21770453 0.18905635 1.6274117 -0.9833372 0.3384163
0.00018709137 0.31277177 -0.6052964 -0.123738304 0.10735782 0.33451983 0.0716645 -0.19134283
-0.34770674 0.06968261 -0.1125736 -0.18372212 0.25173303 -0.01352142 -0.021397788 0.43272772
0.025293013 0.18097533 -0.32285312 0.0050240895 -0.06228619 0.39701983 0.21874174 0.350648
0.20544598 0.074798316 0.109179035 0.1783376 0.043027993 0.098175265 -0.4549948 0.4073783
-0.4924073 -0.14742155 -0.34359732 0.33491728 0.13541082 0.12320424 0.019605001 -0.27075875
0.017545676 0.05679244 -0.017619291 0.53759307 0.3011718 0.49512464 0.014761432 -0.16270843
-0.38897154 -0.40810585 0.114348345 -0.2840289 -0.08738457 -0.3065471 0.18977082 -0.19279274
0.16644405 0.5211495 -0.029057976 0.026064187 -0.093111455 0.25746328 -0.124739766 0.28800556
-0.09240101 -0.1577727 0.010870188 -0.28485763 0.27598584 -0.27763304 -0.23756823 0.2862633
-0.040456858 -0.09987949 0.080282986 0.04777638 0.24355556 0.026561296 -0.02722181 0.013647196
-0.06495261 -0.09056465 0.4810607 -0.040883917 -0.013469355 -0.023310581 0.20202015 -0.04812098
-0.0076627275 0.047378074 -0.13226458 -0.24841005 -0.5513227 0.17428903 0.10480405 0.14997007
-0.12346908 -0.042546954 -0.06240203 -0.16433269 -0.16997676 0.06823148 -0.50901043 0.33266866
-0.038126685 0.44019192 -0.5957128 -0.23268431 -0.008307646 0.039227303 0.3200625 0.19834402
0.10286156 0.0069131018 0.4222018 0.1064571 0.030351643 0.099422626 0.055107497 -0.0396974
-0.22362216 0.010901835 0.024704073 -0.42922446 -0.2292274 0.22445759 -0.093571216 0.09572898
-0.41665086 0.14920539 -0.6406632 0.14235263 -0.09825742 0.1265821 0.004578643 0.16559327
0.0186024 0.20705424 0.008892961 -0.10423079 0.30876708 -0.030117752 -0.17167813 0.3913177
-0.054937918 0.13096839 -0.0109379245 0.039480552 0.23781727 0.035240695 0.6872628 -0.08400632
0.18364258 0.19610864 0.18683231 0.31840125 0.14844951 0.47450683 -0.53110445 -0.15217699

predictionFunction.startBlock.0.bias f4 [64]
00000000: 8ede 29bd 1679 61be 0542 71be 8f31 ef3b
00000010: 6506 7ebe 7870 123d 19c6 ab3d 57c6 adbd
00000020: c27c 323e cad5 bc3d b97a 71be 5e18 39be
00000030: 889f f5bd da2d e7bd 54a4 c3bd 105d d3bd
00000040: aa01 35be 9163 dd3d b4b4 82be 280c a13c
00000050: e52a 93be fb50 dbbd b96d cbbc eced 9bbd
00000060: 305e 4abd 4d09 22bd 43ea 103d 458d e1bd
00000070: 419b 85bd e1b8 99be c7d8 f8bc fe9e 80be
00000080: 43ac 253b 535d 40be 49d7 3dbe 7d4f 183d
00000090: c7fd 13bd 2aa2 ffbd 9886 ddbd 9610 11be
000000a0: 7487 f7bd 74d9 efbd 403d 82be ff76 eebd
000000b0: 7556 1fbc 56f7 6fbe c07f c03b d477 0abe
000000c0: c525 4dbc 3b60 003e 4ed0 a7bd f166 adbc
000000d0: ef9e 30be db75 9cbd 2db0 3bbe 94e0 ff3d
000000e0: bf6f bebc ae11 013d 0d91 eebd 56b8 bcbb
000000f0: e8c8 053e 5daa 4b3e 5746 12be 0749 8a3d
-0.04147201 -0.22018847 -0.2356034 0.007299609 -0.24807127 0.03575179 0.083873935 -0.08485096
0.17430404 0.092204645 -0.23581971 -0.18075702 -0.11993319 -0.11288042 -0.095528275 -0.10320485
-0.17676416 0.108100064 -0.2552849 0.019659117 -0.28743663 -0.10708805 -0.024832593 -0.07613739
-0.04940623 -0.03955965 0.03537966 -0.11013273 -0.06523753 -0.30023864 -0.030376805 -0.251213
0.0025279678 -0.187856 -0.18539156 0.03718518 -0.036130693 -0.12482102 -0.10816687 -0.14166483
-0.120863825 -0.11711398 -0.25437355 -0.116437905 -0.009725203 -0.23434195 0.005874604 -0.13522273
-0.012521212 0.12536709 -0.08194028 -0.02116725 -0.17248128 -0.07639667 -0.18328924 0.12494007
-0.023246644 0.031511 -0.1164876 -0.0057592792 0.13064921 0.19889207 -0.14284645 0.0675221

predictionFunction.startBlock.2.weight f4 [64, 64]
00000000: e37f cfbd d4a7 2f3c 471e bf3e c8be 89bd
00000010: a0e8 1cbe 2df0 c1be 5c1e ef3d 53e8 733e
00000020: 207a 09bf a27b 9dbe 85a8 18bd 42bc 6a3d
00000030: 3371 7a3e 968e 053f a1d9 ac3d 34fe fdbb
00000040: a18b 083e 81d6 28be 55a1 03bf d295 59be
00000050: 578e bdbd 818b a53d c7b7 693e 24ca 4f3e
00000060: 7f9e e1be 9e0f 2a3d 82ae 693f a083 fd3d
00000070: bcf8 b0be 31a5 c73e 6bb3 49be 1331 b9bd
00000080: d9d7 8abe 5f8c c13e 795b ad3d dece 4bbe
00000090: 3567 0dbe d557 e03d eccb 1ebe ca4e 22be
000000a0: 7a03 eebe e895 0a3e 19e2 253e fb62 6cbc
000000b0: 706f 1fbe 9dc6 45be fb7e 23be 227e ec3d
000000c0: 5253 5abe f9a0 fbbe 36af 92be b89f a5be
000000d0: ac9c 0fbb 53d4 073c bac5 163f b996 ddbe
000000e0: c426 e5be dd9e 0d3e 82f9 66bd 3db0 b13e
000000f0: f0eb e03d b029 bbbd f8fc 073e be81 243c
00000100: 2a4d 2abe c267 563e d4a4 10bc 5751 abbe
00000110: aa32 0e3f dc06 e3bd 3307 8f3e a52e 0f3e
00000120: 3677 fdbe c176 903e a15c 063d dc54 203f
00000130: e38b d43e df68 8c3e 4829 8bbe bc39 e4be
00000140: 04cc 503f 9ff6 b7bd db75 1a3e dbcb 89bd
00000150: 2243 32bc 1e10 26be 6988 cc3c 328c 493e
00000160: f42c 87be 7a72 93be 1ac8 9d3d d242 1cbe
00000170: 1904 e6be 5fb4 8cbd 6fce e7bd 2086 b3bb
00000180: f4fd 8fbe d958 393e 6934 c63e 5dd6 3bbe
00000190: 9f11 9b3e c6a4 0ebf 07b6 8abe 5b1b 3cbc
000001a0: b236 3c3e 431e e2bc bd74 eb3c 05bc 153e
000001b0: 8fb8 bc3e e9f6 243e 0f27 84be 3784 653d
000001c0: c531 85be f912 3ebe 2ed1 7abd 6d3a 48be
000001d0: b07f 6b3e d0a2 96bd 9944 24bf 65f6 6ebe
000001e0: 2146 193e f125 63bd bdb3 2ebd 6e7b 273f
000001f0: 5757 c63e cd0d ba3c 744d 5b3e 7f2b 693c
00000200: e961 0bbf 5875 3bbe ec1a 8e3e ee70 d9bd
00000210: dc56 74be c2fd 87be 04d1 a73e b865 8ebc
00000220: 3ff9 77bd 1ab6 4cbf 19ad 83bc 722f 1f3e
00000230: c5a7 ef3d 5d95 d13d 20b8 d6bc 6eb8 abbd
00000240: 43b2 ae3c 0244 4c3d 40e9 9cbd 1238 a13c
00000250: 2bab 273d 4e6e 49be 8f45 c73d 5087 e93c
00000260: 89c5 f73d e760 93be 3ce8 3f3c f991 aa3c
00000270: 25f7 98be e5cf 8fbd 14c7 0fbe 7406 053d
00000280: 0d93 8dbd 8694 d4bb 7465 53be 11a9 9f3c
00000290: 220e a3b9 f972 35be 9bdc db3c 8d3b 97bd
000002a0: 6634 2fbd af29 97bd ead1 bdbd 81ef b8be
000002b0: 3844 3e3d a2d3 62be 94b9 3ebe 9d86 54be
000002c0: 249c 37be cf6a 8fbe 088e fc3d d566 d93c
000002d0: d96d fbbd 20ef 0037 6f8d a43b f406 6abd
000002e0: eaa2 8d3d 3e4b 49be cd5f c1bd 80ef 46be
000002f0: e569 23bc 8794 14be ebb4 29be 43d5 273e
00000300: e7ea f1be 04d7 a0ba 0d03 a93d 80d9 1b3e
00000310: 792c cc3d 23c7 d13d 0350 fe3d 1871 773e
00000320: e39d 03bf 5b3f 003e 645a 1bbe 49d3 42be
00000330: ae27 c53d 7f1b 83be a86a 203d 2d98 ce3d
00000340: e09e c3bd f83a 93bd ffbf 28be 164d 21bd
00000350: 21d6 42bd dde4 8fbe f108 80be 80e2 eebb
00000360: 4b8a 4ebd 698d 04be 6552 7b3d 110a 83be
00000370: ecea 863e c152 8bbd e13b b13e c132 e6bd
00000380: 8e77 c33d 77c4 103e 93f3 92bd 6088 38be
00000390: bee4 223e 9986 ddbd e6af 5ebf 1ca8 b03d
000003a0: 96f2 103f 22df 0fbe 57c9 d23c 3895 e53e
000003b0: d82c 1c3e f8a5 ad3e a5f1 19bd cb8e 2abf
000003c0: 502d f73d e3f3 e8bf 0394 153c d88e 1ebe
000003d0: 0921 8b3e fa28 dc3d e5b4 043e 5c99 a03c
000003e0: 1ace 8dbe 25c6 113e a95c a4bd d892 bbbe
000003f0: d34c c0be cf8d bbbd 3375 033e bb82 753c
-0.10131814 0.010721166 0.37327787 -0.06725842 -0.15323114 -0.37878552 0.116757125 0.23819093
-0.5370197 -0.30758387 -0.037270088 0.057308443 0.24457245 0.52170694 0.08439947 -0.0077512506
0.13334514 -0.16488077 -0.5141805 -0.21248558 -0.09255665 0.08083249 0.22824012 0.20291954
-0.44066235 0.0415188 0.912819 0.12378621 -0.3456477 0.3899322 -0.19697349 -0.09042563
-0.27117804 0.37802407 0.08464713 -0.19903132 -0.13808902 0.10954253 -0.15507478 -0.15850368
-0.46487027 0.13533747 0.1619953 -0.014427896 -0.15569854 -0.19314046 -0.15966408 0.115474954
-0.21320847 -0.4914625 -0.286493 -0.32348418 -0.0021913452 0.008290368 0.58895457 -0.43279055
-0.44756138 0.13830133 -0.056390293 0.34704772 0.109825015 -0.09138811 0.13280094 0.010040699
-0.16630998 0.20938018 -0.008828361 -0.33460495 0.5554606 -0.11085293 0.2793518 0.13982637
-0.49505013 0.28215602 0.03280318 0.62629485 0.41512975 0.2742376 -0.27179933 -0.44575298
0.81561303 -0.08982586 0.15084021 -0.067283355 -0.0108802635 -0.16217086 0.02496739 0.19682387
-0.26401484 -0.28798276 0.07704182 -0.15259865 -0.44925 -0.068703406 -0.11318671 -0.0054786354
-0.28123438 0.18100299 0.3871186 -0.18343492 0.3028688 -0.55720174 -0.27092 -0.011481131
0.1838024 -0.02760232 0.028742189 0.14622505 0.36859557 0.16109814 -0.2581105 0.056034293
-0.26014534 -0.18561925 -0.061234646 -0.19553538 0.22997928 -0.07355273 -0.6416717 -0.2333618
0.14968158 -0.055456106 -0.04265188 0.65422714 0.3873851 0.022711659 0.21416265 0.014231562
-0.54446274 -0.18306482 0.27754915 -0.10617243 -0.23861259 -0.2656079 0.32776654 -0.017382488
-0.060540434 -0.79965365 -0.01607375 0.15545443 0.117019214 0.10233567 -0.026210845 -0.083847865
0.021325236 0.049869545 -0.076616764 0.019680057 0.040934723 -0.19670984 0.09730064 0.028506905
0.12098224 -0.28784868 0.011713084 0.020821558 -0.29876056 -0.070220746 -0.14040786 0.032476857
-0.06912813 -0.006487432 -0.2064417 0.019489797 -0.00031100312 -0.1771964 0.026838591 -0.07384405
-0.04277458 -0.073809974 -0.092685536 -0.36120227 0.046451777 -0.22151044 -0.1862548 -0.20754476
-0.17930657 -0.28011176 0.12331778 0.026538292 -0.12276811 7.68507e-06 0.005021743 -0.057135537
0.06915839 -0.19657609 -0.09442101 -0.194273 -0.009973978 -0.14509784 -0.16572921 0.16389947
-0.4724953 -0.0012271111 0.08252535 0.15219688 0.0996942 0.102430604 0.12417605 0.24164236
-0.5141279 0.12524168 -0.151712 -0.19025911 0.09626709 -0.25606915 0.039164215 0.10087619
-0.095517874 -0.07188982 -0.1647949 -0.039380156 -0.04756749 -0.28104296 -0.25006822 -0.0072901845
-0.050424855 -0.12944569 0.061357874 -0.25593618 0.26351106 -0.068028934 0.34615996 -0.11240149
0.095442876 0.14137445 -0.07175364 -0.18020773 0.1590757 -0.10816688 -0.8698715 0.08625814
0.56620157 -0.14049962 0.025730772 0.44840407 0.15251482 0.33915687 -0.037583966 -0.66624135
0.120691895 -1.8199428 0.009129527 -0.15484178 0.2717364 0.10750003 0.12959631 0.019604377
-0.27696306 0.14235742 -0.08025486 -0.3663547 -0.37558612 -0.09157907 0.12837677 0.014984782

predictionFunction.startBlock.2.bias f4 [64]
00000000: fb32 e9bd 3575 fcbd e940 48bd 9e58 8a3d
00000010: 0bba a7be 2dec 3bbe 7f8a 72bd 841a a0be
00000020: ba73 d3bd 094c aebc b98b 00be 2860 513d
00000030: bbce d33d 9744 0a3e 09bb 303e 6add 86bd
00000040: 7d75 99bd b99f e3bd 26e4 c2be f459 213d
00000050: d524 cfbc 5a9e e1bd c2eb abbd 9bb4 043e
00000060: b853 c1bd 4462 513d 7868 4bbd ccbd 0bbe
00000070: ca49 f3bd 3184 f53d d9a3 01be bc69 45bd
00000080: e380 cabd b099 31bd 1e14 7e3c 9895 e6ba
00000090: e0ee 4bbd 1f2e 1abe 4fba 1ebe d1e3 7a3c
000000a0: b09d 70be fefb 333e 5491 503e 4d59 12be
000000b0: 1f57 d13d 6661 e9bd 0467 be3d bd76 e5be
000000c0: 9d88 c6bd a4ab 47be 4ef4 6abd 414b 4ebd
000000d0: 05e1 1e3e 5fe8 49be fa07 7dbe 5d29 d13e
000000e0: 6da8 7abb 2755 25be 467e 163e 51e8 483e
000000f0: 16a1 5b3e ffdc 053e a83d b6bd 9af0 74bd
-0.11386677 -0.12327043 -0.04889003 0.06755184 -0.32759127 -0.18351813 -0.05921411 -0.3127023
-0.103248075 -0.02127649 -0.125533 0.051117092 0.10342165 0.13502727 0.17258848 -0.065852
-0.07493112 -0.11114449 -0.38064688 0.039392427 -0.025286118 -0.11016531 -0.083945766 0.1295952
-0.09439796 0.051119104 -0.049660176 -0.1364662 -0.118793085 0.11988104 -0.12660159 -0.04819654
-0.098878644 -0.04335946 0.015507726 -0.001759219 -0.049788356 -0.15056656 -0.15500759 0.015313105
-0.23497653 0.17576596 0.20367938 -0.14291878 0.10221695 -0.113955304 0.092969924 -0.44817153
-0.09694026 -0.1949907 -0.057361893 -0.050364736 0.15515526 -0.19717549 -0.24710074 0.4085187
-0.0038247362 -0.16145764 0.14696607 0.19619872 0.21448168 0.13072585 -0.08898479 -0.059799768

predictionFunction.policy_head.0.weight f4 [2, 64]
00000000: 7ec0 e0bd d2c2 c43c 01ca 18bd 891d d23d
00000010: 26b9 9bbe 7214 373d 9cff da3d 35f4 fc3e
00000020: 3cc1 e23d 7345 f33c 2870 693d 8e1e 3e3d
00000030: c50b a63c d46c a5bd df72 adbc 83a6 75bd
00000040: 0811 6dbe 78bf a53d 1474 debe 0e0e f2bd
00000050: 60a9 ec3d 509f f43d 01db 433d 29c3 c23d
00000060: c99b 9d3d 52ff f2bd d676 c63d b4dc a7be
00000070: 3d5d 633c b942 c9bd 72f6 713b fc15 d33d
00000080: 7a3a 0cbd f2c2 f0bc b5ae 8dbe 8f31 86bd
00000090: ab7d 1dbd 3c48 b83e 2360 8b3d cc6c 513d
000000a0: 715d 493f aeb3 963e f9a6 503d 7023 e9be
000000b0: 095a c0bd 7317 27bd def0 41be 3c2e 6e3e
000000c0: af26 da3e 632a af3e cb73 eebd 7e2f 6e3d
000000d0: 342c d7bd cacd fb3d dbf3 a53e 6fed 2fbd
000000e0: 63a7 c93d 60d5 ad3c 2550 6d3d 4f2a 02be
000000f0: 7327 6f3d 592a cf3c d0ec 103d fb1d a93d
00000100: 5d4e 0d3e 5da9 59be 5485 263d eaba 02be
00000110: 2db9 c33d 49b9 c13d df07 a63d 53af c1be
00000120: bf0f 99bd f928 fbbc a192 8b3c 3c6e 0ebd
00000130: ccc5 db3d d403 ed3d 0661 4f3d 9e96 243e
00000140: 27e1 8d3e 57bc 82be cc73 d93e b877 663c
00000150: 86b9 90bb fc56 95bb 65d7 52bd 4e61 b4bd
00000160: 41f5 c53d c1ca ed3d e891 263d 18d5 a53e
00000170: 7551 483d 3d1f 1b3e c166 c23d 9246 8fbc
00000180: a3d7 3fbd 77d9 b1bd 0214 953e 5a4f 903c
00000190: d867 ddbc ba62 a7be 6bb3 283d 7664 af3d
000001a0: f95c 49bf bf1c 58be 3c99 033d 256e c13e
000001b0: 8749 8cbd ec64 d9bc e3be b13d 8f8e 87be
000001c0: 36aa fdbe e2e4 9bbe 0ce9 bf3d f6c1 2abc
000001d0: a72a d1bb 8f88 933d 9070 83be 5e53 903c
000001e0: 55c9 c8bb 3a8d 31be 2f2e 54be 1341 22bd
000001f0: 9aca 883d 3df3 473e a2a9 6ebd ce17 0e3d
-0.10974215 0.024018679 -0.03730202 0.1025954 -0.30414695 0.044697233 0.10693285 0.49405065
0.11072013 0.029696202 0.056991726 0.046415858 0.020269284 -0.08077398 -0.021172939 -0.05997325
-0.23151028 0.080931604 -0.43447936 -0.11819087 0.11555743 0.11944449 0.04781628 0.0950988
0.07695729 -0.11865105 0.09690635 -0.3278557 0.01387721 -0.098271795 0.0036920574 0.103069276
-0.034235455 -0.029389832 -0.27672353 -0.06552421 -0.038449924 0.3599261 0.06805446 0.051129147
0.78658205 0.2943396 0.050940488 -0.4553485 -0.09392173 -0.040793847 -0.1893954 0.23259825
0.42607638 0.34212026 -0.116431795 0.05815076 -0.10506478 0.122951105 0.3241261 -0.042951044
0.098463796 0.02121991 0.05793776 -0.12711452 0.05838723 0.025288748 0.035382092 0.082576714
0.13799424 -0.21256013 0.040654495 -0.12766615 0.09556804 0.094591685 0.0810697 -0.37829074
-0.074737065 -0.030659186 0.017037692 -0.034773096 0.10731086 0.11572996 0.050629638 0.16073081
0.2771084 -0.25534317 0.42471159 0.014066629 -0.0044166474 -0.0045574885 -0.051474947 -0.08807622
0.09665919 0.11610938 0.04066649 0.3238914 0.04890581 0.15148635 0.09492255 -0.017489705
-0.046836507 -0.08684056 0.29116827 0.017615963 -0.027027056 -0.3269251 0.04118673 0.08564083
-0.7865749 -0.21104716 0.032128558 0.37779346 -0.06849962 -0.026537381 0.08678987 -0.2647595
-0.49543923 -0.3044806 0.09370622 -0.01042222 -0.0063832584 0.07203781 -0.25671816 0.017617878
-0.0061275163 -0.1733903 -0.20720743 -0.03961284 0.06679268 0.19526382 -0.058267243 0.03469067

predictionFunction.policy_head.0.bias f4 [2]
00000000: 07dd b3bc 02fd 003c
-0.02195598 0.007872822

predictionFunction.value_head.0.weight f4 [64, 64]
00000000: acb8 99bd 33ba acbc a30e 0abc f5e6 6a3d
00000010: 090f 073d 99e3 5fbd df56 613d 1134 9cbd
00000020: a7f8 69bd c3b8 0fbe 27f2 133d e638 0abd
00000030: 6cd7 d4bd a49e ebbd 6ba8 90bd 5f31 ccbd
00000040: 84a5 50bd fd99 d8bd 6a51 b9bd 8fd8 0a3d
00000050: 732d a2bd 0067 503d d07b 0b3c 88f3 9cbd
00000060: 0b5f ad3c 400a 9c3d 1eb4 73bc 9003 5e3c
00000070: 20cd cf3d 4267 3cbd 2014 e13c 0a19 523d
00000080: 3ebc 12be 7e29 973d c384 cabd a060 d2bb
00000090: 4a7a babd cc15 ce3c ace6 cdbd cbfd 99bd
000000a0: 80ed b03c 979f bebd 3d80 efbc 0b83 983d
000000b0: 7e39 22be 1657 a6bd fe1f f0bd 0b23 ab3d
000000c0: a715 9a3b 12ca d6bd 296a 0fbe 384d 843d
000000d0: abb4 553d 9c88 dcbd f558 cabb c824 7abd
000000e0: ffc1 823c 08c1 f0bd a488 043d 1f4e a43d
000000f0: 3204 b43b 13c1 99bd 2c04 5ebc 04eb 5c3d
00000100: c174 20be f0c8 fbbd 40ff d4bd 95a8 98bc
00000110: 4217 14be f206 55bd 8586 64bd d3d1 cbbe
00000120: 3d82 503d afc9 1d3d 53b3 02be e8bd 94bd
00000130: 4130 01be 41db 47be be85 1fbe 8d3f 63bd
00000140: d8f9 92be 10b8 c9be 528d adbd 5285 0fbd
00000150: a5d9 05bd 7cd6 2f3d e859 2ebd fa01 c7bd
00000160: ed34 d83e f77f 7a3e c9c4 883d 06c9 40bd
00000170: 5cf0 e43d 0009 29be 2f55 25be a7e5 20bd
00000180: bace f2be 0595 6fbe e3c7 d1bd 7039 f43c
00000190: 3b89 e93d 64be 883b cf33 8b3c 0753 543e
000001a0: 15af 5cbe 393f bbbd 2a2d bdbd ad30 bcbe
000001b0: 518a c1be 5a4c eb3d 8f34 63be 75c8 18be
000001c0: 6a6f 633e 9ad8 52bd dc50 bfbd dae5 823d
000001d0: 1f2a 95bd c699 b0be 2e97 c3bd ca4e 593e
000001e0: 6b8d f8bc cc31 e2bb 32da 2b3e 0853 c03c
000001f0: 5b6e 0ebe 0a0f de3d eb8c 70be 305f 97bd
00000200: cc44 113d ca32 8f3d c090 033e f560 c4bd
00000210: 503c f4bd 428d a2bd ba08 983d dc8e 1bbe
00000220: 0725 78bd 327e 3e3e 902e 293d 7ddd 21be
00000230: ebef 0fbe 1913 c5bc 3b54 a7bc 0429 e7bd
00000240: aa23 cebd 55e9 74be ad12 b8bd 01da a23c
00000250: f4de 76bd 8822 97bd cbe4 b8bd 1207 39be
00000260: 36ce 903e f4d9 dfbd b0a2 2c3c 5abb 6f3d
00000270: adb5 113e a66d 80be ad7f 47bd bfd4 f0bc
00000280: 9393 50be cffa 8ebe f6de 03be 4c5d e4bd
00000290: 3df8 25bc 3bee 87bc d87d 1ebe 679a 123e
000002a0: 733b b63d 4333 a0bc 4531 5dbd 0758 89be
000002b0: d2b2 a8be e885 ecbd 759a 4bbd 4524 5dbe
000002c0: cf53 8cbd be53 1d3e 2264 05be 5bbf 3dbc
000002d0: 417f aabd 8300 75be 9a87 93bd c594 c6bd
000002e0: 8301 a13d 0156 38bc 7702 183e 5027 bb3d
000002f0: 5cf9 9f3c 22af 1bbe 16c5 41be da81 9a3d
00000300: b163 fa3e bd2f 653e f63b ffbc 1a65 3dbe
00000310: 8b02 c73e 9bfc 493e a60e f3bd 7f1c febc
00000320: 5dba 00bf 48ed ae3d 2b99 193e 2673 5ebe
00000330: 91aa 7fbe 7b71 233e 2254 37bd 7af0 40be
00000340: 851c 3f3f 14ed 303d 5ccb 16bd e409 95be
00000350: d1c9 ef3d e03b 2cbd d52d dabd 7e73 d7be
00000360: a982 b1bd 82e5 803a bdd2 a3bc afa7 99bc
00000370: 4e11 c2bd b36e a83e ce7f d13d ba6f d7be
00000380: 64e2 a63e 743b 1fbf fef6 933e c2cb 11bd
00000390: 268e 993e 18a3 a73c 98c5 2c3c 2d0a 20bd
000003a0: e2d1 a73e 9909 42bd 693e 2fbe 6570 2cbd
000003b0: 215c abbc 1e58 993d 7865 18be 1b4d a5bd
000003c0: 7b0a 7cbe d4b3 0ebe 5464 433d 80f6 79be
000003d0: be45 86be 7da3 bcbe 278a 0c3e b997 04be
000003e0: 0956 b7bc 8a48 223e 5915 723e 9ff9 b3bd
000003f0: 7b8f 8cbd 56c0 63be 692b 553e 9da3 a4bd
-0.075059265 -0.02108488 -0.008426341 0.057349164 0.032973323 -0.054660413 0.055014487 -0.076271184
-0.0571219 -0.14035325 0.036119606 -0.03374567 -0.10392651 -0.11504868 -0.07063373 -0.09970354
-0.050939098 -0.10576246 -0.090487316 0.033897933 -0.07918825 0.05087948 0.008513406 -0.076636374
0.021163484 0.076191425 -0.014874486 0.013550654 0.10146546 -0.04599691 0.027475417 0.05129341
-0.14329621 0.07380961 -0.098886035 -0.00642021 -0.09105356 0.025156878 -0.10053763 -0.0751911
0.021597624 -0.09307783 -0.029235953 0.074468695 -0.15842244 -0.08122079 -0.11724852 0.08356293
0.004702288 -0.104877606 -0.1400534 0.06460041 0.05217425 -0.10768244 -0.0061751553 -0.061070234
0.015961645 -0.11755568 0.032356873 0.08022713 0.005493664 -0.07507529 -0.013550799 0.053935066
-0.15669538 -0.12294185 -0.104002476 -0.018635074 -0.14461997 -0.052008577 -0.05579235 -0.3980852
0.050905455 0.03852242 -0.1276372 -0.07262784 -0.12616064 -0.19517232 -0.15578362 -0.05548053
-0.2870624 -0.3939824 -0.0847422 -0.035039254 -0.032678265 0.042929158 -0.04256621 -0.09717174
0.4222788 0.24462877 0.06678159 -0.04706671 0.111786574 -0.1650734 -0.16145776 -0.039281514
-0.47423345 -0.2339669 -0.102432035 0.029812545 0.11403128 0.004173087 0.016992478 0.20734797
-0.21551163 -0.09142918 -0.0923713 -0.36755887 -0.3780084 0.11489172 -0.22188018 -0.14920218
0.2221047 -0.0514761 -0.093415946 0.06391497 -0.072834246 -0.3449232 -0.095503196 0.21221462
-0.03034087 -0.006902909 0.16782454 0.023477092 -0.13909285 0.10842712 -0.23491256 -0.073912024
0.035466 0.06992109 0.12848186 -0.095888056 -0.11925566 -0.07937099 0.074235395 -0.15191215
-0.060582187 0.18602827 0.04130417 -0.15807147 -0.14056365 -0.024056958 -0.020425906 -0.1128712
-0.10065396 -0.23917134 -0.08987937 0.019879343 -0.06027122 -0.07379633 -0.09028014 -0.18069103
0.28282326 -0.10930243 0.010536835 0.05852828 0.1422946 -0.25083655 -0.048705745 -0.02939832
-0.20368795 -0.27925727 -0.12878022 -0.111506075 -0.010129985 -0.01659309 -0.15477693 0.14316712
0.08898058 -0.019555693 -0.054002065 -0.26824972 -0.3294893 -0.11548978 -0.04970785 -0.21595867
-0.06851923 0.15363976 -0.13026479 -0.011581267 -0.08325053 -0.23925976 -0.07203598 -0.09696344
0.078616165 -0.011250974 0.1484469 0.09138358 0.019528084 -0.15203527 -0.18922839 0.075442985
0.48904184 0.22381492 -0.031156521 -0.18495598 0.38869128 0.19725268 -0.11868028 -0.031019447
-0.5028437 0.085413516 0.14999835 -0.21723613 -0.2496741 0.15961258 -0.04475797 -0.18841735
0.7465289 0.043194845 -0.036815032 -0.29109108 0.11708415 -0.04204929 -0.10653273 -0.420803
-0.086674996 0.0009834024 -0.019997949 -0.018756716 -0.09475957 0.32896957 0.10229455 -0.42077428
0.32594597 -0.62200093 0.28899378 -0.03559471 0.29991263 0.020463511 0.010545157 -0.039072204
0.32777315 -0.047372434 -0.17113651 -0.042099375 -0.020917954 0.0748751 -0.14882457 -0.08071347
-0.24613373 -0.13935786 0.047703102 -0.24410439 -0.26225084 -0.36843482 0.13724576 -0.12948503
-0.022379892 0.15847984 0.23640956 -0.08787846 -0.06863304 -0.22241339 0.20817341 -0.08039019

predictionFunction.value_head.0.bias f4 [64]
00000000: f7ad 14be 488f 0fbe 6013 9fbb 64db cbbd
00000010: f0c2 d8bd 7531 95bd c08f 293d 41c3 8dbe
00000020: 6e21 e13d 59cc d6bc 1bdd dfbd 903d 38be
00000030: 5e6a a3bd d541 44be 4b47 2ebe 4058 86be
00000040: c6bb acbd 6499 8ebd c00e 01be 79a2 b63e
00000050: a0b6 87bd 5c8c 3fbe 0767 bf3e a3ad 49be
00000060: 7065 54bd c9ba 33be 4e1e a6bc d9fb 2b3e
00000070: 0f39 0abd d6ed 02be db80 3e3e 460d ca3c
00000080: 736e 2ebe f2cb f23c 0833 893e 81cb 1cbe
00000090: e0e0 46be 8129 9c3d 76df ee3c 96ed 23be
000000a0: d416 8ebd eae1 5e3d e9d5 fdbd 06fb 10be
000000b0: ae1f 8a3d c241 b43d fcc6 2ebe c149 0bbe
000000c0: d2ac 92bd aa09 68be 6b9b 91bd 7259 913d
000000d0: 99f6 2bbe 5190 3bbc 0d22 50be c582 933e
000000e0: baac 073e 4cdc 86bd 28a4 07be 02b2 3abe
000000f0: 1789 9b3e a4f8 ca3e 1ca0 333e bc8e a1be
-0.14519487 -0.14019501 -0.0048546046 -0.09953955 -0.105840564 -0.07284824 0.041396856 -0.2768803
0.10992704 -0.026220487 -0.109308444 -0.17992234 -0.07979272 -0.19165738 -0.17019384 -0.26239204
-0.084342524 -0.06962851 -0.12603283 0.35670832 -0.0662663 -0.18705887 0.3738329 -0.19695143
-0.05185455 -0.17551722 -0.020278122 0.16795291 -0.03374582 -0.1278604 0.18603842 0.024664532
-0.1703432 0.029638264 0.26796746 -0.15312006 -0.1942172 0.07625104 0.029159289 -0.160086
-0.06937948 0.054414667 -0.12394316 -0.14158258 0.06744324 0.08801605 -0.17068094 -0.13602354
-0.07161869 -0.22659937 -0.07109722 0.070971385 -0.16793288 -0.011447982 -0.2032549 0.28810707
0.13249484 -0.06584987 -0.13246214 -0.18231967 0.3037803 0.39642823 0.17541546 -0.3155421

predictionFunction.value_head.2.weight f4 [41, 64]
00000000: 4772 9bbd 2548 2dbf a2c2 86be 7bb5 44bf
00000010: 1048 7cbf ca80 76bf cf95 a9bf dfa1 45bf
00000020: 07a5 d4bf 70e2 d8be 9cae 0e3d 3f52 2ebe
00000030: 5132 e0be bac8 00bf bd14 88bf c1a9 edbf
00000040: 774a 91be d2e8 64be cd6f b7bf 6ba4 00c0
00000050: 1df3 eabd e0b2 debe eaed dabf 292c 6cbf
00000060: 9d91 3dbf 944a 9c3d 3a21 d3be cafb cdbe
00000070: e556 38be 941b 84bf 905a c7bf 22be ddbf
00000080: 16af a6be 4d1d e7be 97bb d8bf 5408 17bf
00000090: 90a7 f3be 2405 11bf cc1f d0bf e454 8dbe
000000a0: 75bb 93be f7eb 48bf 532b bfbd 67f1 11bf
000000b0: 73c4 bdbf fdf8 8bbf e80a 1fbe 9f32 a73d
000000c0: 7df5 2abe fa8c 82bf ac05 36bf ca34 a4bf
000000d0: bf67 04bd 9b7a 52bf e77a dabe a977 cdbf
000000e0: e714 b9bf 68e2 2cbd ca22 e9bd c9eb bebf
000000f0: 2450 d6bf f4b3 80bf f6bc cabf 4b9e f3be
00000100: 7025 b1bc efa6 3ebf e70e cabd 915d 40bf
00000110: b260 75bf 0606 82bf 2bd1 9bbf 3e49 2bbf
00000120: d1d8 d2bf 67f1 00bf 9b33 87bd dd9a acbe
00000130: b39e 22bf 4cc6 0abf 1d1f 80bf 9559 f2bf
00000140: 763e febd 5e84 3abe 81de c9bf 7133 f7bf
00000150: a7bc 8abd 6374 c7be 83e7 e6bf faa4 6ebf
00000160: 089a 1cbf e745 423d 4e31 d4be fd59 aebe
00000170: 237f 97bd 87ef 54bf ffed c2bf edb1 cfbf
00000180: 94a6 fcbd 7521 f1be a121 dabf 3dff 0bbf
00000190: 06d0 18bf fe46 2abf a684 c4bf 9cd6 14be
000001a0: 9039 2cbe dac4 1ebf 2d2e 16bd 5d8c 21bf
000001b0: bb46 b8bf 7f2f 98bf 6a1d f6be e739 97bd
000001c0: c27a 0fbe 00ef 95bf dc8e 2bbf e0a3 9bbf
000001d0: 2e52 b73c dcd2 18bf 8899 14bf ac30 cebf
000001e0: ee59 b6bf aeea 3ebd 77aa 36be 3fdf b7bf
000001f0: 5b90 dcbf 2909 7fbf c15a d2bf 174d c5be
00000200: 3011 7abd d47a 46bf 3faa 24be ad76 48bf
00000210: 4335 8bbf 5d11 7bbf a082 a8bf b581 1ebf
00000220: bf44 cdbf 09b1 ffbe cfcb 693d 9aeb 80be
00000230: 7d21 06bf fe7f f0be 6788 94bf 4e1e f5bf
00000240: 34ee 92be 7c84 90bd acfa bebf 3d26 e9bf
00000250: 10f8 b63c 8733 95be fe34 eebf ba1b 77bf
00000260: 908f 2cbf 002e c13d 1352 ccbe 5a77 e0be
00000270: 8cb8 2ebe 1606 82bf b2bb cbbf d792 cbbf
00000280: 292b 0dbe c1a8 1cbf 8e35 dbbf 0541 e0be
00000290: 285e 07bf 51df 20bf 8650 cfbf a1de fbbd
000002a0: d64c 41be 5c9c 32bf e686 8cbd b7f3 40bf
000002b0: c623 b6bf c92d 99bf bae2 6abe b13c b53d
000002c0: a945 74be 5864 84bf 07e7 63bf 64c6 9fbf
000002d0: 5b85 e33d 569c 28bf 71ed 00bf bafd cbbf
000002e0: 71a3 aebf 636a 88bd 34b9 65be ab56 bbbf
000002f0: 5710 e1bf 3ee2 8fbf b189 cfbf a646 05bf
00000300: 3bd5 94bd 6f64 1ebf fdc4 99be 950a 45bf
00000310: b71c 77bf 3365 83bf c0a0 97bf 25b4 25bf
00000320: 7976 cabf b12f f9be 0cd6 15bc 186c 22be
00000330: 8ee7 08bf 4a58 f5be 2afa 86bf b6bd 07c0
00000340: ebd2 12be f65c 05be 50c2 ccbf 5b6c efbf
00000350: 2a3b b7bd 0bf6 acbe 2659 eabf cfa6 58bf
00000360: 8617 08bf cd87 20bd 9fb9 babe 1736 bbbe
00000370: a1dc 2ebe dddd 6bbf da08 b3bf 75bb ddbf
00000380: f3cc 0cbe 86b6 c6be 86c0 ddbf ac58 01bf
00000390: e00c 10bf 7b45 ecbe dadf d8bf 2b28 12be
000003a0: 5f65 adbe 3552 48bf 4102 c13d 4afa 25bf
000003b0: 77b5 c0bf 9092 8dbf 1145 edbe 07a8 d83d
000003c0: b0c0 7fbe 6744 95bf 44a6 3bbf d272 a6bf
000003d0: 008f ebb9 10a5 4cbf f1e9 e2be 8f58 d0bf
000003e0: 8e10 bbbf fcde d6bd 43b9 7dbe 2de5 aebf
000003f0: 7e37 e2bf cc97 94bf d23a c9bf 8e36 c8be
-0.07590156 -0.6768821 -0.26320368 -0.7683942 -0.9854746 -0.96290267 -1.3248843 -0.7720012
-1.6612862 -0.42360258 0.03483449 -0.17023562 -0.43788388 -0.50306284 -1.0631329 -1.856743
-0.28377125 -0.22354439 -1.4330994 -2.0100353 -0.114721514 -0.43495846 -1.7103856 -0.92254883
-0.74050313 0.07631412 -0.41236287 -0.40231162 -0.18001898 -1.0320916 -1.5574512 -1.7323649
-0.32555455 -0.45139542 -1.6932248 -0.5899708 -0.47588778 -0.5664847 -1.6259704 -0.2760383
-0.28853956 -0.78485054 -0.09334435 -0.57008976 -1.4825577 -1.093536 -0.15531504 0.08163952
-0.16695209 -1.0199273 -0.71102405 -1.282861 -0.032325502 -0.8221833 -0.42671892 -1.6052142
-1.4459504 -0.042208105 -0.113835886 -1.4915706 -1.6743207 -1.0054917 -1.5838916 -0.47581705
-0.021624297 -0.7447347 -0.09866124 -0.7514277 -0.9585067 -1.0158088 -1.2173208 -0.66908634
-1.6472417 -0.5036835 -0.0660164 -0.337119 -0.63523406 -0.54208827 -1.0009495 -1.8933588
-0.12414257 -0.18214557 -1.5771028 -1.9312574 -0.06774264 -0.38955984 -1.8039402 -0.93220484
-0.61172533 0.047429945 -0.41443866 -0.3405303 -0.07397296 -0.8317799 -1.5228881 -1.6226174
-0.1233646 -0.47095838 -1.7041513 -0.5468634 -0.5969242 -0.66514575 -1.5352981 -0.14534992
-0.16818833 -0.6201912 -0.03666513 -0.631048 -1.4396585 -1.1889495 -0.48069316 -0.07384091
-0.14011672 -1.1713562 -0.6701486 -1.2159386 0.022378054 -0.59696746 -0.5804677 -1.6108603
-1.4246194 -0.046610527 -0.17838465 -1.4365004 -1.7231554 -0.9962335 -1.6433946 -0.38535377
-0.061051548 -0.7753117 -0.16080569 -0.78306085 -1.0875629 -0.9807337 -1.3164864 -0.6191667
-1.6036605 -0.49939755 0.057079133 -0.2517975 -0.5239485 -0.4697265 -1.1604127 -1.9149873
-0.2869736 -0.070565194 -1.4920249 -1.8214794 0.022335082 -0.29140875 -1.8609922 -0.9652668
-0.6740656 0.09432602 -0.39906368 -0.43841058 -0.17062587 -1.0158107 -1.5916655 -1.5904187
-0.13785996 -0.61195 -1.7125719 -0.43799606 -0.52878046 -0.62840754 -1.6196449 -0.122983225
-0.18876967 -0.69769835 -0.06861667 -0.7537188 -1.4229667 -1.1967098 -0.22938052 0.088494666
-0.23854698 -1.0343122 -0.89024395 -1.2482419 0.1110942 -0.6586355 -0.50362307 -1.5936806
-1.3643628 -0.06660917 -0.2243393 -1.4635824 -1.7583112 -1.1240919 -1.6213895 -0.52060926
-0.07267233 -0.61872 -0.30033103 -0.7696927 -0.9652819 -1.0265259 -1.1845932 -0.64728004
-1.5817405 -0.48669198 -0.009145271 -0.15861547 -0.53478324 -0.47918922 -1.0545094 -2.120954
-0.14338271 -0.13023743 -1.59968 -1.8704942 -0.089468315 -0.33781466 -1.8308456 -0.8462953
-0.53160894 -0.03919201 -0.36469743 -0.36564705 -0.17076351 -0.9213541 -1.3987076 -1.7322832
-0.13750057 -0.3881113 -1.7324378 -0.5052593 -0.56269646 -0.4614676 -1.6943314 -0.14273135
-0.33866403 -0.7825044 0.09424258 -0.64835036 -1.5055379 -1.1060352 -0.46341756 0.10578924
-0.24975848 -1.16615 -0.73300576 -1.300379 -0.00044929236 -0.79939365 -0.44319108 -1.6277026
-1.4614427 -0.1049175 -0.24777703 -1.3663689 -1.7673185 -1.1608825 -1.5721076 -0.39104122

predictionFunction.value_head.2.bias f4 [41]
00000000: e7e3 d2bf d848 d6bf 83bc cbbf 6c1b cfbf
00000010: 5451 d5bf e492 d7bf 17a7 cdbf a10d c5bf
00000020: 7e2c d9bf 54d9 c6bf 0b99 c9bf 1ce4 c8bf
00000030: a4b8 cabf b979 debf c9c8 debf e1a8 d9bf
00000040: e43e c1bf 07d6 d7bf f03b e3bf 5d84 ddbf
00000050: eeb1 22bf a92e 1abf 8921 e7be 2214 1ebf
00000060: c0a9 8537 b0da 9ebc 0d7a d9bc 51ca 86be
00000070: 8291 e3bd 1f6f 64bd abe8 153d 6683 2cbe
00000080: 087f 12bf 5300 cebf 7278 dbbf 9e02 d5bf
00000090: 2e42 dbbf 3f7a dbbf db6a d2bf 3cd5 dfbf
000000a0: 9034 dbbf
-1.64758 -1.674098 -1.5916904 -1.6180243 -1.6665444 -1.6841702 -1.6066617 -1.5394784
-1.6966703 -1.5535073 -1.574983 -1.5694613 -1.5837598 -1.7380897 -1.7405025 -1.7004663
-1.5097318 -1.6862191 -1.7752666 -1.7306019 -0.6355275 -0.6022745 -0.45142773 -0.6174947
1.5933882e-05 -0.019391388 -0.026547456 -0.2632623 -0.11111738 -0.055770036 0.036598843 -0.16847
-0.57225084 -1.6093849 -1.7146132 -1.6641424 -1.7129571 -1.7146682 -1.643886 -1.7486949
-1.7125416

dynamicsFunction.startBlock.0.weight f4 [64, 34]
00000000: 8287 343e 3296 9a3e ea5e 77bd 4f0f d03d
00000010: 3565 ee3d d477 333e 2b2a dcbc 0cda 0dbd
00000020: 86a2 a0bd c474 08be 34ed 903e fdca 2f3d
00000030: 8907 4dbb 2297 0b3e f077 9fbb a992 ae3e
00000040: 8d3f 2b3e 98c5 d03d 4937 42bd fb67 613e
00000050: 36ff 4a3e 461e 4e3e db20 ffbd ae6e 0f3e
00000060: eca5 7c3e 7e29 de3d 9498 613e 91ff da3c
00000070: abd8 8b3e 545d 07bd 6a83 d3bd b444 ae3d
00000080: 10c0 8a3e 72c6 95be 792e 90be b411 1f3e
00000090: c0bb 28be 35c4 74bd 1d6d a3bd ab9c a23e
000000a0: 3f10 81be baf3 32bd e2eb 2bbd d74b 943e
000000b0: 8c8b 14be 5175 a03d 194f 623e b377 973e
000000c0: 28ec 793e 4bb3 663d b9b7 cabc 8acb f43d
000000d0: d136 1fbe 9f98 49bd 873a 06bd b36f 34bc
000000e0: f62b 263d 0c10 f43d 0cff 663e d306 fe3d
000000f0: 6015 7d3d 2ca0 c73e 8201 fabd 78a6 3ebc
00000100: c2f7 08be 0b32 323e 13ff 823e 8aa3 c2be
00000110: 1e99 d23d ebc1 0cbe b749 fd3e 6688 8dbe
00000120: 7d27 0f3d 284b a6bd c103 0b3e 4c00 c4bd
00000130: 8b15 823d 20c9 2fbe ecd8 3d3e ae4a 043e
00000140: c9dd 82be 3c84 69be cc6f 113d 07d7 2ebe
00000150: 87b7 84bd 8b90 bb3b 84cb 3cbe cccf b93d
00000160: 430d 2d3e f514 27be e99d 71be ecde 35be
00000170: 33f6 b0be 2708 8fbe 2b39 48be 38e9 dfbe
00000180: f211 f63d bc96 bfbe b13b 073f 1f83 633e
00000190: ad04 ccbd 538e 4a3e 4671 503d f589 6dbe
000001a0: 6f92 6c3d 61a1 d93e 05bd 2d3f 7695 2cbe
000001b0: 11f4 d03d 3c91 ecbd a9a1 df3e 3e17 f83d
000001c0: 83ac 473c a0c0 8b3e 1ffe 1fbe bccd 96bd
000001d0: 2d90 03bd 30ed 05bf bfd4 03bc e86c 1abe
000001e0: 2c98 103e 274f 13bf a904 08be 15c4 5abe
000001f0: ee2f d83d 86e9 a8bd 3644 a83b 16c4 6fbc
00000200: 9e5a 7abe 2deb 343e cebd a9be a67f 353e
00000210: c531 8cbd c335 82be 76b9 193c 3e5a 81bb
00000220: 0dc1 d23c 65c6 fcbb de1e 7bbe 56e6 033f
00000230: 6acc 6c3e 1236 abbd 5281 4b3d 166f bfbe
00000240: 60df f9bd 523f a4bd e00b 1e3d 0c88 bdbd
00000250: bc39 113e 4a7b 9abd 1d7b e6be 05b4 fd3d
00000260: 523c 153c d191 243c 7d95 69be 79a8 70be
00000270: 2b32 59be e5d9 80bd 533e 8dbd d0ad 33bd
00000280: c7cb 3e3e 8edf 363e 2531 4f3e c8b6 c23e
00000290: e538 c33d bbb6 d7bd 9b7e 093e a394 04be
000002a0: 7273 39be fab7 03bd 26fc 363c aec2 84be
000002b0: ce9e 473e c956 043d 36a2 8dbd 832f 36be
000002c0: 1905 22bd 280b 16be c842 923d 2541 babc
000002d0: e479 283d daa7 223e 4619 813e c853 9b3c
000002e0: 7d23 203d e396 2dbe 6f01 8abe e140 6e3e
000002f0: 8740 dbbc d146 f0be e3fb 4ebd 831d 4ebe
00000300: aa95 893d 81e0 35be c37e 18be 9b2d 66be
00000310: de7f 443d 6569 783e 8bdb 843d 2d65 443e
00000320: 9654 5d3e 1f2d bdbd 0f74 62bd 5402 f9bc
00000330: 7dad 973e c3c8 fd3c d9b9 e83c 5bfa 29bd
00000340: ff23 563e 3f2c 57be 2bd0 f8bd 36bb 44be
00000350: 3b9f 153e 1c3c 3e3d cdfe 3b3b 3eff 0b3e
00000360: 2a07 9abe d709 8cbe aca4 b8bd 6203 d5bd
00000370: 2c77 2e3e 0b09 b5bd 80d2 fcbd 3555 573c
00000380: 163d e33d b907 4a3e 5c37 8cbe e8ca 1f3c
00000390: 6899 353d 32ec 87be c8eb babd fb6d 47be
000003a0: 7134 1d3e a47b 25bd 0477 d83c 86e3 2bbe
000003b0: bf2d 00bf a1f6 fe3e 172f 433d 12e6 3ebd
000003c0: 01bb 523e ec90 b23c 2645 97bd 6a57 cd3c
000003d0: 6ba2 3fbe 9243 11bd fb82 343b 0d1e 903d
000003e0: 27ab b4bc d1eb b73d adca 693d dc63 acbd
000003f0: 16ad b23c 0b8b ab3d d89d 153e 61e9 fd3d
0.17629817 0.30192715 -0.06039325 0.1015917 0.116403975 0.1752618 -0.026875576 -0.034631774
-0.07843499 -0.13325793 0.28305972 0.042918194 -0.003128501 0.13631871 -0.0048665926 0.34096268
0.16723461 0.10193938 -0.047416005 0.22012322 0.19823918 0.20128736 -0.124574386 0.14007065
0.24672669 0.10847758 0.2203086 0.026733192 0.27313742 -0.03304799 -0.103277996 0.08509198
0.27099657 -0.29252964 -0.28160456 0.15534097 -0.16477871 -0.05975743 -0.07979796 0.31760153
-0.25207707 -0.043689467 -0.041973002 0.2896411 -0.14506358 0.07834876 0.22100486 0.2958351
0.24406493 0.05632333 -0.024745809 0.119528845 -0.15548255 -0.049217816 -0.03277066 -0.011012959
0.04056927 0.11917123 0.2255823 0.12403645 0.061787963 0.3898939 -0.12207319 -0.011636369
-0.13375762 0.17401902 0.2558523 -0.38015395 0.10283111 -0.13745849 0.49470302 -0.27643126
0.03494977 -0.08119804 0.13575651 -0.09570369 0.06351765 -0.17166567 0.1853978 0.12919113
-0.25559834 -0.2280435 0.03550701 -0.17074214 -0.064803176 0.005724018 -0.1843701 0.09072837
0.1689959 -0.16316588 -0.23595394 -0.17760819 -0.34562835 -0.27935907 -0.19553058 -0.4373262
0.120151415 -0.3741969 0.52825457 0.22217987 -0.09961829 0.19780855 0.050889276 -0.23197158
0.057756837 0.42505935 0.67866546 -0.1685389 0.10202802 -0.11551139 0.43678024 0.12113808
0.012187126 0.272954 -0.15624283 -0.073634595 -0.03211992 -0.52315044 -0.008046328 -0.15080607
0.14120549 -0.5754265 -0.13283028 -0.21363862 0.10556017 -0.08247666 0.0051350845 -0.014634153
-0.2444863 0.17667837 -0.33152622 0.17724475 -0.0684543 -0.25431642 0.009382596 -0.0039475253
0.02572682 -0.00771408 -0.24523494 0.5152334 0.23124853 -0.083599225 0.049683876 -0.3738944
-0.122008085 -0.0801989 0.038585544 -0.092544645 0.1418218 -0.07543047 -0.45015803 0.123878516
0.00910862 0.010044531 -0.22810932 -0.23501767 -0.21210544 -0.0629156 -0.06896653 -0.043866932
0.18632422 0.17858717 0.20233591 0.38030076 0.09532336 -0.105329 0.13427202 -0.12947325
-0.18110445 -0.032157876 0.011168515 -0.2592978 0.19494173 0.032309327 -0.06915705 -0.17791562
-0.039555643 -0.14652693 0.07141644 -0.022736141 0.04113187 0.15884343 0.25214595 0.018960848
0.039096344 -0.1695209 -0.2695422 0.23266937 -0.026764167 -0.4692903 -0.050533187 -0.20128445
0.06717999 -0.17761423 -0.14892106 -0.22478335 0.047973506 0.24258955 0.06487187 0.1917922
0.21614298 -0.09237122 -0.055286463 -0.030396618 0.2962455 0.03097952 0.028408932 -0.041498523
0.20912169 -0.21012972 -0.1214908 -0.1921204 0.14611523 0.046444044 0.0028685809 0.13671586
-0.3008359 -0.27351257 -0.09015784 -0.10401036 0.17037648 -0.088396154 -0.12344837 0.0131428735
0.110956356 0.19729508 -0.27385986 0.009752966 0.044335753 -0.2654739 -0.09127003 -0.19475548
0.15352036 -0.040401116 0.026423939 -0.16786012 -0.50069803 0.49797538 0.04765233 -0.04660613
0.20579149 0.02179762 -0.07386236 0.025066096 -0.18714301 -0.03546483 0.002754389 0.07036982
-0.022054268 0.08980525 0.057078052 -0.08417484 0.02181105 0.0837613 0.14610994 0.12398029

dynamicsFunction.startBlock.0.bias f4 [64]
00000000: 056a a43d dec0 dd3d e3c2 ad3d 609c 1cbe
00000010: 8854 0bbe 5e78 19be 0f8b 4c3e ae87 2ebd
00000020: 4022 343e 2160 4c3d ac37 5ebd 432f 143e
00000030: 9947 8c3c 9b57 103e fe9a 433d 7b74 37be
00000040: d85a 49be b317 533e 75f1 49bd 3897 70be
00000050: 6bcc 0dbe c8f2 e23c 46ce 32be 6eb0 e6bd
00000060: 9c89 fcbc 7e86 e33d 6240 813e acca d8bd
00000070: d58f 5ebe 2ab4 053e ba8b e5bc 34bb d2bd
00000080: 00cb eb3d 89e8 3abc e6c3 cf3d 3c8e bd3d
00000090: 6e5e 463d 1620 3ebd 9cc7 b63b 86d2 81be
000000a0: 8260 a73b e661 713d 6f90 32be 0578 5b3e
000000b0: 9353 2bbd 9d62 a43d 7a2c 16bd 64b3 89bd
000000c0: 2a55 183e 7996 183e be83 973c 1fa5 12be
000000d0: c421 45bc 7e96 8fb9 723a 64bc 05a5 c3bd
000000e0: 9beb 7c3b d6f3 e43d 163b 24bd b38e 0f3e
000000f0: e629 023e 4d90 2d3d 6744 ed3d 00f4 c93d
0.08028034 0.10827802 0.08484437 -0.15294027 -0.13606465 -0.14987323 0.19974922 -0.042609863
0.1759119 0.049896363 -0.05425231 0.14471154 0.017123984 0.14095919 0.047755234 -0.17915528
-0.1966356 0.2061451 -0.049302537 -0.23495185 -0.1384751 0.027703658 -0.174615 -0.1126412
-0.030827336 0.11109637 0.25244433 -0.105855316 -0.21734555 0.13057008 -0.028020728 -0.102896124
0.115133286 -0.01140798 0.101447865 0.09255645 0.0484299 -0.04641732 0.0055779945 -0.2535593
0.00510794 0.058931254 -0.1743791 0.21432503 -0.04182775 0.080266215 -0.03666351 -0.06723669
0.14876238 0.14901151 0.018495437 -0.14320801 -0.012031976 -0.0002738721 -0.01392995 -0.09552959
0.003859258 0.111793205 -0.04009541 0.14019279 0.12711295 0.042373944 0.11585312 0.098609924

dynamicsFunction.startBlock.2.weight f4 [32, 64]
00000000: d585 6ebd 67c8 6dbe b18e 873d 6920 94bd
00000010: 5035 4abe 6324 76bd 4576 8b3e ae2e 2c3d
00000020: 4da7 3e3e 841a 833d fc15 57be ae0e 423d
00000030: 293f ed3d 7fba 643e 0627 f6bc 07ee f3bd
00000040: bdc9 c0bd 7b6b bf3b 0f27 103a bd0b 4abe
00000050: 643f 19be 6d0b 90bd d89d 433d 8d7b acbd
00000060: de75 4cbd c04a 3f3e 0fd8 573e fbf7 c0b9
00000070: f15b ca3d 609d 96bd 304e b33b d735 6ebc
00000080: 110d 89bd 7dc9 2bbd 362f 983d 1487 dcbe
00000090: 0982 6ebe d3a0 19bd 83ce 5e3e 750c 26be
000000a0: 4a70 9bbd 602a 1ebe 350a 6a3e 6d26 053c
000000b0: 0369 8cbe 2178 9fbd e8d4 173d c2db bc3d
000000c0: 0395 e1bd e66d 203e 234c 32be 986a 433e
000000d0: dee1 8d3d f69b 8ebd dfd5 68be d69d 41be
000000e0: e17f 92be 22ee ac3d 8f66 ad3e 08fd 4b3e
000000f0: 0bcc 123e 1977 a2bd 8fe5 37bd 5cfc 8abe
00000100: 01d6 ab3c 6001 913e 17ac 01bf 18b5 3abd
00000110: 1e44 17bc e494 c5be 7f8d e7be 232b 38bd
00000120: 42cf a1be 6e4d c6bd 5c9b 823e c0c9 08be
00000130: b6c4 c2bd b858 4abf fbe3 ddbd 1de6 053e
00000140: e673 883f a124 d2bd 6369 40bb ac8b 513e
00000150: 7406 fd3d 5d65 1a3d 7ff9 123e be48 733d
00000160: 0116 883d 7d91 933e 68ac 3cbf d6eb bb3d
00000170: 5731 3e3b f685 43be 4531 d1bd 45fd a13e
00000180: cb30 fe3c 3b08 b83e 7db0 fdbd 004a 86bd
00000190: db55 a73e 0e70 92bc 5a73 adbd 84c4 3e3e
000001a0: fee5 31bd cddd c93e 5f71 8a3d 0d32 16be
000001b0: 775f c93e f309 ff3d 54fb cc3d 433e 0b3e
000001c0: 632b 4b3e 04d9 8dbf e6c4 1abb 9931 27be
000001d0: 8ae5 f53e 88eb 9d3d 70c3 473e 6b04 9a3e
000001e0: b14b 2cbe 34af 953d 2c4c 703d 49ee 24bd
000001f0: 5a9e 25bf 5ebc 36bf 6f6e 023e d255 64be
00000200: d124 793c 29e8 9dbe efb2 843e e899 8fbe
00000210: b431 523d a402 e33e 415a 2dbd f070 7dbd
00000220: ed0c c13d e012 a03e 2441 79be 5f06 713d
00000230: af59 2b3e 12c7 a33e 9b58 273d c4f4 923d
00000240: 9421 1abe d1b7 e23e 4247 a9be 5568 e4bd
00000250: 03d9 38bd ac5c 8d3e baab 663d 0dfd c53d
00000260: fc92 a5bc 4fab a1be 549b c53e d4f8 41be
00000270: 0b13 09bd 07fc f13d 18b0 81be 560b 65be
00000280: d66c 623b 939f 603e cdfc 92be df2b 1d3e
00000290: 9ded 77be 4eb5 cdbd 190d 8cbe f3b1 dabc
000002a0: e872 a7bd d034 67bc 43aa 11bd 4657 96bd
000002b0: f3c1 e4be f5f0 0d3e a733 bd3e 44a4 e7bd
000002c0: ad65 86be d30c 26be dabd 553c 60ed 533e
000002d0: 8d04 083f c92f 523b 417b 0dbe 7b70 1dbe
000002e0: 1d00 88be 4617 143d 3bdf 39be 46d7 403e
000002f0: 2452 3d3d 188a efbd 7a2b c13e f486 e53d
00000300: b913 b2bc 3124 b73d 8c90 0bbe 6c94 0bbd
00000310: 268a 873e b423 adbd af30 cdbc 4a50 05bd
00000320: fb56 9abe 8857 183d dddd 373e c300 af3d
00000330: 8a63 16be 740c 25be 29d7 c4be e72c 483d
00000340: 56dd eb3c c463 c8be fc1c 093f 34dc 98bb
00000350: 425f 953b 37d5 7bbe 0793 bdbd cc33 bb3d
00000360: 0d01 1ebe 8453 5a3c ac5b 573d 4869 ef3d
00000370: e360 94bd 28eb 25be 6bf0 4e3e 9354 153e
00000380: fd5e 0ebe 995a 7bbd 9290 493e 0cb4 4cbe
00000390: 3167 973d beab 723e 130b a53d 8cf8 aa3d
000003a0: 723e 733c cb7a fc3c ce82 a63c 5561 053e
000003b0: cd51 833e b0d6 8bbe aaef f2be 6033 983e
000003c0: 6837 113e a88e 83bd c0e6 aebc aa1d 1fbe
000003d0: 0b6f b23d 0d0f 1a3d 9d78 0fbd f132 643e
000003e0: 881b d03c d992 e4bc 9348 bebc 5b5b babd
000003f0: 33ae 113c 5f91 94bd 9715 44be 8790 1f3e
-0.0582331 -0.23220979 0.06619013 -0.07232744 -0.197469 -0.060093295 0.2723867 0.042036705
0.18618508 0.06401542 -0.2100448 0.04737728 0.115843125 0.22336768 -0.030047905 -0.119106345
-0.094134785 0.00584167 0.0005498984 -0.1973104 -0.14965588 -0.07033429 0.047757953 -0.08422003
-0.049917094 0.18680859 0.21078514 -0.00036805854 0.09880818 -0.07354236 0.005471967 -0.014539204
-0.06691945 -0.0419402 0.0743088 -0.43071806 -0.23291792 -0.03750689 0.21758465 -0.1621569
-0.07589777 -0.15445852 0.22855456 0.008126837 -0.27423868 -0.07786585 0.037068278 0.09221603
-0.1101475 0.15666923 -0.17411856 0.19083631 0.06927846 -0.06963341 -0.22737835 -0.18907866
-0.2861319 0.08443858 0.33867308 0.19920743 0.14335649 -0.07932872 -0.04489666 -0.2714566
0.020976068 0.28321362 -0.50653213 -0.04558286 -0.009232549 -0.38590157 -0.4522514 -0.044963013
-0.31603438 -0.09682737 0.25509155 -0.13358212 -0.09510176 -0.79041624 -0.108344994 0.13076063
1.0660369 -0.10260893 -0.002935969 0.20463437 0.123547465 0.037694324 0.14352988 0.059395544
0.06644822 0.28821936 -0.7370057 0.091758415 0.0029021108 -0.19094071 -0.102144755 0.31638542
0.031029126 0.3594378 -0.12387178 -0.06557083 0.3268269 -0.017875697 -0.08469267 0.18629652
-0.04343223 0.39427033 0.06759905 -0.1466753 0.39330646 0.124530695 0.100088745 0.1359797
0.1984077 -1.1081853 -0.0023615896 -0.16327514 0.48026687 0.0771094 0.19508147 0.30081496
-0.16825749 0.07308808 0.058666393 -0.04026631 -0.6469475 -0.71381176 0.1273744 -0.22298363
0.015206532 -0.30841187 0.25917765 -0.2804711 0.05131693 0.44337952 -0.0423224 -0.061875284
0.094262935 0.312644 -0.24341255 0.058843967 0.1673343 0.31987816 0.040855985 0.071755916
-0.15051872 0.44280866 -0.33062178 -0.11152712 -0.045128834 0.27609766 0.056316115 0.09667406
-0.02021169 -0.3157601 0.38595068 -0.18942577 -0.033465426 0.118156485 -0.2532966 -0.22367606
0.0034549735 0.21935873 -0.28708497 0.15348767 -0.24211736 -0.10044347 -0.27353743 -0.02669618
-0.081762135 -0.014111713 -0.035562765 -0.07340865 -0.44679222 0.13861449 0.3695347 -0.11310628
-0.26249447 -0.1621583 0.013045752 0.2069602 0.53131944 0.003207194 -0.13816549 -0.15374939
-0.26562586 0.036155008 -0.18151562 0.1883212 0.046220914 -0.11696261 0.37728482 0.11207381
-0.02173792 0.0894245 -0.13629359 -0.034077093 0.26472586 -0.084540755 -0.025047628 -0.032547273
-0.30144486 0.03719285 0.17955728 0.08545067 -0.14686409 -0.16118032 -0.38445404 0.048870947
0.028792065 -0.39138615 0.5355985 -0.004664922 0.0045584748 -0.24593054 -0.09256559 0.09140739
-0.15430088 0.013325576 0.05257766 0.11690003 -0.07245042 -0.16202986 0.202089 0.14583044
-0.13903423 -0.061365698 0.19684055 -0.19990557 0.07392729 0.23698327 0.08058753 0.08348188
0.014846431 0.030820271 0.020326044 0.1302541 0.25648347 -0.2731223 -0.47448474 0.29726696
0.14181292 -0.06423694 -0.021350265 -0.1553866 0.08712586 0.03761201 -0.035027135 0.22285058
0.025403753 -0.027902054 -0.023227965 -0.09099456 0.00889163 -0.0725429 -0.19148861 0.15582477

dynamicsFunction.startBlock.2.bias f4 [32]
00000000: ff10 f63c 14df b6be a63e a33d 43f8 0bbe
00000010: 5be7 1abd 3bf8 453d c54b 743d 5994 0b3d
00000020: e1b4 2bbe b375 0e3e c56a 1e3e a09c c1bd
00000030: 28fe 143e 76b7 783c 15e6 b13d 2783 823e
00000040: 4feb 083e 8170 9b3c eba2 073d 8dee cf3d
00000050: 5f51 21be 20ec 09be 0c2b 2fbe b088 213e
00000060: 683c d1bd a89e 24be 4189 043e 269d 0fbe
00000070: 789c de3d b5eb 063d b4f7 ef3d 0cae 9f3c
0.030037401 -0.3571707 0.079709336 -0.13668923 -0.037818294 0.048332434 0.059642572 0.034077022
-0.16768219 0.13912086 0.15470417 -0.09453702 0.14550078 0.015180459 0.08686463 0.25490686
0.13371013 0.018974544 0.033114355 0.10152922 -0.15753697 -0.13468981 -0.17106265 0.15774798
-0.102166 -0.16076148 0.12942983 -0.14024791 0.10869688 0.03293963 0.117171675 0.019492172
