AlphaGo/foersterrobert_MuZero/Environments/CartPole/Models/model_3.pt (torch, 83738 bytes, 20 tensors)

predictionFunction.startBlock.0.weight f4 [64, 32]
000000 2a 37 c4 bd 46 d8 da 3e e1 c9 a8 be 9c 97 90 be
       -0.09580834 0.4274313 -0.3296652 -0.2824067
000010 6b 6d 70 be 02 d6 53 bd dc 08 2f bd 6b d2 64 3e
       -0.2347924 -0.051717766 -0.04273306 0.22345893
000020 ad d9 c5 3d 3a 41 c9 bd 5b c0 79 be 13 d3 56 be
       0.09660659 -0.09826894 -0.24389784 -0.20978956
000030 5f a6 b9 be f4 93 3d 3e 53 86 1f 3c f2 a3 42 be
       -0.36259744 0.18513471 0.009736615 -0.19007853
000040 f8 d8 99 bd b7 e5 4e 3e 30 7a b7 be 69 04 56 3e
       -0.07512087 0.20204817 -0.3583541 0.2090012
000050 e5 88 a8 3e 56 81 25 3f 8c 59 79 3d a3 4a 0f 3d
       0.32916942 0.64650476 0.060876414 0.03498329
000060 4e 8a 8d bc 8d d5 db 3d fc 8d b1 3c 4f f3 04 bd
       -0.017277863 0.10734091 0.021674149 -0.0324586
000070 5d 4c 44 3d e9 17 13 3e 92 17 83 be b7 c3 30 3d
       0.04792439 0.1436459 -0.2560392 0.0431554
000080 58 8f 6b be 59 18 20 be f3 c5 74 be 52 fa 25 be
       -0.230039 -0.15634288 -0.23903637 -0.16208771
000090 0e f7 1d be 76 38 8f 3d 9d 50 27 be 3a 19 75 3e
       -0.15426275 0.06993191 -0.16339345 0.23935404
0000a0 aa 73 ec 3d 3f cd 5e be 95 cd f7 bd 7b 0b ad 3d
       0.11545499 -0.21757983 -0.120997585 0.08449455
0000b0 b6 71 ee bd b0 23 7d 3d 17 41 8d 3d 3b f4 0a 3d
       -0.116427824 0.061801612 0.068971805 0.033924323
0000c0 79 2e ac be ee 53 70 be b5 1c c6 3d 81 af 29 3e
       -0.33629206 -0.23469517 0.09673444 0.16570856
0000d0 26 d1 1d 3e 19 e0 5f bd 75 71 2b 3e 76 a5 b0 be
       0.15411815 -0.054657076 0.16742499 -0.34501237
0000e0 42 9a 94 3c 7e 22 33 3d 18 25 e3 bd 39 0a f9 bd
       0.018139962 0.043734066 -0.110910594 -0.12160153
0000f0 44 17 06 be d0 50 9f 3e 0d ae 9e be 91 e7 d0 bd
       -0.13094813 0.31116343 -0.30992165 -0.10200418
000100 74 06 a1 be 07 35 22 3e ee 6f c6 bf f7 75 ac 3d
       -0.31450236 0.15840541 -1.5502908 0.084209375
000110 b6 24 80 3d 9a 7e 17 3f fb 49 55 bd a0 03 c8 be
       0.06257002 0.59177554 -0.052072506 -0.39065266
000120 9c 02 bc be bb db 44 3e d0 57 a6 be d8 34 25 3e
       -0.3672074 0.19224446 -0.3248887 0.1613344
000130 fd c8 ff 3e 61 8c 8e 3d 1c 68 80 3e d0 b7 72 3e
       0.4995803 0.06960369 0.2507943 0.23702931
000140 13 7b ff be 91 6e 9a 3e d4 f6 4a 3d 42 02 05 be
       -0.49898586 0.3016248 0.0495518 -0.12989143
000150 85 09 92 3e 9d f3 05 3e 44 81 65 3f 3b 99 2d 3e
       0.28522888 0.13081212 0.8965037 0.16952984
000160 4b 16 8d 3e d5 0b 55 3e 71 b4 ec 3e 20 a0 51 3e
       0.2755607 0.20805295 0.46231416 0.20471239
000170 65 88 40 3e 8f b0 c9 3f 07 9e 75 bf 51 a2 b4 3e
       0.1880203 1.5757006 -0.95944256 0.35280088
000180 99 df 34 3d 46 c4 97 3e a2 be 14 bf 08 0a 11 be
       0.04415855 0.29641932 -0.5810338 -0.14163983
000190 dd a1 a1 3d 49 55 b3 3e 26 ae 26 3d 2e 4c 26 be
       0.07892201 0.35026005 0.040693425 -0.16239998
0001a0 3f 5a bd be 19 e2 b3 3d d5 39 0b be e9 4d 52 be
       -0.36982915 0.08783359 -0.1359628 -0.20537533
0001b0 ff a8 88 3e 3b 7e fa 3b e2 87 f9 bb 15 c1 e7 3e
       0.26691434 0.0076444424 -0.0076150754 0.45264497
0001c0 60 aa bc 3c e3 9c 46 3e e2 d6 86 be 66 90 0c 3d
       0.02303046 0.19395785 -0.26335818 0.034317397
0001d0 8f 51 a0 bd e3 7b d0 3e ec 2e 44 3e da 00 c0 3e
       -0.07828056 0.40719518 0.19158524 0.3750065
0001e0 0b 2a 56 3e 31 51 4c 3d 7b 9e cd 3d 87 d4 2e 3e
       0.20914476 0.049882118 0.100399934 0.1707326
0001f0 37 31 fe 3c c5 a5 96 3d 0b 3e e1 be 42 1e c6 3e
       0.031029327 0.07355837 -0.43992648 0.3869496
000200 09 06 06 bf 26 57 2f be 7b 77 a0 be 59 3c 9b 3e
       -0.5235296 -0.17123088 -0.31341156 0.3031948
000210 92 b1 d3 3d aa bc 1e 3e a5 c0 4f bc 89 68 74 be
       0.10336603 0.15501657 -0.012680207 -0.23868002
000220 4a 52 6e bc 93 58 d5 3c 61 66 4c bd 94 15 10 3f
       -0.014545986 0.026043212 -0.049902324 0.56282926
000230 9f 93 a6 3e f7 fa 06 3f ec b2 3f 3d 21 c3 45 be
       0.325345 0.5272669 0.046801493 -0.19312717
000240 a7 a5 d7 be d3 a9 d5 be e0 97 a8 3d 2e f9 80 be
       -0.4211857 -0.41731128 0.08232093 -0.2519011
000250 92 77 6b bd 84 02 8d be 2b 7f 23 3e 03 0f 28 be
       -0.057487078 -0.27540982 0.1596648 -0.16411977
000260 00 ac 09 3e d7 b4 0d 3f 50 dc 78 bd 4a bd 80 bb
       0.13444519 0.55354065 -0.06075698 -0.003928815
000270 07 82 e0 bd a5 9c 90 3e df e4 20 be a6 e9 a2 3e
       -0.10962301 0.2824451 -0.15712307 0.31818885
000280 b3 dc c8 bd 14 cb 17 be d1 23 be 3a d8 94 8d be
       -0.0980772 -0.14823562 0.0014506524 -0.2765262
000290 57 7f 8b 3e ef 78 78 be 3b 02 89 be 66 bc a0 3e
       0.2724559 -0.24264883 -0.26759514 0.31393737
0002a0 38 8b 06 bd f0 e0 e1 ba 7a 7c f6 3d d1 be d8 3c
       -0.032847613 -0.0017233174 0.12035461 0.026458176
0002b0 29 9a 65 3e ab 28 12 3d 43 67 75 3d f9 40 28 3b
       0.22422089 0.035683315 0.05991293 0.0025673492
0002c0 20 32 6f bd 22 c6 ee bd 99 7d f3 3e 9c 9b 2b bd
       -0.058397412 -0.116588846 0.4755676 -0.041896448
0002d0 65 6e 33 bc 26 d3 8e 3b 36 a9 56 3e 88 e2 fb bc
       -0.010951613 0.004358667 0.20962986 -0.030747667
0002e0 f5 b0 b3 bb 81 fd 80 3d e4 22 cc bd 94 fc 75 be
       -0.0054837414 0.06298352 -0.09967592 -0.24022132
0002f0 26 2a 0e bf f6 c4 37 3e 91 bb c9 3d 55 a6 30 3e
       -0.55533063 0.17946228 0.098502286 0.1725095
000300 73 bb 13 be f2 b9 48 bd 9c 9a ac bd 94 27 01 be
       -0.14426975 -0.049005456 -0.08427927 -0.12612754
000310 20 bc 09 be 57 d5 e8 3d 7b f8 f8 be cb fb 91 3e
       -0.1345067 0.11368816 -0.48627076 0.28512415
000320 4f 65 9c bc fe 78 a3 3e a4 1e 24 bf 98 bc 4a be
       -0.019091276 0.31928247 -0.64109254 -0.19798505
000330 2b f7 62 bc 94 0c 54 3d ad be 4e 3e 00 d1 3a 3e
       -0.013852875 0.051769808 0.20189925 0.1824379
000340 2a 8f c7 3c 0d b2 b1 bc a5 47 ce 3e 79 25 99 3d
       0.024360258 -0.021691347 0.40289035 0.074778505
000350 96 72 1a 3d 5d 97 92 3d 02 2e a2 3d 03 ff 75 bd
       0.037706934 0.071577765 0.079189315 -0.06005765
000360 fb 49 43 be 99 fa 3c 3d df 60 bb 3b 61 f0 f0 be
       -0.1907119 0.046137426 0.005718335 -0.47058395
000370 11 fe 5a be ea 4c 83 3e 5a 8f d5 bd 21 2e 20 3d
       -0.21385981 0.25644618 -0.10427733 0.039106492
000380 00 d7 b3 be a1 3c 18 3e 36 e8 2b bf 69 19 1a 3e
       -0.3512497 0.14866878 -0.671512 0.15048756
000390 5d 36 c4 bd 33 39 60 3d 8b 54 d7 3c 14 e1 2b 3e
       -0.095806815 0.05474205 0.02628543 0.16785079
0003a0 b3 a4 95 3d 29 b0 31 3e 33 9c be 3d 6e e3 e5 bd
       0.073068045 0.17352356 0.093071364 -0.112250194
0003b0 1d 17 93 3e 3a 41 b6 bd 8d 1c 55 be 6a fa d9 3e
       0.28728572 -0.0889916 -0.20811673 0.42573863
0003c0 eb 15 8b 3c 74 df 07 3e f0 07 32 bb 03 00 72 3d
       0.016978225 0.13268834 -0.0027165376 0.059082042
0003d0 2d 52 71 3e b4 b0 5f 3d 64 57 34 3f 0b 75 86 bd
       0.23566504 0.054611877 0.7044585 -0.06565293
0003e0 70 35 4b 3e bc 83 2a 3e ec 6a 6c 3e 55 9a b8 3e
       0.19844604 0.16651815 0.23087662 0.36055246
0003f0 1a 03 1d 3e 7b 6b e2 3e f9 87 0a bf 9f aa 41 be
       0.15333214 0.44222626 -0.5411373 -0.18912743

predictionFunction.startBlock.0.bias f4 [64]
000000 56 f7 56 bd 1c ed 4f be 05 ae 6c be 28 70 34 3d
       -0.05248197 -0.20305294 -0.23113258 0.044052273
000010 32 9a 5e be 66 08 e0 3c 73 32 25 3d f3 31 b0 bd
       -0.21738508 0.027347755 0.040331315 -0.08603277
000020 d3 74 38 3e bb 4f cd 3d 71 a0 6b be be 9d 1d be
       0.18013315 0.10024973 -0.23010422 -0.15392205
000030 af 38 f9 bd 85 4d 17 be 36 d1 a8 bd b7 9b d1 bd
       -0.12169015 -0.14775665 -0.08243029 -0.102347784
000040 a2 a5 14 be 8f 80 fc 3d 8e a0 7d be c8 c5 81 3c
       -0.14516309 0.12329208 -0.24768278 0.01584138
000050 fa eb 82 be 43 61 b8 bd f2 76 6b bd 79 4e 8e bd
       -0.2557066 -0.09002926 -0.057486482 -0.06948561
000060 79 32 14 bd a6 8c fb bc fe 46 65 3d 93 b7 da bd
       -0.036180947 -0.030706715 0.055975907 -0.10679545
000070 c5 7e 72 bd 75 6c 51 be d0 5b 1f bd 37 df 60 be
       -0.059202928 -0.2045153 -0.03890592 -0.2196015
000080 a3 ca b1 3c 4f 2b 5a be 54 8c 5c be f7 51 80 3c
       0.02170307 -0.21305583 -0.21537906 0.015664084
000090 65 10 f7 bd a2 8f 00 be e0 20 d6 bd 4e 85 d6 bd
       -0.12063674 -0.12554792 -0.10455489 -0.104746446
0000a0 48 e0 e9 bd 4c a1 07 be 40 3d 82 be d4 72 be bd
       -0.114197314 -0.13245124 -0.25437355 -0.092992455
0000b0 d0 bc 3f 3c 32 a3 67 be 53 ef 8a 3c ab fc 13 be
       0.011702731 -0.22620848 0.016959822 -0.14451854
0000c0 af cc dd 3c ae 81 ff 3d 52 0a b2 bd c0 45 c0 bc
       0.02707514 0.12475906 -0.08693375 -0.02347076
0000d0 4a 64 29 be ca af 94 bd da b0 35 be 93 b6 00 3e
       -0.16542163 -0.072600916 -0.17743245 0.12569647
0000e0 7e 33 59 bd 71 ff 55 3d 7a 6e ee bd e3 f9 86 bc
       -0.053027622 0.05224556 -0.116421655 -0.016476577
0000f0 4f c8 fe 3d 6e 3c 2d 3e 7c 20 ff bd 2c 8b 9a 3d
       0.124405496 0.16917583 -0.12457368 0.07546076

predictionFunction.startBlock.2.weight f4 [64, 64]
000000 31 6f 1c be d4 a7 2f 3c d9 b9 89 3e c3 e1 df bd
       -0.15276791 0.010721166 0.26899603 -0.109317325
000010 a0 e8 1c be d1 d3 ab be 1e 6f 8b 3e 0e c6 41 3e
       -0.15323114 -0.3356004 0.27233213 0.18923208
000020 ab 52 1a bf 7a 6f 8c be cc 06 05 be 65 b2 e5 bc
       -0.6028239 -0.274288 -0.12990874 -0.028039167
000030 29 33 75 3e dc 13 e8 3e a1 d9 ac 3d 9c 16 df 3d
       0.23945297 0.45327652 0.08439947 0.10892984
000040 a1 8b 08 3e 50 75 23 be 69 e3 0a bf 5f 3d 99 be
       0.13334514 -0.1596272 -0.5425325 -0.29929635
000050 57 8e bd bd f7 bd 80 3d 33 2c 75 3e 9c 7f 30 3e
       -0.09255665 0.06286233 0.23942642 0.17236179
000060 08 f6 0d bf f6 2f 7a bd 8a 68 60 3f 36 75 20 bb
       -0.5545354 -0.061080895 0.87659514 -0.0024483926
000070 60 62 cb be 34 b9 91 3e a5 1f ed bd 7a a6 fc bd
       -0.39723492 0.2846161 -0.11578301 -0.123364404
000080 ff d7 4e be ec 8a 8c 3e 79 5b ad 3d 85 aa 51 be
       -0.20199583 0.2744974 0.08464713 -0.20475204
000090 35 67 0d be 87 c4 86 3d 84 7b 4e be 40 76 3d be
       -0.13808902 0.06580453 -0.20164305 -0.1850214
0000a0 ba 3d fc be 66 df 3d 3d 19 e2 25 3e dd 2c c5 bd
       -0.49265844 0.046355627 0.1619953 -0.096276976
0000b0 0f d0 56 bd e6 39 12 be 73 bd 58 be cf f5 be 3d
       -0.052444514 -0.14279899 -0.21166019 0.09324228
0000c0 33 34 57 be 52 08 07 bf 44 c0 93 be 6a d9 b8 be
       -0.21016006 -0.5274707 -0.28857625 -0.36103374
0000d0 96 4a 87 bd 87 f1 c3 bd 25 5d 0d 3f 71 ab d5 be
       -0.06606023 -0.09567552 0.5522025 -0.41732362
0000e0 6d 3e bb be 8f 64 38 bb a0 24 a3 bd 78 9a 86 3e
       -0.36571065 -0.002813611 -0.0796597 0.26289725
0000f0 35 e3 0b 3e 2f a1 15 be f8 fc 07 3e 82 02 1a be
       0.13660891 -0.14612268 0.13280094 -0.15040019
000100 b9 43 30 be 70 dd f1 3d 85 f0 78 3d 0b b0 67 be
       -0.17213334 0.11809814 0.060776252 -0.22625749
000110 bf 94 07 3f e9 36 9c bd 38 1e 5f 3e 05 dd ef 3d
       0.52961344 -0.07627661 0.21788871 0.11712078
000120 51 e5 fe be c0 d6 24 3e 4f 5a 01 3b ef 01 e4 3e
       -0.4978433 0.16097546 0.0019737666 0.44532725
000130 16 ae e7 3e 53 41 92 3e e4 b2 86 be 4f 40 c1 be
       0.45250005 0.28565463 -0.26308358 -0.37744376
000140 a2 e3 02 3f 20 b7 2b be 1f f1 f2 3d da 19 19 3c
       0.5112859 -0.16769075 0.118623964 0.009344542
000150 b0 dd 2d bd 45 18 08 be ed d6 4e 3a f1 98 4f 3e
       -0.042447746 -0.13290508 0.0007890303 0.20273186
000160 50 b9 3a be c6 c6 d1 be 7d 15 20 3e 90 c7 1a be
       -0.18234754 -0.40971965 0.15633197 -0.1511519
000170 77 95 cb be db be 08 bd 2a a7 19 be 43 f3 63 3d
       -0.3976247 -0.03338514 -0.15005174 0.055651914
000180 a6 d9 e8 be ba ef de bc 85 ae b7 3e b9 6e 07 be
       -0.45478553 -0.02721392 0.35875335 -0.13225831
000190 83 75 84 3e 58 d6 f9 be a9 f1 93 be be 95 c0 3c
       0.25870904 -0.48796344 -0.2889531 0.023508903
0001a0 97 59 3d 3e 48 37 a2 3c bd 74 eb 3c 15 05 27 3e
       0.18491207 0.01980175 0.028742189 0.16310532
0001b0 45 44 cb 3e 40 10 95 3d bb 99 be be 38 d3 57 bd
       0.39700523 0.0727849 -0.37226662 -0.05269167
0001c0 82 a1 8d be 68 02 68 be 5a 9f 40 be 46 64 34 be
       -0.27662283 -0.22657168 -0.18810788 -0.17616376
0001d0 57 ab be 3d 91 79 9b bd d9 c1 23 bf 0f 5e b1 be
       0.09310024 -0.07591546 -0.63967663 -0.34642074
0001e0 7a e3 ed 3d d2 5e 0a be cb 20 65 be d9 e9 0d 3f
       0.11615653 -0.13512734 -0.22375791 0.5543495
0001f0 52 83 95 3e 99 45 61 3d d6 16 54 3e af f2 1a be
       0.29201752 0.054998014 0.20711836 -0.15131639
000200 a0 f3 ba be 58 75 3b be ec 1a 8e 3e d8 b7 44 bd
       -0.36513996 -0.18306482 0.27754915 -0.04802689
000210 dc 56 74 be b0 f4 88 be df 37 94 3e b8 65 8e bc
       -0.23861259 -0.26749182 0.28948876 -0.017382488
000220 3f f9 77 bd c9 16 29 bf a8 cd 16 bd 72 2f 1f 3e
       -0.060540434 -0.6605039 -0.036817223 0.15545443
000230 c5 a7 ef 3d 5d 95 d1 3d 19 b2 30 be 5c ea f2 3c
       0.117019214 0.10233567 -0.17255439 0.029652767
000240 43 b2 ae 3c 02 44 4c 3d 40 e9 9c bd 12 38 a1 3c
       0.021325236 0.049869545 -0.076616764 0.019680057
000250 2b ab 27 3d 4e 6e 49 be 8f 45 c7 3d 50 87 e9 3c
       0.040934723 -0.19670984 0.09730064 0.028506905
000260 89 c5 f7 3d e7 60 93 be 3c e8 3f 3c 3c 51 1c 3d
       0.12098224 -0.28784868 0.011713084 0.03816341
000270 25 f7 98 be e5 cf 8f bd 48 ce f7 bd 74 06 05 3d
       -0.29876056 -0.070220746 -0.12099892 0.032476857
000280 20 e7 05 be 86 94 d4 bb 28 56 5e be 11 a9 9f 3c
       -0.13076448 -0.006487432 -0.21712554 0.019489797
000290 c5 33 87 3c f9 72 35 be 9b dc db 3c 8d 3b 97 bd
       0.016504178 -0.1771964 0.026838591 -0.07384405
0002a0 9b fc 2d 3c af 29 97 bd ea d1 bd bd 81 ef b8 be
       0.010619308 -0.073809974 -0.092685536 -0.36120227
0002b0 38 44 3e 3d b9 a2 2d be a1 cc 13 be 9d 86 54 be
       0.046451777 -0.16956605 -0.14433528 -0.20754476
0002c0 24 9c 37 be bf a9 8f be 41 0f 1a 3e b8 35 d8 3d
       -0.17930657 -0.28059193 0.15044881 0.10557121
0002d0 23 69 af bd 20 ef 00 37 6f 8d a4 3b 5b 0e aa 3b
       -0.08564975 7.68507e-06 0.005021743 0.0051896996
0002e0 5e 22 cc 3d b2 33 8c be 1b 53 63 be 1a 99 43 be
       0.099674925 -0.2738319 -0.22199671 -0.19101372
0002f0 fb b2 e0 bc 87 94 14 be eb b4 29 be b1 f8 32 3e
       -0.027429095 -0.14509784 -0.16572921 0.1747768
000300 8d d4 1c bf 4e ee c5 3d 0d 03 a9 3d 7a b2 16 3e
       -0.61261827 0.09664594 0.08252535 0.14716521
000310 73 dc ab 3d 60 63 3f 3d ac 0b f2 bc 9c 1c 45 3e
       0.08391657 0.04672563 -0.029546581 0.19249195
000320 d7 a4 16 bf d9 19 3c 3e eb 33 ff bd 87 f4 0e bd
       -0.58845276 0.18369235 -0.124610744 -0.03490117
000330 3e 3d 46 3e a2 3b b3 bd 84 b5 0d bd 2f 4c 59 bd
       0.193593 -0.087516084 -0.034596935 -0.05305117
000340 b4 f1 97 3d db 3b dc bd 70 68 c8 bd f1 2c 00 be
       0.07419148 -0.10753604 -0.09785545 -0.12517144
000350 75 aa a1 bd cf 8b af be 4a 97 ff bd 32 c9 b0 3d
       -0.0789384 -0.34286353 -0.12480028 0.08632125
000360 71 bc d0 bd f8 9b 18 be 95 a8 09 3d 32 92 60 be
       -0.10192192 -0.14903247 0.033608038 -0.21930769
000370 ca ba 5c 3e 1b 06 35 bb e5 58 81 3e 19 c5 03 be
       0.2155563 -0.0027622047 0.25263134 -0.12868156
000380 b3 4a e6 3d 57 40 e3 3d 0b ca ca 3c 03 67 7f be
       0.112447165 0.11096256 0.024754545 -0.2494164
000390 ab e6 8f 3e 2a e4 cf bd 7b 76 5b bf b1 22 7b 3d
       0.28105673 -0.10150941 -0.8572766 0.06131238
0003a0 7a 70 13 3f 5c 97 3a be 57 c9 d2 3c 4d ef f8 3e
       0.575935 -0.18221802 0.025730772 0.48620072
0003b0 9d 32 22 3e 8c 62 d7 3e 50 fb cc bc 66 0a 09 bf
       0.1583962 0.42067373 -0.025022179 -0.5353149
0003c0 91 6e 15 3e 7f fa d4 bf 0a 9e 8b 3c 4a ef 22 be
       0.14592959 -1.6638945 0.017043132 -0.15911594
0003d0 fe 83 b0 3e fa 28 dc 3d 6c 1b aa 3d c7 6f 19 3d
       0.34475702 0.10750003 0.083060116 0.037460115
0003e0 08 e8 9c be 13 d0 10 3e 92 7b 09 be e5 2d 7a be
       -0.30645776 0.14141874 -0.13426045 -0.2443157
0003f0 92 06 b3 be 3e 3d 14 be 33 75 03 3e f6 c4 b0 3c
       -0.3496595 -0.14476487 0.12837677 0.021578293

predictionFunction.startBlock.2.bias f4 [64]
000000 68 63 13 be 5e 08 6f be 82 34 97 bc 93 ea b6 3d
       -0.14393389 -0.23343036 -0.018457655 0.0893146
000010 e9 a1 83 be 53 7f 41 be d3 88 12 bd 01 7b a4 be
       -0.25709465 -0.18896227 -0.035775017 -0.32125095
000020 1d c5 0d be 09 4c ae bc 43 e6 29 be 78 77 53 3d
       -0.13844724 -0.02127649 -0.16591744 0.051627606
000030 69 23 0a 3e ee a8 08 3e 6c 69 5b 3e d7 cc 40 bd
       0.1349007 0.13345692 0.21426934 -0.04707035
000040 3b 76 a2 bd bd d5 14 be d7 97 c5 be f6 63 59 3d
       -0.07932707 -0.1453466 -0.38592407 0.053073846
000050 62 1b d4 3c 5a 9e e1 bd c2 eb ab bd 69 4d d8 3d
       0.025891963 -0.11016531 -0.083945766 0.1056164
000060 b8 53 c1 bd e0 33 02 be 78 68 4b bd b7 d0 1a be
       -0.09439796 -0.12715101 -0.049660176 -0.15118681
000070 ca 49 f3 bd 3e 2d c0 3d d9 a3 01 be 2a e1 42 3a
       -0.118793085 0.09383629 -0.12660159 0.0007434065
000080 dd 14 06 be fb 9f 7e 3c e7 5c 72 3c 98 95 e6 ba
       -0.13093896 0.015541072 0.014792657 -0.001759219
000090 ee 22 59 bd 9f 27 09 be 37 06 d4 bd 97 b0 a6 3c
       -0.053011827 -0.1339402 -0.10352748 0.020347876
0000a0 48 b7 63 be b4 61 40 3e 86 db 2b 3e b0 1a 0f be
       -0.22237885 0.18787271 0.1678296 -0.13975024
0000b0 03 cb d2 3d 66 61 e9 bd cf 8c c7 3d 04 43 de be
       0.10292628 -0.113955304 0.09743654 -0.43410504
0000c0 4b 7e 86 bd fa d0 47 be d6 05 18 bd 77 2e 97 bc
       -0.06567057 -0.19513312 -0.03711494 -0.018454773
0000d0 fb 55 32 3e 93 ad 26 be 1e 90 68 be 24 91 c5 3e
       0.17415611 -0.16277151 -0.22711226 0.38587296
0000e0 3d 7f 08 3d 7a b9 11 be 24 95 00 3e c7 fd 1e 3e
       0.03332447 -0.1423091 0.12556893 0.15526496
0000f0 85 ea 31 3e 78 ea 0a 3e c3 ef 9a bd 9a f0 74 bd
       0.17374618 0.13566005 -0.07565262 -0.059799768

predictionFunction.policy_head.0.weight f4 [2, 64]
000000 eb 7f 09 be 4f 1f 16 bd e6 51 5f bc 81 f0 b6 3d
       -0.13427703 -0.036650952 -0.013630366 0.08932591
000010 b4 64 b1 be d9 e9 48 3d ed 46 f2 3d 34 bb f1 3e
       -0.34647143 0.04905114 0.11829934 0.47213137
000020 ef 12 d5 3d 73 45 f3 3c 3d bb a5 3d ca 30 f0 3c
       0.10404002 0.029696202 0.080923535 0.02932014
000030 88 0d 51 3c 07 f6 bf bd 3a ed 9e 3b ec c2 99 bc
       0.012759574 -0.09373098 0.004850057 -0.018769704
000040 8d 0f a7 be 95 37 b9 3d 61 de c2 be 1a 27 02 be
       -0.32629052 0.090438046 -0.38060287 -0.12710229
000050 59 b0 74 3d 50 9f f4 3d 01 db 43 3d 95 6f e9 3d
       0.05973849 0.11944449 0.04781628 0.11398236
000060 c9 9b 9d 3d b5 6e 07 be d6 76 c6 3d 5d 55 a5 be
       0.07695729 -0.13225825 0.09690635 -0.3229169
000070 3d 5d 63 3c 97 be da bd 72 f6 71 3b 3b a4 f7 3d
       0.01387721 -0.106808834 0.0036920574 0.12091871
000080 71 1b 6d 3d 88 11 e0 bc 0b a1 8d be 8f 31 86 bd
       0.0578875 -0.02735211 -0.2766193 -0.06552421
000090 d6 4a a8 bd 6b e8 9e 3e 47 f7 80 3d 7d 75 a6 3c
       -0.08217399 0.31036696 0.062971644 0.020319695
0000a0 7a 7b 3e 3f ba a9 8f 3e 8f 23 32 3d 9c 0b c6 be
       0.7440716 0.2805918 0.043490943 -0.38680732
0000b0 ce 0b b5 bd 73 17 27 bd a6 3d 4f be 1a 8c 3e 3e
       -0.08840142 -0.040793847 -0.20238361 0.18608132
0000c0 4b bc d8 3e 2c 9a 9b 3e ea cf 22 be 19 fe c5 3d
       0.42331156 0.3039106 -0.15899625 0.09667606
0000d0 db d0 a9 bd ab 7c e3 3d 0c 70 9c 3e b2 02 1a bd
       -0.08291789 0.11107763 0.30554235 -0.037600227
0000e0 9b 59 af 3d ad cc a2 3c 21 5f 28 3d 9e 95 34 be
       0.08562013 0.019872988 0.041106347 -0.176352
0000f0 ae c6 69 3d 43 bb 02 3c 8d f2 ac 3d fb 1d a9 3d
       0.05707424 0.007979217 0.084447004 0.082576714
000100 9d 6d 26 3e b9 89 1b be 48 15 8b 3c 4f 4b ea bd
       0.16252752 -0.15189256 0.016977921 -0.11440145
000110 91 33 0d 3e ae cc b8 3d 8d c0 8e 3d 6b 76 b6 be
       0.13789202 0.090234146 0.0697032 -0.3563722
000120 75 63 8b bd f9 28 fb bc 99 f4 e1 bb 6a d9 90 bc
       -0.06806079 -0.030659186 -0.0068956134 -0.017681796
000130 16 25 eb 3d df c4 03 3e c0 89 c9 3c c5 c9 f4 3d
       0.11481683 0.12868069 0.024601817 0.11952547
000140 e7 67 be 3e be 9a 87 be 04 de bd 3e e5 2e bc 3c
       0.37188646 -0.26485246 0.37083447 0.02297158
000150 72 89 52 3d fc 56 95 bb 65 d7 52 bd eb 11 db bd
       0.05140061 -0.0045574885 -0.051474947 -0.10696777
000160 41 f5 c5 3d af d3 04 3e e8 91 26 3d 2f 4d a3 3e
       0.09665919 0.12971376 0.04066649 0.31894824
000170 75 51 48 3d 2a dc 23 3e c1 66 c2 3d 90 c5 10 bd
       0.04890581 0.16001955 0.09492255 -0.03534466
000180 f6 4b 0e be 97 07 b6 bd c4 05 95 3e 5a 4f 90 3c
       -0.13896164 -0.088881664 0.2910596 0.017615963
000190 dd c2 88 3c 6f 03 8e be 11 83 3d 3d 76 7d ee 3d
       0.01669448 -0.27736995 0.046267573 0.116450235
0001a0 13 7b 3e bf 94 0a 4a be 4f 16 22 3d 33 56 9e 3e
       -0.74406546 -0.19730598 0.039572056 0.3092514
0001b0 3a 9b 97 bd ec 64 d9 bc 5c 54 cc 3d 0b 7b 5f be
       -0.07402654 -0.026537381 0.09977028 -0.21824281
0001c0 fb 3f fc be 3d 55 88 be e1 88 0b 3e 72 7d 48 bd
       -0.49267563 -0.26627532 0.13626434 -0.04894776
0001d0 0b bf e9 bc d1 d7 ab 3d bc d9 73 be 74 db 48 3c
       -0.02853348 0.08390773 -0.23813528 0.012259353
0001e0 7e d6 db 3b 85 2c 30 be 43 f3 42 be cb 8c 1d 3c
       0.006708919 -0.17204483 -0.1903811 0.009616087
0001f0 38 76 8b 3d 24 ab 59 3e b6 d2 db bd ce 17 0e 3d
       0.06809658 0.21256691 -0.10733549 0.03469067

predictionFunction.policy_head.0.bias f4 [2]
000000 cd 32 99 bc da 0c 97 3b
       -0.018700982 0.0046096863

predictionFunction.value_head.0.weight f4 [64, 64]
000000 ac b8 99 bd 33 ba ac bc a3 0e 0a bc f5 e6 6a 3d
       -0.075059265 -0.02108488 -0.008426341 0.057349164
000010 09 0f 07 3d 99 e3 5f bd df 56 61 3d 11 34 9c bd
       0.032973323 -0.054660413 0.055014487 -0.076271184
000020 a7 f8 69 bd c3 b8 0f be 27 f2 13 3d e6 38 0a bd
       -0.0571219 -0.14035325 0.036119606 -0.03374567
000030 6c d7 d4 bd a4 9e eb bd 6b a8 90 bd 5f 31 cc bd
       -0.10392651 -0.11504868 -0.07063373 -0.09970354
000040 84 a5 50 bd fd 99 d8 bd 6a 51 b9 bd 8f d8 0a 3d
       -0.050939098 -0.10576246 -0.090487316 0.033897933
000050 73 2d a2 bd 00 67 50 3d d0 7b 0b 3c 88 f3 9c bd
       -0.07918825 0.05087948 0.008513406 -0.076636374
000060 0b 5f ad 3c 40 0a 9c 3d 1e b4 73 bc 90 03 5e 3c
       0.021163484 0.076191425 -0.014874486 0.013550654
000070 20 cd cf 3d 42 67 3c bd 20 14 e1 3c 0a 19 52 3d
       0.10146546 -0.04599691 0.027475417 0.05129341
000080 3e bc 12 be 7e 29 97 3d c3 84 ca bd a0 60 d2 bb
       -0.14329621 0.07380961 -0.098886035 -0.00642021
000090 4a 7a ba bd cc 15 ce 3c ac e6 cd bd cb fd 99 bd
       -0.09105356 0.025156878 -0.10053763 -0.0751911
0000a0 80 ed b0 3c 97 9f be bd 3d 80 ef bc 0b 83 98 3d
       0.021597624 -0.09307783 -0.029235953 0.074468695
0000b0 7e 39 22 be 16 57 a6 bd fe 1f f0 bd 0b 23 ab 3d
       -0.15842244 -0.08122079 -0.11724852 0.08356293
0000c0 a7 15 9a 3b 12 ca d6 bd 29 6a 0f be 38 4d 84 3d
       0.004702288 -0.104877606 -0.1400534 0.06460041
0000d0 ab b4 55 3d 9c 88 dc bd f5 58 ca bb c8 24 7a bd
       0.05217425 -0.10768244 -0.0061751553 -0.061070234
0000e0 ff c1 82 3c 08 c1 f0 bd a4 88 04 3d 1f 4e a4 3d
       0.015961645 -0.11755568 0.032356873 0.08022713
0000f0 32 04 b4 3b 13 c1 99 bd 2c 04 5e bc 04 eb 5c 3d
       0.005493664 -0.07507529 -0.013550799 0.053935066
000100 c1 74 20 be f0 c8 fb bd 40 ff d4 bd 9c d3 51 3c
       -0.15669538 -0.12294185 -0.104002476 0.012806799
000110 42 17 14 be f2 06 55 bd 85 86 64 bd d3 d1 cb be
       -0.14461997 -0.052008577 -0.05579235 -0.3980852
000120 3d 82 50 3d af c9 1d 3d 53 b3 02 be e8 bd 94 bd
       0.050905455 0.03852242 -0.1276372 -0.07262784
000130 d2 77 c3 bd f9 f2 27 be a0 00 ff bd 8d 3f 63 bd
       -0.09544338 -0.1640128 -0.12451291 -0.05548053
000140 d8 f9 92 be 10 b8 c9 be 52 8d ad bd c6 31 63 bb
       -0.2870624 -0.3939824 -0.0847422 -0.0034667118
000150 7e 53 0d bb 7c d6 2f 3d e8 59 2e bd fa 01 c7 bd
       -0.0021564658 0.042929158 -0.04256621 -0.09717174
000160 ed 34 d8 3e f7 7f 7a 3e c9 c4 88 3d d0 95 ad bc
       0.4222788 0.24462877 0.06678159 -0.0211896
000170 5c f0 e4 3d 00 09 29 be 2f 55 25 be a7 e5 20 bd
       0.111786574 -0.1650734 -0.16145776 -0.039281514
000180 ba ce f2 be 05 95 6f be e3 c7 d1 bd 70 39 f4 3c
       -0.47423345 -0.2339669 -0.102432035 0.029812545
000190 3b 89 e9 3d 64 be 88 3b cf 33 8b 3c 07 53 54 3e
       0.11403128 0.004173087 0.016992478 0.20734797
0001a0 15 af 5c be 31 32 75 bd 2a 2d bd bd ad 30 bc be
       -0.21551163 -0.05986232 -0.0923713 -0.36755887
0001b0 51 8a c1 be 5a 4c eb 3d 3c ea 42 be 75 c8 18 be
       -0.3780084 0.11489172 -0.19034666 -0.14920218
0001c0 6a 6f 63 3e 9a d8 52 bd dc 50 bf bd da e5 82 3d
       0.2221047 -0.0514761 -0.093415946 0.06391497
0001d0 1f 2a 95 bd c6 99 b0 be 2e 97 c3 bd f7 b5 79 3e
       -0.072834246 -0.3449232 -0.095503196 0.2438582
0001e0 6b 8d f8 bc cc 31 e2 bb 32 da 2b 3e 40 23 60 3d
       -0.03034087 -0.006902909 0.16782454 0.054721117
0001f0 dd d6 e3 bd 94 1d 0f 3e eb 8c 70 be 30 5f 97 bd
       -0.11124966 0.13976127 -0.23491256 -0.073912024
000200 cc 44 11 3d ca 32 8f 3d c0 90 03 3e f5 60 c4 bd
       0.035466 0.06992109 0.12848186 -0.095888056
000210 50 3c f4 bd 42 8d a2 bd ba 08 98 3d dc 8e 1b be
       -0.11925566 -0.07937099 0.074235395 -0.15191215
000220 07 25 78 bd 32 7e 3e 3e 90 2e 29 3d 7d dd 21 be
       -0.060582187 0.18602827 0.04130417 -0.15807147
000230 eb ef 0f be 19 13 c5 bc 3b 54 a7 bc 04 29 e7 bd
       -0.14056365 -0.024056958 -0.020425906 -0.1128712
000240 aa 23 ce bd 55 e9 74 be ad 12 b8 bd 01 da a2 3c
       -0.10065396 -0.23917134 -0.08987937 0.019879343
000250 f4 de 76 bd 88 22 97 bd cb e4 b8 bd 12 07 39 be
       -0.06027122 -0.07379633 -0.09028014 -0.18069103
000260 36 ce 90 3e f4 d9 df bd b0 a2 2c 3c 5a bb 6f 3d
       0.28282326 -0.10930243 0.010536835 0.05852828
000270 ad b5 11 3e a6 6d 80 be ad 7f 47 bd bf d4 f0 bc
       0.1422946 -0.25083655 -0.048705745 -0.02939832
000280 93 93 50 be cf fa 8e be f6 de 03 be 4c 5d e4 bd
       -0.20368795 -0.27925727 -0.12878022 -0.111506075
000290 3d f8 25 bc 3b ee 87 bc d8 7d 1e be 67 9a 12 3e
       -0.010129985 -0.01659309 -0.15477693 0.14316712
0002a0 73 3b b6 3d 43 33 a0 bc 45 31 5d bd 07 58 89 be
       0.08898058 -0.019555693 -0.054002065 -0.26824972
0002b0 d2 b2 a8 be e8 85 ec bd 75 9a 4b bd 45 24 5d be
       -0.3294893 -0.11548978 -0.04970785 -0.21595867
0002c0 cf 53 8c bd be 53 1d 3e 22 64 05 be 5b bf 3d bc
       -0.06851923 0.15363976 -0.13026479 -0.011581267
0002d0 41 7f aa bd 83 00 75 be 9a 87 93 bd c5 94 c6 bd
       -0.08325053 -0.23925976 -0.07203598 -0.09696344
0002e0 83 01 a1 3d 01 56 38 bc 77 02 18 3e 50 27 bb 3d
       0.078616165 -0.011250974 0.1484469 0.09138358
0002f0 5c f9 9f 3c 22 af 1b be 16 c5 41 be da 81 9a 3d
       0.019528084 -0.15203527 -0.18922839 0.075442985
000300 57 69 bd 3e 22 3c 9a 3d 25 db 9e 3c 5f 6c 9f be
       0.3699443 0.07531001 0.019391606 -0.31137368
000310 5f 2b a2 3e fd 84 27 3e a6 0e f3 bd b3 38 66 bd
       0.31673715 0.16359325 -0.11868028 -0.056206416
000320 01 2b a5 be 48 ed ae 3d d0 9c 5f bd 9d 6a 9e be
       -0.32259372 0.085413516 -0.054592907 -0.30940714
000330 a9 d7 98 be 2a 5e 7f 3d 35 9f 3d be 65 66 c1 bd
       -0.29852036 0.06234566 -0.18517764 -0.09443358
000340 0b c4 3d 3f 53 cd e7 3d f8 90 c0 bc 28 dd d6 be
       0.7412726 0.11318459 -0.023506626 -0.41965604
000350 8f 0f a3 bd e0 3b 2c bd d5 2d da bd 6d 7d 8b be
       -0.07961952 -0.04204929 -0.10653273 -0.2724413
000360 a9 82 b1 bd dd 36 54 3c bd d2 a3 bc c5 e3 ff bd
       -0.086674996 0.012952534 -0.019997949 -0.124946155
000370 4e 11 c2 bd 83 0c 17 3e ce 7f d1 3d 89 e3 ac be
       -0.09475957 0.14750867 0.10229455 -0.33767346
000380 e8 99 91 3e a8 7b 18 bf 4c 92 3a 3e c2 cb 11 bd
       0.28437734 -0.59563684 0.1821987 -0.03559471
000390 2c bc 19 3d 56 65 85 3d 94 00 b2 bd 2d 0a 20 bd
       0.03753297 0.06513469 -0.086915165 -0.039072204
0003a0 19 cf 5a 3e 8d 3a e0 bd d1 83 52 3c 77 60 b7 bd
       0.21368064 -0.10948668 0.01284881 -0.08953946
0003b0 a7 ff e5 3d 1e 58 99 3d 84 31 88 be 20 39 36 be
       0.112304024 0.0748751 -0.26600277 -0.17795229
0003c0 3d f8 87 be 6f 92 f7 bd 91 94 6f 3d 00 62 cd bd
       -0.26556578 -0.12088477 0.058491293 -0.10028458
0003d0 6a 70 73 be 44 69 c5 be 6d 84 13 3e 69 c3 4c be
       -0.23773351 -0.38556874 0.14405985 -0.19996418
0003e0 5b 50 69 3d 8a 48 22 3e e6 d7 0e 3d d4 a0 2a be
       0.0569614 0.15847984 0.034873866 -0.16662914
0003f0 40 8d 1c bc fb ae 22 be bc 51 67 3e 9d a3 a4 bd
       -0.009555161 -0.15887062 0.22589773 -0.08039019

predictionFunction.value_head.0.bias f4 [64]
000000 f7 ad 14 be 6f 67 de bd 59 13 9f bb 23 25 6d be
       -0.14519487 -0.10859572 -0.0048546013 -0.23158698
000010 f9 80 ae 3c 90 1f 9e bd fd 24 11 3d 6d 2b 68 be
       0.021301733 -0.07720864 0.035435665 -0.22672816
000020 dc c4 29 3e d0 42 fc ba aa f0 9f bd 61 df e9 bd
       0.16579002 -0.0019245986 -0.07809575 -0.11419559
000030 b2 c9 45 bd d5 41 44 be 7f 84 3f be bf f2 7b be
       -0.048288055 -0.19165738 -0.18702887 -0.24604319
000040 9b 45 f3 bc 64 99 8e bd da 2d 67 bd 1e 8d ae 3e
       -0.029696276 -0.06962851 -0.05644021 0.3409204
000050 a0 b6 87 bd 16 55 20 be b8 8e 8e 3e 92 e7 45 be
       -0.0662663 -0.15657458 0.2784326 -0.19326618
000060 cf 69 00 bd c9 ba 33 be 28 d6 33 bd b3 73 b5 bc
       -0.031350907 -0.17551722 -0.043905407 -0.022149896
000070 0f 39 0a bd 87 82 f7 bc 53 39 39 3e 9a d6 05 3c
       -0.03374582 -0.030213607 0.18088274 0.008168841
000080 d4 1a 2f be 64 02 f6 3d 91 ff 93 3e 71 ca 04 be
       -0.17100078 0.12012175 0.2890592 -0.1296785
000090 18 25 5a be bf f9 cb bc 00 b3 7f bb 96 ed 23 be
       -0.21303213 -0.024899362 -0.0039016604 -0.160086
0000a0 41 f6 68 be ea b6 54 3d e9 d5 fd bd 12 29 ab bd
       -0.22750188 0.051932253 -0.12394316 -0.08357443
0000b0 b7 e9 cc 3d 38 f2 0f 3d fc c6 2e be 97 6f 01 be
       0.10005515 0.035143107 -0.17068094 -0.12640224
0000c0 f8 f2 cd 3c 4e e4 5b be ae 5c 37 bd ce 96 08 3d
       0.02514027 -0.2147381 -0.04476612 0.033346944
0000d0 99 f6 2b be 52 5e 2b 3d 0d 22 50 be f8 1d 8a 3e
       -0.16793288 0.041837998 -0.2032549 0.2697599
0000e0 1c 47 51 3a 4c dc 86 bd 28 a4 07 be 7f 5a 6b be
       0.00079833134 -0.06584987 -0.13246214 -0.2298374
0000f0 93 ea a4 3e 1f 55 05 3c 05 a8 77 3e 1e 92 9d be
       0.32210216 0.00813797 0.24185188 -0.3077554

predictionFunction.value_head.2.weight f4 [41, 64]
000000 47 72 9b bd 25 48 2d bf a2 c2 86 be 36 3f c6 be
       -0.07590156 -0.6768821 -0.26320368 -0.387201
000010 f3 6b 65 bf d6 d5 26 bf 98 84 81 bf 6a 97 45 bf
       -0.8961784 -0.6517004 -1.0118589 -0.77184165
000020 16 65 9a bf 34 31 67 be 80 af 0e 3d 51 38 14 be
       -1.2062099 -0.22577363 0.03483534 -0.14474608
000030 cb 80 df be ba c8 00 bf df d1 66 bf 87 a9 ed bf
       -0.4365295 -0.50306284 -0.9016399 -1.8567361
000040 d7 29 8e be d2 e8 64 be ac 7c 82 bf 8e 20 a9 bf
       -0.27766296 -0.22354439 -1.0194297 -1.321306
000050 1d f3 ea bd e0 b2 de be 2b 3d 9c bf 29 2c 6c bf
       -0.114721514 -0.43495846 -1.2206167 -0.92254883
000060 cc d3 16 bf 94 4a 9c 3d 8f e5 19 3b 93 62 3d bd
       -0.58916926 0.07631412 0.0023482775 -0.046236586
000070 e5 56 38 be 8e 25 44 bf c5 9b 87 bf a3 38 ac bf
       -0.18001898 -0.76619804 -1.0594412 -1.3454784
000080 50 18 a6 be 75 f9 63 be 34 d2 a5 bf 07 4f c7 be
       -0.32440424 -0.22263129 -1.2954774 -0.3892748
000090 10 cf ec be 93 1a a2 be c4 78 aa bf e4 54 8d be
       -0.46251726 -0.316609 -1.3318105 -0.2760383
0000a0 d0 90 92 be a4 9c 48 bf 53 2b bf bd 54 c1 11 bf
       -0.28626108 -0.78364015 -0.09334435 -0.5693562
0000b0 c3 b4 8a bf 44 95 6f bf e8 0a 1f be 9f 32 a7 3d
       -1.0836414 -0.93587136 -0.15531504 0.08163952
0000c0 8e d1 9d bd f9 72 62 bf 27 ab 0f bf b9 22 41 bf
       -0.07705985 -0.88456684 -0.5612053 -0.7544361
0000d0 bf 67 04 bd 04 83 4c bf e7 7a da be fe ed 87 bf
       -0.032325502 -0.79887414 -0.42671892 -1.0619504
0000e0 0d 10 6f bf 68 e2 2c bd ca 22 e9 bd e3 eb 91 bf
       -0.93383867 -0.042208105 -0.113835886 -1.1400112
0000f0 e9 b8 98 bf 83 09 99 be 38 f0 89 bf 4b 9e f3 be
       -1.193143 -0.2989007 -1.0776434 -0.47581705
000100 70 25 b1 bc ef a6 3e bf e7 0e ca bd e9 26 c0 be
       -0.021624297 -0.7447347 -0.09866124 -0.37529686
000110 b0 31 5f bf 79 03 36 bf b6 9e 68 bf 29 3e 2b bf
       -0.8718519 -0.7109905 -0.90867174 -0.66891724
000120 00 82 98 bf d3 be 9e be 3d 33 87 bd 9f 95 a0 be
       -1.1914673 -0.31004962 -0.0660157 -0.31364152
000130 ac 45 22 bf 4c c6 0a bf 7b 47 59 bf 2f 59 f2 bf
       -0.6338756 -0.54208827 -0.84874696 -1.8933467
000140 94 12 f2 bd 5e 84 3a be 58 b3 95 bf 3a fa 9e bf
       -0.1181995 -0.18214557 -1.1695356 -1.2420113
000150 a7 bc 8a bd 63 74 c7 be 62 09 a9 bf fa a4 6e bf
       -0.06774264 -0.38955984 -1.3205988 -0.93220484
000160 67 6a ed be e7 45 42 3d d8 78 10 bc 5b cb 7c 3c
       -0.4637024 0.047429945 -0.008817874 0.015429343
000170 23 7f 97 bd 9d ec 11 bf 34 34 84 bf 3b d5 9e bf
       -0.07397296 -0.5700167 -1.0328431 -1.2408823
000180 11 eb f9 bd 6f 0d 80 be 80 24 a7 bf 90 ab b4 be
       -0.122030385 -0.2501025 -1.3058014 -0.35287142
000190 23 f0 15 bf d5 8b db be 7d 54 9e bf 9c d6 14 be
       -0.58569545 -0.4288012 -1.2369534 -0.14534992
0001a0 32 36 2a be 41 64 1e bf 2d 2e 16 bd c4 57 21 bf
       -0.16622236 -0.61871725 -0.03666513 -0.63024545
0001b0 91 e1 85 bf a0 6a 85 bf 6a 1d f6 be e7 39 97 bd
       -1.0459462 -1.0423164 -0.48069316 -0.07384091
0001c0 2d 41 61 bd 43 82 86 bf 9c fc 04 bf 92 e4 30 bf
       -0.054993797 -1.0508503 -0.5194795 -0.6909877
0001d0 2e 52 b7 3c ed f3 12 bf 88 99 14 bf a6 a3 88 bf
       0.022378054 -0.5740345 -0.5804677 -1.0674942
0001e0 5a d4 6a bf ae ea 3e bd 77 aa 36 be 32 62 8c bf
       -0.9173027 -0.046610527 -0.17838465 -1.0967467
0001f0 75 e3 9e bf 5f 19 93 be 94 76 92 bf 17 4d c5 be
       -1.2413164 -0.28730294 -1.1442437 -0.38535377
000200 30 11 7a bd d4 7a 46 bf 3f aa 24 be 86 3b d2 be
       -0.061051548 -0.7753117 -0.16080569 -0.41061038
000210 1e 8c 7f bf 16 4e 2b bf 26 7c 80 bf ac 78 1e bf
       -0.99823177 -0.66916025 -1.0037887 -0.6190288
000220 d3 5f 93 bf 10 7b a0 be 96 cc 69 3d ca 7b 6a be
       -1.1513618 -0.3134389 0.057079874 -0.22898784
000230 c5 db 05 bf fe 7f f0 be c6 5d 81 bf 06 1e f5 bf
       -0.52288467 -0.4697265 -1.0106742 -1.9149787
000240 23 8a 90 be 7c 84 90 bd 1d 69 8a bf e9 e3 91 bf
       -0.2823039 -0.070565194 -1.0813328 -1.1397678
000250 10 f8 b6 3c 87 33 95 be 43 8f af bf ba 1b 77 bf
       0.022335082 -0.29140875 -1.3715595 -0.9652668
000260 d6 6c 06 bf 00 2e c1 3d a6 53 80 3c 4a 71 b0 bd
       -0.5250982 0.09432602 0.015664887 -0.08615358
000270 8c b8 2e be e4 ab 3f bf 8f 1a 8c bf 87 df 99 bf
       -0.17062587 -0.7487166 -1.0945605 -1.202134
000280 60 14 0c be de 2f c6 be c8 40 a8 bf 23 01 76 be
       -0.13679647 -0.38708395 -1.314477 -0.24023871
000290 1c 56 04 bf 4b 1e ca be 4d 7d a9 bf a1 de fb bd
       -0.5169389 -0.39476237 -1.3241364 -0.122983225
0002a0 4f 7c 3f be 2c 4c 32 bf e6 86 8c bd 12 c6 40 bf
       -0.18699764 -0.6964748 -0.06861667 -0.7530223
0002b0 00 e9 82 bf d7 37 86 bf ba e2 6a be b1 3c b5 3d
       -1.0227356 -1.0485791 -0.22938052 0.088494666
0002c0 a5 fb 16 be 8d 58 69 bf 7b ad 3d bf ee 5d 3a bf
       -0.14744432 -0.9115074 -0.74092835 -0.72799575
0002d0 5b 85 e3 3d c8 90 22 bf 71 ed 00 bf 54 b3 86 bf
       0.1110942 -0.6350217 -0.50362307 -1.0523477
0002e0 9a 4c 5c bf 63 6a 88 bd 34 b9 65 be f9 d5 90 bf
       -0.86054385 -0.06660917 -0.2243393 -1.1315299
0002f0 75 ee a3 bf 39 48 d7 be e2 f8 8e bf a6 46 05 bf
       -1.2807146 -0.4204729 -1.1169703 -0.52060926
000300 3b d5 94 bd 6f 64 1e bf fd c4 99 be 00 26 c6 be
       -0.07267233 -0.61872 -0.30033103 -0.38700867
000310 82 c6 60 bf 52 97 39 bf 1b 6c 5f bf 53 a8 25 bf
       -0.878029 -0.7249652 -0.8727433 -0.6470997
000320 af 55 90 bf de 68 92 be e3 d2 15 bc c2 7c 08 be
       -1.1276149 -0.28595632 -0.009144518 -0.13328841
000330 fa 87 08 bf 4a 58 f5 be 08 ee 64 bf 96 bd 07 c0
       -0.53332484 -0.47918922 -0.89425707 -2.1209464
000340 c8 2e 0c be f6 5c 05 be d3 ca 97 bf d3 b8 98 bf
       -0.1368972 -0.13023743 -1.1858772 -1.1931404
000350 2a 3b b7 bd 0b f6 ac be 4a 07 ae bf cf a6 58 bf
       -0.089468315 -0.33781466 -1.3595974 -0.8462953
000360 27 8a c3 be cd 87 20 bd 64 0b 0d 3d 3f d4 5e 3b
       -0.3819134 -0.03919201 0.03443469 0.003400102
000370 a1 dc 2e be 62 21 29 bf 47 1b 69 bf ac 0f ad bf
       -0.17076351 -0.66066563 -0.91057247 -1.3520408
000380 60 80 0b be a3 46 2c be 02 b7 aa bf e1 7d 9f be
       -0.1362319 -0.16823821 -1.33371 -0.31150725
000390 f8 60 0c bf c0 6e 5f be df bf b2 bf 2b 28 12 be
       -0.5483546 -0.21819592 -1.3964804 -0.14273135
0003a0 d0 59 ac be 47 f6 47 bf 41 02 c1 3d cc c2 25 bf
       -0.33662271 -0.78110164 0.09424258 -0.6475036
0003b0 75 7d 8e bf 68 7f 70 bf 11 45 ed be 07 a8 d8 3d
       -1.1132036 -0.93944407 -0.46341756 0.10578924
0003c0 07 b2 20 be 69 d4 83 bf a8 ea 14 bf 79 71 48 bf
       -0.15692912 -1.0299197 -0.5817056 -0.78298146
0003d0 00 8f eb b9 8a ca 46 bf f1 e9 e2 be b9 16 8c bf
       -0.00044929236 -0.776528 -0.44319108 -1.0944434
0003e0 f3 cb 78 bf fc de d6 bd 43 b9 7d be 3d da 82 bf
       -0.971862 -0.1049175 -0.24777703 -1.0222851
0003f0 70 b3 a4 bf 98 57 ea be e8 ae 89 bf 8e 36 c8 be
       -1.286726 -0.45769954 -1.0756502 -0.39104122

predictionFunction.value_head.2.bias f4 [41]
000000 1e 0d 91 bf 6b 21 95 bf b9 fe 89 bf 86 b4 8e bf
       -1.1332128 -1.1650823 -1.078086 -1.1148841
000010 58 bc 94 bf a6 85 95 bf dd 96 8c bf 35 03 84 bf
       -1.1619978 -1.1681411 -1.098354 -1.0313479
000020 6f 1a 98 bf be a1 85 bf cb 21 88 bf b7 41 89 bf
       -1.1883067 -1.0439985 -1.0635313 -1.072318
000030 4c ec 88 bf 1d 3b 9c bf a3 5f 9e bf f1 a5 99 bf
       -1.0697112 -1.220554 -1.2372936 -1.2003766
000040 cd 35 81 bf 47 2b 95 bf 3f 95 a1 bf 64 cb 9c bf
       -1.0094544 -1.1653832 -1.2623671 -1.224957
000050 d8 c4 15 bf 33 b0 12 bf ed 24 cf be bd 58 2b bf
       -0.58503485 -0.5730011 -0.4045786 -0.6693228
000060 00 74 64 be 7a ca 79 be 86 a8 bb bd 28 39 90 be
       -0.22309875 -0.24393645 -0.09163003 -0.28168607
000070 94 0a 31 bd 3c 46 97 bd ab e7 33 3d b4 e2 37 be
       -0.04322298 -0.07386443 0.043922108 -0.17957574
000080 05 05 a1 bf 1c 4d 8d bf 6c 41 9c bf 66 90 94 bf
       -1.2579657 -1.1039157 -1.2207465 -1.1606567
000090 f1 c3 9a bf 3a 39 99 bf 3e 91 91 bf da 6c 9f bf
       -1.2091047 -1.1970589 -1.1372449 -1.2455094
0000a0 9a 96 9a bf
       -1.207721

dynamicsFunction.startBlock.0.weight f4 [64, 34]
000000 21 37 2a 3e d9 ed 96 3e 3d 27 84 bd ed 3c e0 3d
       0.16622593 0.29478338 -0.064527966 0.10949121
000010 c1 be 0c 3e 72 c8 2d 3e 64 13 af bc 04 39 44 bd
       0.13744642 0.16970995 -0.02137155 -0.047905937
000020 e8 2d 86 bd 2b e6 0b be 46 71 8f 3e f9 98 f0 3c
       -0.06551725 -0.13662021 0.28016108 0.029369818
000030 65 f9 0f bc 92 53 09 3e d4 2b e7 bc 12 2f a8 3e
       -0.008787488 0.13410786 -0.028219141 0.32848412
000040 f3 95 24 3e f9 9d ce 3d 42 18 68 bd 1a 9c 54 3e
       0.16072826 0.10088725 -0.05666376 0.20762673
000050 15 b8 4f 3e b8 11 52 3e 51 d1 f5 bd 4b 84 0e 3e
       0.20285065 0.20514572 -0.120028146 0.13917653
000060 4e 87 88 3e f0 7e de 3d 87 f7 4e 3e a3 ba 37 3d
       0.2666573 0.10864055 0.20211612 0.044855725
000070 73 5c 90 3e b2 0d db bc 70 46 e9 bd e5 33 5c 3d
       0.28195533 -0.026739929 -0.11390388 0.053760428
000080 03 ef 85 3e 63 8b 94 be ac 76 93 be 81 34 1a 3e
       0.26158914 -0.29012594 -0.28801477 0.15059091
000090 48 d0 1f be ce 12 94 bd 71 c7 ac bd 23 de a2 3e
       -0.15606797 -0.07230149 -0.08436478 0.31810102
0000a0 9b 12 85 be 66 30 05 bd 08 4f 2f bd bd 9f 84 3e
       -0.25990757 -0.03251686 -0.04279998 0.2590312
0000b0 48 12 1e be 9b 05 9e 3d 77 21 5e 3e 0f 31 95 3e
       -0.15436661 0.07715913 0.21692453 0.2913899
0000c0 e3 08 7b 3e 46 d2 57 3d 40 7d 1a bd fd aa ed 3d
       0.24515109 0.052690767 -0.037717104 0.11604879
0000d0 d3 04 14 be e4 26 1f bd 29 f8 16 bd be 31 78 bc
       -0.14454965 -0.03885545 -0.036857758 -0.015148578
0000e0 ac 3b 0b 3d 30 19 00 3e 7f f6 62 3e 24 32 01 3e
       0.033992454 0.12509608 0.22164343 0.12616783
0000f0 b0 71 82 3d 87 ae bb 3e fc a7 fe bd 30 fc 85 bc
       0.063693404 0.3665659 -0.12434384 -0.016355604
000100 ff 55 06 be c6 4a 40 3e 45 a3 84 3e 0d bb bf be
       -0.13118742 0.18778524 0.25905815 -0.37447396
000110 bb 09 00 3e 55 77 12 be e9 77 ef 3e ca 4f 87 be
       0.12503712 -0.14303334 0.46771172 -0.26428062
000120 f3 d3 28 3d 44 d7 cb bd 68 bc 12 3e e5 5b d0 bd
       0.041217756 -0.09953168 0.14329684 -0.101737775
000130 fd 03 8b 3d 2a 00 2c be 5f 10 3e 3e e6 38 08 3e
       0.0678787 -0.16796938 0.18560933 0.13302955
000140 c9 33 7e be 3a a0 78 be 0f 87 f3 3c ab 56 29 be
       -0.24824442 -0.24279872 0.029727487 -0.16536967
000150 48 14 87 bd 08 f3 59 3b 8d 63 37 be 27 18 a6 3d
       -0.06595665 0.003325643 -0.1790907 0.081100754
000160 4e e3 29 3e 30 e6 40 be 14 c1 63 be 74 65 3a be
       0.16590616 -0.1883781 -0.22241622 -0.18202764
000170 8f 45 b0 be 45 b4 90 be 26 ad 37 be ab 14 e1 be
       -0.3442807 -0.28262535 -0.17937145 -0.4396108
000180 37 b6 f2 3d f6 49 b6 be b8 f5 0d 3f cb d3 55 3e
       0.11851161 -0.35603303 0.5545306 0.20881574
000190 0b 40 b2 bd e7 d8 3b 3e 5c f1 5d 3d e1 3c 6a be
       -0.087036215 0.1834446 0.054185256 -0.22874786
0001a0 78 c8 7a 3d e5 22 d9 3e 2a f2 26 3f e4 09 2e be
       0.06122634 0.42409435 0.65213263 -0.1699596
0001b0 b4 a6 a0 3d ff 76 d1 bd 1f 52 e2 3e 05 7e 09 3e
       0.07844296 -0.10227775 0.44203278 0.13426979
0001c0 9c 6f 05 3c 74 e9 8a 3e e5 c4 2b be 8d af 94 bd
       0.0081442855 0.27131236 -0.16774328 -0.07260046
0001d0 e5 31 a1 bc b5 8a 01 bf 3e fd e6 bb ae 9a 24 be
       -0.019677112 -0.50602275 -0.007049232 -0.1607463
0001e0 e3 d0 0f 3e 35 b7 10 bf 4b fa f6 bd ce d1 4c be
       0.14044528 -0.5652955 -0.12059458 -0.20001909
0001f0 71 a0 d6 3d af 8c c9 bd 80 e5 08 bb bb b7 70 bc
       0.104798205 -0.098412864 -0.0020888746 -0.014692242
000200 6a 88 79 be da 8d 37 3e e6 c6 aa be 9c de 2b 3e
       -0.24368444 0.17925206 -0.33354872 0.16784137
000210 d4 a0 8f bd 11 16 80 be 12 36 8a 3c 66 76 be bb
       -0.070130974 -0.25016835 0.016871486 -0.005812454
000220 4c 45 6c 3b 34 d1 9c bc 65 3b 85 be 44 b8 01 3f
       0.0036052046 -0.019142725 -0.26021877 0.5067179
000230 1e 5e 86 3e cf 0e a8 bd ee 62 29 3d 11 4f bf be
       0.2624368 -0.082059495 0.041354112 -0.3736501
000240 44 55 fd bd 7f 3f 50 bd 98 be 82 3c 4c e1 93 bd
       -0.12369779 -0.050841805 0.015960023 -0.07220706
000250 da ad 01 3e f7 7a 7e bd 4c 65 de be ae cb ee 3d
       0.12663975 -0.062128987 -0.43436658 0.116599426
000260 4d d7 0c bc ff f1 bb bb 32 49 55 be 01 e0 82 be
       -0.008596254 -0.0057356353 -0.20828703 -0.25561526
000270 06 1e 50 be 74 cb c7 bd a8 7d 5c bd b2 d1 6d bd
       -0.20323953 -0.097556025 -0.053830773 -0.05806131
000280 59 93 74 3e 02 9a 46 3e c7 2f 39 3e da 3c bc 3e
       0.23884334 0.19394687 0.18084632 0.36765176
000290 32 e4 90 3d 0e 17 c2 bd a8 a8 1a 3e 08 d1 ee bd
       0.07074775 -0.094770536 0.151034 -0.11660963
0002a0 f1 52 23 be 83 5b b3 bd 39 4a e2 3b aa a7 74 be
       -0.15949608 -0.08757689 0.0069058207 -0.23892084
0002b0 17 f3 32 3e 2a 29 bd 3c a6 6c 6a bd 6f c3 3e be
       0.17475544 0.023090918 -0.05723252 -0.1862924
0002c0 df e3 fa bc b2 00 1a be 49 1e ad 3d ef 73 98 3c
       -0.030626236 -0.15039328 0.08453042 0.018609969
0002d0 1b ed 34 3d df 1f 21 3e 7f 77 4f 3e 28 14 8b 3c
       0.044171434 0.15734814 0.20260428 0.016977385
0002e0 07 ab 21 3d 1c 40 37 be ea e8 82 be 95 71 6d 3e
       0.039469745 -0.1789555 -0.25568324 0.2318786
0002f0 9e 00 d5 bc 22 ef f4 be 0a 9a 52 bd 67 13 67 be
       -0.02600127 -0.47838694 -0.051416434 -0.22565995
000300 b3 ee 87 3d 0a e1 2e be cf 52 16 be 3d 31 6f be
       0.06637325 -0.17078033 -0.14680026 -0.23358627
000310 23 85 c4 3c 99 08 71 3e 02 db 8e 3d 03 74 32 3e
       0.023989266 0.23538436 0.06975366 0.17427067
000320 45 75 82 3e 2c 57 03 be ea c2 3c bd 03 d1 cd bc
       0.25480095 -0.12826222 -0.046084322 -0.025124079
000330 8d c5 97 3e a6 92 00 3d 80 02 8a 3c c9 ac 0b bd
       0.29642907 0.031389855 0.016846895 -0.034100328
000340 6b f6 58 3e 00 2a 53 be 64 e5 e7 bd f1 d5 47 be
       0.21187751 -0.2062149 -0.1132305 -0.19515206
000350 0c 3a 12 3e 40 c5 1b 3d df 8f bd 3b 2b 33 0f 3e
       0.14279956 0.03802991 0.005784973 0.13984363
000360 dd 27 9b be 69 69 83 be 14 a5 b9 bd f5 09 d7 bd
       -0.3030385 -0.2566636 -0.09064689 -0.10499946
000370 b7 3d 2e 3e 1d 40 b4 bd 57 28 fb bd 54 bf e6 3b
       0.1701573 -0.08801291 -0.122635536 0.007041851
000380 22 b3 eb 3d 0f 3a 46 3e ac 66 89 be 87 bb 21 3c
       0.11508776 0.19358085 -0.26836145 0.00987137
000390 70 8e 3e 3d 23 08 87 be df 98 c5 bd c3 fd 4e be
       0.046522558 -0.26373395 -0.096482985 -0.2021399
0003a0 ef 3f 19 3e aa cc 16 bd 70 72 34 3d 47 fd 25 be
       0.14965795 -0.036816277 0.04405445 -0.16209899
0003b0 b9 fd fa be 55 b8 f6 3e c7 74 61 3d 27 03 11 bd
       -0.490217 0.4818751 0.05504301 -0.035403397
0003c0 b1 1e 57 3e 3e c3 d0 3c c4 d4 a9 bd 80 0c 26 3d
       0.21007802 0.025483724 -0.08292535 0.040539265
0003d0 d5 5d 68 be 74 53 43 bc be 2d c3 3a 83 c9 b6 3d
       -0.22692044 -0.011921752 0.0014890952 0.08925154
0003e0 49 9c 85 bc 7b dd c0 3d d2 ad 71 3d 20 b6 b3 bd
       -0.016309874 0.09417244 0.05900366 -0.08774972
0003f0 44 a3 56 3d c6 19 b3 3d 25 37 17 3e 25 44 fe 3d
       0.052401796 0.0874515 0.1476713 0.12415341

dynamicsFunction.startBlock.0.bias f4 [64]
000000 d7 a9 96 3d e2 73 e8 3d c3 6c a0 3d d5 c1 16 be
       0.07356613 0.11350228 0.07833245 -0.14722379
000010 b8 fc 1e be ed 83 10 be 46 e6 47 3e 64 b7 22 bd
       -0.15526092 -0.14112826 0.19521436 -0.039725676
000020 f4 32 35 3e d3 f0 1a 3d 90 8a 58 bd 4a f1 0c 3e
       0.17695218 0.037827324 -0.05286652 0.1376392
000030 b6 96 6c 3c 46 c0 0a 3e e7 2d 45 3d 3f dd 37 be
       0.014440229 0.13549909 0.04813948 -0.17955492
000040 67 c3 3d be 3b b3 60 3e 45 dd 18 bd 08 ab 61 be
       -0.18531571 0.21943371 -0.037320394 -0.220379
000050 ed 12 00 be aa 89 8b 3c 7f bd 3b be 3d 24 ed bd
       -0.1250722 0.017033417 -0.18334006 -0.115791775
000060 60 ce 7b bc fc ec f2 3d 0b 4e 78 3e 5c 74 cd bd
       -0.015369028 0.118616074 0.24248521 -0.100319594
000070 2d c0 5d be 87 4f 01 3e a6 15 c7 bc 90 c1 e9 bd
       -0.2165534 0.12627994 -0.024302315 -0.11413872
000080 e6 7c 00 3e 12 39 62 3c e0 87 ea 3d e6 cf be 3d
       0.12547645 0.013807552 0.11451697 0.09316997
000090 e7 9e 53 3d f3 e0 62 bd 74 de c7 3b 7e 83 7f be
       0.051665213 -0.05539031 0.0060995165 -0.24952504
0000a0 94 b0 ad 3c 87 a6 59 3d e5 37 2f be ef e2 58 3e
       0.021202363 0.05313733 -0.17111166 0.21180318
0000b0 ab d2 cf bc 26 49 aa 3d c2 8d 14 bd aa 3b 7f bd
       -0.025369009 0.08314733 -0.036268003 -0.06231276
0000c0 b7 da 19 3e 5c 9c 17 3e f7 54 37 3c 85 dd 0b be
       0.1502484 0.1480574 0.011189691 -0.13658722
0000d0 9c 71 0b bc 4e 2e 76 3b ae d6 35 bd c7 2f c9 bd
       -0.008510973 0.003756422 -0.044394188 -0.09823566
0000e0 91 97 02 3c d6 65 de 3d f6 74 24 bd 76 5d 26 3e
       0.007970707 0.108592674 -0.040150605 0.1624659
0000f0 65 47 03 3e 27 4e 5d 3d e3 39 da 3d 44 07 cf 3d
       0.12820204 0.05402961 0.10655572 0.10108808
