AlphaGo/foersterrobert_MuZero/Environments/CartPole/Models/model_5.pt (torch, 83738 bytes, 20 tensors)

predictionFunction.startBlock.0.weight f4 [64, 32]
00000000: 263a cdbd 473c d53e b705 9fbe 5552 91be
00000010: e768 80be df8d 5fbd 4c48 7cbd 25a2 6e3e
00000020: 821b b23d 9b9a c0bd 8b1c 6dbe fa2a 5bbe
00000030: 112d b8be 00fa 443e 8f0b 503d 6b3d 49be
00000040: 51e4 93bd 83ba 603e 1d82 cfbe 85fc 7a3e
00000050: 9021 ae3e 5e36 273f f57c 313d 04dd 0d3d
00000060: 6762 e7bc 1664 e03d 4494 f53c a77c e4bb
00000070: 6675 6a3d c8ec 043e 4b03 93be a6ac 573d
00000080: 622e 30be f0f3 85be 1037 75be 235e 14be
00000090: 61c8 38be 49bd 9e3c 6889 49be 6996 593e
000000a0: 4e22 d33d 2a28 56be 5358 23be 1d6f cc3d
000000b0: 8552 4bbd 6bbc 4e3d e91b 323d 2ae6 653d
000000c0: 68f8 c9be da6f 84be 8e00 ba3d 04b0 0c3e
000000d0: 57d3 1d3e fe53 87bd efdc 393e 28a7 e1be
000000e0: 7918 0d3d 4001 313d 6805 c6bd cf3a a0bd
000000f0: ee1d 2ebe 2cd2 a63e 5b18 dabe bee7 41be
00000100: 5107 a9be e317 143e 5bad cdbf 788d 2c3d
00000110: e39e 7e3d 6652 1d3f c495 92bd 7b64 b2be
00000120: 6394 bcbe 42bd 2e3e 6b21 c4be 3493 1d3e
00000130: 3f98 0c3f abc5 923d 3ed5 853e fa7a 6c3e
00000140: 253f 0dbf 199e 9d3e b3b0 4c3d 405a f9bd
00000150: e200 963e 3fdd e03d 7e08 723f b4f1 433e
00000160: 9a16 803e 74d7 713e 2753 f43e 709d 6f3e
00000170: 95e9 413e 9742 d63f c3b7 82bf 80fa a83e
00000180: 3bb9 8cbc 4d53 a63e d129 1fbf 9bbf d4bd
00000190: 0870 e93d 9ebc b03e 6e81 b73d 60cd 54be
000001a0: ee50 a8be 3747 663d 3b72 34bd 9962 3cbe
000001b0: 8bb5 743e f379 b23b 54f6 97bc c2ea d83e
000001c0: 7b55 8f3d 9703 413e 9229 afbe eeba 48bb
000001d0: dbb3 6ebd 13c6 be3e 08e4 6d3e 78c4 b13e
000001e0: 472c 5e3e 5ad1 9c3d bbe0 183e 7145 613e
000001f0: 314f 853d 55a3 dd3d 4845 e5be 6929 dd3e
00000200: cf1c fcbe adf5 16be fdeb afbe 477a ab3e
00000210: 22a9 0a3e 8152 fc3d ab9a a03c e4a0 8abe
00000220: f3bb 8f3c 319f 683d 5556 90bc b39f 093f
00000230: 3133 9a3e fa80 fd3e efd9 713c 0a9d 26be
00000240: 4727 c7be 40f3 d0be 772f ea3d 3c6c 91be
00000250: aef6 b2bd bef3 9cbe 4853 423e 766b 45be
00000260: 4f70 2a3e 0e6a 053f fe0a eebc 9084 d53c
00000270: 38b1 bebd 3ad2 833e 9077 ffbd 7775 933e
00000280: 873a 7ebd 7d7f 23be 28f9 063c 5871 90be
00000290: d4fd 823e 58e8 a0be 27a1 81be a26e 9e3e
000002a0: af6f edbc 7690 acbd 4ff8 ef3d b5b9 803d
000002b0: 15c1 733e f5e6 0a3d 1937 1d3c 4a03 4839
000002c0: 1c6d b3bd 5f3b afbd 9a8f ff3e e154 72bd
000002d0: ce57 3fbb d035 24bd 7b24 533e a7ee a7bd
000002e0: a2cc 81bc 2bda 053d a1e2 84bd 37e6 7abe
000002f0: 663a 1abf 5827 3f3e 9f51 173e 871c 9d3d
00000300: 49b8 00be db4c 2dbd 4a6d 75bd 0a7d 29be
00000310: cfd1 25be f8c7 f93d 44bc fbbe 4f71 aa3e
00000320: 08bb ebbc c5a7 f43e 1c66 25bf eed0 63be
00000330: b0ef 7fbc b8e9 d43c ac0f b23e 715e 483e
00000340: 9d82 813d 3689 d2bc 9dea 9e3e c9f3 d53d
00000350: 7a3e de3c 2488 d03d 3129 5a3d 3f8f cfbd
00000360: 1039 65be 1485 af3c a182 52bd 9123 d2be
00000370: 3e1c 84be f57d 613e 3bd7 e4bd 7f5f b63d
00000380: 75f4 d8be 6b36 1e3e 0382 3fbf b211 0b3e
00000390: 9cf7 bfbd 7bd0 203e 0822 d83c 233f 1e3e
000003a0: 47f6 b53b 2a5c 783e ca2e a9b9 35d0 d8bd
000003b0: f9b4 9e3e 16b9 95bc 1bd0 25be 1a50 de3e
000003c0: 15ff 8abd 30df 073e cd42 2bbc 5833 e03c
000003d0: ca2f 773e f6a2 0d3d 2261 463f 9ebb 89bd
000003e0: d388 5e3e fa1d 4b3e d3c2 563e e459 af3e
000003f0: 271d 1a3e 18f8 003f 92e4 00bf c43b 26be
-0.100208566 0.4164755 -0.31059048 -0.28383127 -0.25080034 -0.05457866 -0.061592385 0.2330404
0.08696653 -0.09404489 -0.2315542 -0.21403113 -0.35971883 0.19235992 0.050792273 -0.19652335
-0.07221282 0.21946149 -0.40528956 0.24510391 0.3400998 0.6531733 0.04333206 0.034634605
-0.028245164 0.1095659 0.029977925 -0.0069728675 0.057240866 0.1298095 -0.2871345 0.052654885
-0.17205194 -0.26162672 -0.23946786 -0.14489035 -0.18045188 0.019377368 -0.19681323 0.21248783
0.103092775 -0.20913759 -0.15951662 0.09982131 -0.049639244 0.050472658 0.04348365 0.056127705
-0.3944733 -0.25866586 0.09082137 0.1373902 0.15412651 -0.06607817 0.18150686 -0.44072843
0.034447167 0.043214083 -0.09669 -0.07823717 -0.17003605 0.32582223 -0.42596707 -0.18936059
-0.33013394 0.14462237 -1.6068529 0.042127103 0.062163245 0.61453855 -0.07157472 -0.34842286
-0.3683196 0.17064384 -0.38306746 0.15388185 0.5491981 0.071666084 0.26139253 0.23093787
-0.55174476 0.3078468 0.0499732 -0.12175417 0.2929755 0.10979699 0.9454421 0.19135171
0.25017244 0.23617345 0.4771969 0.23399901 0.1893676 1.6739072 -1.021233 0.33003616
-0.017178169 0.32485428 -0.6217318 -0.10388108 0.113983214 0.34518903 0.08960234 -0.2078147
-0.32874244 0.05622026 -0.04405425 -0.18396987 0.23897378 0.0054466664 -0.018550076 0.42366606
0.06998726 0.18849026 -0.34211403 -0.0030628997 -0.058276992 0.37260494 0.23231518 0.34720206
0.21696578 0.07657118 0.14929478 0.21999146 0.06509245 0.10822169 -0.4477942 0.43195656
-0.4924073 -0.14742155 -0.34359732 0.33491728 0.13541082 0.12320424 0.019605001 -0.27075875
0.017545676 0.05679244 -0.017619291 0.53759307 0.3011718 0.49512464 0.014761432 -0.16270843
-0.38897154 -0.40810585 0.114348345 -0.2840289 -0.08738457 -0.3065471 0.18977082 -0.19279274
0.16644405 0.5211495 -0.029057976 0.026064187 -0.093111455 0.25746328 -0.124739766 0.28800556
-0.062067535 -0.15966602 0.008238114 -0.28211474 0.2558428 -0.31427264 -0.25318262 0.3094378
-0.028983919 -0.08425991 0.11717283 0.06285421 0.23804124 0.033911664 0.009595656 0.00019074712
-0.08761045 -0.08556246 0.49914247 -0.059162978 -0.0029196623 -0.040090382 0.20619385 -0.08199816
-0.015844647 0.032678764 -0.064885385 -0.24501882 -0.6024536 0.18667352 0.1477723 0.07671457
-0.12570299 -0.042309623 -0.05991868 -0.16551605 -0.16193317 0.12196344 -0.49167073 0.33289573
-0.028775707 0.47784248 -0.6460893 -0.22247669 -0.015621111 0.025990352 0.34777582 0.19567277
0.06323741 -0.025700193 0.3103837 0.10446889 0.0271294 0.10182217 0.05326194 -0.10134744
-0.22385049 0.021425761 -0.05139411 -0.4104276 -0.25802797 0.22020705 -0.111738645 0.08904933
-0.42374006 0.15450446 -0.7480776 0.13580969 -0.093733996 0.15704529 0.026383415 0.15453772
0.00555304 0.24253908 -0.00032269052 -0.10586587 0.30997446 -0.018276732 -0.16192667 0.43420488
-0.06786934 0.13268733 -0.010452938 0.027368233 0.24139324 0.03457924 0.7749196 -0.06725238
0.21731882 0.19835654 0.20972757 0.3424827 0.15050183 0.5037856 -0.5034877 -0.16233736

predictionFunction.startBlock.0.bias f4 [64]
00000000: ed42 23bd 9597 66be cb28 7cbe c8dc 41bc
00000010: 6506 7ebe d297 043d ed75 b23d 4e8f bbbd
00000020: 7b34 363e c27a b33d 3df9 72be 0c6a 49be
00000030: 2d19 03be 7add e8bd 2e03 b9bd 27eb 10be
00000040: e9e3 39be 417a ea3d ccaf 95be f623 e6b9
00000050: e52a 93be 9e28 d6bd 39ac 08bd e91d a7bd
00000060: 20ac 30bd ca07 31bd 7f18 493d 257b cebd
00000070: 0ca5 ecbd 0637 acbe 47b2 34bc 978f 90be
00000080: 635d 19bd 704b 5dbe 6b9c 71be 3cd2 4f3d
00000090: 0e65 47bd d709 02be 32d8 e2bd 2464 37be
000000a0: be75 fbbd fdca d1bd f478 92be 4ce0 d7bd
000000b0: b6a9 99ba 6a81 70be e3e8 f83b abb6 0ebe
000000c0: 15fb d5ba 7135 093e e65b dfbd de1d 02bd
000000d0: ade1 2bbe ad2c a8bd 6acc 35be 4ff8 063e
000000e0: fa86 18bd 78cc de3c 07ed ccbd 9b7d 40bc
000000f0: cca0 043e 95f6 4f3e 524c d5bd fa87 8d3d
-0.039858747 -0.22518761 -0.24624936 -0.0118324235 -0.24807127 0.03237135 0.08713899 -0.091581926
0.17793457 0.087636486 -0.2372789 -0.1966936 -0.12802573 -0.11370368 -0.090338096 -0.14152204
-0.18153347 0.11449099 -0.29235685 -0.00043895812 -0.28743663 -0.10456966 -0.03336737 -0.08160002
-0.0431329 -0.04322032 0.049095627 -0.10082082 -0.11554918 -0.3363573 -0.011028833 -0.2823455
-0.037442576 -0.21610808 -0.23594825 0.050737604 -0.048680358 -0.12699066 -0.11076392 -0.17909294
-0.12278317 -0.10243795 -0.28607905 -0.10540828 -0.0011723551 -0.23486868 0.0075961216 -0.1393687
-0.0016325439 0.13399293 -0.109062 -0.031766765 -0.16785307 -0.08211646 -0.17753759 0.1318066
-0.0372381 0.027197108 -0.10006147 -0.011748697 0.12951964 0.20308907 -0.104149476 0.06910701

predictionFunction.startBlock.2.weight f4 [64, 64]
00000000: 5af2 9bbd d4a7 2f3c 5640 a03e 71ef 77bd
00000010: a0e8 1cbe faf4 c5be 4e52 0c3e a337 6d3e
00000020: c6d6 04bf a0d0 97be f6c8 d8bd 42bc 6a3d
00000030: b97e bc3e 5eec 203f a1d9 ac3d e9fc 123d
00000040: a18b 083e d0e6 18be 7d75 01bf 8127 4abe
00000050: 578e bdbd 76a5 0e3e f67d 7e3e 1fad a83e
00000060: fcb0 ecbe 799c 9fbb e322 643f f9aa 5f3d
00000070: 00ef 8fbe 216f de3e 75d8 28be 7920 09be
00000080: 3196 81be d5a6 a23e 795b ad3d 6788 42be
00000090: 1a40 e6bd 8ce6 813d eef9 27be d9ac 69bd
000000a0: c375 e3be d48b 0b3e 19e2 253e 5da9 a23d
000000b0: f48e fdbd 5c35 91be 7617 2dbe 155d 323e
000000c0: 14a4 4dbe 5db5 f8be a66c 9ebe f516 a2be
000000d0: 1190 80bc c710 d5bc b984 173f b865 dabe
000000e0: 4f1b 08bf 2ea9 bf3d 1df2 95bd b19a b23e
000000f0: 0a35 5c3d eeda 4bbb f8fc 073e c3c6 3abd
00000100: 17ac 8ebd 4fdd 5a3e 0d8c 92bd 65b6 7ebe
00000110: aa32 0e3f ef75 e6bd ada0 e83e 763f 903e
00000120: f3cc dabe 1b15 263e caef a8bd a87e 083f
00000130: 92e3 023f edf1 bd3e 92ba 0e3d 9136 75be
00000140: 4013 593f eca2 053c 2afe b93d cb53 eabd
00000150: 2243 32bc e7c6 d4bd 82ba ed3b b5c2 8d3e
00000160: 053b 86be a65d 52be 6853 ec3c ef7d 3abe
00000170: 0b3b debe d1db 563d bb49 113e 1a52 803d
00000180: c5a8 78be ab62 0a3e c8ad 0f3f 8706 63be
00000190: 8d29 d73e df52 e1be 99d0 c2be 2e9b 393d
000001a0: 8bfa 503e 7c5f 983d 5cf9 15bb 12d2 453d
000001b0: 1c0c c03e 542d 213e 8c73 98be bba3 143e
000001c0: 2397 9cbe 0d0f e9bd fb4f 98bc b967 6dbe
000001d0: c32e 6b3e 93be 01be 90c4 2abf 8068 83be
000001e0: e209 b73e 20ee 8abd d922 5d3c eb0d 2a3f
000001f0: 890b b33e 6311 97bc 151e f63d 1324 5b3d
00000200: 5a30 1ebf 5875 3bbe ec1a 8e3e e9c3 a2bd
00000210: dc56 74be 0e27 71be 3885 af3e b865 8ebc
00000220: 4877 12bc 62b8 50bf 7e2b b4bc 722f 1f3e
00000230: c5a7 ef3d 5d95 d13d 8162 3bbd 6de4 febd
00000240: d8bc b9bc 0244 4c3d 40e9 9cbd 1238 a13c
00000250: 2bab 273d 4e6e 49be 8f45 c73d 5087 e93c
00000260: 89c5 f73d e760 93be 3ce8 3f3c 4985 d53b
00000270: 25f7 98be e5cf 8fbd e08b cabd 7406 053d
00000280: 14b0 1f3c 8694 d4bb f324 bbbe 11a9 9f3c
00000290: 8e25 9bbd f972 35be 9bdc db3c 8d3b 97bd
000002a0: 5951 60be af29 97bd ead1 bdbd 81ef b8be
000002b0: 3294 babd c740 78be 6130 02be 9d86 54be
000002c0: 249c 37be ed11 8ebe d3f9 233e 46ab a13d
000002d0: 0f12 b3be d883 cf3d 6f8d a43b 8011 65bd
000002e0: 557d a43d be4f 44be 4f9b 44be 80ef 46be
000002f0: 2d55 fabc 8794 14be 0c40 0cbe 4e54 5d3e
00000300: bf3f e9be 2378 dabc 7ce4 b03d 35d0 933e
00000310: 792c cc3d 9fce 7b3d 14f3 953d d981 973e
00000320: 7e42 fbbe 7aa7 c73d cb8c dcbd 3a41 cebd
00000330: bab3 fa3d 032f 7abe 211b 1b3d ebfd 183e
00000340: 2a4f 20be e645 48bd 752a 13be 85cd 0abd
00000350: 21d6 42bd 9f4b 61be fa0d 8bbe 3e91 103d
00000360: 22bf 32bd a4b6 40be 1d1e 863d 19a3 3fbe
00000370: 0459 9c3e 4478 aebd 1807 a13e c4c2 efbd
00000380: b1db 9e3d 4c0c fa3d 0861 8abd 195d 0ebe
00000390: b972 ef3d 73dc 2bbe 238d 5bbf 75c8 f93d
000003a0: 6e77 113f 6241 81be e68b aebb f695 e83e
000003b0: 7453 0d3e ae32 c43e 66e6 92bd 04df 15bf
000003c0: 31f6 a63d ce58 f9bf 2001 e9bc a855 73be
000003d0: 1c43 933e 6985 923d 6b56 043e 8afc 25bd
000003e0: 2cb7 9dbe a6b0 283e b57c a23d 8bf6 94be
000003f0: f245 acbe 5148 84bd 4d49 e33d 65d5 a1bc
-0.07614584 0.010721166 0.31299084 -0.060531083 -0.15323114 -0.38663465 0.13703272 0.23165755
-0.5189022 -0.29651356 -0.10585205 0.057308443 0.36815432 0.6286067 0.08439947 0.035885725
0.13334514 -0.14931798 -0.505699 -0.19741632 -0.09255665 0.13930306 0.24852738 0.3294458
-0.46228778 -0.004870948 0.8911573 0.05460641 -0.2811203 0.4344416 -0.16488822 -0.13391294
-0.253099 0.31767908 0.08464713 -0.18997346 -0.11242695 0.063428015 -0.16403934 -0.057049606
-0.44425783 0.13627559 0.1619953 0.0794246 -0.12380782 -0.28361022 -0.16903481 0.1741832
-0.20082122 -0.4857587 -0.30942267 -0.3165814 -0.015693696 -0.026008977 0.59186894 -0.4265573
-0.5316667 0.0935844 -0.0732157 0.34883645 0.05376152 -0.0031105834 0.13280094 -0.04559971
-0.06966417 0.21373485 -0.07155619 -0.24874265 0.5554606 -0.11252963 0.45435086 0.28173417
-0.4273449 0.16218989 -0.08248861 0.5331826 0.51128495 0.37098637 0.034845896 -0.23946597
0.84795 0.008156519 0.09081681 -0.114417635 -0.0108802635 -0.103895 0.0072548995 0.27687612
-0.26216903 -0.20543537 0.028848365 -0.18212102 -0.4340442 0.052455727 0.14188282 0.0626566
-0.2428313 0.13514201 0.56124544 -0.22170459 0.42023888 -0.44008538 -0.38049772 0.045314007
0.20408075 0.07440087 -0.0022884225 0.04829604 0.3750924 0.15739948 -0.29775655 0.14515583
-0.30584058 -0.11379824 -0.018592825 -0.23184098 0.22967057 -0.12670355 -0.6670618 -0.25665665
0.35749727 -0.067837 0.013497078 0.6642749 0.34969738 -0.018440908 0.120174564 0.0535012
-0.6179253 -0.18306482 0.27754915 -0.07947523 -0.23861259 -0.23550054 0.34281325 -0.017382488
-0.008939572 -0.81531346 -0.021993395 0.15545443 0.117019214 0.10233567 -0.045748238 -0.124459125
-0.022673056 0.049869545 -0.076616764 0.019680057 0.040934723 -0.19670984 0.09730064 0.028506905
0.12098224 -0.28784868 0.011713084 0.006516133 -0.29876056 -0.070220746 -0.0988996 0.032476857
0.00974657 -0.006487432 -0.36551628 0.019489797 -0.07575522 -0.1771964 0.026838591 -0.07384405
-0.21906032 -0.073809974 -0.092685536 -0.36120227 -0.09110297 -0.2424346 -0.12713768 -0.20754476
-0.17930657 -0.2774805 0.16013269 0.07893996 -0.34974715 0.10132569 0.005021743 -0.055924892
0.08031718 -0.19171044 -0.1919987 -0.194273 -0.030558193 -0.14509784 -0.13696307 0.21614191
-0.45556447 -0.026668614 0.0863733 0.28869787 0.0996942 0.061476346 0.07321754 0.29591253
-0.49074167 0.097487405 -0.10769042 -0.10071035 0.12241311 -0.24431996 0.03786767 0.14940612
-0.15655199 -0.048894785 -0.14371665 -0.033887405 -0.04756749 -0.22001503 -0.271591 0.035294764
-0.04363931 -0.18819672 0.065487124 -0.1871456 0.30536664 -0.085190326 0.31450725 -0.117070705
0.077567466 0.12209377 -0.067567885 -0.13902701 0.116918035 -0.16783313 -0.8576223 0.12196437
0.5682286 -0.25245196 -0.005326736 0.4542691 0.13801366 0.38319916 -0.07172851 -0.5854342
0.08152426 -1.9480226 -0.02844292 -0.23763144 0.28762138 0.07154352 0.12923591 -0.040524043
-0.30803812 0.16473636 0.07933942 -0.29094347 -0.33647114 -0.06459106 0.110979654 -0.019755075

predictionFunction.startBlock.2.bias f4 [64]
00000000: 4d88 ecbd 6cea adbd 1469 28bc 90da 1c3d
00000010: 71b0 9abe 627e 51be 7f8a 72bd 859f 93be
00000020: 0780 01be 094c aebc 7f05 0fbe cd90 473c
00000030: d04e e63d bed7 f53d 7529 253e 2204 5cbd
00000040: 23b5 b2bd e948 c8bd 2005 cabe 023c 6b3d
00000050: 14c1 91bc 5a9e e1bd c2eb abbd 14fe 003e
00000060: b853 c1bd d624 323c 6eea 1cbd 3bfe 12be
00000070: ca49 f3bd 3eb9 bc3d d9a3 01be 477c bebc
00000080: 82ff e1bd 0793 c6bc 5187 cd3b 9895 e6ba
00000090: d0bc febc 3dd5 1cbe e2be 4bbe 4288 dd3b
000000a0: d26a 70be c0ae 3f3e c462 493e e307 ebbd
000000b0: ab95 003e 6661 e9bd 60f2 a53d 7861 f2be
000000c0: 6f59 dcbd 5084 5cbe 5ad3 4fbd 9ff6 52bd
000000d0: ed55 063e 81a2 48be dd14 72be 822b d03e
000000e0: 1fcb 213c a4d7 34be 5097 113e 15e1 223e
000000f0: 889d 5c3e 6858 ea3d 3971 ebbd 9af0 74bd
-0.11549435 -0.08491978 -0.010278959 0.038294375 -0.3021274 -0.20458367 -0.05921411 -0.2883264
-0.12646495 -0.02127649 -0.1396694 0.012180519 0.11245501 0.1200404 0.16129096 -0.05371488
-0.08725955 -0.097795315 -0.39457035 0.057430275 -0.017792262 -0.11016531 -0.083945766 0.12596923
-0.09439796 0.01087304 -0.038309507 -0.14354794 -0.118793085 0.0921502 -0.12660159 -0.02325262
-0.110350624 -0.02424003 0.0062722345 -0.001759219 -0.031095892 -0.15315719 -0.19897035 0.006760628
-0.23478249 0.18719006 0.19666582 -0.11476114 0.12557094 -0.113955304 0.0810287 -0.47339988
-0.107592456 -0.21534848 -0.05073867 -0.051504727 0.13118716 -0.1959324 -0.23640771 0.40658194
0.009875088 -0.17660385 0.14217877 0.15906174 0.21544468 0.114426434 -0.11496205 -0.059799768

predictionFunction.policy_head.0.weight f4 [2, 64]
00000000: c1cf d6bd 6ad5 b03c da7b 31bd d771 0c3e
00000010: 2b43 acbe e521 b43d 9cff da3d 96b9 fd3e
00000020: 984c 073e 7345 f33c d0c4 853d fab2 2c3d
00000030: 8f7b c83c 26d3 c4bd de84 b7bc cb26 10be
00000040: b2c5 88be 564a cc3d 3cb9 e6be ce99 d8bd
00000050: f80e c03d 509f f43d 01db 433d bc9d de3d
00000060: c99b 9d3d bf4c bbbd 3376 f03d 0e9d b4be
00000070: 3d5d 633c 7480 e3bd 72f6 713b 8901 d13d
00000080: a815 c03c a6e6 0cbd e9af 90be 8f31 86bd
00000090: a33a 36bd cd56 cf3e 7861 5d3d 8f19 553d
000000a0: 4fe2 5e3f f386 9c3e cb96 163e 448d fcbe
000000b0: 826a cfbd 7317 27bd ac9a 45be 7ddf 743e
000000c0: 858b de3e d939 b83e 6e37 01be 5322 b73a
000000d0: 725a e6bd 7bcd de3d bb26 c33e 6e1f 43bd
000000e0: 419d bb3d 7814 d93b cc1b 3c3d b172 0abe
000000f0: 20b6 2e3d 8e8b 753b e73c 223d fb1d a93d
00000100: 1556 083e 1c2b 57be 6f3e 3f3d c41c 26be
00000110: b4f0 023e 9b45 523d df07 a63d 5474 c2be
00000120: 89e5 c4bd f928 fbbc cec5 0e3c e8fd f9bc
00000130: 882d d33d 5436 063e 4772 543d 7e55 773e
00000140: 981e a03e 6f5e 8cbe 1fb9 e13e 2fee d73a
00000150: e43d 8e3c fc56 95bb 65d7 52bd b937 d0bd
00000160: 41f5 c53d 9518 b63d 8126 a53c 4096 b23e
00000170: 7551 483d 073f 283e c166 c23d 29e6 86bc
00000180: d80d d6bd 3d93 a7bd 0716 983e 5a4f 903c
00000190: 22e8 abbc 8e70 bebe 7712 623d 138e ad3d
000001a0: c3e1 5ebf 25c1 63be 290a 83bd 36d8 d43e
000001b0: bb66 7abd ec64 d9bc af16 b93d 28e7 8abe
000001c0: 7507 01bf d3f3 a4be 8ae7 d33d f9c5 3d3d
000001d0: 2884 873a 008b b03d 1aa3 a0be 62cb b63c
000001e0: 8de5 403a c49a 22be f1de 47be b119 01bd
000001f0: 3f08 a93d 4c04 5e3e 3cf7 7fbd ce17 0e3d
-0.10488845 0.021586139 -0.043331005 0.13715301 -0.33644995 0.08795527 0.10693285 0.49555653
0.13212812 0.029696202 0.0653168 0.042162873 0.02447298 -0.09610586 -0.022402223 -0.14077298
-0.2671333 0.09975116 -0.45063198 -0.10576211 0.09377855 0.11944449 0.04781628 0.10869929
0.07695729 -0.091454975 0.11741295 -0.35276073 0.01387721 -0.11108485 0.0036920574 0.10205371
0.023447827 -0.03439965 -0.2825921 -0.06552421 -0.044489514 0.4049591 0.05404803 0.052026328
0.8706407 0.30571708 0.1470596 -0.49326527 -0.10127737 -0.040793847 -0.19297284 0.23913379
0.4346582 0.35981634 -0.12618801 0.0013972021 -0.1124772 0.10879036 0.38115487 -0.047637396
0.09160853 0.0066247545 0.045924947 -0.13520314 0.042654157 0.0037467214 0.039608862 0.082576714
0.13314088 -0.21012539 0.0466904 -0.1622191 0.12787133 0.051335912 0.0810697 -0.37979376
-0.09614093 -0.030659186 0.0087141525 -0.03051658 0.10311419 0.13106662 0.051866796 0.24153706
0.3127334 -0.27415797 0.4408655 0.0016474182 0.017363496 -0.0045574885 -0.051474947 -0.10166878
0.09665919 0.088914074 0.020159962 0.34880257 0.04890581 0.16430293 0.09492255 -0.01646717
-0.10451859 -0.0818238 0.29704306 0.017615963 -0.020984713 -0.37195247 0.05519339 0.08474364
-0.87063235 -0.22241648 -0.06398422 0.41571206 -0.061133128 -0.026537381 0.0903753 -0.27129483
-0.50402004 -0.32217273 0.10346897 0.04633138 0.0010339068 0.08620262 -0.31374437 0.022313777
0.00073584245 -0.15879351 -0.19518639 -0.03151864 0.08253526 0.21681327 -0.06249164 0.03469067

predictionFunction.policy_head.0.bias f4 [2]
00000000: 853c 40bc 5264 19bb
-0.011733179 -0.0023405743

predictionFunction.value_head.0.weight f4 [64, 64]
00000000: acb8 99bd 33ba acbc a30e 0abc f5e6 6a3d
00000010: 090f 073d 99e3 5fbd df56 613d 1134 9cbd
00000020: a7f8 69bd c3b8 0fbe 27f2 133d e638 0abd
00000030: 6cd7 d4bd a49e ebbd 6ba8 90bd 5f31 ccbd
00000040: 84a5 50bd fd99 d8bd 6a51 b9bd 8fd8 0a3d
00000050: 732d a2bd 0067 503d d07b 0b3c 88f3 9cbd
00000060: 0b5f ad3c 400a 9c3d 1eb4 73bc 9003 5e3c
00000070: 20cd cf3d 4267 3cbd 2014 e13c 0a19 523d
00000080: 3ebc 12be 7e29 973d c384 cabd a060 d2bb
00000090: 4a7a babd cc15 ce3c ace6 cdbd cbfd 99bd
000000a0: 80ed b03c 979f bebd 3d80 efbc 0b83 983d
000000b0: 7e39 22be 1657 a6bd fe1f f0bd 0b23 ab3d
000000c0: a715 9a3b 12ca d6bd 296a 0fbe 384d 843d
000000d0: abb4 553d 9c88 dcbd f558 cabb c824 7abd
000000e0: ffc1 823c 08c1 f0bd a488 043d 1f4e a43d
000000f0: 3204 b43b 13c1 99bd 2c04 5ebc 04eb 5c3d
00000100: c174 20be f0c8 fbbd 40ff d4bd 95a8 98bc
00000110: 4217 14be f206 55bd 8586 64bd d3d1 cbbe
00000120: 3d82 503d afc9 1d3d 53b3 02be e8bd 94bd
00000130: 4130 01be 41db 47be be85 1fbe 8d3f 63bd
00000140: d8f9 92be 10b8 c9be 528d adbd 5285 0fbd
00000150: a5d9 05bd 7cd6 2f3d e859 2ebd fa01 c7bd
00000160: ed34 d83e f77f 7a3e c9c4 883d 06c9 40bd
00000170: 5cf0 e43d 0009 29be 2f55 25be a7e5 20bd
00000180: bace f2be 0595 6fbe e3c7 d1bd 7039 f43c
00000190: 3b89 e93d 64be 883b cf33 8b3c 0753 543e
000001a0: 15af 5cbe 393f bbbd 2a2d bdbd ad30 bcbe
000001b0: 518a c1be 5a4c eb3d 8f34 63be 75c8 18be
000001c0: 6a6f 633e 9ad8 52bd dc50 bfbd dae5 823d
000001d0: 1f2a 95bd c699 b0be 2e97 c3bd ca4e 593e
000001e0: 6b8d f8bc cc31 e2bb 32da 2b3e 0853 c03c
000001f0: 5b6e 0ebe 0a0f de3d eb8c 70be 305f 97bd
00000200: cc44 113d ca32 8f3d c090 033e f560 c4bd
00000210: 503c f4bd 428d a2bd ba08 983d dc8e 1bbe
00000220: 0725 78bd 327e 3e3e 902e 293d 7ddd 21be
00000230: ebef 0fbe 1913 c5bc 3b54 a7bc 0429 e7bd
00000240: aa23 cebd 55e9 74be ad12 b8bd 01da a23c
00000250: f4de 76bd 8822 97bd cbe4 b8bd 1207 39be
00000260: 36ce 903e f4d9 dfbd b0a2 2c3c 5abb 6f3d
00000270: adb5 113e a66d 80be ad7f 47bd bfd4 f0bc
00000280: 9393 50be cffa 8ebe f6de 03be 4c5d e4bd
00000290: 3df8 25bc 3bee 87bc d87d 1ebe 679a 123e
000002a0: 733b b63d 4333 a0bc 4531 5dbd 0758 89be
000002b0: d2b2 a8be e885 ecbd 759a 4bbd 4524 5dbe
000002c0: cf53 8cbd be53 1d3e 2264 05be 5bbf 3dbc
000002d0: 417f aabd 8300 75be 9a87 93bd c594 c6bd
000002e0: 8301 a13d 0156 38bc 7702 183e 5027 bb3d
000002f0: 5cf9 9f3c 22af 1bbe 16c5 41be da81 9a3d
00000300: 9547 eb3e 2979 9c3e 2aac 1fbd 71d6 16be
00000310: c2f2 cc3e 869f 193e a60e f3bd e6a8 c4bd
00000320: dd4f f4be 48ed ae3d f6b8 2f3e 83d4 2bbe
00000330: bbfa 69be dc5e 1c3e 4655 39bd 5df1 27be
00000340: 9b40 3e3f c3be 7f3d 7d62 35bc 599a 9ebe
00000350: f209 123e e03b 2cbd d52d dabd 7e41 afbe
00000360: a982 b1bd 5d45 c63d 2ca8 21bd cb87 20bd
00000370: 4e11 c2bd 74b2 b53e ce7f d13d c703 adbe
00000380: 86f7 b53e b58c 0dbf 4cbe 973e c2cb 11bd
00000390: 2526 b93e c9c7 8b3e d955 223d 2d0a 20bd
000003a0: f7f6 ee3e cd96 30bd 3088 4cbe 767b c3bd
000003b0: 4f6d 85bd 1e58 993d 67c6 2abe 3ba9 e6bd
000003c0: f395 3cbe 8f7a 6dbd 93f4 d93c 598f 68be
000003d0: ec52 36be 0545 8fbe 6656 923d 3440 4cbe
000003e0: fbd1 93bd 8a48 223e ab9f 4d3e cf20 c3bd
000003f0: a04b 20be 7491 76be eb67 5c3e 9da3 a4bd
-0.075059265 -0.02108488 -0.008426341 0.057349164 0.032973323 -0.054660413 0.055014487 -0.076271184
-0.0571219 -0.14035325 0.036119606 -0.03374567 -0.10392651 -0.11504868 -0.07063373 -0.09970354
-0.050939098 -0.10576246 -0.090487316 0.033897933 -0.07918825 0.05087948 0.008513406 -0.076636374
0.021163484 0.076191425 -0.014874486 0.013550654 0.10146546 -0.04599691 0.027475417 0.05129341
-0.14329621 0.07380961 -0.098886035 -0.00642021 -0.09105356 0.025156878 -0.10053763 -0.0751911
0.021597624 -0.09307783 -0.029235953 0.074468695 -0.15842244 -0.08122079 -0.11724852 0.08356293
0.004702288 -0.104877606 -0.1400534 0.06460041 0.05217425 -0.10768244 -0.0061751553 -0.061070234
0.015961645 -0.11755568 0.032356873 0.08022713 0.005493664 -0.07507529 -0.013550799 0.053935066
-0.15669538 -0.12294185 -0.104002476 -0.018635074 -0.14461997 -0.052008577 -0.05579235 -0.3980852
0.050905455 0.03852242 -0.1276372 -0.07262784 -0.12616064 -0.19517232 -0.15578362 -0.05548053
-0.2870624 -0.3939824 -0.0847422 -0.035039254 -0.032678265 0.042929158 -0.04256621 -0.09717174
0.4222788 0.24462877 0.06678159 -0.04706671 0.111786574 -0.1650734 -0.16145776 -0.039281514
-0.47423345 -0.2339669 -0.102432035 0.029812545 0.11403128 0.004173087 0.016992478 0.20734797
-0.21551163 -0.09142918 -0.0923713 -0.36755887 -0.3780084 0.11489172 -0.22188018 -0.14920218
0.2221047 -0.0514761 -0.093415946 0.06391497 -0.072834246 -0.3449232 -0.095503196 0.21221462
-0.03034087 -0.006902909 0.16782454 0.023477092 -0.13909285 0.10842712 -0.23491256 -0.073912024
0.035466 0.06992109 0.12848186 -0.095888056 -0.11925566 -0.07937099 0.074235395 -0.15191215
-0.060582187 0.18602827 0.04130417 -0.15807147 -0.14056365 -0.024056958 -0.020425906 -0.1128712
-0.10065396 -0.23917134 -0.08987937 0.019879343 -0.06027122 -0.07379633 -0.09028014 -0.18069103
0.28282326 -0.10930243 0.010536835 0.05852828 0.1422946 -0.25083655 -0.048705745 -0.02939832
-0.20368795 -0.27925727 -0.12878022 -0.111506075 -0.010129985 -0.01659309 -0.15477693 0.14316712
0.08898058 -0.019555693 -0.054002065 -0.26824972 -0.3294893 -0.11548978 -0.04970785 -0.21595867
-0.06851923 0.15363976 -0.13026479 -0.011581267 -0.08325053 -0.23925976 -0.07203598 -0.09696344
0.078616165 -0.011250974 0.1484469 0.09138358 0.019528084 -0.15203527 -0.18922839 0.075442985
0.4595305 0.30561188 -0.038982548 -0.1473024 0.4002896 0.1500226 -0.11868028 -0.09602527
-0.4771718 0.085413516 0.17160401 -0.16780286 -0.22849552 0.15270561 -0.04524734 -0.16400667
0.7431733 0.062437784 -0.011070845 -0.30977133 0.14261606 -0.04204929 -0.10653273 -0.34229654
-0.086674996 0.09681199 -0.03946702 -0.039192002 -0.09475957 0.3548771 0.10229455 -0.33791944
0.35540408 -0.55292827 0.29637372 -0.03559471 0.36161914 0.2730086 0.039632652 -0.039072204
0.46672794 -0.043112565 -0.19973826 -0.09545033 -0.065149896 0.0748751 -0.16677247 -0.11262747
-0.18416576 -0.05797821 0.02660588 -0.22710933 -0.1780507 -0.27982345 0.071453854 -0.19946367
-0.07217785 0.15847984 0.2008044 -0.09527742 -0.15653849 -0.24078923 0.21524017 -0.08039019

predictionFunction.value_head.0.bias f4 [64]
00000000: f7ad 14be 488f 0fbe 6013 9fbb 5b95 c9bd
00000010: 736d e2bd 8f6b 62bd 69e2 ecbb 41c3 8dbe
00000020: aa7b e93d 33e6 8dbd 1bdd dfbd 0145 41be
00000030: 9818 ccbd d541 44be fbfb 50be 4058 86be
00000040: fad1 a8bd 1645 b7bd 4228 29bd d394 b73e
00000050: a0b6 87bd 5c8c 3fbe 41a7 bf3e a3ad 49be
00000060: 603c 2bbd c9ba 33be 5752 b4bd 0329 433e
00000070: 0f39 0abd efdb fcbd 1bf8 283e d4a1 51bd
00000080: b676 1cbe bc4d bc3c 828e 8d3e d3f7 33be
00000090: 4419 65be 9fae ba3d 22b3 c13c 96ed 23be
000000a0: 5d99 29bd bd59 a03d e9d5 fdbd 9529 253d
000000b0: f799 8e3d 9fb5 bf3d fcc6 2ebe c149 0bbe
000000c0: 95ff 793c 313f 67be 1a42 83bd 1807 613d
000000d0: 99f6 2bbe b1ca 5c3c 0d22 50be 00d2 8c3e
000000e0: 0a44 e93d 4cdc 86bd 28a4 07be 17d1 f6bd
000000f0: 84d0 a43e b7cf d13e 448e 603d 1f67 a1be
-0.14519487 -0.14019501 -0.0048546046 -0.098429404 -0.11056032 -0.055278357 -0.0072291386 -0.2768803
0.1140054 -0.06928673 -0.109308444 -0.18873979 -0.099656284 -0.19165738 -0.20408623 -0.26239204
-0.08243175 -0.08948724 -0.04129816 0.3585573 -0.0662663 -0.18705887 0.37432292 -0.19695143
-0.041805625 -0.17551722 -0.088047676 0.19058613 -0.03374582 -0.123466365 0.16500895 -0.051179722
-0.1527966 0.022986285 0.27647787 -0.17575006 -0.2237292 0.091153376 0.023644987 -0.160086
-0.041406024 0.07829616 -0.12394316 0.04032286 0.0696296 0.09360813 -0.17068094 -0.13602354
0.015258689 -0.225827 -0.06409092 0.054938406 -0.16793288 0.01347606 -0.2032549 0.27503967
0.113899305 -0.06584987 -0.13246214 -0.120515995 0.32190335 0.40978786 0.054823175 -0.31523988

predictionFunction.value_head.2.weight f4 [41, 64]
00000000: 4772 9bbd 2548 2dbf a2c2 86be 8ae7 50bf
00000010: 1048 7cbf 7afa 76bf 497d aabf dfa1 45bf
00000020: 0034 d9bf 4526 dcbe 9cae 0e3d 5786 30be
00000030: 5b32 e0be bac8 00bf 5006 8bbf c1a9 edbf
00000040: b75d 91be d2e8 64be b8f7 b9bf 3ec4 03c0
00000050: 1df3 eabd e0b2 debe 1708 ddbf 292c 6cbf
00000060: e296 3ebf 944a 9c3d 377e d4be 4fde 03bf
00000070: e556 38be 8b28 84bf 53c0 c8bf b0fe ddbf
00000080: 2db1 a6be f141 e7be 83af dbbf ec5a 17bf
00000090: 0e23 f8be d545 31bf f946 dabf e454 8dbe
000000a0: 0dc9 93be ee35 4fbf 532b bfbd faba 1bbf
000000b0: e546 bebf 2348 93bf e80a 1fbe 9f32 a73d
000000c0: 041a 5abe 387d 88bf 121a 37bf e6d3 a6bf
000000d0: bf67 04bd 4028 53bf e77a dabe 7783 cfbf
000000e0: ef99 c1bf 68e2 2cbd ca22 e9bd 91d9 cdbf
000000f0: 469a dcbf 3c8a 8bbf e32c cbbf 4b9e f3be
00000100: 7025 b1bc efa6 3ebf e70e cabd a776 4cbf
00000110: b260 75bf 2f3d 82bf 35c3 9cbf 3e49 2bbf
00000120: 9ca1 d7bf 467c 02bf 9b33 87bd 2e6c adbe
00000130: b49e 22bf 4cc6 0abf 1a05 83bf 9559 f2bf
00000140: 9cb4 febd 5e84 3abe 126b ccbf 8ca2 fdbf
00000150: a7bc 8abd 6374 c7be 8002 e9bf faa4 6ebf
00000160: 8789 1dbf e745 423d 7781 d5be 94a4 e8be
00000170: 237f 97bd e10b 55bf bc60 c4bf 43f1 cfbf
00000180: 09b6 fcbd 254b f1be fb41 ddbf 5f52 0cbf
00000190: 36d2 1abf e5a0 49bf b6e4 cebf 9cd6 14be
000001a0: c454 2cbe 84f6 24bf 2d2e 16bd ddf7 2abf
000001b0: dbd4 b8bf 0467 9fbf 6a1d f6be e739 97bd
000001c0: 1cac 3dbe 1c87 9bbf 95b5 2cbf 7144 9ebf
000001d0: 2e52 b73c ef98 19bf 8899 14bf 7064 d0bf
000001e0: 67a4 bebf aeea 3ebd 77aa 36be ba84 c6bf
000001f0: b60d e3bf a871 8abf a2cc d2bf 174d c5be
00000200: 3011 7abd d47a 46bf 3faa 24be 3169 54bf
00000210: 4335 8bbf 917e 7bbf b95f a9bf b581 1ebf
00000220: 5da2 d1bf 7051 01bf cfcb 693d a8d0 81be
00000230: 7d21 06bf fe7f f0be 1c4b 97bf 4e1e f5bf
00000240: c8fd 92be 7c84 90bd 1658 c1bf 972c efbf
00000250: 10f8 b63c 8733 95be 0a45 f0bf ba1b 77bf
00000260: 1e90 2dbf 002e c13d d99d cdbe f78b 0cbf
00000270: 8cb8 2ebe 9312 82bf 5419 cdbf 33d1 cbbf
00000280: 952f 0dbe d8b7 1cbf a10a debf cde5 e0be
00000290: d466 09bf b516 40bf ff2b d9bf a1de fbbd
000002a0: d85f 41be 1ca2 38bf e686 8cbd f6f0 49bf
000002b0: fea6 b6bf 332d a0bf bae2 6abe b13c b53d
000002c0: 9d6e 90be 95f0 89bf 1cef 64bf 0b3c a2bf
000002d0: 5b85 e33d 2845 29bf 71ed 00bf 250d cebf
000002e0: 85de b6bf 636a 88bd 34b9 65be a4ef c9bf
000002f0: 0907 e7bf 958e 9abf 49f5 cfbf a646 05bf
00000300: 3bd5 94bd 6f64 1ebf fdc4 99be 55f2 50bf
00000310: b71c 77bf 9597 83bf f485 98bf 25b4 25bf
00000320: dc08 cfbf da23 fcbe 0cd6 15bc 8e37 24be
00000330: 8ee7 08bf 4a58 f5be 2aba 89bf b6bd 07c0
00000340: 8307 13be f65c 05be fd2e cfbf 22a5 f5bf
00000350: 2a3b b7bd 0bf6 acbe 5459 ecbf cfa6 58bf
00000360: bcfa 08bf cd87 20bd ffec bbbe bc02 f5be
00000370: a1dc 2ebe bcf6 6bbf de67 b4bf f6f4 ddbf
00000380: 30d2 0cbe 97da c6be e4b4 e0bf 7ca2 01bf
00000390: 6f3f 12bf 5ad1 15bf 45c6 e2bf 2b28 12be
000003a0: 1e72 adbe 32d9 4ebf 4102 c13d a8c8 2ebf
000003b0: 973a c1bf d9e4 94bf 1145 edbe 07a8 d83d
000003c0: 53ed 96be 9bfd 9abf 99ae 3cbf 73e9 a8bf
000003d0: 008f ebb9 6f4e 4dbf f1e9 e2be 7266 d2bf
000003e0: f443 c3bf fcde d6bd 43b9 7dbe d6a0 bdbf
000003f0: a87e e8bf 6296 9fbf 0aa4 c9bf 8e36 c8be
-0.07590156 -0.6768821 -0.26320368 -0.816033 -0.9854746 -0.96475947 -1.3319484 -0.7720012
-1.6968994 -0.42997947 0.03483449 -0.17238747 -0.43788418 -0.50306284 -1.0861301 -1.856743
-0.2839181 -0.22354439 -1.4528723 -2.0588527 -0.114721514 -0.43495846 -1.7268094 -0.92254883
-0.7444898 0.07631412 -0.41502544 -0.5151109 -0.18001898 -1.0324873 -1.5683693 -1.734335
-0.3255705 -0.45167497 -1.7162937 -0.5912311 -0.48464245 -0.6924718 -1.7052909 -0.2760383
-0.28864327 -0.80941665 -0.09334435 -0.6083218 -1.4865385 -1.1506389 -0.15531504 0.08163952
-0.21298987 -1.0663214 -0.71524155 -1.3033416 -0.032325502 -0.8248329 -0.42671892 -1.6211995
-1.5125102 -0.042208105 -0.113835886 -1.6082021 -1.723458 -1.0901561 -1.5873073 -0.47581705
-0.021624297 -0.7447347 -0.09866124 -0.7986855 -0.9585067 -1.0174922 -1.2247072 -0.66908634
-1.6846194 -0.50970876 -0.0660164 -0.33871597 -0.6352341 -0.54208827 -1.0235932 -1.8933588
-0.12436792 -0.18214557 -1.5970175 -1.981523 -0.06774264 -0.38955984 -1.8203888 -0.93220484
-0.61537975 0.047429945 -0.41700336 -0.45438063 -0.07397296 -0.8322125 -1.5342021 -1.6245502
-0.12339408 -0.47127643 -1.7285761 -0.5481319 -0.60477006 -0.7876113 -1.6163547 -0.14534992
-0.1682921 -0.64438653 -0.03666513 -0.6678446 -1.4439958 -1.2453313 -0.48069316 -0.07384091
-0.18522686 -1.2150607 -0.6746457 -1.2364637 0.022378054 -0.59998983 -0.5804677 -1.6280651
-1.4893922 -0.046610527 -0.17838465 -1.5509255 -1.7738559 -1.0815935 -1.6468699 -0.38535377
-0.061051548 -0.7753117 -0.16080569 -0.8297301 -1.0875629 -0.9824 -1.3232337 -0.6191667
-1.6377674 -0.5051489 0.057079133 -0.25354505 -0.5239485 -0.4697265 -1.1819797 -1.9149873
-0.28709245 -0.070565194 -1.5105007 -1.8685483 0.022335082 -0.29140875 -1.8771069 -0.9652668
-0.6779803 0.09432602 -0.4015949 -0.5490107 -0.17062587 -1.0161918 -1.6023355 -1.5923218
-0.13787682 -0.61218023 -1.7346994 -0.43925324 -0.5367253 -0.7503465 -1.6966552 -0.122983225
-0.18884218 -0.7212236 -0.06861667 -0.788833 -1.4269712 -1.2513794 -0.22938052 0.088494666
-0.2820939 -1.0776545 -0.8942735 -1.2674574 0.1110942 -0.6612115 -0.50362307 -1.6097761
-1.4286658 -0.06660917 -0.2243393 -1.5776258 -1.8049022 -1.2074763 -1.624673 -0.52060926
-0.07267233 -0.61872 -0.30033103 -0.8161977 -0.9652819 -1.0280634 -1.1915879 -0.64728004
-1.6174579 -0.49246103 -0.009145271 -0.16036817 -0.53478324 -0.47918922 -1.0759938 -2.120954
-0.14358334 -0.13023743 -1.6186215 -1.919102 -0.089468315 -0.33781466 -1.8464761 -0.8462953
-0.5350759 -0.03919201 -0.3670425 -0.4785365 -0.17076351 -0.9217336 -1.4094198 -1.7340381
-0.13752055 -0.38838646 -1.7555203 -0.50638556 -0.5712804 -0.5852257 -1.7716757 -0.14273135
-0.33876127 -0.80800164 0.09424258 -0.6827493 -1.5096005 -1.1632339 -0.46341756 0.10578924
-0.2947794 -1.2108644 -0.73703915 -1.3196243 -0.00044929236 -0.80197805 -0.44319108 -1.6437514
-1.5255113 -0.1049175 -0.24777703 -1.4814708 -1.8163652 -1.2467768 -1.5753186 -0.39104122

predictionFunction.value_head.2.bias f4 [41]
00000000: 808a d5bf b0f7 d8bf 654c cebf 79a9 d1bf
00000010: 26a0 d7bf 51ea d9bf 1b94 d0bf ad29 c7bf
00000020: dbb2 dbbf 8513 c9bf ee19 ccbf aa08 cbbf
00000030: ac7c cdbf 3222 e1bf c68c e1bf 772e dcbf
00000040: dabc c3bf 8fe6 dabf 8378 e5bf 5726 e0bf
00000050: 0b0e 2abf d94c 21bf 5c53 debe 65fe 2bbf
00000060: 9154 57bd cb46 a5bd 611b d03c 1386 53be
00000070: 3413 81bc c5e4 043c 1417 4c3c 0689 24be
00000080: 2965 03bf 636a d0bf ffab ddbf d290 d7bf
00000090: 5e8f ddbf f7e4 ddbf 96da d4bf f31c e2bf
000000a0: caf5 ddbf
-1.6682892 -1.6950588 -1.6117064 -1.6379844 -1.6845748 -1.7024633 -1.6295198 -1.5559593
-1.7163957 -1.5709082 -1.5945413 -1.5862019 -1.6053672 -1.758856 -1.7621086 -1.720168
-1.5292008 -1.7101611 -1.7927402 -1.75117 -0.6642768 -0.63007885 -0.43422973 -0.6718505
-0.052570883 -0.08070143 0.02540368 -0.20656614 -0.015756227 0.0081111835 0.012456674 -0.16067895
-0.51326233 -1.6282467 -1.7318114 -1.6841071 -1.7309377 -1.73355 -1.6629207 -1.7665085
-1.7340634

dynamicsFunction.startBlock.0.weight f4 [64, 34]
00000000: 31f1 453e 42b3 9d3e e743 79bd d834 c33d
00000010: 434f 073e 9273 253e b57e b2bb 272c 22bd
00000020: 224d 98bd d552 19be ffe6 993e 0fce 893d
00000030: 0254 263b b352 123e 4807 b5bc b7e3 ad3e
00000040: bc81 283e 7670 eb3d 0cab 0fbd a725 543e
00000050: f0e4 563e 740c 2a3e b99a fbbd cc71 fe3d
00000060: b7d1 7c3e 1b6a db3d 817a 6b3e be54 643c
00000070: 8977 823e 6cfc 8dbc 08bf a4bd d492 9a3d
00000080: 324e 933e 4874 9abe c86c 8ebe ee11 143e
00000090: ca20 28be 29c3 5ebd e905 a7bd 63f3 a73e
000000a0: 6af0 87be aef1 2dbd 7a89 44bd fe5b 983e
000000b0: ff12 1cbe c8f4 a43d eee4 6c3e b3e2 9b3e
000000c0: e44b 7c3e e0c5 853d 9cb8 b3bc f340 ef3d
000000d0: d5e6 22be ed86 4fbd abf2 34bd e3ea 093c
000000e0: 9965 213d 12be f43d 2015 6b3e c175 f23d
000000f0: 820e 693d bc78 c03e 1d7e f5bd cb39 7cbc
00000100: 7397 07be 259f 253e 53b2 8c3e 6a8b ccbe
00000110: 2149 a53d 39ea 0bbe 13b6 013f b9d6 90be
00000120: 647e 263d e980 97bd a5a5 103e 24a1 c7bd
00000130: 442a 843d 71c4 26be 5cb7 433e 33d4 053e
00000140: 40eb 85be 357f 6dbe b69c 103d 2444 2fbe
00000150: 4ca1 91bd e7b8 c73b f80d 3dbe 699b aa3d
00000160: 8161 1a3e 420c 40be 7236 79be 027b 30be
00000170: 1031 aebe e301 91be 0103 47be 3dc7 dfbe
00000180: b4c9 f83d daa5 c9be d20e 0b3f ed3b 703e
00000190: e379 c6bd c437 473e 1565 333d d296 67be
000001a0: 30fe 5a3d 4c8f d93e de3e 333f cfab 26be
000001b0: 529d e33d 137f f3bd b069 e33e 84a6 fe3d
000001c0: 8584 8b3c 1b14 8f3e e3cb 30be 3a2c 90bd
000001d0: 19a4 b2bc 9ee8 0abf bdb9 85bb 2560 22be
000001e0: fdb6 1c3e c422 12bf 7eb1 12be 0943 59be
000001f0: 75d5 df3d 70ba 92bd 5b08 373b c405 48bc
00000200: 1cac 76be 35a2 2f3e 68cd abbe 75d5 383e
00000210: 1a38 8abd 8a05 77be 73ae b83b 398f 91bc
00000220: 80eb b53b d360 cabb 6ea9 82be 7657 0c3f
00000230: 9f57 793e 749d abbd b5b0 1f3d a14a d6be
00000240: dc28 e2bd 90ab b2bd 993b 043d 5b20 79bd
00000250: 9fc5 1d3e aa68 6cbd c93b eebe ee6a ee3d
00000260: 5ffd 46bb 437a 90bb d255 62be 3928 77be
00000270: 9d91 5abe dd5f 36bd 03a3 6abd dfcf 3bbd
00000280: e2e8 643e 2334 443e 9b39 513e 9432 ca3e
00000290: b5d3 b13d c09f aebd b7e5 ed3d 52e4 e9bd
000002a0: acca 45be 2b7c 4fbd 24b8 be3a a269 7dbe
000002b0: 7301 473e 6609 fa3c 1691 99bd 8be5 24be
000002c0: a64b 45bd f171 f9bd b88d 843d f1d4 16bc
000002d0: ef45 443d f79e 143e 25e1 743e 88b5 1a3d
000002e0: ed3c 8b3d 1b16 33be 0ae2 8ebe c342 733e
000002f0: d644 2ebd 82cf eebe 0cd8 5dbd eb85 5abe
00000300: 3389 853d 978a 1cbe f32f 11be 36ab 63be
00000310: 4f43 fa3c c9e9 663e 8a4f 9c3d 26c2 3f3e
00000320: c6d2 723e eecd 37bd db08 71bd a1c1 68bc
00000330: f7af 993e ab05 1d3d ad79 ec3c 0e31 1cbd
00000340: 711f 5b3e 27c1 57be 0c97 f6bd 6814 53be
00000350: 7c04 203e 3c48 513d 85cc 16bc f6da 0c3e
00000360: 07a0 9ebe bc6a 98be cf2e b1bd 32f1 e6bd
00000370: 7282 193e 6204 c7bd 1102 08be 6dd3 f63b
00000380: 5cdc ee3d dbf8 343e 81ca 8abe f255 303c
00000390: 08a1 523d c132 84be ebfc b4bd 5637 36be
000003a0: 76bf 213e a4f9 1ebd c546 9a3c 327e 3cbe
000003b0: d4ae 05bf b3c3 023f afd8 3a3d 973c 7cbd
000003c0: 3fef 5a3e c55d ad3c b8a4 92bd 7c42 353d
000003d0: 93b3 37be aed9 06bd 5407 3ebb 64ca 653d
000003e0: 67ab 21bd 8283 993d ee7b 9a3d 0216 d2bd
000003f0: e78b e33c 2d99 bd3d 4007 083e 3e9f ed3d
0.19330288 0.30800825 -0.060855772 0.095315635 0.1321383 0.16157368 -0.0054472336 -0.03959289
-0.07436587 -0.14973004 0.3005905 0.06728756 0.0025379662 0.1428936 -0.022098199 0.33962795
0.1645574 0.114960596 -0.035075232 0.20717488 0.2098577 0.16606313 -0.122853704 0.12424049
0.24689375 0.107135974 0.2299595 0.01393622 0.25481823 -0.017332278 -0.08044249 0.075475365
0.28770596 -0.3016684 -0.27817369 0.14459965 -0.16418758 -0.054385338 -0.08155424 0.32802877
-0.2655061 -0.04246681 -0.04798267 0.29757684 -0.15241621 0.08054501 0.23134205 0.30446395
0.24638325 0.06531882 -0.021938615 0.1168231 -0.15908368 -0.050665785 -0.04417674 0.008417818
0.03940353 0.119503155 0.22957277 0.11838866 0.0568986 0.37592113 -0.11986945 -0.015394638
-0.13241367 0.1617399 0.274798 -0.39950114 0.08070589 -0.13663568 0.5066845 -0.2828882
0.04064788 -0.073976345 0.14125688 -0.09747532 0.06453374 -0.16285874 0.19112915 0.13069229
-0.26156044 -0.23193057 0.0353057 -0.17115837 -0.07110843 0.00609504 -0.1846236 0.083304234
0.15076257 -0.18754676 -0.24337175 -0.17234424 -0.34021807 -0.28321752 -0.1943474 -0.43706694
0.12147847 -0.39384347 0.5431949 0.2346036 -0.09691217 0.19454867 0.04379757 -0.22616127
0.05346507 0.4249214 0.700178 -0.16276477 0.11113991 -0.11889472 0.4441657 0.12434104
0.017030964 0.27945027 -0.17265277 -0.070396855 -0.021806763 -0.54261196 -0.0040809796 -0.15856989
0.1530418 -0.570843 -0.1432552 -0.21216978 0.109293856 -0.071644664 0.0027928564 -0.012208406
-0.24089092 0.17151721 -0.3355515 0.18050177 -0.06748982 -0.24123207 0.0056360303 -0.01776849
0.0055517554 -0.006176093 -0.2551989 0.54820955 0.24349831 -0.08379641 0.03898688 -0.41853812
-0.110429496 -0.08724129 0.0322834 -0.060821872 0.15407418 -0.057717003 -0.46529987 0.11641489
-0.0030363423 -0.004409106 -0.2210305 -0.24136437 -0.2134461 -0.044525016 -0.057284366 -0.04585254
0.22354463 0.19160514 0.20432131 0.39491713 0.08682958 -0.08526564 0.1161608 -0.11420502
-0.19315594 -0.050655525 0.0014550728 -0.24747327 0.19434147 0.03052206 -0.07498376 -0.16103189
-0.048167847 -0.12179936 0.06472343 -0.009206043 0.047918256 0.14513765 0.23914011 0.037770778
0.0679873 -0.17488901 -0.2790683 0.23755936 -0.042546116 -0.4664269 -0.054161116 -0.21340148
0.06520309 -0.15287243 -0.14178447 -0.2223328 0.030549673 0.2255012 0.07632358 0.18726406
0.23713216 -0.044874124 -0.058846336 -0.014206321 0.30017063 0.038335484 0.028866613 -0.03813272
0.21398713 -0.21069776 -0.12040529 -0.20613253 0.1562671 0.05109428 -0.009204035 0.13755402
-0.30981466 -0.29768932 -0.08651506 -0.11276473 0.14991167 -0.09717633 -0.13282038 0.007532528
0.11663124 0.17673056 -0.27107623 0.010762678 0.051423103 -0.25819972 -0.08837303 -0.17794546
0.15795693 -0.038812295 0.018832574 -0.18407515 -0.5221989 0.51079863 0.0456168 -0.06158122
0.21380328 0.021162877 -0.07160324 0.044252858 -0.17939596 -0.03292244 -0.0028996067 0.056101218
-0.039470103 0.07495786 0.07543169 -0.10258104 0.027776672 0.092577316 0.13284016 0.11602639

dynamicsFunction.startBlock.0.bias f4 [64]
00000000: 5a6a b33d 5136 d73d 5561 ab3d fb2f 24be
00000010: ad79 1cbe a047 12be 767f 493e f0f2 2fbd
00000020: 3a4b 2f3e aab9 393d 1d01 83bd 65b4 203e
00000030: 336a 973c f814 143e e8f3 4c3d 1f0b 38be
00000040: 0caa 50be 758d 4d3e 3c22 3bbd b269 81be
00000050: 920d 0dbe a60c bc3c ee58 3cbe 6584 d4bd
00000060: b082 48bd e55d d73d 557d 823e e848 e0bd
00000070: dab3 59be 1ba7 093e 91cc debc 53bc b6bd
00000080: acd8 f13d 1863 0a3a fef8 d23d 5af5 c93d
00000090: 5ec9 3c3d 22c4 e6bc d51d 353b 49b8 7bbe
000000a0: fb4d ea39 b1fc 663d 52cf 34be b5cc 6a3e
000000b0: bd05 15bd 49bd a43d fa77 1fbd 7a2f 77bd
000000c0: 4768 0e3e 9f12 1b3e 9988 f43c 9614 17be
000000d0: 071d 33bc 9fb3 b8ba b45e 0cbc dc55 c5bd
000000e0: 5ee4 993a 9b03 ef3d 2625 18bd ef67 173e
000000f0: 59fb 083e 9d86 483d 88b8 ea3d b5d8 cc3d
0.08760519 0.10508407 0.08368174 -0.16033928 -0.1528079 -0.14285135 0.19677529 -0.042956293
0.1711854 0.04534308 -0.06396697 0.15693815 0.018483257 0.14461124 0.050037295 -0.17972992
-0.20377368 0.20073493 -0.045686945 -0.25275952 -0.13774708 0.02295525 -0.18393299 -0.10376815
-0.04895276 0.10515956 0.25486246 -0.10951406 -0.21260014 0.13442652 -0.027197154 -0.08922639
0.11808905 0.00052790483 0.10301398 0.0986125 0.046090476 -0.028169695 0.002763619 -0.24582018
0.00044690058 0.05639333 -0.17657211 0.22929652 -0.036382426 0.08043916 -0.038932778 -0.06034801
0.13906966 0.15143822 0.029850291 -0.14753947 -0.010932214 -0.0014091617 -0.008567501 -0.09635517
0.0011741032 0.116706096 -0.037144803 0.14785741 0.13377132 0.048956502 0.11460978 0.10002271

dynamicsFunction.startBlock.2.weight f4 [32, 64]
00000000: 20b3 65bd 1f83 7abe 2bcc 8c3d e5ca 8cbd
00000010: 71c9 3bbe 6a6e 68bd b43d 8d3e 0f1e e53c
00000020: b5d8 4f3e cd3a 203d f5da 6abe 9cfb 383d
00000030: 0819 ea3d 97ae 683e ab8d 0abd d6fd f6bd
00000040: a882 ccbd 951b 883b bd57 673b cf24 46be
00000050: 0176 12be 90bc 99bd 80b3 333d 6c62 a4bd
00000060: 06f9 6fbd 8ce7 363e eee6 603e f830 073b
00000070: 047c de3d 4ec6 c2bd 946b 203c 34eb b4bc
00000080: 013c 96bd ab71 35bd 24c6 b23d d9ec d6be
00000090: f103 76be 1e54 05bd 8ddd 623e a9f1 28be
000000a0: b961 9ebd d9f5 1ebe 6ce7 683e 3bf1 973b
000000b0: 39d1 91be 92a3 a5bd 62d9 3b3d 85f2 c33d
000000c0: 2ea3 f4bd fa11 1e3e 0900 2bbe 9834 4b3e
000000d0: d1aa 7c3d e806 88bd 45d0 6bbe ac9c 35be
000000e0: d583 90be a6cc a63d 9a3c a73e cff0 483e
000000f0: 35de 1c3e 5c21 9fbd f501 62bd 74b2 89be
00000100: 6fb9 723c 2eea 853e 8897 02bf 49b6 ddbc
00000110: 0168 bb39 49c8 bdbe 060d d0be 1b65 42bd
00000120: 19b0 9cbe ca73 25bd 6363 763e ef71 1cbe
00000130: d66d d6bd 2c40 4cbf d829 f8bd 2cbf c13d
00000140: bfd1 913f c1c5 e4bd 45a9 c73b 0aca 613e
00000150: ca8d fd3d 2666 a23c a001 1b3e f027 883d
00000160: 66b3 3d3d 35ac a83e a8d7 4cbf c17f dc3d
00000170: 21f2 933c dcbe 47be 70c9 b5bd d8ec a33e
00000180: b476 5a3c 0498 c23e 4663 d5bd 9f5e a1bd
00000190: c027 a23e 8c2e 36bb dc61 74bd ea59 373e
000001a0: 0cf3 2ebd 2a15 c33e 87b3 b43d 25c5 27be
000001b0: 37bb d33e a146 e03d 9759 be3d af58 183e
000001c0: feaa 1a3e 52c7 8fbf 45bc 9cbc b4fd 15be
000001d0: 711a fa3e 0fea be3d 9dc3 383e cf38 913e
000001e0: 870e 45be 52ea 603d bd65 d83d 9bf5 e5bc
000001f0: a631 2cbf 176f 31bf 6530 f33d 1523 6fbe
00000200: af67 ec3c 716a 8ebe 9582 6f3e e25d 98be
00000210: 1de1 8b3d f7ff e53e 421e 8abd b983 a0bd
00000220: cb02 a93d f6f5 943e 8455 67be 6b59 893d
00000230: 239d 333e bb96 963e 046e 133d 6497 ea3d
00000240: 00c3 18be d1f0 e53e cb61 abbe 5f14 f4bd
00000250: ceeb 62bd fb5d 963e 9d97 453d a2bf dd3d
00000260: 1dec 15bd 7405 bbbe b901 cd3e 8e1e 59be
00000270: 8c52 39bd 6125 f03d 0317 8dbe 7020 5bbe
00000280: c589 28bb 4fbe 5f3e 4056 9cbe 8f1c 2c3e
00000290: 8e52 6cbe a836 f0bd 9d58 9dbe 2ed5 13bd
000002a0: fbd2 b8bd 2ef7 cc3b 98e4 75bd 93b5 7fbd
000002b0: b1e1 ddbe 6797 283e 95e7 c13e d4c0 f9bd
000002c0: 12e7 80be d4d4 42be b0eb 9a3b 3626 493e
000002d0: 0a48 043f d275 04bc 00c7 17be e9fb f7bd
000002e0: 48ff 6ebe 5801 483d 6f1d 53be a894 4b3e
000002f0: 2ab6 f63c 8cb6 09be 437d ba3e 99e1 083e
00000300: 0fb6 9abc b02a a63d 7d86 25be 04c8 57bd
00000310: 85d2 9a3e 9ff1 8dbc 69fc 5bbc 133e bfbc
00000320: 9c0b 94be c98a d03d 78fa 233e 0c8a ad3d
00000330: 1c80 11be a5ff 2ebe 4629 e1be 00c9 123d
00000340: 6b09 fe3c c8b0 ccbe 5aee 013f aa17 15bc
00000350: b759 b0bb b9f0 68be 2634 d5bd 5c73 c63d
00000360: 2ee5 72be 9050 4d3c bbfc 483d de3a 943d
00000370: 4c47 9ebd 460c 1cbe a1e3 4b3e b12e 1a3e
00000380: 1cda 23be 4abd a8bd 5b87 6a3e b94d 3cbe
00000390: 212e 9a3d ca14 8b3e 6174 053e 1693 a13d
000003a0: 4364 433c a799 df3c c985 963b ce2f 0e3e
000003b0: bf89 8f3e 7edd 8cbe a3e4 debe 7260 a43e
000003c0: 1a1b 0f3e 6425 70bd 5f73 d6bc 5b9f 2abe
000003d0: ddfd ac3d 7aa7 ed3c d466 17bd 12c2 6c3e
000003e0: baa1 313d 6dca ecbc 0564 96bc 8841 a3bd
000003f0: 71b8 393c da7c dbbd e010 30be 3313 403e
-0.05607903 -0.24464081 0.068748794 -0.068746366 -0.18338563 -0.056745924 0.27586138 0.027968435
0.20297511 0.039118577 -0.22935088 0.04516183 0.114305556 0.2272285 -0.03382651 -0.12060134
-0.09985858 0.0041536787 0.0035300099 -0.19349979 -0.14302827 -0.075066686 0.043872356 -0.08026585
-0.058587097 0.17861766 0.21963093 0.0020628553 0.10863498 -0.0951048 0.009791274 -0.02208481
-0.073356636 -0.044297855 0.087291986 -0.41977575 -0.24024941 -0.032550924 0.22154827 -0.16498436
-0.07733483 -0.15523471 0.2274453 0.004636911 -0.28479937 -0.08087839 0.04586161 0.09567741
-0.119451866 0.15436545 -0.16699232 0.19844282 0.06168634 -0.06641942 -0.23028667 -0.17735547
-0.2822558 0.08144502 0.32663423 0.19623111 0.1531914 -0.07770035 -0.055177648 -0.2689396
0.014814719 0.26155227 -0.5101247 -0.02706446 0.00035744908 -0.37066868 -0.40634936 -0.047459703
-0.30603102 -0.04039363 0.2406135 -0.15277837 -0.10470168 -0.7978542 -0.12117356 0.09460291
1.1392134 -0.11170531 0.0060931765 0.22049728 0.1238056 0.019824099 0.15137339 0.066482425
0.046313666 0.32943884 -0.80016565 0.107665546 0.018059792 -0.19506401 -0.08876312 0.32016635
0.013333965 0.38006604 -0.104193255 -0.07879376 0.31670952 -0.002779874 -0.05966364 0.17905393
-0.042712256 0.38102084 0.088233046 -0.16383798 0.4135377 0.109509714 0.09294432 0.1487758
0.15104291 -1.1232703 -0.019132743 -0.14647561 0.48848298 0.09321987 0.1804337 0.28363654
-0.19243823 0.054910965 0.1056628 -0.028071215 -0.6726326 -0.69310135 0.11874465 -0.23353226
0.028858034 -0.27815583 0.23389657 -0.29759127 0.06830046 0.44921848 -0.067440525 -0.07837624
0.08252486 0.29093903 -0.22591215 0.06706508 0.17540412 0.29411873 0.03599359 0.11454657
-0.14918137 0.4491029 -0.33473048 -0.11917948 -0.055400662 0.29368576 0.048240293 0.10827567
-0.03660213 -0.36527598 0.40040377 -0.21203062 -0.04524474 0.117258795 -0.2755662 -0.21399093
-0.0025716883 0.2184994 -0.30534554 0.16807769 -0.23078367 -0.11729175 -0.3073167 -0.036091976
-0.09024616 0.006255052 -0.060032457 -0.062429022 -0.4333625 0.16464005 0.37871996 -0.12194982
-0.25176293 -0.190265 0.004727803 0.19643483 0.5167242 -0.008084731 -0.14822006 -0.12108595
-0.2333957 0.048829406 -0.20616697 0.19880927 0.03011616 -0.13448542 0.36423692 0.13367309
-0.01888564 0.08113611 -0.16164584 -0.052680984 0.3023874 -0.017327128 -0.0134268785 -0.023345029
-0.28915107 0.10182721 0.16013515 0.08473596 -0.14209026 -0.17089708 -0.43976802 0.03583622
0.03101035 -0.39978623 0.5075432 -0.00909988 -0.0053817886 -0.22748078 -0.10410337 0.09689972
-0.23720238 0.012531415 0.049069148 0.072377905 -0.077284425 -0.15239057 0.19911052 0.15056874
-0.16001171 -0.08239229 0.22903197 -0.18389024 0.0752833 0.27164298 0.13032676 0.078893825
0.01192576 0.027294947 0.004593585 0.13885424 0.2803478 -0.27512735 -0.4353381 0.32104832
0.13975182 -0.05862941 -0.02617806 -0.16662352 0.08446858 0.029010523 -0.0369633 0.23120907
0.043367125 -0.028905118 -0.01835824 -0.079714835 0.011335478 -0.10717173 -0.17193937 0.18757324

dynamicsFunction.startBlock.2.bias f4 [32]
00000000: c9f5 d83c 1698 c0be e36a b23d 5baf 07be
00000010: 5420 09bd ca5b 433d 6d49 793d eac4 e33c
00000020: 3525 38be 662c 123e 3f8a 293e 6741 c9bd
00000030: adc1 193e c6cc 983c 2854 be3d dc60 883e
00000040: 83c5 fc3d b01f 013d 44cd 023d 598b d43d
00000050: 50af 21be d49a 03be d17f 4fbe a12c 223e
00000060: 11af e7bd 8582 29be 6381 fd3d 8bf8 11be
00000070: 7d54 ee3d 6c03 aa3b b924 ee3d c4cf 6c3c
0.026484387 -0.37616032 0.08711793 -0.13250487 -0.033478096 0.04769496 0.06086104 0.027803857
-0.17982943 0.14274749 0.16556643 -0.09826928 0.15015288 0.018652331 0.09293395 0.26636398
0.1234236 0.03152436 0.031934038 0.10378141 -0.15789533 -0.12852031 -0.20263602 0.15837337
-0.11312688 -0.16553695 0.12378194 -0.14254968 0.116372086 0.005188396 0.11628098 0.014453832
