AlphaGo/foersterrobert_MuZero/Environments/CartPole/Models/model_2.pt (torch, 83738 bytes, 20 tensors)

predictionFunction.startBlock.0.weight f4 [64, 32]
00000000: 7c31 b1bd d734 e43e 2f7e a8be 4609 8ebe
00000010: 51b8 5fbe 577f 7abd 9109 b8bc 3c0a 663e
00000020: 5ea8 f83d 449b cfbd 0f04 63be 1311 5ebe
00000030: b6e5 b9be 92bd 193e 1fd2 e9bc 41ef 45be
00000040: 85fa 4bbd 9050 4a3e 54d8 aabe 9bda 4f3e
00000050: 5d2f a63e 848e 273f fb75 713d eab0 0c3d
00000060: 3fac b4bc 4e6f c43d c327 fc3c 8cd5 e2bc
00000070: e31d 473d 983c 0f3e 9217 81be 728f 013d
00000080: cdf1 56be b76a 2dbe f9dd 5fbe 3bb6 31be
00000090: fde7 3cbe 2b86 7b3d 45b9 2dbe 13b4 843e
000000a0: 8937 f23d 92fa 77be dc22 e3bd 37cc a13d
000000b0: 5dc0 f3bd 97e7 5d3d a350 6b3d e7cc 0e3c
000000c0: 408a b8be 4c59 5bbe 08c7 a53d 5940 363e
000000d0: a5cf 3c3e 7d1e 03bd 23b5 133e f50c b8be
000000e0: ec2f 85bb 8a09 ea3c 48cd d3bd 04dd 07be
000000f0: 2f8f 06be 536f a63e 72f1 a3be e58e efbd
00000100: edde 95be eb10 233e 5875 bcbf d8ef 943d
00000110: ad36 633d 7c87 113f eb35 5ebd 43b8 c6be
00000120: e3eb bfbe 0415 303e 8a2d a8be 59a5 243e
00000130: 9907 f13e 1e52 9d3d 7ce9 833e 5cf4 3e3e
00000140: ad08 02bf 955a 9b3e 9284 333d 4e1c 1fbe
00000150: c26f 953e 9819 0b3e ffe8 543f 84ba 0c3e
00000160: 3190 7c3e b0d7 453e 458e db3e 73ed 3c3e
00000170: 9833 413e 3f17 c43f d6cd 6dbf c156 ae3e
00000180: 89aa 863d 7b6a 953e 2224 12bf 1be7 2abe
00000190: c243 9a3d ee3a 9d3e 5766 d0ba 6438 4cbe
000001a0: f8ce c0be c55c 473d 64b3 20be 694a 53be
000001b0: 68e0 883e f2e8 693c 4217 51bd 6ea8 e83e
000001c0: 754e 623b cd51 583e 1e1f 5bbe 82fc 123d
000001d0: cfef a1bd c63d c03e faaf 3d3e b4ac c03e
000001e0: afd3 3c3e 4190 383d a275 c63d ae09 0e3e
000001f0: e679 de3c 0bd6 873d 1a8b d8be 6429 c73e
00000200: 1c56 fdbe 7225 4bbe 862e 93be 165c a13e
00000210: 8a8e fd3d c8c1 023e 8c73 743c e5b0 73be
00000220: 853c 503c 951b 043c a189 acbc b453 173f
00000230: 2d2c b13e 45d0 003f 3c11 d13c 5fb5 5abe
00000240: d754 cabe c064 e2be 28bd d23d 9efe 8cbe
00000250: 4408 f7bc 45b1 82be 5e05 0d3e cfe4 43be
00000260: d6be 173e e516 063f b8eb 1abd e7b0 d1bc
00000270: b0af 0ebe df84 9f3e ffc7 01be 8375 ad3e
00000280: 987e b1bd 69f2 27be 03f7 3e3c b53c 91be
00000290: 6f8a 8e3e 0dcb 58be 1587 99be 8229 a23e
000002a0: 874f 07bd bc2a 3b3d 2c59 f23d adc2 713d
000002b0: a5cf 673e dae5 c33c 0598 773d 0872 933b
000002c0: 3fdc bcbd 3574 01be 798f f93e a118 17bd
000002d0: aaf7 a3bc de99 f63c a52d 4c3e 46a2 ebbc
000002e0: f975 5cbc 4e6f 6b3d e7a3 ccbd 8d17 81be
000002f0: b5a0 20bf 3881 373e 3151 c43d c519 073e
00000300: 9300 23be 3b1c 43bd 587c a1bd 8ff5 0dbe
00000310: 6f7f 03be 8abf 213e 8deb eebe bbf4 923e
00000320: 56d5 9cbc f55a a13e e559 1ebf a087 3dbe
00000330: e918 0bbc 1354 3c3d 788f 4b3e 1db5 4e3e
00000340: 5162 7e3d d843 01bd 987d aa3e b7db bb3d
00000350: c8c3 bf3c 7eef c83d a28b 923d 0fb8 89bd
00000360: bf3e 4cbe ffe1 183d 2927 923c 7fa5 e4be
00000370: 530b 43be c19a 793e 2b05 d1bd fad4 8f3d
00000380: 8bc4 9bbe 09b2 2a3e ec06 25bf 27a2 123e
00000390: 5df2 cdbd d624 4dbc 7698 9d3c 3ef9 723e
000003a0: 8db4 053e fe26 bf3d bbd3 433e 3eb2 04be
000003b0: 7225 6c3e d240 07be 5902 69be 540b c73e
000003c0: ec58 b83d 926a 073e 6cd8 0dbc 85e2 293e
000003d0: f367 683e 4181 b83d cbeb 223f 370d 10bd
000003e0: 85ff 263e ab18 213e 0eba 6c3e 8502 b43e
000003f0: 8ebd 2a3e 6629 b83e bd67 0abf acca 2ebe
-0.086520165 0.44571564 -0.3290877 -0.2774145 -0.21847655 -0.061156597 -0.0224655 0.22464842
0.121414885 -0.101370364 -0.22169517 -0.21686201 -0.36308068 0.15013722 -0.028542576 -0.1932955
-0.04979946 0.19757295 -0.3336817 0.20298235 0.3245801 0.65451837 0.058950406 0.034348406
-0.02205479 0.09591542 0.030780679 -0.027689718 0.048612487 0.13987958 -0.25213295 0.03163094
-0.20990677 -0.1693524 -0.2186202 -0.17354672 -0.18447872 0.06140725 -0.16965206 0.25918636
0.11826999 -0.24216679 -0.11090633 0.07900279 -0.11901925 0.05417594 0.057449948 0.008715845
-0.36042976 -0.21420783 0.08094603 0.17797984 0.18438585 -0.032011498 0.14424567 -0.35947385
-0.0040645506 0.028569002 -0.10341889 -0.13267905 -0.13140558 0.3250681 -0.32020146 -0.11697177
-0.2927164 0.15924422 -1.472331 0.07272309 0.055472065 0.5684736 -0.05425064 -0.38812456
-0.37484655 0.17195517 -0.32847244 0.160787 0.4707611 0.07681678 0.25764072 0.18647903
-0.5079449 0.30342546 0.0438276 -0.15538141 0.29186827 0.13583982 0.83168024 0.13743025
0.2466438 0.1932056 0.4288198 0.18449955 0.18867338 1.5319594 -0.92892206 0.34050563
0.06575496 0.291828 -0.57086384 -0.16689722 0.07532455 0.30709022 -0.001589964 -0.19943386
-0.37657905 0.048672456 -0.15693432 -0.20633854 0.26733708 0.01427673 -0.05104757 0.45441002
0.0034531627 0.21124955 -0.21398589 0.03588534 -0.07907068 0.3754713 0.18524161 0.37631762
0.18440126 0.045059446 0.096904054 0.1387088 0.027157735 0.06632622 -0.42293626 0.38898766
-0.4947976 -0.19838503 -0.28746432 0.31515568 0.12380703 0.12769234 0.014920127 -0.23797949
0.0127097415 0.008063217 -0.02106172 0.59112096 0.34604016 0.50317794 0.025520913 -0.2135825
-0.39517853 -0.4421749 0.10289985 -0.27538007 -0.030155309 -0.2552587 0.13771579 -0.19130252
0.14818892 0.52378684 -0.037822455 -0.025597049 -0.13934207 0.3115606 -0.12673949 0.33878717
-0.08666724 -0.16401066 0.011655572 -0.28366628 0.2783999 -0.21171208 -0.29985872 0.31672293
-0.033034828 0.04569505 0.118334144 0.059023548 0.22637804 0.023913313 0.06044771 0.0044996776
-0.09221696 -0.12641986 0.48742273 -0.036888722 -0.020015556 0.030102666 0.19939287 -0.028763901
-0.013455861 0.057479195 -0.099921994 -0.2521328 -0.6274522 0.17920387 0.095857985 0.13193424
-0.15918188 -0.047634345 -0.07885045 -0.13863204 -0.12841581 0.15795723 -0.46664086 0.2870234
-0.019144695 0.31514707 -0.6185592 -0.18508768 -0.008489826 0.045978617 0.19878948 0.20186277
0.06210548 -0.03155884 0.33298945 0.09172767 0.023408785 0.098113045 0.07155539 -0.067245595
-0.1994581 0.0373249 0.017840939 -0.44657513 -0.19047289 0.2437544 -0.10206064 0.07023044
-0.30423388 0.16669478 -0.64463687 0.14319669 -0.10055993 -0.012520989 0.019237738 0.23727891
0.13057156 0.09333609 0.19123738 -0.12958619 0.23061159 -0.1320832 -0.22754802 0.3887583
0.090013355 0.13224247 -0.008657556 0.16590317 0.22695903 0.09009028 0.6364104 -0.035168853
0.1630841 0.15732066 0.23117849 0.35158172 0.16673872 0.35969085 -0.5406454 -0.170695

predictionFunction.startBlock.0.bias f4 [64]
00000000: 784a 56bd 6f87 37be 2771 62be 3819 5f3d
00000010: b3a2 4dbe 95b8 153d 0d30 5f3d 5481 78bd
00000020: fc35 3c3e 36b8 bf3d da05 66be d2cf fdbd
00000030: 188d 8abd 4a63 fabd c526 99bd 256c 89bd
00000040: 0777 febd 0320 063e 1950 73be a66d eebb
00000050: 8b67 67be 49f9 a3bd bbf3 92bd fd02 ecbd
00000060: a86a 06bd 1e83 e7bc 6c6d 973d 6aa9 cebd
00000070: 882a bfbc 6950 37be 0b17 16bd e7c5 4cbe
00000080: 944b 053d f52a 5ebe 2b14 56be f8f3 863c
00000090: 079e febd dc0e fdbd 3eb7 d9bd 0fa8 babd
000000a0: dcf7 f6bd d48c 15be 403d 82be 2657 9ebd
000000b0: f9b8 8a3c c3c8 6dbe 8bcd 9a3c bc7d 15be
000000c0: 929b 1d3c 15e6 f13d 9e3c babd 8487 13bc
000000d0: c454 2abe 15bc abbd 7b2e 14be b280 003e
000000e0: e181 2fbd c199 693d a9ea c6bd 6b66 40bc
000000f0: b8e1 123e c7c2 2e3e 7c20 ffbd 20b0 913d
-0.052317113 -0.17922758 -0.22113477 0.05446741 -0.20081596 0.036552984 0.054489184 -0.060670212
0.18379968 0.09361307 -0.2246317 -0.12393154 -0.06765193 -0.12225969 -0.07478098 -0.0671008
-0.124250464 0.13098149 -0.23761024 -0.0072762547 -0.22598092 -0.08006532 -0.07175394 -0.115240075
-0.03281656 -0.028260764 0.073939174 -0.10090907 -0.02333571 -0.17901768 -0.03664307 -0.19997369
0.03254278 -0.21696074 -0.20906131 0.016473755 -0.12432485 -0.1235635 -0.10630654 -0.09114086
-0.12058994 -0.14604503 -0.25437355 -0.07731466 0.016933905 -0.23221116 0.018896839 -0.14598745
0.00961961 0.11811463 -0.09093593 -0.009004477 -0.16633898 -0.08385483 -0.14470856 0.12549093
-0.04284847 0.057031397 -0.097127266 -0.011743168 0.14343917 0.17066489 -0.12457368 0.07113671

predictionFunction.startBlock.2.weight f4 [64, 64]
00000000: ada9 16be d4a7 2f3c 541c 8a3e 9cd7 d9bd
00000010: a0e8 1cbe d1d3 abbe 1e6f 8b3e 1a47 443e
00000020: 4137 16bf a09d 8bbe 9a06 05be 65b2 e5bc
00000030: 513f 7f3e 6bd8 eb3e a1d9 ac3d 2216 df3d
00000040: a18b 083e b975 23be 69e3 0abf 844e 8dbe
00000050: 578e bdbd f9a4 943d 8169 7f3e b2d9 443e
00000060: fbe2 01bf e2e7 33bd 2c4a 663f eb50 20bb
00000070: 83e4 bebe f663 993e a51f edbd 2075 fabd
00000080: ffd7 4ebe f508 953e 795b ad3d 3092 29be
00000090: 3567 0dbe 3354 103e 847b 4ebe 0f7a 30be
000000a0: ba3d fcbe d727 973d 19e2 253e 519d 5fbd
000000b0: 0fd0 56bd e639 12be 6ec4 4dbe 7c8a ce3d
000000c0: 09fc 1ebe ced6 04bf 44c0 93be 6ad9 b8be
000000d0: 940f 78bd 87f1 c3bd 4c87 1a3f 3546 d4be
000000e0: 6d3e bbbe c468 223a 6eae 2abd 0f02 8d3e
000000f0: 82ec 153e 19e3 e2bd f8fc 073e ff9c 13be
00000100: e1d3 24be b306 073e 91f0 783d 6817 57be
00000110: 2026 ff3e f0e2 b5bd 74fa 603e 0394 f23d
00000120: 13e1 f5be d9b5 5c3e da70 013b f72a e83e
00000130: db04 ef3e 8df5 903e e4b2 86be a432 c8be
00000140: 60d4 053f 8d91 28be aad2 f43d b4d0 643c
00000150: b0dd 2dbd ed1b 0ebe 7b7f e43c 9588 2a3e
00000160: 4484 31be 4cdb d0be 8b99 773e 9ebc 1abe
00000170: 7a21 ccbe b870 42bd b294 0dbe c37b 933d
00000180: 9ea9 e8be 411a 19bd 53b5 be3e 32cf d7bd
00000190: 1e06 893e 7e96 9ebe 1db8 97be d683 86bc
000001a0: 09e1 053e 1db4 573d bd74 eb3c 0f9f 0d3e
000001b0: 8598 be3e 4010 953d 54be acbe bd91 a5bd
000001c0: 9b49 15be c56b 67be ce65 c9bd 8a5b 35be
000001d0: a71a 283e 9179 9bbd b326 11bf 7788 a6be
000001e0: 7ae3 ed3d 67c5 2fbd 8fe8 64be 82ba 1d3f
000001f0: eb13 953e 6c48 fe3c d616 543e 1fcd 07be
00000200: d741 9cbe 5875 3bbe ec1a 8e3e 3815 51bd
00000210: dc56 74be 784c b9be a517 0b3e b865 8ebc
00000220: 3ff9 77bd 886d 1ebf 016f 00bd 722f 1f3e
00000230: c5a7 ef3d 5d95 d13d c157 acbd b0c9 a53d
00000240: 247c 4e3d 0244 4c3d 40e9 9cbd 1238 a13c
00000250: 2bab 273d 4e6e 49be 8f45 c73d 5087 e93c
00000260: 89c5 f73d e760 93be 3ce8 3f3c 5054 223d
00000270: 25f7 98be e5cf 8fbd 37ad d0bd 7406 053d
00000280: b29f debd 8694 d4bb 43ca f0bd 11a9 9f3c
00000290: d86e aa3d f972 35be 9bdc db3c 8d3b 97bd
000002a0: 69f4 303c af29 97bd ead1 bdbd 81ef b8be
000002b0: 3844 3e3d d27b 63be 47a2 00be 9d86 54be
000002c0: 249c 37be 6ca4 4dbe 9392 1e3e 4c34 fc3d
000002d0: e6f6 f8bd 20ef 0037 6f8d a43b 5a46 bfba
000002e0: 5e22 cc3d 91c2 81be 21e2 97be 1a99 43be
000002f0: 9d83 52bd 8794 14be ebb4 29be 2b54 3f3e
00000300: d7b1 24bf e0f7 9dbd 0d03 a93d f8a6 383e
00000310: 85a3 563d 6a89 6a3d 7aae 90bd 6186 253e
00000320: 0510 11bf 5dea 4a3e 519b 03be b90d 32bd
00000330: dbc6 583e a826 87bd 1ad4 6f3c 8a0a 2fbd
00000340: 69e6 a8bc bc7c e7bd d29a 39be 8644 c6bd
00000350: 75aa a1bd eaa1 b6be 64e3 5e3d dd8f b53d
00000360: 6015 9ebd 84a4 0ebe fc71 053e 2116 68be
00000370: 1d48 853e 8d22 a4bd 6091 5a3e 1c61 dabd
00000380: 1dca fe3d 5740 e33d 86b3 883c 0939 6bbe
00000390: fce7 1b3e f16b fd3c 1556 5ebf 6c93 c73d
000003a0: 5c52 133f cd50 fbbd 57c9 d23c ead6 f83e
000003b0: f742 4d3e 864f c23e d604 72bc 0379 08bf
000003c0: f3a1 603e b9db cdbf d2cf ff3b dc30 0ebe
000003d0: 7e80 ac3e fa28 dc3d b3da 173e 1fca 413d
000003e0: 08e8 9cbe 9c96 073e 8d40 4bbd 45da 40bd
000003f0: 4bd0 bcbe 6e40 0abe 3375 033e 5321 d03b
-0.14713164 0.010721166 0.26974738 -0.10636827 -0.15323114 -0.3356004 0.27233213 0.19167748
-0.5867806 -0.27268696 -0.129908 -0.028039167 0.24926497 0.4606355 0.08439947 0.108928934
0.13334514 -0.15962876 -0.5425325 -0.27598965 -0.09255665 0.072580285 0.2494259 0.19223669
-0.5073697 -0.043922313 0.8995693 -0.0024462293 -0.37283716 0.29959077 -0.11578301 -0.12229371
-0.20199583 0.29108396 0.08464713 -0.16559672 -0.13808902 0.1409462 -0.20164305 -0.17234062
-0.49265844 0.07380646 0.1619953 -0.054593388 -0.052444514 -0.14279899 -0.20094463 0.100850075
-0.15525831 -0.51890266 -0.28857625 -0.36103374 -0.06056173 -0.09567552 0.60362697 -0.41459814
-0.36571065 0.0006195421 -0.041670255 0.27540633 0.14641002 -0.11078472 0.13280094 -0.14415358
-0.1609645 0.1318615 0.060776297 -0.21005023 0.49833775 -0.088811755 0.2197054 0.11844637
-0.4802328 0.21553744 0.0019751103 0.4534528 0.46683392 0.2831234 -0.26308358 -0.39101136
0.52277184 -0.16461773 0.119542435 0.013965774 -0.042447746 -0.1387784 0.027892819 0.16653664
-0.17335612 -0.4079231 0.24179666 -0.15111014 -0.3986929 -0.04747078 -0.13826254 0.0720134
-0.45441908 -0.037378553 0.37247714 -0.10537566 0.2676248 -0.3097419 -0.29632655 -0.016420286
0.13074125 0.052662004 0.028742189 0.13830207 0.37225738 0.0727849 -0.3373896 -0.08084438
-0.1457886 -0.22599705 -0.09833871 -0.177107 0.16416417 -0.07591546 -0.56699675 -0.3252599
0.11615653 -0.042912867 -0.22354339 0.61612713 0.2911676 0.031040393 0.20711836 -0.13261841
-0.30518982 -0.18306482 0.27754915 -0.051045626 -0.23861259 -0.36191154 0.13583238 -0.017382488
-0.060540434 -0.6188588 -0.03135586 0.15545443 0.117019214 0.10233567 -0.08415175 0.080951095
0.05041136 0.049869545 -0.076616764 0.019680057 0.040934723 -0.19670984 0.09730064 0.028506905
0.12098224 -0.28784868 0.011713084 0.039631188 -0.29876056 -0.070220746 -0.10189288 0.032476857
-0.10870303 -0.006487432 -0.11757328 0.019489797 0.08321923 -0.1771964 0.026838591 -0.07384405
0.010800459 -0.073809974 -0.092685536 -0.36120227 0.046451777 -0.22215202 -0.12561904 -0.20754476
-0.17930657 -0.20082253 0.15485601 0.12314662 -0.12156467 7.68507e-06 0.005021743 -0.001459311
0.099674925 -0.25343755 -0.2966471 -0.19101372 -0.051395047 -0.14509784 -0.16572921 0.18684451
-0.6433386 -0.07713294 0.08252535 0.18032444 0.052402038 0.057259955 -0.07064529 0.16164543
-0.5666507 0.19815965 -0.12852217 -0.04347012 0.21169607 -0.0659917 0.014637971 -0.04273466
-0.02061768 -0.11303088 -0.18125466 -0.096810386 -0.0789384 -0.35670406 0.054416075 0.0886533
-0.07718921 -0.13929945 0.13031763 -0.22664692 0.2603158 -0.080144025 0.21344519 -0.106630534
0.12440894 0.11096256 0.016687166 -0.22970976 0.15225214 0.03093526 -0.868501 0.09744915
0.57547545 -0.12271271 0.025730772 0.48601466 0.20045076 0.37951297 -0.014771661 -0.5330965
0.21936779 -1.6082679 0.0078067565 -0.13885826 0.33691782 0.10750003 0.14829521 0.0473119
-0.30645776 0.13241047 -0.049622107 -0.047083158 -0.36877665 -0.1350114 0.12837677 0.006351629

predictionFunction.startBlock.2.bias f4 [64]
00000000: 37a5 06be d225 4abe 72ed 9cbc b8b1 be3d
00000010: f4ed 2cbe 2bb8 3ebe a9bf a5bc 40a9 a1be
00000020: 7100 ebbd 094c aebc 7e9c 13be d278 803d
00000030: 9139 fb3d dc30 0c3e 73a2 793e ce8d 53bd
00000040: 0e0b e5bd 84db 19be 5620 c0be a386 563d
00000050: 189f 423d 5a9e e1bd c2eb abbd d2fc db3d
00000060: b853 c1bd 8d53 febd 7868 4bbd 95a9 07be
00000070: ca49 f3bd 5f5b ca3d d9a3 01be 661c 60bc
00000080: bd42 fbbd 91ad e33b 389b a83b 9895 e6ba
00000090: 8660 41bd be9e f9bd 4018 a8bd 97b0 a63c
000000a0: bfda 62be fcc4 403e 4f22 4a3e 3a8f 11be
000000b0: 0ba5 a13d 6661 e9bd e050 b53d 5b71 dcbe
000000c0: 40e0 94bd 7e93 3ebe 1667 c8bc c415 1fba
000000d0: 799b 483e 63d8 2fbe 58d8 64be 85ff c63e
000000e0: facb db3b 8d0b 0abe 8b0b dd3d f07c 1b3e
000000f0: 1d69 073e afe3 0a3e eb4b a1bd 9af0 74bd
-0.13148962 -0.1974099 -0.019156191 0.09311241 -0.16887647 -0.18624942 -0.020232992 -0.3157444
-0.114746936 -0.02127649 -0.14415166 0.06273045 0.12266839 0.13690513 0.24378376 -0.051648907
-0.11183749 -0.15025145 -0.3752467 0.052374493 0.047515005 -0.11016531 -0.083945766 0.10741581
-0.09439796 -0.1241828 -0.049660176 -0.13248284 -0.118793085 0.09880709 -0.12660159 -0.013678646
-0.12268589 0.006948181 0.0051454566 -0.001759219 -0.047211193 -0.12188481 -0.0820775 0.020347876
-0.22153758 0.18825144 0.1973965 -0.14214793 0.078928076 -0.113955304 0.08853316 -0.43055233
-0.07269335 -0.18610951 -0.024463218 -0.0006068612 0.19590558 -0.17172389 -0.22348154 0.3886682
0.0067076655 -0.13480969 0.10793217 0.15184379 0.13223691 0.13563417 -0.07875808 -0.059799768

predictionFunction.policy_head.0.weight f4 [2, 64]
00000000: f939 12be 0ed7 22b9 cdfe 8abd a8f4 ca3d
00000010: e30a bbbe e3fb 7f3d a312 fb3d 2463 f83e
00000020: d11b d13d 7345 f33c 59ca b83d 75b6 383d
00000030: a776 633c 336a d3bd 95bd 743c da06 5cbc
00000040: 6d7e 3ebe bdbd a13d 8013 b9be bf2f e4bd
00000050: db38 ef3d 509f f43d 01db 433d 6bc1 f13d
00000060: c99b 9d3d 6a7e 2bbe d676 c63d 9182 92be
00000070: 3d5d 633c a724 27be 72f6 713b bc00 0a3e
00000080: 6bc6 faba 9324 e2bc 8d8b 76be 8f31 86bd
00000090: b17b c0bd 50d6 963e 63b9 133d 7d75 a63c
000000a0: 2af2 293f 5b9e 8f3e 0c83 703d a2d4 b8be
000000b0: 5cee 9cbd 7317 27bd 5f3c 4cbe a7aa 353e
000000c0: 30f7 bf3e 173d 843e 0a41 40be 2f47 8a3d
000000d0: 3d77 84bd 89e2 853d f85e 933e 11cc efbc
000000e0: da02 b63d 48db 403c 3265 373d 918c 17be
000000f0: 9a31 7b3d 40b9 9d3b 59fb b33d fb1d a93d
00000100: ab27 2f3e e7e8 40be 3ed7 913d 1a53 febd
00000110: f27f 203e 8441 9d3d d4f4 853d 8e1e bdbe
00000120: 426e 87bd f928 fbbc ecbb 84bc 6111 09bd
00000130: 1ad4 e83d 4f7d 0d3e 0cae 6d3c cfd7 e93d
00000140: c12e 6d3e 96bc 81be fb12 b43e c890 ee3b
00000150: 1fe1 b9bb fc56 95bb 65d7 52bd c767 e3bd
00000160: 41f5 c53d 55e3 283e e891 263d e379 903e
00000170: 7551 483d a4a0 5d3e c166 c23d b988 49bd
00000180: 7c1f a2bd fb86 b5bd d7a9 823e 5a4f 903c
00000190: 2f82 e93c ebf1 85be 59db 953d 767d ee3d
000001a0: d0f1 29bf 90f5 49be ef61 c73c 051f 913e
000001b0: 95bc afbd ec64 d9bc ac4d c63d cd99 56be
000001c0: 077b e3be 93f1 61be 7df8 283e 6d21 a2bc
000001d0: 209a 3fbd 0db8 043e 0db8 61be a68d 803b
000001e0: 1707 623b 42e1 27be 7bb6 46be 598c 99bc
000001f0: 0cbc 823d 45e7 5c3e e2dd e2bd ce17 0e3d
-0.14279927 -0.00015529638 -0.06786881 0.09909946 -0.36531743 0.062496077 0.12259414 0.48513138
0.10210384 0.029696202 0.0902297 0.04509588 0.013883269 -0.1032299 0.014937778 -0.013429368
-0.18602915 0.07897518 -0.3614769 -0.11141919 0.11680766 0.11944449 0.04781628 0.1180447
0.07695729 -0.16747442 0.09690635 -0.2861524 0.01387721 -0.16322576 0.0036920574 0.13476843
-0.001913262 -0.02760533 -0.24076672 -0.06552421 -0.09398592 0.29460382 0.03606547 0.020319695
0.6638514 0.28050503 0.058718726 -0.36099726 -0.07662651 -0.040793847 -0.19944905 0.1774088
0.37493277 0.25827858 -0.1877481 0.067518584 -0.064680554 0.06537349 0.28783393 -0.029272111
0.08887263 0.011771031 0.04477424 -0.14799716 0.0613266 0.0048133433 0.08788175 0.082576714
0.17104976 -0.18838845 0.07121132 -0.12418194 0.15673807 0.07678512 0.06540838 -0.36937374
-0.06612827 -0.030659186 -0.01620289 -0.03346384 0.1136858 0.13817333 0.014506828 0.11418115
0.23162366 -0.25339192 0.3517073 0.007280443 -0.0056725885 -0.0045574885 -0.051474947 -0.11103778
0.09665919 0.1649297 0.04066649 0.28217992 0.04890581 0.21643311 0.09492255 -0.049202655
-0.079161614 -0.08863636 0.25520203 0.017615963 0.02850446 -0.2616113 0.07317228 0.116450235
-0.663846 -0.19722581 0.02433869 0.2834398 -0.08580891 -0.026537381 0.096827835 -0.20957108
-0.444298 -0.2206481 0.16501041 -0.01979133 -0.046777844 0.12960835 -0.22042866 0.003923136
0.003448909 -0.16394523 -0.19405548 -0.01874368 0.06383523 0.21572597 -0.11077477 0.03469067

predictionFunction.policy_head.0.bias f4 [2]
00000000: 80b0 2cbc 3d48 69bb
-0.010540128 -0.0035596036

predictionFunction.value_head.0.weight f4 [64, 64]
00000000: acb8 99bd 33ba acbc a30e 0abc f5e6 6a3d
00000010: 090f 073d 99e3 5fbd df56 613d 1134 9cbd
00000020: a7f8 69bd c3b8 0fbe 27f2 133d e638 0abd
00000030: 6cd7 d4bd a49e ebbd 6ba8 90bd 5f31 ccbd
00000040: 84a5 50bd fd99 d8bd 6a51 b9bd 8fd8 0a3d
00000050: 732d a2bd 0067 503d d07b 0b3c 88f3 9cbd
00000060: 0b5f ad3c 400a 9c3d 1eb4 73bc 9003 5e3c
00000070: 20cd cf3d 4267 3cbd 2014 e13c 0a19 523d
00000080: 3ebc 12be 7e29 973d c384 cabd a060 d2bb
00000090: 4a7a babd cc15 ce3c ace6 cdbd cbfd 99bd
000000a0: 80ed b03c 979f bebd 3d80 efbc 0b83 983d
000000b0: 7e39 22be 1657 a6bd fe1f f0bd 0b23 ab3d
000000c0: a715 9a3b 12ca d6bd 296a 0fbe 384d 843d
000000d0: abb4 553d 9c88 dcbd f558 cabb c824 7abd
000000e0: ffc1 823c 08c1 f0bd a488 043d 1f4e a43d
000000f0: 3204 b43b 13c1 99bd 2c04 5ebc 04eb 5c3d
00000100: c174 20be f0c8 fbbd 40ff d4bd 9cd3 513c
00000110: 4217 14be f206 55bd 8586 64bd d3d1 cbbe
00000120: 3d82 503d afc9 1d3d 53b3 02be e8bd 94bd
00000130: d277 c3bd f9f2 27be a000 ffbd 8d3f 63bd
00000140: d8f9 92be 10b8 c9be 528d adbd c631 63bb
00000150: 7e53 0dbb 7cd6 2f3d e859 2ebd fa01 c7bd
00000160: ed34 d83e f77f 7a3e c9c4 883d d095 adbc
00000170: 5cf0 e43d 0009 29be 2f55 25be a7e5 20bd
00000180: bace f2be 0595 6fbe e3c7 d1bd 7039 f43c
00000190: 3b89 e93d 64be 883b cf33 8b3c 0753 543e
000001a0: 15af 5cbe 3132 75bd 2a2d bdbd ad30 bcbe
000001b0: 518a c1be 5a4c eb3d 3cea 42be 75c8 18be
000001c0: 6a6f 633e 9ad8 52bd dc50 bfbd dae5 823d
000001d0: 1f2a 95bd c699 b0be 2e97 c3bd f7b5 793e
000001e0: 6b8d f8bc cc31 e2bb 32da 2b3e 4023 603d
000001f0: ddd6 e3bd 941d 0f3e eb8c 70be 305f 97bd
00000200: cc44 113d ca32 8f3d c090 033e f560 c4bd
00000210: 503c f4bd d990 98bd ba08 983d dc8e 1bbe
00000220: 0725 78bd 327e 3e3e 902e 293d 7ddd 21be
00000230: 314d 0ebe 110a 15bb c366 1f3c 0429 e7bd
00000240: aa23 cebd 55e9 74be ad12 b8bd df91 4b3d
00000250: f4de 76bd 8822 97bd cbe4 b8bd 1207 39be
00000260: 36ce 903e f4d9 dfbd b0a2 2c3c 5abb 6f3d
00000270: adb5 113e a66d 80be ad7f 47bd f280 bf3a
00000280: 9393 50be b14b 89be f6de 03be 4c5d e4bd
00000290: c765 893c 3bee 87bc d87d 1ebe 679a 123e
000002a0: 733b b63d 4333 a0bc 5d25 d6bc 0758 89be
000002b0: d2b2 a8be e885 ecbd 2b5b a8bc 4524 5dbe
000002c0: cf53 8cbd be53 1d3e 5a1a cdbd 5bbf 3dbc
000002d0: 7c1f 67bd 8300 75be 9a87 93bd ff07 88bd
000002e0: 141f de3d 0156 38bc 7702 183e 5027 bb3d
000002f0: 76fa 4c3d 22af 1bbe 16c5 41be da81 9a3d
00000300: 76ec bc3e 223c 9a3d 25db 9e3c 5f6c 9fbe
00000310: 4e2b a23e 08a3 253e a60e f3bd b338 66bd
00000320: 012b a5be 48ed ae3d e59d 5fbd 9a15 a2be
00000330: f0d7 98be 2a5e 7f3d 359f 3dbe 6566 c1bd
00000340: 0bc4 3d3f cd56 e73d 13a8 c0bc 28dd d6be
00000350: 0f6f a6bd e03b 2cbd d52d dabd 967d 8bbe
00000360: a982 b1bd dd36 543c bdd2 a3bc c5e3 ffbd
00000370: 4e11 c2bd 7b0c 173e ce7f d13d 91e3 acbe
00000380: e299 913e d17b 18bf 8013 3a3e c2cb 11bd
00000390: 2cbc 193d 5665 853d 95d9 b9bd 2d0a 20bd
000003a0: 19cf 5a3e 8d3a e0bd 926f 523c 7760 b7bd
000003b0: a7ff e53d 1e58 993d 8431 88be 2039 36be
000003c0: 3df8 87be c792 f7bd e4f2 503d 0062 cdbd
000003d0: 0edc 73be 4469 c5be 6d84 133e 8299 56be
000003e0: 5b50 693d 8a48 223e e6d7 0e3d d4a0 2abe
000003f0: 408d 1cbc fbae 22be 5ff0 643e 9da3 a4bd
-0.075059265 -0.02108488 -0.008426341 0.057349164 0.032973323 -0.054660413 0.055014487 -0.076271184
-0.0571219 -0.14035325 0.036119606 -0.03374567 -0.10392651 -0.11504868 -0.07063373 -0.09970354
-0.050939098 -0.10576246 -0.090487316 0.033897933 -0.07918825 0.05087948 0.008513406 -0.076636374
0.021163484 0.076191425 -0.014874486 0.013550654 0.10146546 -0.04599691 0.027475417 0.05129341
-0.14329621 0.07380961 -0.098886035 -0.00642021 -0.09105356 0.025156878 -0.10053763 -0.0751911
0.021597624 -0.09307783 -0.029235953 0.074468695 -0.15842244 -0.08122079 -0.11724852 0.08356293
0.004702288 -0.104877606 -0.1400534 0.06460041 0.05217425 -0.10768244 -0.0061751553 -0.061070234
0.015961645 -0.11755568 0.032356873 0.08022713 0.005493664 -0.07507529 -0.013550799 0.053935066
-0.15669538 -0.12294185 -0.104002476 0.012806799 -0.14461997 -0.052008577 -0.05579235 -0.3980852
0.050905455 0.03852242 -0.1276372 -0.07262784 -0.09544338 -0.1640128 -0.12451291 -0.05548053
-0.2870624 -0.3939824 -0.0847422 -0.0034667118 -0.0021564658 0.042929158 -0.04256621 -0.09717174
0.4222788 0.24462877 0.06678159 -0.0211896 0.111786574 -0.1650734 -0.16145776 -0.039281514
-0.47423345 -0.2339669 -0.102432035 0.029812545 0.11403128 0.004173087 0.016992478 0.20734797
-0.21551163 -0.05986232 -0.0923713 -0.36755887 -0.3780084 0.11489172 -0.19034666 -0.14920218
0.2221047 -0.0514761 -0.093415946 0.06391497 -0.072834246 -0.3449232 -0.095503196 0.2438582
-0.03034087 -0.006902909 0.16782454 0.054721117 -0.11124966 0.13976127 -0.23491256 -0.073912024
0.035466 0.06992109 0.12848186 -0.095888056 -0.11925566 -0.074495025 0.074235395 -0.15191215
-0.060582187 0.18602827 0.04130417 -0.15807147 -0.13896634 -0.0022741596 0.00972909 -0.1128712
-0.10065396 -0.23917134 -0.08987937 0.04969966 -0.06027122 -0.07379633 -0.09028014 -0.18069103
0.28282326 -0.10930243 0.010536835 0.05852828 0.1422946 -0.25083655 -0.048705745 0.0014610572
-0.20368795 -0.2681556 -0.12878022 -0.111506075 0.016772164 -0.01659309 -0.15477693 0.14316712
0.08898058 -0.019555693 -0.026140863 -0.26824972 -0.3294893 -0.11548978 -0.020551285 -0.21595867
-0.06851923 0.15363976 -0.10014792 -0.011581267 -0.05642651 -0.23925976 -0.07203598 -0.0664215
0.108457714 -0.011250974 0.1484469 0.09138358 0.050043546 -0.15203527 -0.18922839 0.075442985
0.36899155 0.07531001 0.019391606 -0.31137368 0.31673664 0.16175473 -0.11868028 -0.056206416
-0.32259372 0.085413516 -0.05459394 -0.31657106 -0.29852247 0.06234566 -0.18517764 -0.09443358
0.7412726 0.11295853 -0.023517644 -0.41965604 -0.081266515 -0.04204929 -0.10653273 -0.27244252
-0.086674996 0.012952534 -0.019997949 -0.124946155 -0.09475957 0.14750855 0.10229455 -0.3376737
0.28437716 -0.5956393 0.18171501 -0.03559471 0.03753297 0.06513469 -0.090747036 -0.039072204
0.21368064 -0.10948668 0.012843983 -0.08953946 0.112304024 0.0748751 -0.26600277 -0.17795229
-0.26556578 -0.120885424 0.05101289 -0.10028458 -0.23814413 -0.38556874 0.14405985 -0.20956996
0.0569614 0.15847984 0.034873866 -0.16662914 -0.009555161 -0.15887062 0.2235732 -0.08039019

predictionFunction.value_head.0.bias f4 [64]
00000000: f7ad 14be 6f67 debd 8216 d03c 138a 6ebe
00000010: e326 bc3d 2828 24bc 6d12 e23c 540d 83be
00000020: a199 423e 673a 8abc aaf0 9fbd 91c6 acbd
00000030: 58d9 113a d541 44be 4871 53be 49bf 6ebe
00000040: f392 fabc 6499 8ebd 97ef d1bd 8d49 b23e
00000050: 985d 4dbd 1655 20be cc18 9f3e f462 cabd
00000060: 9bc2 dcbc c9ba 33be 157d cbbd 60de 87bd
00000070: 0f39 0abd 451d 2abd 5ffe bc3d 2542 293d
00000080: d41a 2fbe c648 d63d 8d2a 8e3e 0404 c0bd
00000090: 70c5 6abe bff9 cbbc 7fb4 0abd 96ed 23be
000000a0: 41f6 68be 1ae5 19bc e9d5 fdbd d756 71bd
000000b0: a8bc de3d 7d61 053c fcc6 2ebe 5d6a f0bd
000000c0: e92a e43b 0944 57be af54 17bd 0b57 3b3d
000000d0: 99f6 2bbe 1073 0b3d d21c 30be 4906 873e
000000e0: c93b e1bc 4917 3cbd 28a4 07be 78a9 4ebe
000000f0: 5e25 993e 9e31 113c f315 643e 4e98 86be
-0.14519487 -0.10859572 0.025401358 -0.23294859 0.091871046 -0.01001934 0.027596677 -0.25596106
0.19003917 -0.016873552 -0.07809575 -0.08436311 0.0005563698 -0.19165738 -0.20648682 -0.23315157
-0.030587649 -0.06962851 -0.10250776 0.3482174 -0.050138086 -0.15657458 0.31073606 -0.09882155
-0.026948264 -0.17551722 -0.09935967 -0.066342115 -0.03374582 -0.04153182 0.09228205 0.041322846
-0.17100078 0.10463099 0.2776684 -0.09375766 -0.22926879 -0.024899362 -0.03386354 -0.160086
-0.22750188 -0.009393001 -0.12394316 -0.058920708 0.10875827 0.008140919 -0.17068094 -0.11739037
0.006963123 -0.21022047 -0.036945995 0.045737308 -0.16793288 0.03404528 -0.17198494 0.26371983
-0.027494328 -0.045920644 -0.13246214 -0.20181835 0.2991132 0.008861927 0.22273998 -0.26288074

predictionFunction.value_head.2.weight f4 [41, 64]
00000000: 4772 9bbd 2548 2dbf a2c2 86be 363f c6be
00000010: ff52 65bf d5d5 26bf 3755 78bf e096 45bf
00000020: d62e 90bf f7b5 66be 80af 0e3d 1037 14be
00000030: 337c dfbe bac8 00bf ba11 66bf 32a8 edbf
00000040: 0ed2 8dbe d2e8 64be 4844 82bf fe49 a2bf
00000050: 1df3 eabd e0b2 debe df92 97bf 262c 6cbf
00000060: ddc9 16bf 944a 9c3d 12b4 213b 5055 3dbd
00000070: e556 38be dc09 44bf 85e2 81bf de2f acbf
00000080: 5018 a6be bd69 63be e3b8 98bf d74b c7be
00000090: 35ca e6be 931a a2be d34b a9bf e454 8dbe
000000a0: d090 92be 6027 48bf 532b bfbd 91c0 11bf
000000b0: 2e69 84bf 804b 69bf e80a 1fbe 9f32 a73d
000000c0: 30c1 96bd ed45 60bf 427c 0dbf 7031 3ebf
000000d0: bf67 04bd f913 49bf e77a dabe 256c 80bf
000000e0: d6ea 6ebf 68e2 2cbd ca22 e9bd 50e9 91bf
000000f0: 46a0 8abf 8309 99be 594c 87bf 479e f3be
00000100: 7025 b1bc efa6 3ebf e70e cabd e926 c0be
00000110: 1516 5fbf 7803 36bf dd45 5dbf 763d 2bbf
00000120: 9c11 8ebf db86 9ebe 3d33 87bd 6395 a0be
00000130: 0e43 22bf 4cc6 0abf b78f 58bf 4357 f2bf
00000140: 3197 f0bd 5e84 3abe d27a 95bf 27ea 97bf
00000150: a7bc 8abd 6374 c7be 5f4f a4bf f2a4 6ebf
00000160: 4754 edbe e745 423d 5189 0ebc f40b 7d3c
00000170: 237f 97bd 2ccc 11bf e79f 7cbf 07cc 9ebf
00000180: 11eb f9bd 467a 7fbe 15c1 99bf d1a8 b4be
00000190: d333 13bf d58b dbbe e4ff 9cbf 9cd6 14be
000001a0: 3236 2abe 80cf 1dbf 2d2e 16bd be56 21bf
000001b0: 3f55 7ebf 8f5e 82bf 6a1d f6be e739 97bd
000001c0: 6ca8 53bd 4b84 85bf c295 02bf 2bda 2dbf
000001d0: 2e52 b73c 6341 0fbf 8899 14bf 8202 81bf
000001e0: caab 6abf aeea 3ebd 77aa 36be bb5e 8cbf
000001f0: ab69 90bf 5f19 93be 12ba 8fbf 104d c5be
00000200: 3011 7abd d47a 46bf 3faa 24be 863b d2be
00000210: 7672 7fbf 144e 2bbf dc10 76bf 1a78 1ebf
00000220: 972c 89bf a451 a0be 96cc 693d 1f7b 6abe
00000230: a7d9 05bf fe7f f0be 8908 81bf 911c f5bf
00000240: 3648 90be 7c84 90bd 5d2f 8abf 51d7 8abf
00000250: 10f8 b63c 8733 95be 82c4 aabf b01b 77bf
00000260: f465 06bf 002e c13d a354 813c c86b b0bd
00000270: 8cb8 2ebe fd93 3fbf 4913 86bf a4d5 99bf
00000280: 6014 0cbe b7f5 c5be 6eb8 9abf 58fb 75be
00000290: 106a 01bf 4b1e cabe b43c a8bf a1de fbbd
000002a0: 4f7c 3fbe 27cd 31bf e686 8cbd 40c5 40bf
000002b0: 7bf3 78bf c405 83bf bae2 6abe b13c b53d
000002c0: 5789 13be 264b 67bf 4a6a 3bbf 4634 37bf
000002d0: 5b85 e33d a7e3 1ebf 71ed 00bf d4ce 7dbf
000002e0: 8226 5cbf 636a 88bd 34b9 65be 20d3 90bf
000002f0: 3449 95bf 3948 d7be 8e54 8cbf a646 05bf
00000300: 3bd5 94bd 6f64 1ebf fdc4 99be 0026 c6be
00000310: 47ab 60bf 5197 39bf 274f 54bf c8a7 25bf
00000320: c422 86bf f41a 92be e3d2 15bc 0b7c 08be
00000330: bf85 08bf 4a58 f5be 162a 64bf febc 07c0
00000340: 9b2b 0bbe f65c 05be 2e89 97bf 9480 91bf
00000350: 2a3b b7bd 0bf6 acbe 3c37 a9bf c1a6 58bf
00000360: a26a c3be cd87 20bd 1f92 0d3d 1356 603b
00000370: a1dc 2ebe d9f3 28bf 870d 5cbf 6606 adbf
00000380: 6080 0bbe b778 2bbe 201c 9dbf 6f79 9fbe
00000390: c146 09bf c06e 5fbe 5e79 b1bf 2b28 12be
000003a0: d059 acbe e573 47bf 4102 c13d dac1 25bf
000003b0: f7de 87bf 2870 69bf 1145 edbe 07a8 d83d
000003c0: 8aee 1cbe 74c2 82bf 9b82 12bf 3133 45bf
000003d0: 008f ebb9 511a 43bf f1e9 e2be 3375 84bf
000003e0: 9fa5 78bf fcde d6bd 43b9 7dbe c1d4 82bf
000003f0: 0a93 95bf 9857 eabe 52d4 86bf 8936 c8be
-0.07590156 -0.6768821 -0.26320368 -0.387201 -0.89579767 -0.6517003 -0.9700503 -0.7718334
-1.1264293 -0.22530352 0.03483534 -0.1447413 -0.43649444 -0.50306284 -0.898708 -1.8566954
-0.27699322 -0.22354439 -1.0177088 -1.2678831 -0.114721514 -0.43495846 -1.1841697 -0.92254865
-0.5890177 0.07631412 0.002467398 -0.04622394 -0.18001898 -0.76577544 -1.0147253 -1.3452108
-0.32440424 -0.22208305 -1.1931423 -0.3892505 -0.45076147 -0.316609 -1.3226265 -0.2760383
-0.28626108 -0.7818508 -0.09334435 -0.5693446 -1.0344598 -0.9113083 -0.15531504 0.08163952
-0.07361066 -0.876067 -0.5526773 -0.74294186 -0.032325502 -0.785461 -0.42671892 -1.0033003
-0.9332708 -0.042208105 -0.113835886 -1.1399326 -1.0830162 -0.2989007 -1.0570174 -0.47581694
-0.021624297 -0.7447347 -0.09866124 -0.37529686 -0.8714307 -0.7109904 -0.8643473 -0.66890657
-1.1099124 -0.30962262 -0.0660157 -0.31363973 -0.6338357 -0.54208827 -0.8459429 -1.893288
-0.117475875 -0.18214557 -1.1678107 -1.1868333 -0.06774264 -0.38955984 -1.2836722 -0.93220437
-0.4635336 0.047429945 -0.008699731 0.015444744 -0.07397296 -0.56952167 -0.9868149 -1.2406014
-0.122030385 -0.24948987 -1.2012049 -0.35285047 -0.5750095 -0.4288012 -1.2265592 -0.14534992
-0.16622236 -0.61644745 -0.03666513 -0.63022983 -0.99348825 -1.0185107 -0.48069316 -0.07384091
-0.05167429 -1.0430998 -0.5100976 -0.6791102 0.022378054 -0.5595915 -0.5804677 -1.007889
-0.9166838 -0.046610527 -0.17838465 -1.096641 -1.1282247 -0.28730294 -1.1228659 -0.38535357
-0.061051548 -0.7753117 -0.16080569 -0.41061038 -0.9978403 -0.6691601 -0.96119475 -0.6190201
-1.0716733 -0.31312287 0.057079874 -0.2289853 -0.52285236 -0.4697265 -1.008073 -1.9149343
-0.28180093 -0.070565194 -1.0795704 -1.0846959 0.022335082 -0.29140875 -1.334122 -0.9652662
-0.5249932 0.09432602 0.015787428 -0.08614308 -0.17062587 -0.7483519 -1.0474635 -1.2018323
-0.13679647 -0.38664028 -1.2087533 -0.24021661 -0.50552464 -0.39476237 -1.3143525 -0.122983225
-0.18699764 -0.6945366 -0.06861667 -0.7530098 -0.9724652 -1.0236135 -0.22938052 0.088494666
-0.1440786 -0.9034904 -0.7320906 -0.7156414 0.1110942 -0.6206612 -0.50362307 -0.9914372
-0.8599626 -0.06660917 -0.2243393 -1.131443 -1.1662965 -0.4204729 -1.0963304 -0.52060926
-0.07267233 -0.61872 -0.30033103 -0.38700867 -0.8776135 -0.72496516 -0.82933277 -0.6470914
-1.047936 -0.2853619 -0.009144518 -0.13328569 -0.5332908 -0.47918922 -0.8912672 -2.1209102
-0.13590853 -0.13023743 -1.1838739 -1.1367364 -0.089468315 -0.33781466 -1.3219981 -0.84629446
-0.38167292 -0.03919201 0.03456318 0.0034230992 -0.17076351 -0.6599708 -0.8595814 -1.3517578
-0.1362319 -0.16745268 -1.2274208 -0.31147334 -0.53623587 -0.21819592 -1.3865163 -0.14273135
-0.33662271 -0.77911216 0.09424258 -0.6474892 -1.0614918 -0.9118676 -0.46341756 0.10578924
-0.1532537 -1.0215592 -0.5723054 -0.77031237 -0.00044929236 -0.7621203 -0.44319108 -1.0348266
-0.9712772 -0.1049175 -0.24777703 -1.0221177 -1.1685498 -0.45769954 -1.0533545 -0.39104107

predictionFunction.value_head.2.bias f4 [41]
00000000: 726f 8abf 1951 8ebf ff35 83bf 08b8 87bf
00000010: 6df5 8dbf 134b 8ebf ae6e 85bf dfbe 78bf
00000020: 599a 90bf a39e 7cbf 4126 81bf d9f4 81bf
00000030: d541 81bf 043f 95bf f20c 98bf 4a7e 92bf
00000040: 9b8f 74bf b018 8ebf ff6e 9abf 1260 95bf
00000050: 3cb9 12bf 19bd 0fbf a7ff d4be 1694 24bf
00000060: da51 34be 8692 34be 29d3 1abd 0526 80be
00000070: 5003 8dbd f854 e5bd d023 993d 3af4 53be
00000080: bb51 99bf 9b74 86bf ba4f 95bf 1164 8dbf
00000090: 50d8 93bf ca82 91bf e832 8abf d6fd 98bf
000000a0: 9f41 93bf
-1.081526 -1.1118499 -1.0250853 -1.0603037 -1.1090523 -1.1116661 -1.0424402 -0.97166246
-1.1297103 -0.9867956 -1.0089799 -1.0152847 -1.0098215 -1.1659856 -1.187895 -1.144479
-0.95531625 -1.1101284 -1.2065123 -1.1669943 -0.57313895 -0.56147915 -0.41601297 -0.6428846
-0.17609349 -0.1763402 -0.037799034 -0.25029007 -0.068853974 -0.11197847 0.07477534 -0.20698634
-1.1978067 -1.0504335 -1.1664956 -1.1046163 -1.1550388 -1.1368039 -1.0796785 -1.1952465
-1.1504401

dynamicsFunction.startBlock.0.weight f4 [64, 34]
00000000: 8071 213e e3ab 963e 0a80 7dbd b4ec d93d
00000010: 81d8 003e dac0 363e 9651 c4bc e53e 4bbd
00000020: 2e39 7fbd 67ab f9bd 7207 8e3e b79c 003d
00000030: a653 91bc 3e52 123e 7342 03ba c8a3 a23e
00000040: e7b4 1c3e 0ed2 ea3d 55cd 7dbd 6f17 543e
00000050: 3067 523e ee2c 423e 7770 fcbd 4b06 1a3e
00000060: ab16 873e a7ac dc3d 9620 4e3e b92a 3f3d
00000070: a4a4 923e b238 98bc 9a5e e4bd f77b 6a3d
00000080: 14da 823e 7eb7 88be 440e 91be 53c2 0e3e
00000090: bd6b 1dbe 3cc8 94bd a896 b7bd 9937 9d3e
000000a0: b679 83be 84b3 b1bc 1361 26bd f0e6 813e
000000b0: 5d55 1ebe dda9 a03d 9637 5a3e 7e99 913e
000000c0: 54e2 793e be85 573d 86ed 20bd 0523 e73d
000000d0: 5131 0abe 5cb3 07bd 5c3e 22bd b3f7 febc
000000e0: 317a ff3c c9e8 013e f8ed 5d3e 421c 023e
000000f0: 98c1 893d 1dc0 b33e ce42 01be 6067 a3bc
00000100: 55e7 fbbd a99e 443e 5e0f 803e cde1 bcbe
00000110: 2490 c53d 983b 09be 4c67 e63e 2727 8abe
00000120: 6f2d 663d 2e19 bbbd d64b 163e 7637 e2bd
00000130: d243 883d ce2c 0dbe 520d 4c3e 5836 093e
00000140: 736f 6ebe 0ebb 68be 4969 063d 5534 1cbe
00000150: 9e24 85bd 95c4 4a3b b372 33be 1b0e bf3d
00000160: 615c 163e 8e46 50be 95c1 5abe bc2d 2abe
00000170: e3be a8be 0851 8ebe 2ee0 3dbe f8db dbbe
00000180: aa71 f03d 691b b6be f9af 093f cb61 593e
00000190: b51c babd 52bf 373e be91 663d 59cf 4fbe
000001a0: da41 703d d98c d43e a472 283f d4f5 2dbe
000001b0: 7f14 ad3d 35ea cebd 8b9b d73e e624 1d3e
000001c0: c5d3 ed3b 8982 7e3e 9b23 3cbe b579 8dbd
000001d0: 0cbe c1bb 1b27 f8be 361b 94bb c007 1ebe
000001e0: 5a82 0a3e d2a3 0cbf 8781 ecbd 9de7 2fbe
000001f0: 4ae8 da3d 7bbf bbbd 8e12 7239 b264 90bc
00000200: 5936 82be f1cd 333e 65c7 a0be 4678 133e
00000210: ddce 80bd ccf0 7dbe 12db b13c 2bbc afba
00000220: 0744 a53c f430 7abc 6063 6dbe 5b2a 033f
00000230: 8624 5e3e 9739 b1bd 6496 0d3d 3812 e2be
00000240: 8d72 08be 2848 a8bd 5dac 513c c833 8cbd
00000250: 7dcd 2b3e 73db 8abd bb1a e2be 60aa d83d
00000260: 2cef d33c 94a1 52bc c115 59be f3dd 7bbe
00000270: 21da 59be ddb7 9fbd d004 97bd 88c1 9abd
00000280: ebab 553e 7787 4c3e 4455 453e f5c3 c53e
00000290: d7ae 8a3d 983f bcbd 66ac f13d 5fc0 52bd
000002a0: 79ca 2cbe 4249 b5bd 730a 2fbc 0376 5fbe
000002b0: 29a5 2a3e 5a44 fd3b 9211 f4bc e24a 24be
000002c0: 15b1 cdbc 5439 2abe 7b24 a03d f709 7e3d
000002d0: 6c06 223d aa7b 063e c424 3f3e a370 de3c
000002e0: d1f7 5e3d 8620 3abe ac25 79be f42a 683e
000002f0: fb5b 1ebd 440e f4be f235 91bd e666 7bbe
00000300: 3453 883d 5c31 15be a87f 04be 854d 68be
00000310: 1006 1abb 272f 6f3e 61d3 ab3d af46 263e
00000320: 3e8a 873e 932d 0bbe 1694 6fbd 22c9 83bc
00000330: a525 973e 7f94 143d e4a6 743c 5505 00bd
00000340: 84c0 5a3e 02e5 50be f0ba e5bd 0fbb 41be
00000350: 2325 093e 3921 733c 950a 0f3c a08d 123e
00000360: c728 93be 4445 7fbe ec8b b1bd 038f d3bd
00000370: b3ef 2d3e 5a4f b6bd db62 f3bd 267b be3b
00000380: 2029 e83d 1b12 483e 9278 88be 6a11 0c3c
00000390: 6d1b 313d 1d41 86be 174e c9bd f2dc 47be
000003a0: 4e47 143e d629 10bd b995 183d b22c 23be
000003b0: 20a2 f8be 07b0 ef3e 7535 523d 5c7e 3abd
000003c0: 5d69 4b3e beb0 113d ccc7 a8bd 7fa5 1d3d
000003d0: c3e9 72be f372 4ebc 3f51 0fbc 23e3 5c3d
000003e0: 2729 f2bc f4e4 c73d 290b 843d e0cd 93bd
000003f0: 28fd 133d f83a ad3d efac d43d 0e57 ff3d
0.15765953 0.29428014 -0.061889686 0.10640851 0.1258259 0.17847005 -0.023964684 -0.049620528
-0.06231039 -0.121908955 0.27740055 0.031399455 -0.017740082 0.14289185 -0.0005007155 0.3176558
0.15303384 0.11465846 -0.061963398 0.20712064 0.20547175 0.18962452 -0.123261385 0.15041463
0.26384482 0.10775118 0.20129618 0.046671603 0.28641236 -0.018581722 -0.11150856 0.05724713
0.25557005 -0.26702493 -0.28331196 0.13941316 -0.1537313 -0.07264754 -0.08964282 0.3070648
-0.25678796 -0.021692045 -0.04061992 0.25371504 -0.15462251 0.07844899 0.21310267 0.28437418
0.24402744 0.05261778 -0.03928902 0.11285976 -0.13495375 -0.033130035 -0.03961025 -0.031123972
0.031186195 0.12686457 0.21672809 0.12706092 0.06726378 0.35107508 -0.1262314 -0.019946754
-0.122999825 0.19201149 0.25011724 -0.36891022 0.09646633 -0.1340164 0.45000684 -0.26982996
0.056195673 -0.09135662 0.14677367 -0.110457346 0.06653561 -0.13786623 0.19926956 0.13399637
-0.23284702 -0.22727606 0.03281525 -0.15254338 -0.06501125 0.0030939926 -0.17524223 0.09328862
0.14683677 -0.20339414 -0.21362908 -0.16619009 -0.32958135 -0.27796197 -0.18542549 -0.4294126
0.1174043 -0.35567787 0.5378414 0.21228711 -0.09087507 0.17944077 0.056291334 -0.2029394
0.05865655 0.41513708 0.6579993 -0.16988307 0.08451175 -0.10103265 0.42110857 0.15346107
0.007257911 0.24854483 -0.18372957 -0.069079794 -0.005912548 -0.48467335 -0.0045198454 -0.15432644
0.13526288 -0.5493747 -0.11548143 -0.17178197 0.10688837 -0.091673814 0.0002308583 -0.01762614
-0.2543209 0.17559029 -0.31402126 0.1440135 -0.06289456 -0.24798888 0.021710906 -0.0013407519
0.02017404 -0.01527046 -0.2318244 0.51236504 0.2169362 -0.086535625 0.03456725 -0.44154525
-0.13324948 -0.08216888 0.012797442 -0.06845814 0.16777606 -0.06780138 -0.4416102 0.105793715
0.025870882 -0.012855906 -0.21199705 -0.24596386 -0.21274616 -0.07798741 -0.07373965 -0.075564444
0.20866363 0.1997355 0.19270808 0.38626066 0.06771629 -0.09191817 0.118004605 -0.05145299
-0.16874112 -0.088518634 -0.010683644 -0.21822362 0.16664566 0.0077290954 -0.029793534 -0.1604419
-0.025108853 -0.16623431 0.07819458 0.062021222 0.039556906 0.13133112 0.18666369 0.027153319
0.054435555 -0.18176469 -0.24330777 0.22672635 -0.03866194 -0.47667134 -0.070903674 -0.24550971
0.06656495 -0.1456961 -0.12939322 -0.22685821 -0.0023502149 0.23357831 0.08389927 0.16237901
0.26472658 -0.13591604 -0.058490835 -0.016087119 0.29520908 0.03627443 0.014932368 -0.031255085
0.21362501 -0.2039986 -0.11217296 -0.18919013 0.13393073 0.014839464 0.00873055 0.14311838
-0.28742048 -0.24928766 -0.08669266 -0.10330012 0.16985969 -0.08901854 -0.118840896 0.0058130203
0.11335969 0.19538157 -0.26654488 0.008549074 0.043239046 -0.26221552 -0.098293476 -0.19517878
0.14480326 -0.035196148 0.03725216 -0.15935019 -0.48561192 0.46813986 0.05132051 -0.045530662
0.19864412 0.035568945 -0.08241233 0.038487907 -0.23721986 -0.012600648 -0.008747398 0.053927552
-0.029560639 0.09760466 0.06447441 -0.07217002 0.0361301 0.08458513 0.10384547 0.12467776

dynamicsFunction.startBlock.0.bias f4 [64]
00000000: 3797 9e3d 2270 e73d b45d 973d dc3f 10be
00000010: 1000 25be 9a3e 14be b40a 423e afe1 47bd
00000020: 0d7b 333e a8e3 263d bee6 7dbd afa1 133e
00000030: 6034 493c 8d28 053e 5356 773d 8817 3abe
00000040: 8870 34be 7218 6c3e 895e 05bd efc3 66be
00000050: a2fd 0fbe c0fb d73c 93f2 3bbe f924 c9bd
00000060: 987f 803b bae8 ec3d d9a1 723e 3abc cbbd
00000070: b2ac 58be 481f f33d c5fb dfbc 4dff dabd
00000080: 86c1 073e 742f 683c 8501 e03d 5ac3 ad3d
00000090: d54d 693d 262c 67bd 594b 8c3b 05e1 80be
000000a0: 4dd7 313c 28b4 3b3d d72a 2fbe 2ef8 583e
000000b0: 7efb c3bc 53c0 af3d e973 e2bc 557f 3bbd
000000c0: b33d 1a3e 1898 113e 30dd dbb7 6ef3 0abe
000000d0: f9ac 07bb 1dda 2c3c 860f 58bd 0353 c5bd
000000e0: 40ab 333a 30b6 d53d 6bf5 38bd e6d3 243e
000000f0: aa62 013e 2d7f 723d d915 be3d ee72 d03d
0.07743686 0.113006845 0.07390919 -0.1408686 -0.16113305 -0.14477006 0.18949395 -0.048799213
0.17527409 0.040744454 -0.06198763 0.14417146 0.012280554 0.1300375 0.06038506 -0.18173039
-0.17621052 0.230562 -0.03256086 -0.2253568 -0.14061597 0.026365161 -0.18354253 -0.09821505
0.0039214604 0.115678266 0.23694552 -0.09948011 -0.21159628 0.11871201 -0.027341733 -0.10693226
0.13257417 0.01417147 0.1093779 0.08484526 0.056958992 -0.056438588 0.004281443 -0.25171676
0.010854554 0.045826107 -0.17106186 0.21188423 -0.023923632 0.08581605 -0.02764316 -0.04577573
0.15062599 0.14218175 -2.6209833e-05 -0.13569424 -0.0020702465 0.010550049 -0.05274918 -0.09634974
0.00068538263 0.1043514 -0.045155924 0.16096458 0.12635294 0.059203316 0.09281511 0.10178171

dynamicsFunction.startBlock.2.weight f4 [32, 64]
00000000: 6c09 34bd 7eee 70be 2d56 7f3d d845 8ebd
00000010: 87a8 4dbe 2733 a9bd 847d 833e f2db 8c3d
00000020: f29f 303e c492 ca3b ba57 4dbe bdec 313d
00000030: ada3 e93d 7683 6a3e 11fb 18bd 2bf0 e7bd
00000040: 5df9 bbbd 6729 2e3b 51b8 813b dad4 47be
00000050: 00b3 14be d767 8fbd 0954 703d 8102 bbbd
00000060: fdee 62bd 71b1 3e3e e5b0 453e 590f feba
00000070: ea36 d13d 74a2 68bd 8404 153c 5e52 93bc
00000080: 3f08 7ebd c184 34bd 1171 8c3d a670 d8be
00000090: c784 71be 25d4 0cbd 0733 663e f0b7 23be
000000a0: a564 c8bd a5cd 29be 4b18 6a3e 5fa9 aa3b
000000b0: 2c4e 86be b999 9ebd 4ba0 b93c 0e42 c13d
000000c0: 97e0 a5bd 9271 273e 4a0f 24be f4a0 463e
000000d0: 9f78 d13d 3c36 8cbd f11c 66be c44d 2fbe
000000e0: 8d7d 93be 6e12 a63d 7fc6 a73e b625 4a3e
000000f0: 6d96 0d3e d3cb cdbd 28ea 7fbc 4bf6 8dbe
00000100: 5812 f63c d623 8a3e a5e0 05bf ef03 3ebd
00000110: 693d 613c b972 b5be a1bc e4be 247a a7bd
00000120: 9ed6 99be 6c67 c3bd 407b 7a3e 33f4 09be
00000130: 7e1d c5bd df59 46bf b33f ffbd f796 f43d
00000140: adb1 6b3f b38d f7bd 808a 7a3c a0aa 4e3e
00000150: 3f21 fc3d 0f76 103d a645 0a3e 2004 ce3d
00000160: 19ef 1c3d b42f 953e 6c22 28bf 7016 e43d
00000170: e508 8d3b 23c0 62be 47bd bdbd 0b17 a63e
00000180: 770b 143c b053 933e 85d6 c3bd dc12 a6bd
00000190: 2487 993e e9a9 35bc 2370 85bd 2638 2c3e
000001a0: 19f3 aebd 27cd b93e d02f 943d 43c6 15be
000001b0: d018 ce3e f62e e33d d685 aa3d e92b 113e
000001c0: 5349 3b3e c248 86bf 0451 b1bc b452 28be
000001d0: 17e5 df3e e25f 9f3d 1318 323e 4062 ab3e
000001e0: c863 dfbd ba24 983d ecc0 4c3d 48b6 1ebd
000001f0: a05e 1cbf 7850 3dbf 0f17 b53d 0222 48be
00000200: 0255 143d 05bc 5cbe 8bdb b43e c00c 80be
00000210: e49f aa3c 5d1d 973e db44 ad3c 6d16 84bd
00000220: 365e 2f3d 1c3d 163e fcd9 52be e5fe ad3d
00000230: 1242 253e ec4b b93e 6233 b13d 16a9 463d
00000240: 2c34 68be b52c c23e f470 00be eccb c8bd
00000250: 7e4e 53bd 14fa 643e 7787 d93d 737a a33d
00000260: 50b8 573d 2ef8 4dbe bc5e b43e f67b bbbd
00000270: a061 80bd 8db4 a63d 2df1 4dbe 5a12 43be
00000280: 3632 0c3e 3153 cf3d b5f4 6dbe 5685 f33d
00000290: d9e8 a2be 71d8 843c a999 2ebe f13b b53a
000002a0: d577 64bd d5ee 81bd 77e0 2d3d 7b88 61bd
000002b0: f9c8 e6be 334f bb3d bf8f 34bd 7e66 4cbe
000002c0: 0cea 3abe 728a 523c 327d 253d 02b1 343e
000002d0: b0ac c83e 2c11 30bb 52b0 0fbe bca3 42be
000002e0: 3a9d 91be 99cd 233d 891c dabd 0403 f13d
000002f0: 8a09 c93d fdad d73d dae2 4f3e c9b7 813d
00000300: e482 30bd 226b 5abb 266b f5bd 50fc 823b
00000310: b793 a63e 6b7a d6bc 4f65 4c3c 9370 8d3c
00000320: 2b54 66be f565 213e 6ee9 993d b50e 823d
00000330: 117d 20be 8cf2 05be e889 d0be f53e ccbc
00000340: ac68 ea3c 02d9 cfbe 26d6 b33e f448 f639
00000350: f33b 793c a98b 88be 3464 e9bd e5e0 c23d
00000360: 61ad 0fbe aec3 0abb 660e 3d3d 0378 b93d
00000370: fce3 f3ba 8329 15be 0966 5d3e f149 0c3e
00000380: 9514 56be c2c8 3dbd 74bc 333e 6cdf 47be
00000390: 9aad 7c3d d50b 8c3e 7548 913d 807f ac3d
000003a0: 1eb8 8e3c fd20 293c 1c4d 83bc 5f29 fc3d
000003b0: 589a 613e 78e2 9ebe 4baf d1be 4b4c b73e
000003c0: 90d9 36bd 51ec 8cbd 7014 c0bc e953 d0bd
000003d0: a84d 5c3e 440a 9b3d 9935 1bbd 63e8 713e
000003e0: 9e6e 2fbd dd05 f2bc 7de9 bcbc 5e46 84bd
000003f0: 0dc6 8e3c 176c e5bd 7a35 0bbe a7b2 413e
-0.043954298 -0.23528478 0.062338043 -0.069469154 -0.2008382 -0.0826171 0.25681698 0.06877889
0.17248514 0.0061820466 -0.20052996 0.04343866 0.11408172 0.22901711 -0.03734881 -0.11325105
-0.09178422 0.002657497 0.00395874 -0.1951479 -0.14521408 -0.07002228 0.058673892 -0.09131337
-0.0554037 0.18622376 0.19305761 -0.0019383236 0.10215552 -0.056795552 0.009095315 -0.017983612
-0.062019583 -0.044071916 0.06857503 -0.42273444 -0.23585807 -0.034382004 0.22480403 -0.15988135
-0.097848214 -0.16582353 0.2286083 0.005208179 -0.26231515 -0.07744164 0.022659441 0.09436427
-0.08099478 0.16351917 -0.16021457 0.19397336 0.10228085 -0.06846282 -0.22471978 -0.17119509
-0.28806725 0.08108984 0.32768628 0.19740948 0.13826914 -0.10048642 -0.015619792 -0.2772697
0.030038044 0.26980466 -0.52295905 -0.04639047 0.0137475515 -0.3543909 -0.44675162 -0.08177593
-0.30046552 -0.095412105 0.24461079 -0.13472061 -0.09624766 -0.7748088 -0.124633215 0.11942857
0.92067987 -0.12087574 0.01529181 0.20182276 0.12311029 0.03526884 0.13503131 0.100593805
0.03831396 0.29137957 -0.65677524 0.11137092 0.004304039 -0.22143607 -0.092646174 0.32439455
0.009035937 0.28774786 -0.09562401 -0.08109066 0.29985917 -0.011087873 -0.06515529 0.16818294
-0.08542461 0.3628933 0.07235682 -0.14626412 0.40253305 0.110929415 0.083263084 0.14176907
0.1828969 -1.0490954 -0.021645077 -0.16437799 0.4372947 0.0778196 0.17391996 0.33473396
-0.10907704 0.0742888 0.049988672 -0.038748056 -0.61081886 -0.7395091 0.08842289 -0.19544223
0.036213882 -0.21556099 0.35323748 -0.25009727 0.020828195 0.2951459 0.021150997 -0.0644959
0.042814456 0.14671749 -0.20590967 0.08495883 0.16138485 0.36190736 0.086523786 0.048501097
-0.22676152 0.37924734 -0.12543088 -0.0980452 -0.051588528 0.22361022 0.10621541 0.0798234
0.05266601 -0.20114204 0.35228527 -0.09154503 -0.062686205 0.08139906 -0.20111533 -0.1904997
0.13691029 0.101232894 -0.2323788 0.11890666 -0.31818274 0.016216489 -0.17050804 0.0013827068
-0.055778343 -0.06344382 0.042450394 -0.0550618 -0.45075205 0.091459654 -0.0440824 -0.19960973
-0.18253344 0.012850391 0.0404026 0.17645648 0.3919425 -0.0026865704 -0.14032105 -0.19007772
-0.28440267 0.039990995 -0.10649974 0.11768153 0.098162726 0.105312325 0.20301381 0.06333882
-0.043093577 -0.0033328016 -0.119833276 0.003997363 0.32534572 -0.02618142 0.012475326 0.017265594
-0.22493045 0.1576155 0.07515226 0.063504614 -0.15672709 -0.13080806 -0.40730214 -0.024932364
0.028614365 -0.4059525 0.3512432 0.0004697513 0.015212047 -0.26669052 -0.11396065 0.095155515
-0.14030983 -0.0021173763 0.04615631 0.090560935 -0.0018607373 -0.14566617 0.21620955 0.13700081
-0.20906289 -0.046334036 0.17552358 -0.19518822 0.061688997 0.27352777 0.07093898 0.08422756
0.017421778 0.010322806 -0.01602798 0.123125784 0.22031534 -0.31032157 -0.4095405 0.35800394
-0.044641078 -0.06881011 -0.023447245 -0.101722546 0.21513999 0.075703174 -0.03789291 0.23623805
-0.042830102 -0.029543811 -0.023060555 -0.06458734 0.017428422 -0.11202257 -0.13594618 0.18915807

dynamicsFunction.startBlock.2.bias f4 [32]
00000000: 0dea e43c 9651 b5be fa1f 3b3d f10d 0ebe
00000010: cbbb 0dbd 4f2a 763d 0afc 9d3d f891 0f3d
00000020: 1cfb 22be 3b93 0b3e 9a1c 223e 03de c2bd
00000030: ba50 083e 679b a73c 1685 bc3d 34df 763e
00000040: 9f99 0d3e 5311 cc3c a654 203d b63a c63d
00000050: 6ed6 24be c0d0 00be 81d1 1cbd 6a66 223e
00000060: a837 f6bd ed95 ddbd a2ef f13d 8fa9 0ebe
00000070: b6b0 df3d 9a2e 0c3d caab e23d 6270 9e3c
0.027943635 -0.35413808 0.045684792 -0.13872506 -0.03460292 0.060098942 0.07714088 0.035051316
-0.15916103 0.13630383 0.15831223 -0.095150016 0.13312045 0.020459844 0.09205072 0.24108583
0.13828133 0.024910605 0.039143227 0.09679167 -0.16097423 -0.12579632 -0.038285736 0.1585938
-0.12022334 -0.10819612 0.118132845 -0.13931869 0.10922377 0.03422413 0.110679224 0.019340698
