AlphaGo/foersterrobert_MuZero/Environments/CartPole/Models/model_15.pt (torch, 84274 bytes, 20 tensors)

predictionFunction.startBlock.0.weight f4 [64, 32]
00000000: acd0 d1bd 3a1a 183f 688a a0be 265e 99be
00000010: c711 c1be 72cc b4bd 36a9 b1bd c1f8 6f3e
00000020: a8b3 dd3d 308b 3abe 2eb3 8fbe 97b4 9abe
00000030: ebdb d8be 56bd c43e 0fc5 8f3d 75a4 73be
00000040: 3860 18be db2a 8f3e d1c5 13bf fa5d 9a3e
00000050: 2b43 003f 6add 413f 1c36 453d 2528 9f3c
00000060: d80e 00bd d761 d33d eb18 173d ef62 6c3d
00000070: 1974 363e 2fde 133e 2120 92be 7223 d63c
00000080: ed8a fbbb 99c9 85be af0b 52be e5af cfbd
00000090: 1650 85be c39c f3bd b8c9 d6bd dd46 5b3e
000000a0: b1e8 b53d c096 9cbe 1583 b3bd 859a 33bd
000000b0: 270f 5e3d 1ed8 b1bc 792d 9abd 424e 903d
000000c0: d676 a8be 457d d8bd f3ec ce3d 5614 ce3d
000000d0: 303c ad3e e297 743d 4c0b 1f3e 18d9 1cbf
000000e0: 256c 063d b089 02be 8467 533d 2b32 893d
000000f0: aad3 d73b 29f1 c23e 5d0a 27bf 36d5 c7be
00000100: 0f93 bcbe bb2b f93d 3598 e4bf 82e6 c83d
00000110: dffd 563d 5a90 1e3f 6507 71bd 4db5 b5be
00000120: 4454 a9be 29f5 b83d f55a e5be 78bb 3f3e
00000130: 504a 2f3f 5469 853d 1fc6 673e 14a5 a43e
00000140: 8dc4 15bf 18f2 8a3e c0c0 933d f989 cabd
00000150: d156 953e 67f5 c83d 2c0e 9b3f d4b3 533e
00000160: 88fd 8c3e 8c43 bc3e f943 013f f7f8 843e
00000170: f79c 223e a968 0140 28a6 95bf 7688 c43e
00000180: 5615 b63d 1ae2 d23e 9fc4 15bf 6828 e3bc
00000190: 97ee e6bc 08d2 0a3f 5f21 0bbe 9d40 80be
000001a0: 0693 a9be 6834 583d cb2e 2fbe 4064 b3be
000001b0: 5f73 703e e83e 61bd 631f 013d b806 c63e
000001c0: 629c acbb bc64 4e3e 4b89 95be f04e 29ba
000001d0: b192 09bd 5def d23e e37e 183e ffc6 b63e
000001e0: 33a0 993e 15de 513c f09e 983d 5212 3b3e
000001f0: 95c3 723e 6cb8 c13d 6306 d1be 65c2 063f
00000200: 9cf6 b9be cf3a 55bf 48cd 6bbe 19f9 b83e
00000210: bcdf 5fbd 36df 98bd bef3 35be 9d00 4cbe
00000220: 9e74 24bd e769 a0bd 4143 0f3d 54f0 3c3f
00000230: 14ce 4b3f e77c 0b3f 250d 27be 0f25 5ebe
00000240: 26c3 03bf 5e84 15bf e3c5 b4bb 3f85 38be
00000250: ebcd dc3c c7e8 d5bd 3112 db3d 23d2 14bf
00000260: 3c02 033e ce2d 103f fb9d ef3c 1e63 813d
00000270: ab9e 64be 8d2b e53e e519 79bf f61b 093e
00000280: 9e79 1bbe 8f52 38be 2176 18bc 5b66 95be
00000290: 8c8f 063e a246 13bf 2b51 a2bd 00b7 853e
000002a0: c8d6 9dbd e3d8 f8bd 458d bbbd e645 813e
000002b0: b6b3 943e 298e da3c 304b e4bd 6647 573d
000002c0: fb23 02bd d8d1 d8bd 0516 f83e 2b86 b6bc
000002d0: e5d9 2ebd 5b95 7cbd 2c00 7d3e 0657 8dbd
000002e0: c260 27bd ded6 563d 7d30 07be c528 72be
000002f0: 60c7 18bf 855b 2f3e 0ae4 bd3d 89a7 fc3d
00000300: eb77 19be 8b0b a3bd 0f34 2bbd 179e 4dbe
00000310: b2c6 d6bd 285c 2d3e f9eb f7be 4b2a b43e
00000320: 7db6 02bd b72b c33e 1d22 21bf 788d 04be
00000330: 346e 1ebd cb98 2fba ec67 873e 0101 3f3e
00000340: ae5c 6c3c d6e2 debd d589 803e e144 e73d
00000350: 3900 a53c 3c25 933d 9abf 9c3d 4c20 27be
00000360: ce40 80be d1b9 133e 5f0c d3bd ccba ddbe
00000370: b4c4 80be 610e 4d3e 4a5c 0dbd 3c65 113d
00000380: 15d3 2cbe 00da e33d 93f7 21bf dc1c 873e
00000390: c00e eabd 5677 58bd 722a 243d 836f e93d
000003a0: 7655 ba3d bb0d 783d 917a 1f3e f711 f3bd
000003b0: db79 b33e bfe1 e8bd bf2e 76be b496 ca3e
000003c0: e8e2 8d3b ff0e 293e 5737 afbc 3613 713d
000003d0: a6fd 983e 5802 4e3d f556 313f a130 4fbe
000003e0: 2b3e 653e 8204 2b3e 5de8 953e 4d6d c13e
000003f0: 4508 273e cf9f 073f 9b3e 11bf 95b2 76be
-0.10244879 0.5941502 -0.31355596 -0.29954642 -0.37708876 -0.08828057 -0.086748526 0.23434736
0.10825282 -0.18217158 -0.2806639 -0.30215904 -0.42355284 0.38425702 0.07020008 -0.23793204
-0.14880455 0.27962384 -0.5772372 0.30149823 0.5010249 0.75728476 0.048147306 0.019428322
-0.031264156 0.10321396 0.036888998 0.057711538 0.17817725 0.14440225 -0.28540137 0.026139949
-0.0076764734 -0.2613037 -0.2051227 -0.10140971 -0.26037663 -0.11895134 -0.104876935 0.21413751
0.08882273 -0.30583763 -0.08765236 -0.043848533 0.05421367 -0.021709498 -0.075282045 0.070461765
-0.32903165 -0.10570768 0.10103788 0.100624725 0.33834982 0.05971516 0.15531653 -0.6126876
0.03281798 -0.12747836 0.051612392 0.06699022 0.0065865116 0.38074616 -0.6525019 -0.39029855
-0.36830947 0.12166544 -1.785895 0.09809591 0.052488204 0.61939013 -0.058844943 -0.35489884
-0.33072102 0.090311356 -0.44795957 0.18723857 0.68472767 0.0651423 0.22634171 0.32157195
-0.5850304 0.27137828 0.072144985 -0.098895974 0.29167798 0.09812432 1.21137 0.20674068
0.2753718 0.36770284 0.50494343 0.25971195 0.1588019 2.022013 -1.1691332 0.3838536
0.08890788 0.41188127 -0.58503145 -0.027729228 -0.02818994 0.5422673 -0.13586949 -0.25049296
-0.33119982 0.052784353 -0.17107694 -0.35037422 0.2348151 -0.054991633 0.031524073 0.38677
-0.0052676657 0.20155615 -0.2920631 -0.0006458601 -0.03358716 0.41198245 0.14892153 0.35698697
0.30005035 0.012809296 0.0745219 0.18268707 0.23707421 0.09459004 -0.40825185 0.5264037
-0.3632096 -0.8329286 -0.23027527 0.36127546 -0.05465673 -0.07464449 -0.17768762 -0.19922109
-0.040150277 -0.07832699 0.034976248 0.7380421 0.79611325 0.5448746 -0.16313608 -0.21693824
-0.5146965 -0.584051 -0.005516754 -0.1801958 0.026953658 -0.104447894 0.10696829 -0.58133143
0.12793821 0.5631989 0.029250136 0.06317733 -0.22326152 0.4475979 -0.97305137 0.13389573
-0.15183112 -0.18000244 -0.009305508 -0.29179654 0.13140696 -0.5752965 -0.07925638 0.2611618
-0.07706982 -0.12150743 -0.091578044 0.2524864 0.2904336 0.026679115 -0.111471534 0.052558325
-0.031772595 -0.105868995 0.484543 -0.022280773 -0.04268827 -0.061665874 0.24707097 -0.06901364
-0.04086376 0.052451007 -0.1320209 -0.23648365 -0.5967922 0.17124756 0.092720106 0.12336642
-0.14987151 -0.07961186 -0.041797694 -0.20079838 -0.10487117 0.16929686 -0.4842222 0.35188517
-0.031912316 0.3811929 -0.6294268 -0.12944591 -0.038679317 -0.0006698488 0.26446474 0.18652727
0.014426393 -0.10883109 0.25105157 0.112924345 0.020141708 0.07184836 0.076537326 -0.16320914
-0.25049442 0.14426352 -0.10305094 -0.43306577 -0.25150073 0.20025016 -0.03451184 0.035496935
-0.16877396 0.111255646 -0.63268393 0.26389205 -0.114285946 -0.052848183 0.04007954 0.11398222
0.09098332 0.06055997 0.15574099 -0.11868661 0.35053906 -0.11371183 -0.2404127 0.39568102
0.004330028 0.16509627 -0.021388693 0.05885621 0.29881018 0.050295204 0.6927331 -0.20233394
0.22386996 0.16700938 0.29278842 0.37778702 0.16311748 0.52978224 -0.56736153 -0.24091561

predictionFunction.startBlock.0.bias f4 [64]
00000000: 55b1 87bc dc2f 6bbe 6f7a 9abe 89e7 353d
00000010: b453 77be 6366 09bc 8789 003e 8be6 9ebd
00000020: 129e 1b3e 4a93 5c3d 68fd 81be 5ba0 00be
00000030: 5808 73be 86ed 1dbd d851 c8bd 80c9 4bbe
00000040: ade7 01be be77 cd3d 0b3c 72be 3f04 ebbd
00000050: 16bc a0be 6177 dfbd 3f3f 13bd 6f74 44be
00000060: 7e70 8ebd 24ae 09be 5c3f 013d 9610 edbd
00000070: df05 c7bd c287 fcbd 4a70 06be 288f 72be
00000080: 3c79 c03d d077 94be 8fc6 2abe 8673 33bd
00000090: f898 9bbd 0811 84be 419b 12be 2222 75be
000000a0: 7b1f d9bd 91dd 66be ac40 afbe 4a5a 09be
000000b0: 92b5 06bd 2532 8abe 5066 353c 2972 5cbe
000000c0: 2f50 1abe 3bf8 013e de4e d8bd 2f73 11bd
000000d0: 38ad 13be 0025 5abe e262 92be de62 fe3d
000000e0: 4f09 93bc 35ee dc3d 6171 21be 999b 0fbc
000000f0: ee42 c73d f3d0 4b3e 8e06 40be 9557 bc3d
-0.01656405 -0.22967476 -0.30171534 0.044410262 -0.24153024 -0.008386227 0.12552463 -0.07758816
0.15197018 0.053851403 -0.25388646 -0.12561171 -0.23733652 -0.038556598 -0.097812355 -0.19901085
-0.12686034 0.10032605 -0.23655717 -0.11475419 -0.31393498 -0.109114416 -0.035948988 -0.19185041
-0.0695505 -0.13445336 0.031554565 -0.11575429 -0.09717917 -0.12330581 -0.13128772 -0.23687422
0.093981236 -0.2899766 -0.16677307 -0.043811344 -0.07597536 -0.25794244 -0.14317037 -0.23938802
-0.106017075 -0.22545458 -0.34229028 -0.13413349 -0.032888003 -0.26991382 0.0110717565 -0.21527924
-0.1506965 0.12692349 -0.10561918 -0.03551024 -0.14421546 -0.21303177 -0.28591067 0.12421201
-0.017948775 0.10787622 -0.15765907 -0.008765125 0.09729563 0.19903927 -0.187525 0.091963924

predictionFunction.startBlock.2.weight f4 [64, 64]
00000000: ffe0 13bd 2028 5bbe a091 9f3e e6ee 67be
00000010: e305 77be a517 14bf 6783 863e 643b a33e
00000020: be98 11bf fef8 4ebd d06b 1cbe f7b1 e0bc
00000030: 1702 923e bc3a 0c3f f91a e13d 3716 ac3e
00000040: 8da9 d03d b02b a5bd 9fb3 13bf 21ff a7be
00000050: 578e bdbd aaa0 fa3d 0127 d43e f422 703e
00000060: 9170 1abf c84b 17be 9094 703f c24e 20be
00000070: 36ca 39be e6e5 243e 17e1 8fbe a8dc 90bb
00000080: 129e 0dbf b953 773e 6383 843d eb17 a3be
00000090: b0f4 27bd dcfd a83e 624c c9bd d922 8a3d
000000a0: 6637 e13c 78d6 d6bc 19e2 253e c8b0 8b3d
000000b0: 44b4 29be f18a 64be 1917 9cbe 0eb4 05be
000000c0: fa1b 5dbe e244 f2be 2f68 63be f6bb babe
000000d0: 21ae 2a3d 60dc 53be 4f3c e03e b0e3 7dbe
000000e0: 4379 b5be a03a a8bd 21db 00be 1a0a bd3e
000000f0: d085 2f3c e4ea 35be 62e0 a43b c65e b7be
00000100: 6a8e 82be f770 8dbe c1c2 8b3e ed26 15be
00000110: 71a6 d43e d47f 98bc 604c df3e 758d cc3e
00000120: 857e 1cbf 42b3 2b3e 1c9b 043e a625 03bd
00000130: ab5a 093f fc80 d63e 0fa3 993e d7e0 4fbe
00000140: ba74 303e a7a7 1cbe 3623 14bf 95c6 073b
00000150: 8398 85bd 7783 cfbd e6c1 573d d3ec 893e
00000160: 8c53 a3be 0063 37be 920b e43e ebcd 44be
00000170: 7a65 c9be d02b 843d 46fa edbd e99c 13be
00000180: dd6d c0be 381e da3e 6336 d63e 49ab b3bd
00000190: bfde b43e a083 dabd 0602 96be 1244 173e
000001a0: d94d 903e 0706 203e d8a2 c93c 2aa9 ff3d
000001b0: ee4d 693e 8f83 f43d b3ba a0be ab53 b6bd
000001c0: 9509 02be 1ae3 97be a240 febd 4db3 bcbd
000001d0: fab5 923e 2787 f53d d914 36be 3457 77be
000001e0: 0fb0 e6be 6eac fd3d 252f b3bc 6c31 3c3f
000001f0: 324e 003f e852 8fbd aebf bdbd 5df5 3cbe
00000200: b65f 19bd c18b 873d bdf3 b63e a71e 083d
00000210: d0d8 d6be 464c febe 6457 603e 18f4 9fbc
00000220: b72f 20be a80a 8abe 721f fa3d d476 213f
00000230: c5a7 ef3d 5d95 d13d 074d 6cbc c779 24be
00000240: 4c9c 243e c314 ccbb f3b3 993c a7a5 52bc
00000250: e0a6 303c 2ca0 94be 8f45 c73d 5087 e93c
00000260: abd5 d43d 04af 8fbe c0b7 cabc da91 b7bd
00000270: dfcd 6dbe ee8c 87bd 2014 c53e 6e8d d73c
00000280: 709e cabc 9841 6cbc e4e5 053e a7e1 ad3d
00000290: ddef 653e f972 35be df38 15be e00a e5bd
000002a0: 35df 403e 8c7b cbbd ead1 bdbd af44 89be
000002b0: cece c93e 2068 13bf 3681 1dbf f3da 85be
000002c0: c0b7 58bd a9ce 98be 11ef a13d db17 bfbe
000002d0: 0ec5 0ebc ca04 1bbd 6f8d a43b 8262 77be
000002e0: bea0 653d 0829 8bbc fc0a cc3e 3386 22be
000002f0: fca8 bd3d f890 42be ba36 e2bd 2d56 cb3d
00000300: 9444 a7be 1ded a4bd 1066 e93d c489 963e
00000310: 49fb 263e bf30 1e3d 2888 91bd 3dc7 383c
00000320: 6f48 a4be e8f3 aa3e 534f e5be ffc0 b4bd
00000330: 1bdd 363e 72e9 21be 197e ca3d b411 703e
00000340: e207 0f3e 5c3f 5fbc a419 4bbe 6f8f 00be
00000350: fb1b babc 421a e0be f3a3 4fbd 60cf 103e
00000360: 36ad 80bd 47e8 623d f551 f33d c6d7 80be
00000370: f64c 5d3e d3d1 a1bc 1b46 28be 72a5 38be
00000380: 30c0 873e 358c a83d 6f5a 9d3e 23e4 86be
00000390: caff 7f3d df4a c0bd dcb2 68bf 7c40 f63d
000003a0: 5919 ec3e 8cfd debe 848b 34bd 76dd a43e
000003b0: 1717 4b3e cdf2 94be c08a 8dbd feb8 0dbf
000003c0: cb0b d63e 48f0 39c0 b7cc b8bc 5111 17be
000003d0: ce7a 2e3e 29fb 603e 9fdf 3d3e 9afc 98bd
000003e0: dcf5 23be f497 6f3e f637 0fbe 8eeb bcbe
000003f0: 1048 cbbe ac06 09be d24b 0d3e e984 c73c
-0.036103245 -0.21402025 0.3116579 -0.22649726 -0.2412334 -0.5784858 0.26272127 0.3188125
-0.5687369 -0.050530426 -0.15275502 -0.02742861 0.2851722 0.5477712 0.10991473 0.336107
0.10188589 -0.08064973 -0.57695955 -0.32811835 -0.09255665 0.122376755 0.41436008 0.23450834
-0.6032801 -0.14775002 0.9397669 -0.15655044 -0.18143544 0.16103324 -0.28101417 -0.0044208355
-0.5531932 0.24153031 0.064703725 -0.31854185 -0.041004837 0.3300618 -0.09829022 0.06744928
0.027492236 -0.026225314 0.1619953 0.06820828 -0.16572672 -0.22318627 -0.30486372 -0.13056967
-0.21592703 -0.47318178 -0.22207712 -0.36471528 0.04166997 -0.20689535 0.43796012 -0.24793887
-0.35444078 -0.08214307 -0.12583591 0.3692177 0.010713056 -0.17765385 0.0050316313 -0.35814494
-0.25499278 -0.27625248 0.27297023 -0.1456563 0.41533235 -0.01861564 0.43612957 0.39951673
-0.61130553 0.167676 0.12949795 -0.032018326 0.53653973 0.41895282 0.30007216 -0.20300613
0.17232028 -0.1529833 -0.5786623 0.002071773 -0.0652323 -0.10132497 0.05267515 0.26938495
-0.3189968 -0.17908859 0.44540077 -0.19219176 -0.39335233 0.06453669 -0.116200015 -0.14415325
-0.3758382 0.4260118 0.4183837 -0.087729044 0.35326192 -0.10669637 -0.2929842 0.1477206
0.28184393 0.15627299 0.024613783 0.12483437 0.22783634 0.11939155 -0.3139244 -0.08902677
-0.12698968 -0.29665452 -0.124146715 -0.092138864 0.28654462 0.11988669 -0.1778139 -0.24154359
-0.45056197 0.12386404 -0.021873066 0.7351291 0.50119317 -0.06998235 -0.092650756 -0.18452974
-0.037444793 0.06618453 0.35732833 0.033232357 -0.4196229 -0.49667567 0.21908337 -0.019525573
-0.15643202 -0.26961255 0.12213029 0.6307194 0.117019214 0.10233567 -0.014422662 -0.1606208
0.16075248 -0.006228061 0.018762564 -0.012856877 0.010781974 -0.2902845 0.09730064 0.028506905
0.103923164 -0.28063214 -0.024745822 -0.08963366 -0.23223065 -0.06618677 0.38491917 0.026312556
-0.024733752 -0.014419936 0.13075978 0.084903054 0.22454782 -0.1771964 -0.14572476 -0.11183715
0.18835147 -0.09935674 -0.092685536 -0.26810214 0.39415592 -0.5758076 -0.61525285 -0.26143607
-0.052909613 -0.2984517 0.079069264 -0.37322888 -0.008713974 -0.037846364 0.005021743 -0.24158671
0.0560615 -0.016987339 0.3985213 -0.15871505 0.09260747 -0.19000614 -0.110455945 0.09928546
-0.32669508 -0.08053038 0.1139642 0.29401982 0.16306795 0.038620707 -0.07106048 0.011277971
-0.32086512 0.3338921 -0.44787082 -0.088258736 0.17857783 -0.15811709 0.098873325 0.23444253
0.13967851 -0.013625946 -0.19834 -0.12554716 -0.02271842 -0.43770033 -0.050693464 0.14141607
-0.06283037 0.0553973 0.118808664 -0.25164622 0.2161139 -0.019753372 -0.16432993 -0.18031862
0.26513815 0.08229867 0.30733058 -0.2634593 0.0624998 -0.093892805 -0.9089792 0.12024018
0.4611309 -0.43552816 -0.044078365 0.3220021 0.19833027 -0.29091492 -0.0691123 -0.553604
0.41805872 -2.9052906 -0.022558553 -0.147527 0.17039034 0.2197081 0.18542336 -0.07470055
-0.16011757 0.2339781 -0.13986191 -0.36898464 -0.39703417 -0.13381451 0.13798454 0.024355369

predictionFunction.startBlock.2.bias f4 [64]
00000000: 932d 04be 420b 3abe 62d0 b8bd 7c54 373d
00000010: ccbf a4be 7495 acbe 7c73 43bd 0b8c b8be
00000020: 4cb6 34be 094c aebc 974e 17be f5a0 6ebd
00000030: e440 c63d d135 413e 796b 9b3e 3655 b5bc
00000040: 6f6a cebd 40ea 32be df93 f3be e586 023d
00000050: c2b7 c7bd 94dc 15be c2eb abbd 6c1d 0c3e
00000060: 1f7e 00be 9cb3 2bbe 8359 a6bd 9ad9 2cbe
00000070: 9819 f4bd 9e99 903d d9a3 01be f447 a6bd
00000080: 56ef c5bd e6fa b1bd 10a4 1dbd 9895 e6ba
00000090: b5c5 bcbd 8452 ffbd 1d4f 20be d5f1 243c
000000a0: 8bf1 9abe a752 1b3e 1541 523e d643 3dbe
000000b0: f606 013e 6661 e9bd 42d8 b43d a786 f6be
000000c0: c07e 03be c559 67be 6c9f 8abd d695 34be
000000d0: e995 1a3d b92d 19be 730e acbe c443 dc3e
000000e0: 1c2d 783d 2fd1 7fbe 1677 213e 7c49 113e
000000f0: 9b00 143e 6a23 cc3c a7ff 0dbe 9af0 74bd
-0.1290801 -0.18168357 -0.09024121 0.044758305 -0.3217758 -0.33707774 -0.047717556 -0.36044344
-0.17647666 -0.02127649 -0.14776073 -0.05825897 0.09680346 0.18868186 0.30355433 -0.022135358
-0.10078894 -0.17472172 -0.47573754 0.031866927 -0.09751846 -0.14634925 -0.083945766 0.13683099
-0.12548111 -0.16767734 -0.08122542 -0.16879883 -0.11918944 0.0706055 -0.12660159 -0.08119193
-0.0966479 -0.08690433 -0.03848654 -0.001759219 -0.09217397 -0.124669105 -0.1565518 0.010067423
-0.30262408 0.15168248 0.2053264 -0.18482909 0.12600312 -0.113955304 0.088303104 -0.48149607
-0.1284132 -0.22592838 -0.067686886 -0.17635283 0.03774062 -0.14958848 -0.33604774 0.4302045
0.060589895 -0.24982141 0.15768084 0.14188188 0.14453356 0.02491923 -0.13867055 -0.059799768

predictionFunction.policy_head.0.weight f4 [2, 64]
00000000: bd7a 3f3d 5779 7bbd e57a 593e 9650 7f3e
00000010: 1a95 60be fa2d 48bd ab1d 2d3e e736 fd3e
00000020: 403a 9bbe 7345 f33c d2c9 3d3d 9a54 693e
00000030: 0a9f dabd 2fdb e1bd 44fd 9e3c e71d 48bd
00000040: 929e 693e 32ff 223e f6cc cebe e266 fcbd
00000050: 9525 893e c97f 983e 01db 433d 4bce 0a3e
00000060: 87e3 bc3d 9038 adbe b0db a33d bd05 e7be
00000070: 5054 6a3d c45d b7be 72f6 713b 97b5 143e
00000080: 604b 2b3e 5e2b 083a 9f6f 5cbe 8f31 86bd
00000090: 9d24 08be 4950 c63e d011 8dbe 1bb9 233d
000000a0: 657d 123f 3cb0 9b3e e717 223e 6454 1dbf
000000b0: 8659 b4bd 7317 27bd 3c3a 5cbe c822 9d3e
000000c0: 09a8 dc3e b291 c63e c9f8 afbd cf07 0f3c
000000d0: 5f36 c7be e46c 133b e9e6 a73e 3090 6abd
000000e0: 1634 323d 5f37 6dbe de77 353d 9127 06be
000000f0: bf62 e83d 5c1c c8bc ffb7 213e fb1d a93d
00000100: 3b8a 97bc 7a34 02be 4915 56be 1784 8cbe
00000110: 01ee 2f3c e2a5 403e 952f 9b3c 8ef2 c1be
00000120: e4a2 ad3e f928 fbbc a2c9 e23c 3372 5dbe
00000130: 93e6 6f3e bbab 143e 9399 233c 852a 193e
00000140: 46ef 3abe ddcd aabe c8cb c93e fa1b 9c3c
00000150: 3982 20be 135b 3bbe 65d7 52bd beac 03be
00000160: 83ad a63d eeea ab3e 38c8 6b3d ecfa e43e
00000170: 95a3 b63b 4f99 d23e c166 c23d c387 74bd
00000180: 1552 7ebe 2730 efbd a333 6b3e 5a4f 903c
00000190: ff26 8a3d 176e b5be 54ff c43e 4c3e c63d
000001a0: 2f7d 12bf e723 62be 4329 9abd 5479 093f
000001b0: fa65 98bd ec64 d9bc 5f31 e63d e59a adbe
000001c0: 5916 00bf 1f4f b3be 3f57 813d 85ae 1f3d
000001d0: 4c20 8e3e 9855 453e 3364 85be 1b87 023d
000001e0: 76bf 473d 20c2 a23d 7f42 46be 077a 12bd
000001f0: f5cb 3e3c cdce 7a3e 882f 39be ce17 0e3d
0.04674791 -0.061395016 0.21238287 0.24933085 -0.21931878 -0.04887197 0.16905849 0.4945595
-0.3031788 0.029696202 0.04633505 0.22786179 -0.106748655 -0.11028134 0.019407876 -0.048856642
0.22814396 0.15917662 -0.40390748 -0.12324311 0.26786485 0.29784992 0.04781628 0.13555257
0.09223085 -0.33832216 0.080008864 -0.45121565 0.057209313 -0.35813725 0.0036920574 0.14522396
0.16727972 0.00051944505 -0.21526955 -0.06552421 -0.13295217 0.38733128 -0.27552652 0.039971452
0.57222587 0.30407894 0.1582943 -0.61456895 -0.08806138 -0.040793847 -0.2150659 0.30690598
0.4309695 0.38783032 -0.08592374 0.008729889 -0.3890867 0.0022495324 0.32793358 -0.057266414
0.043506704 -0.23165654 0.044303767 -0.13101031 0.11346959 -0.024427585 0.15792845 0.082576714
-0.01849853 -0.1271533 -0.20906557 -0.27444527 0.010737897 0.1881328 0.018943587 -0.37880367
0.33913338 -0.030659186 0.027684037 -0.21625595 0.23427801 0.14518635 0.009985345 0.14957626
-0.18255338 -0.33360186 0.39413285 0.019056309 -0.15674676 -0.18296461 -0.051474947 -0.12858865
0.081385635 0.33577675 0.05756399 0.44722688 0.0055736997 0.4113259 0.09492255 -0.059699785
-0.24836 -0.11679106 0.22968917 0.017615963 0.06745719 -0.35435554 0.3847605 0.09679851
-0.57222265 -0.22084008 -0.07527401 0.5370076 -0.074413255 -0.026537381 0.112398855 -0.33907238
-0.500341 -0.35021302 0.06315469 0.038984794 0.27759016 0.19270933 -0.26053008 0.031867128
0.048766576 0.07947183 -0.19361304 -0.035760906 0.011645307 0.2449295 -0.18084538 0.03469067

predictionFunction.policy_head.0.bias f4 [2]
00000000: 8d45 9ebc b770 a93b
-0.019320274 0.0051709074

predictionFunction.value_head.0.weight f4 [64, 64]
00000000: acb8 99bd 33ba acbc a30e 0abc f5e6 6a3d
00000010: 090f 073d 99e3 5fbd df56 613d 1134 9cbd
00000020: a7f8 69bd c3b8 0fbe 27f2 133d e638 0abd
00000030: 6cd7 d4bd a49e ebbd 6ba8 90bd 5f31 ccbd
00000040: 84a5 50bd fd99 d8bd 6a51 b9bd 8fd8 0a3d
00000050: 732d a2bd 0067 503d d07b 0b3c 88f3 9cbd
00000060: 0b5f ad3c 400a 9c3d 1eb4 73bc 9003 5e3c
00000070: 20cd cf3d 4267 3cbd 2014 e13c 0a19 523d
00000080: 3ebc 12be 7e29 973d c384 cabd a060 d2bb
00000090: 4a7a babd cc15 ce3c ace6 cdbd cbfd 99bd
000000a0: 80ed b03c 979f bebd 3d80 efbc 0b83 983d
000000b0: 7e39 22be 1657 a6bd fe1f f0bd 0b23 ab3d
000000c0: a715 9a3b 12ca d6bd 296a 0fbe 384d 843d
000000d0: abb4 553d 9c88 dcbd f558 cabb c824 7abd
000000e0: ffc1 823c 08c1 f0bd a488 043d 1f4e a43d
000000f0: 3204 b43b 13c1 99bd 2c04 5ebc 04eb 5c3d
00000100: c174 20be f0c8 fbbd 40ff d4bd 9cd3 513c
00000110: 4217 14be 0dca a5bd 8586 64bd d3d1 cbbe
00000120: 3d82 503d afc9 1d3d 53b3 02be e8bd 94bd
00000130: cf1f 02be f9f2 27be 90d7 3fbe 8d3f 63bd
00000140: d8f9 92be 10b8 c9be 528d adbd 8c08 0bbd
00000150: 7e53 0dbb 7cd6 2f3d e859 2ebd e9e2 03be
00000160: ed34 d83e f77f 7a3e c9c4 883d d095 adbc
00000170: 5cf0 e43d 0009 29be 2f55 25be 4823 d0bd
00000180: bace f2be ac5a 94be e3c7 d1bd 7039 f43c
00000190: 4022 5c3d 64be 883b 35ba 65bc 0753 543e
000001a0: 15af 5cbe 3132 75bd b7f5 fcbd ad30 bcbe
000001b0: 518a c1be 5a4c eb3d 93a1 6fbe 75c8 18be
000001c0: 6a6f 633e 9ad8 52bd dac7 fcbd c74d 0e3d
000001d0: 7538 c6bd c699 b0be 2e97 c3bd 524c 393e
000001e0: c3b3 74bd cc31 e2bb e968 0b3e 4023 603d
000001f0: ddd6 e3bd f425 ff3d 514d 81be 305f 97bd
00000200: b406 4c3e 478f 2b3d b108 db3c 8993 18bd
00000210: a1be b23d 9249 f8bd ba08 983d 137a 61be
00000220: ddae f1bd 327e 3e3e 7c90 19be dfd3 d4bd
00000230: e4b0 5dbe afca cf39 164a a8be b287 653e
00000240: 001f 4fbe 18de 1cbf 4a24 683d adde c13e
00000250: 88b6 30bf eb37 a93e cbe4 b8bd 8359 60be
00000260: 36ce 903e 8355 64be b0a2 2c3c 5902 333d
00000270: adb5 113e 759f 13bf ad7f 47bd c308 c5bb
00000280: 28b4 5bbe 5ff1 6ebe 247a e5bd 4c5d e4bd
00000290: 8954 f13e e022 853e ad4e 0bbf 2583 303e
000002a0: 71ed 7f3e 0e02 d7bd 6b0f 573b 6367 a8bd
000002b0: 3bac acbe e885 ecbd d31d 19be 7e8a f1be
000002c0: 7edc 0cbf 297a 073f b0d3 043d 428d ea3d
000002d0: c8cb da3e 48bb 32bf 768e d5bd b99d 87bd
000002e0: 0aae 673e 7370 4bbe 8fac e03a 5bf0 483e
000002f0: c322 523e 915b 53be cf6b 75bd da81 9a3d
00000300: dd5d 8abc 1975 a63e 3516 ffbd dd3b 9fbd
00000310: ef14 153e 4b3f 72bd a60e f3bd ea71 1b3d
00000320: c6b8 0dbf 48ed ae3d a9bd d0be 0a6f 02be
00000330: 6120 1abf d2d8 223d 95cb d3bd ff57 09be
00000340: db8c 2f3f 65fe 773e 45e0 00bf 7c75 d5be
00000350: 7c32 c93d 8fee 373c d52d dabd ffeb 67bd
00000360: a982 b1bd 7905 6a3d bdd2 a3bc a2b4 93be
00000370: 4e11 c2bd c3d9 253e ce7f d13d 7e30 803d
00000380: 87c2 053e 64d7 1dbf 75c2 2f3e c2cb 11bd
00000390: 2e65 fa3e ba24 b5bc 9160 ccbd 2d0a 20bd
000003a0: 343f 163f 1228 173e f381 153e 490f 57be
000003b0: 660b 9c3e 1e58 993d ec0d 43bf d127 453e
000003c0: d702 683e 5ba9 40be bd68 c7bd f424 9b3e
000003d0: 9358 9abe da4e e3be 3566 7f3e 157b d1be
000003e0: b591 363e 285b 573e 1534 0abf bb6b 8f3d
000003f0: 99bf 3ebe cc92 30be 140e 553e 9da3 a4bd
-0.075059265 -0.02108488 -0.008426341 0.057349164 0.032973323 -0.054660413 0.055014487 -0.076271184
-0.0571219 -0.14035325 0.036119606 -0.03374567 -0.10392651 -0.11504868 -0.07063373 -0.09970354
-0.050939098 -0.10576246 -0.090487316 0.033897933 -0.07918825 0.05087948 0.008513406 -0.076636374
0.021163484 0.076191425 -0.014874486 0.013550654 0.10146546 -0.04599691 0.027475417 0.05129341
-0.14329621 0.07380961 -0.098886035 -0.00642021 -0.09105356 0.025156878 -0.10053763 -0.0751911
0.021597624 -0.09307783 -0.029235953 0.074468695 -0.15842244 -0.08122079 -0.11724852 0.08356293
0.004702288 -0.104877606 -0.1400534 0.06460041 0.05217425 -0.10768244 -0.0061751553 -0.061070234
0.015961645 -0.11755568 0.032356873 0.08022713 0.005493664 -0.07507529 -0.013550799 0.053935066
-0.15669538 -0.12294185 -0.104002476 0.012806799 -0.14461997 -0.08095179 -0.05579235 -0.3980852
0.050905455 0.03852242 -0.1276372 -0.07262784 -0.12707447 -0.1640128 -0.18734574 -0.05548053
-0.2870624 -0.3939824 -0.0847422 -0.033943698 -0.0021564658 0.042929158 -0.04256621 -0.12879528
0.4222788 0.24462877 0.06678159 -0.0211896 0.111786574 -0.1650734 -0.16145776 -0.10162979
-0.47423345 -0.28975427 -0.102432035 0.029812545 0.0537436 0.004173087 -0.014021446 0.20734797
-0.21551163 -0.05986232 -0.12351554 -0.36755887 -0.3780084 0.11489172 -0.2340148 -0.14920218
0.2221047 -0.0514761 -0.12342806 0.034742143 -0.09678737 -0.3449232 -0.095503196 0.1809552
-0.059741747 -0.006902909 0.13614239 0.054721117 -0.11124966 0.12458411 -0.252543 -0.073912024
0.19924432 0.041884687 0.026737543 -0.037250075 0.08727766 -0.121234074 0.074235395 -0.22019224
-0.11800931 0.18602827 -0.14996523 -0.10391974 -0.2164951 0.00039633128 -0.32869023 0.22415045
-0.2022667 -0.6127639 0.056675233 0.378652 -0.6902852 0.33050475 -0.09028014 -0.21909146
0.28282326 -0.22298245 0.010536835 0.04370341 0.1422946 -0.5766519 -0.048705745 -0.0060130074
-0.21455443 -0.23334263 -0.11204937 -0.111506075 0.47134808 0.2600317 -0.54416925 0.17237528
0.2499292 -0.10498439 0.0032815586 -0.082228445 -0.3372515 -0.11548978 -0.14952783 -0.47175974
-0.55023944 0.52920777 0.032428443 0.11452724 0.42733598 -0.6981702 -0.10427563 -0.0662188
0.22624984 -0.19867115 0.001714127 0.19622938 0.20521073 -0.20640399 -0.059917267 0.075442985
-0.01689046 0.32511213 -0.124554075 -0.0777509 0.14558767 -0.059142392 -0.11868028 0.037950434
-0.55360067 0.085413516 -0.407697 -0.1273767 -0.60205656 0.039757557 -0.103415646 -0.13412474
0.68574303 0.24218138 -0.5034221 -0.41691196 0.09824082 0.01122631 -0.10653273 -0.056621548
-0.086674996 0.057134125 -0.019997949 -0.2884875 -0.09475957 0.16196351 0.10229455 0.06259249
0.13062488 -0.61656785 0.17164023 -0.03559471 0.4890532 -0.02211224 -0.09979356 -0.039072204
0.5869019 0.1476138 0.14600353 -0.21001925 0.30477446 0.0748751 -0.7619312 0.1925347
0.22657333 -0.18814604 -0.09736774 0.3030163 -0.30145702 -0.44396096 0.24941333 -0.40914217
0.1782902 0.21030867 -0.5398572 0.0700297 -0.18627776 -0.17243499 0.20806152 -0.08039019

predictionFunction.value_head.0.bias f4 [64]
00000000: f7ad 14be f5dd 2ebe 1aab f9bc 8ea2 69bd
00000010: 3a55 39bd 0744 cabd c804 b33c 5cd9 a9be
00000020: 46e3 4a3d 6d60 e6bd aaf0 9fbd 87aa 9cbe
00000030: 0cf3 2dbb 174a 82be b185 0bbe 3f31 99be
00000040: 6816 abbd 6499 8ebd 6ef6 0dbe 638d bb3e
00000050: 0a1a 89bd 06b5 8cbd 734a 8d3e 0137 5abe
00000060: 2f99 81be c9ba 33be d807 06be 81f1 c3bd
00000070: 0f39 0abd 019c 59be ed00 8ebd 9c88 ebbd
00000080: 9f35 3ebe 8a6c db3d 867e c33e 8ec9 87be
00000090: b01b 77be 156b 87bd 065d b73c efe6 25be
000000a0: eec5 54be 171f f8bd e64e 1fbe 0c35 07be
000000b0: cf1e e7bc e39a 3a3d ac3a 75be 45c6 0dbe
000000c0: 2d15 4dbe 33c4 e9bd a983 c1bd e786 953b
000000d0: 99f6 2bbe 63f4 b53c ca8b 4ebe db16 cc3e
000000e0: 5f30 2a3e a417 533e 222b 0fbe ef99 c7be
000000f0: 3aa6 c43e 0c3a 7d3d 06d0 983e eafc a5be
-0.14519487 -0.17076857 -0.030477095 -0.05703979 -0.045247294 -0.098762564 0.021852866 -0.33173645
0.04953315 -0.112488605 -0.07809575 -0.30598852 -0.0026542572 -0.2544715 -0.13625218 -0.29920384
-0.08353883 -0.06962851 -0.13863537 0.36631307 -0.0669442 -0.06870465 0.27595863 -0.21310045
-0.25312182 -0.17551722 -0.1308893 -0.095675476 -0.03374582 -0.21250917 -0.0693377 -0.115006655
-0.18575142 0.107140616 0.38182467 -0.26520962 -0.24131656 -0.06612221 0.022383224 -0.16201375
-0.20778629 -0.12115305 -0.15557441 -0.1320383 -0.028212933 0.045557868 -0.23948163 -0.13845165
-0.20027609 -0.11414375 -0.0944894 0.0045632008 -0.16793288 0.02221126 -0.20170513 0.39861187
0.16620015 0.20614487 -0.13981298 -0.3898463 0.3840807 0.061822936 0.2984621 -0.3241952

predictionFunction.value_head.2.weight f4 [41, 64]
00000000: 4772 9bbd 2548 2dbf 2c4b 95be 1cf1 2bbf
00000010: 0a45 92bf 5ad8 41bf 374e d5bf 5e9c 45bf
00000020: ec3e e9bf 4782 d0be 80af 0e3d 7dc0 15be
00000030: 6bbd 65bf bac8 00bf 5dae b9bf 9cb3 edbf
00000040: 723e b1be d2e8 64be 282a 99bf 9f0d 13c0
00000050: cff7 eabd 1b21 0ebf 069e e2bf 803c 6fbf
00000060: 0d99 22bf 944a 9c3d 11b4 213b 5055 3dbd
00000070: e556 38be c4bd 59bf ed87 c1bf 8a7e e3bf
00000080: a897 e6be b79f 8dbf 2067 1ac0 2102 1cbf
00000090: 8bb5 1dbf 931a a2be eddd ffbf e454 8dbe
000000a0: 0718 95be 1f4a 57bf 532b bfbd 91c0 11bf
000000b0: c702 fabf 8ecc babf 00e2 47be 9f32 a73d
000000c0: 6bb4 353c 9c06 bcbf 3120 e1bf 7352 96bf
000000d0: bf67 04bd 167c 6cbf e77a dabe d49f 0cc0
000000e0: 67a3 f1bf 32b1 6cbf ca22 e9bd da46 b7bf
000000f0: 9378 04c0 a106 c7be b672 dcbf f09e f3be
00000100: 7025 b1bc efa6 3ebf f45e 02be aa2d 27bf
00000110: e602 90bf 92d0 4fbf 295f c7bf 5c43 2bbf
00000120: 5beb e6bf 6484 fbbe 3d33 87bd 9354 a1be
00000130: 35e6 89bf 4cc6 0abf 51a1 b3bf b660 f2bf
00000140: 121a 45be 5e84 3abe 5510 adbf 6212 0fc0
00000150: aac1 8abd 3a6f 02bf d773 f0bf d7d7 71bf
00000160: d5c6 04bf e745 423d 5189 0ebc eb0b 7d3c
00000170: 237f 97bd 863b 2abf 0a4a bfbf ffd8 d9bf
00000180: 0c77 86be c9d4 91bf 3f7b 1ac0 980d 15bf
00000190: df2e 3bbf d58b dbbe 47d5 f7bf 9cd6 14be
000001a0: c177 2fbe fcd8 2bbf 2d2e 16bd be56 21bf
000001b0: 21e0 f6bf 6c39 c5bf 4b09 01bf e739 97bd
000001c0: 7187 c03c 1a4b cdbf 1db6 ddbf f267 8bbf
000001d0: 2e52 b73c a8dc 34bf 8899 14bf 9090 0cc0
000001e0: 7cbe f1bf cb87 6dbf 77aa 36be fbb1 b0bf
000001f0: 37b5 06c0 ce92 bfbe 2f54 e4bf 794d c5be
00000200: 3011 7abd d47a 46bf cfb4 43be b238 2dbf
00000210: 0540 a0bf 6273 44bf f46b d1bf 9b7d 1ebf
00000220: 6259 e2bf 2aa9 f2be 96cc 693d 3d93 6cbe
00000230: a6e2 78bf fe7f f0be c438 c0bf 9927 f5bf
00000240: 3a7a b0be 7c84 90bd 7eee a1bf b6be 08c0
00000250: 6ee2 b63c 5b08 cdbe 2b04 f4bf ddb8 7abf
00000260: b32c 12bf 002e c13d a354 813c c86b b0bd
00000270: 8cb8 2ebe 804d 53bf d6a2 c8bf 5aea d3bf
00000280: 3b98 82be 3d41 9dbf eb7c 18c0 45b3 e9be
00000290: 41b7 2abf 4b1e cabe c54c ffbf a1de fbbd
000002a0: fd6a 44be ba99 40bf e686 8cbd 40c5 40bf
000002b0: 5020 f3bf 0114 c9bf a94c 85be b13c b53d
000002c0: 15a8 84bd abfc bdbf a8d9 f4bf 3b17 91bf
000002d0: 5b85 e33d 6eea 3ebf 71ed 00bf 1e3f 0bc0
000002e0: 3887 ebbf e08e 66bf 34b9 65be 05e7 b5bf
000002f0: f8c8 08c0 a48a 01bf 3766 e2bf c546 05bf
00000300: 3bd5 94bd 6f64 1ebf d9e9 a6be d19e 2cbf
00000310: 313a 91bf e560 54bf 1729 c3bf a8ac 25bf
00000320: 7ce7 debf a9f5 f1be e3d2 15bc 003b 0abe
00000330: 9bd4 7bbf 4a58 f5be 8743 b5bf 00c1 07c0
00000340: bd40 59be f65c 05be 6125 b0bf ecc0 0bc0
00000350: b740 b7bd f1d9 efbe a64d f2bf 90f6 5bbf
00000360: 6633 e4be cd87 20bd 1f92 0d3d d955 603b
00000370: a1dc 2ebe 326c 42bf f198 b0bf b8df e7bf
00000380: bf61 92be 8ee3 86bf 24a0 1ac0 47ae 0cbf
00000390: 3058 31bf c06e 5fbe 7f81 03c0 2b28 12be
000003a0: f3d3 aebe 8f61 55bf 4102 c13d dac1 25bf
000003b0: 12bd fcbf d6bd babf b79e fabe 07a8 d83d
000003c0: 2864 86bd a955 ccbf 657f e3bf b7d8 96bf
000003d0: 008f ebb9 addc 63bf f1e9 e2be 33b6 0ac0
000003e0: b31e f7bf c827 6dbf 43b9 7dbe 4c0b a9bf
000003f0: dd29 09c0 88e8 0abf 7936 dcbf 3037 c8be
-0.07590156 -0.6768821 -0.29158914 -0.6716478 -1.1427319 -0.7572075 -1.6664494 -0.7719172
-1.8222327 -0.40724394 0.03483534 -0.1462421 -0.89742154 -0.50306284 -1.4506336 -1.8570437
-0.34617954 -0.22354439 -1.196599 -2.2977064 -0.11473047 -0.55519265 -1.7704475 -0.9345169
-0.63514787 0.07631412 0.0024673978 -0.04622394 -0.18001898 -0.85055184 -1.5119606 -1.7772992
-0.4503758 -1.1064366 -2.4125443 -0.6094075 -0.6160514 -0.316609 -1.9989601 -0.2760383
-0.29119894 -0.84097475 -0.09334435 -0.5693446 -1.9532098 -1.4593675 -0.19519806 0.08163952
0.011090378 -1.4689517 -1.7587949 -1.1743912 -0.032325502 -0.9237684 -0.42671892 -2.1972551
-1.8877991 -0.9245788 -0.113835886 -1.4318497 -2.0698593 -0.38872245 -1.7222507 -0.47582197
-0.021624297 -0.7447347 -0.12731534 -0.6530405 -1.1250885 -0.8117763 -1.5575916 -0.6689966
-1.8040575 -0.49124444 -0.0660157 -0.31509838 -1.0773379 -0.54208827 -1.4033605 -1.8935764
-0.19248226 -0.18214557 -1.3520609 -2.235497 -0.0677522 -0.5095097 -1.8785352 -0.9446997
-0.51865894 0.047429945 -0.008699731 0.015444736 -0.07397296 -0.66497076 -1.494447 -1.7019347
-0.262627 -1.1393062 -2.4137723 -0.5822387 -0.73118395 -0.4288012 -1.9361962 -0.14534992
-0.17135526 -0.67127967 -0.03666513 -0.63022983 -1.9287149 -1.5408149 -0.50404805 -0.07384091
0.023502083 -1.6038544 -1.7321202 -1.0891097 0.022378054 -0.70649195 -0.5804677 -2.1963234
-1.8886256 -0.9278533 -0.17838465 -1.3804315 -2.1048105 -0.3741669 -1.7838191 -0.3853567
-0.061051548 -0.7753117 -0.19111942 -0.67664635 -1.2519537 -0.7673856 -1.636107 -0.6191041
-1.7683527 -0.47394687 0.057079874 -0.23103042 -0.9722084 -0.4697265 -1.5017323 -1.9152709
-0.3446825 -0.070565194 -1.2650907 -2.13664 0.022324767 -0.40045437 -1.9063772 -0.9793833
-0.57099456 0.09432602 0.015787428 -0.08614308 -0.17062587 -0.8254013 -1.5674694 -1.6555893
-0.25506768 -1.2285534 -2.3826244 -0.45644584 -0.66685873 -0.39476237 -1.9945303 -0.122983225
-0.19181438 -0.7523457 -0.06861667 -0.7530098 -1.8994236 -1.570923 -0.2603505 0.088494666
-0.064773716 -1.4842733 -1.9128923 -1.1335214 0.1110942 -0.7457646 -0.50362307 -2.1757274
-1.840064 -0.9006176 -0.2243393 -1.4211127 -2.1372662 -0.50602174 -1.7687443 -0.5206111
-0.07267233 -0.61872 -0.32600287 -0.67429835 -1.1345884 -0.8296035 -1.5246915 -0.6471658
-1.7414393 -0.47257736 -0.009144518 -0.13499069 -0.98371285 -0.47918922 -1.4161233 -2.1211548
-0.21216102 -0.13023743 -1.3761407 -2.18365 -0.0894789 -0.46845964 -1.8929946 -0.859231
-0.44570464 -0.03919201 0.03456318 0.0034230857 -0.17076351 -0.7594634 -1.3796674 -1.8115149
-0.285902 -1.0538194 -2.4160242 -0.54953426 -0.6927519 -0.21819592 -2.0547788 -0.14273135
-0.3414608 -0.8335199 0.09424258 -0.6474892 -1.97452 -1.4589183 -0.48949215 0.10578924
-0.06562072 -1.5963641 -1.7773253 -1.1784886 -0.00044929236 -0.890086 -0.44319108 -2.1673706
-1.9306244 -0.92638826 -0.24777703 -1.3206573 -2.1431801 -0.54261065 -1.7204124 -0.39104605

predictionFunction.value_head.2.bias f4 [41]
00000000: 0b66 16c0 b6fc 17c0 976b 11c0 e85d 14c0
00000010: 35e2 16c0 0a2c 18c0 b49f 11c0 f95c 10c0
00000020: e180 17c0 6869 0ec0 cd01 10c0 91da 11c0
00000030: b034 13c0 2b95 1bc0 06ed 19c0 01b0 18c0
00000040: 34d1 0dc0 4fb3 15c0 2d14 1cc0 d5aa 1bc0
00000050: e05b 66bf 306f 28bf 3af0 d4be b9c6 7bbf
00000060: 1945 28be e859 33be d72c b6be 9d99 f4be
00000070: f517 adbe bfee 91be f28d 14bd d7c0 463c
00000080: 3b17 b3be 7d78 14c0 9150 1bc0 f9b2 16c0
00000090: a58b 17c0 9feb 19c0 6331 16c0 3a6b 1ac0
000000a0: 47f8 17c0
-2.3499782 -2.3747993 -2.2721918 -2.3182316 -2.3575566 -2.377688 -2.2753725 -2.2556746
-2.3672411 -2.2251835 -2.25011 -2.2789652 -2.3000908 -2.4309795 -2.4050918 -2.3857424
-2.2158937 -2.3390691 -2.4387314 -2.4323018 -0.8998394 -0.6579466 -0.41589528 -0.983501
-0.16432609 -0.17514765 -0.35581085 -0.47773448 -0.3380734 -0.2850246 -0.036268182 0.012130938
-0.3497866 -2.319854 -2.4267924 -2.3546736 -2.3678982 -2.4050062 -2.3467643 -2.4127946
-2.3745286

dynamicsFunction.startBlock.0.weight f4 [64, 34]
00000000: e4cb 603e 37a2 a83e 0354 81bd 694f dd3d
00000010: a03e 183e 08bd 453e 4ebb 413c 8dd9 89bd
00000020: 4769 88bd 9cfe 47be 8c17 953e 6032 b93d
00000030: 1fb5 553d a6a3 143e ac06 f2bc 7a0e bb3e
00000040: c52b 3a3e 778c cb3d 15fa bc3b 4f94 8d3e
00000050: 96b0 593e 4ddb 823e 6ce6 11be ab57 c33d
00000060: cfed 7d3e 57d5 d33d 9039 913e e571 0d3d
00000070: cf41 5b3e 7840 c5bc 2e2f 1dbe 51c1 743e
00000080: 1cc3 ab3e 01c8 cabe 15a8 b6be 8824 063e
00000090: 7d16 2ebe 6968 1abd f036 cabd 212b c83e
000000a0: ff6a 7bbe 5dd4 eebd dc4c 8abd e16c c43e
000000b0: 6d7d 4fbe ff0b 923d a914 8b3e c769 af3e
000000c0: 6792 5c3e 5dc0 d13d 8838 bebd a5ba ed3d
000000d0: cd80 71be 2a44 84bd bc2e 8cbd 514e b63c
000000e0: b7c0 8c3d bef5 053e d13a 733e 575f 093e
000000f0: 2bb7 713d 5821 c73e 3e5f f4bd 8bb6 533b
00000100: 13bb d3bd 3ea5 3d3d 3d13 a83e 992e febe
00000110: c673 253e 539f a2be cb16 093f 4bcb 8fbe
00000120: b6e0 723d cc97 0abe 6c55 8e3d 3e6f 6bbd
00000130: 9a89 c53d 925d 83be 1612 0a3e 60dc 193e
00000140: b335 98be 038d 88be 1639 21bd f204 77be
00000150: 3b2d 1bbe 85ab 88bc f1ad 27be e6d0 013e
00000160: 8e4c 073e 5c08 85be 513d 9fbe 420d 27be
00000170: 878e 9dbe 36e7 61be d34b 8dbe a372 0cbf
00000180: a389 d73d f854 e2be 8426 1d3f d4b8 f43d
00000190: 03d5 97be cd79 923e 91e8 f33b e13f 87be
000001a0: 7f44 0b3d 5d59 f63e 00b0 4b3f 4625 06be
000001b0: 8aaa 083e c40e 0abe d7b4 ed3e 417d e03d
000001c0: c0c8 bdbc aee7 c23e bc80 76be 1076 2dbd
000001d0: 27a9 5cbd 5382 24bf 8de0 51bd baae 97be
000001e0: a0e3 523e d92b 43bf 4c7c 31be 19ee cabe
000001f0: 8d92 fc3d 4718 70bd f6d2 0e3d f5d6 8c3c
00000200: 6a88 c2be ca46 273e e60c c0be 3724 893e
00000210: 0826 8bbd 0c08 aebe 8809 31bd ff21 ccbd
00000220: 5ee7 c7bd 66e1 8cbd a053 a0be a397 1c3f
00000230: 1ef1 f83e 8a1e d6bd 3698 ac3d 24c6 1fbf
00000240: 11f2 11be 4b96 843b a3f1 183c 3bdb b2bc
00000250: b4e6 4f3d 1e07 14bc 035f 0bbf 2e2d 2a3e
00000260: ae06 37bd 7387 4abd 3f67 72be 6186 6ebe
00000270: 5dcf 8cbe e208 2cbc 3cba 513a 0aa6 11bd
00000280: c625 003f 4d98 4f3e 59e6 403e a17b cf3e
00000290: 3ea8 5c3d a259 9cbd f0fd 543e 8aac 3bbe
000002a0: b656 36be 7840 03be d54c 7dbd f47e 7dbe
000002b0: ee00 323e e1cb e6bb 263f 8fbd 931a cbbd
000002c0: 144e 44bd 86a8 febd 2257 133d 300c bc3d
000002d0: 1d3e 293d 390b 563e 2116 583e 8b9e 913c
000002e0: 85fc 0a3e e0d6 41be d135 6bbe 7b6a 9b3e
000002f0: a9f3 fabd e94d 0cbf 8d62 d8bd 9b37 74be
00000300: bfe1 7d3d 54e8 20be 23d7 26be 0e55 41be
00000310: 9ce1 a6bc 01f6 8b3e c244 2b3d 5b6c 513e
00000320: 69c2 8c3e 4ef9 0c3d 81c3 8ebd da29 bd3c
00000330: d94c a03e 8864 0f3c 6b91 2f3d a3e1 1dbd
00000340: 68ef 763e 9654 61be ca4b 21be 8b76 8fbe
00000350: d94c 1d3e b65d bb3d 7fae 5fbc 6cc6 0f3e
00000360: 5c19 b1be 4ec9 adbe 2df8 08be 686e 02be
00000370: 1c3e e03d 034e d8bd a96a 33be a8f9 ecbb
00000380: b6c7 b23d 5118 393e c163 99be 6c02 813d
00000390: 4cfe c33d 4f53 74be 9556 f7bd 0939 36be
000003a0: a136 4e3e 86fd 79bd b233 4a3c c77c 52be
000003b0: 177a 21bf 6eec 203f 70f7 893d 6992 8ebd
000003c0: 4905 533e e824 093d 0752 79bd d517 6f3d
000003d0: 497f fabd f24e 1abe bbcd ca3d c326 aabd
000003e0: 2192 0cbd e8e4 08bd 0df3 263d 6311 06be
000003f0: 9a87 8bbd 86d3 e53d f4fe fa3d 6b79 143e
0.21952778 0.3293626 -0.06314852 0.10806162 0.1486764 0.19310391 0.011824442 -0.06730948
-0.06660705 -0.1953072 0.29119527 0.090428114 0.052174684 0.14515552 -0.029544197 0.36534482
0.18180759 0.09938901 0.005767117 0.27652213 0.21258768 0.25557938 -0.14248055 0.09538206
0.24797748 0.10343426 0.2836423 0.034532446 0.21411823 -0.024078593 -0.15350029 0.2390187
0.33547294 -0.39605716 -0.3567511 0.13099873 -0.17000766 -0.03769723 -0.0987376 0.39095405
-0.24552535 -0.11661599 -0.06752941 0.38364318 -0.2026269 0.07131194 0.271642 0.3426039
0.21540223 0.102417685 -0.09288126 0.11607865 -0.2358429 -0.06458314 -0.068448514 0.022254141
0.06872695 0.13082024 0.23752905 0.13415276 0.059012573 0.38892627 -0.119322285 0.003230485
-0.10338416 0.046300165 0.32827178 -0.49644926 0.16157445 -0.3176218 0.53550404 -0.28084788
0.059296332 -0.13534468 0.06949887 -0.057479136 0.09645386 -0.25657326 0.13483462 0.15025473
-0.2972847 -0.26670083 -0.039361082 -0.2412298 -0.15153973 -0.01668335 -0.16374947 0.12677345
0.13212797 -0.2598294 -0.31101468 -0.16313651 -0.30772802 -0.22060856 -0.27596912 -0.5486242
0.10524299 -0.4420545 0.61386895 0.11949316 -0.29654703 0.28608552 0.0074434956 -0.26415923
0.03400087 0.48115054 0.7956543 -0.13100156 0.13346305 -0.13482195 0.46427032 0.1096139
-0.023167014 0.38067383 -0.24072546 -0.04234892 -0.053872254 -0.6426136 -0.05123954 -0.29625493
0.20594645 -0.7623878 -0.17332572 -0.3963478 0.1233264 -0.058616903 0.034869157 0.017192343
-0.379947 0.16335598 -0.3750984 0.26785442 -0.06794363 -0.33990514 -0.04322198 -0.09967422
-0.09760927 -0.06878929 -0.313138 0.6116888 0.48621458 -0.104550436 0.084274694 -0.62411714
-0.14252497 0.0040462366 0.009334954 -0.021833053 0.050757125 -0.0090349 -0.5444185 0.16618797
-0.044684105 -0.04944558 -0.23672198 -0.23293449 -0.27501956 -0.010500165 0.00080004684 -0.035558738
0.5005764 0.20272942 0.1883787 0.4052401 0.053871386 -0.076342836 0.20799994 -0.18327537
-0.17806515 -0.12817562 -0.06184085 -0.2475546 0.17383167 -0.007043347 -0.069944665 -0.09917178
-0.047926024 -0.12434487 0.03597177 0.09182012 0.041319 0.20902719 0.21102192 0.017775794
0.13572891 -0.18929625 -0.22969748 0.30354676 -0.12253506 -0.5480638 -0.10565672 -0.23849337
0.061982866 -0.15713626 -0.16293006 -0.18880102 -0.02037125 0.27336124 0.04181362 0.2045149
0.27492073 0.034417443 -0.06970883 0.023091245 0.3130863 0.008751996 0.04286329 -0.038545262
0.24114764 -0.22004923 -0.15751567 -0.2802013 0.15361346 0.09148733 -0.013652443 0.14040536
-0.3458966 -0.33942646 -0.13375922 -0.12737429 0.109493464 -0.105617546 -0.17521156 -0.00723191
0.08729498 0.18075682 -0.2995892 0.0629929 0.09569988 -0.23859905 -0.12077061 -0.17795195
0.20138027 -0.061032794 0.012341427 -0.20555411 -0.6307692 0.62860763 0.06736648 -0.06961519
0.20607485 0.033482462 -0.060869243 0.058372337 -0.12231309 -0.15069178 0.09902521 -0.083081745
-0.034319047 -0.033421427 0.040759135 -0.1309257 -0.06812973 0.112219855 0.1225566 0.14499442

dynamicsFunction.startBlock.0.bias f4 [64]
00000000: 2c91 a13d 1541 8c3d ccf5 ba3d 84f7 68be
00000010: 1c85 3dbe 4682 08be bb14 583e 895e 76bc
00000020: afa8 3d3e 0dea 40bb 849a e1bd c078 153e
00000030: 3217 c93c 114d 3b3e dd90 633d 9c09 51be
00000040: 8fcc 7ebe 6765 8d3e 4158 c9bd 6b77 84be
00000050: c2e4 15be 23a0 6c3d ccda 2ebe aa55 b7bd
00000060: 1ba8 4abd e075 dd3d 60e9 9b3e 2ad2 13be
00000070: 9709 64be e7c2 1a3e 3cd5 bfbc af05 d6bd
00000080: bf6d f73d 1012 bf3c 4a65 f13d 4bb8 c73d
00000090: 3b66 c33c 3e92 a5bd 8d12 18bb d158 84be
000000a0: 35ff bf3c 2bac 2b3d bcb1 31be 8646 783e
000000b0: 09c4 bcbd 905e ac3d 7659 81bd c788 02be
000000c0: f793 123e 010b 313e 8d9f 26bc c2f1 4fbe
000000d0: 5843 3f3c 2bf3 a1bc f61e 56bd 08e2 d6bd
000000e0: 8242 9f3b c9a3 0c3e 1cf5 0dbd c03c 213e
000000f0: a8bd 413e f065 1f3d ee82 0b3e 6ffa e03d
0.078890175 0.06848351 0.09128913 -0.2275067 -0.18507808 -0.13330945 0.21101658 -0.015037187
0.18521379 -0.002943638 -0.110158 0.14596844 0.024547193 0.18291117 0.055558074 -0.20413822
-0.2488272 0.27616426 -0.09831286 -0.2587236 -0.14638045 0.057769906 -0.17075652 -0.08951886
-0.049476724 0.108134985 0.30451488 -0.1443564 -0.22269283 0.15113412 -0.023417108 -0.10450303
0.12081479 0.023324043 0.117868975 0.09751948 0.023852458 -0.08084534 -0.0023204417 -0.25849012
0.023437122 0.04191224 -0.17352957 0.24245653 -0.09217078 0.08416474 -0.063158914 -0.12747489
0.14314257 0.17289354 -0.010169876 -0.20307067 0.011673771 -0.019769272 -0.05227562 -0.10492331
0.0048602233 0.13734354 -0.034657583 0.1574583 0.18920004 0.038915575 0.13624164 0.109852664

dynamicsFunction.startBlock.2.weight f4 [32, 64]
00000000: c35a 39bd 897a 8abe bfe0 d83d 80c7 a2bd
00000010: e812 65be f234 afbd a07c 9c3e 24b1 19bd
00000020: 5d04 853e 039b 30bc c6d5 abbe bd5c 783d
00000030: 5d62 063e eadc 963e 06a5 a9bc 8600 f8bd
00000040: 7ec9 19be 57b9 04bb acfa 3f3c 47c6 57be
00000050: d6a3 23be cd15 8fbd 8631 213e 7078 e0bd
00000060: ded6 f7bd e0b9 493e 2a21 933e bc78 66bc
00000070: 7cd0 eb3d f80b 20be 50e5 163d be17 09bd
00000080: 410e 90bd a0a8 6cbd 6718 073e d47f d5be
00000090: 3981 8ebe 305f 0dbd b3f7 6a3e 7784 42be
000000a0: ccfb 2abd 50f1 49be 7df4 5a3e 432d 863c
000000b0: 3955 afbe 6c16 babd 80de 093d adaf a73d
000000c0: 4a59 47bc 9c8a 663e 0927 3cbe 6266 653e
000000d0: 7606 743c 4bc9 93bd fb0e 4bbe 3439 53be
000000e0: b638 81be f48f b73d b373 ae3e a4a3 3e3e
000000f0: b5d1 743e 416f e5bd 4f40 45bd 89b3 a6be
00000100: 4d9b 223e 868b 5d3e 4918 c2be 2b2e d93c
00000110: 43ef c2bc d35f b6be 4152 debe 9d1a 21be
00000120: a198 9dbe 6f80 91bd f020 803e 098c 49be
00000130: 553b ccbd b5c1 3fbf f641 07be d0a0 373d
00000140: bd65 c13f dbcc 22be 0180 8d3c 8592 7d3e
00000150: 4850 0f3e 6edb 22bd 4541 b23d 63e7 0b3e
00000160: 3c28 4d3e e2d1 b53e 4c66 91bf 01d7 d93d
00000170: a70d 333d c962 44be 7d0b 40bd 8f19 be3e
00000180: c7e2 003c 60bf 0b3f 1fdc 0abe 3af8 ac3c
00000190: e276 993e 45c1 1d3d 316d e6bd 2419 7d3e
000001a0: 9ca8 95bd 6adb bc3e ae0e 7c3d 6cc3 4fbe
000001b0: 6f1a 063f 7dd1 a03d 0315 313e a6bd 483e
000001c0: b292 493e e8df a3bf 6326 e2bd 5138 c6bd
000001d0: feeb fa3e 4250 113e b7fa 063e 061c 923e
000001e0: c799 96be 0917 1e3b 7816 383e a6e0 493d
000001f0: 5a23 4ebf 3e3b 5cbf f5a3 343d 70ab 89be
00000200: c8c8 403d 731b a9be c594 6f3e f890 83be
00000210: 829b db3c 8ac1 383e 1930 cd3b 44db 22bd
00000220: 23d4 3d3c b7fd 7d3d 30d9 1dbe 0dab b83d
00000230: 91e1 263e b1f8 8f3e 0ff3 95bd 4de1 983d
00000240: 2c55 0fbe 7c1e a53e ab75 27be 4898 d3bd
00000250: 4b46 03bd 2872 673e 2509 ec3d 046b 753d
00000260: 1168 d63c 5984 9b3d 1a74 263f 013c 593d
00000270: 4fe1 77bd 089e 1c3e d5bb 45be c2a0 4bbe
00000280: 9190 653d d2e9 343e 3fce c5be 153c cbbc
00000290: 337f c6be 6086 d9bd 6fc7 eabc 2d1b 36bd
000002a0: b8b9 9fbd 5cb2 bebd dd24 583d 1ebe 85bd
000002b0: 8aa3 ebbe 7b3d 033d fce1 b7be 42ec 82be
000002c0: bbc4 9dbe dcbe 82be ebf8 4a3d d495 2b3e
000002d0: d954 e23e b9ff 273a 6991 43be 2eac 63bd
000002e0: b31c b2be d877 513d 63ee 0cbe d2fc 0f3e
000002f0: 3de3 143e 5442 debd 8cd3 023e 2de7 2f3d
00000300: 1a98 95bd 82ab 043e ba07 72be 2d3d 24be
00000310: 63bd d43e 5275 e63b 2f4b 3ebc e3a1 923c
00000320: c842 e1be ad2a 943d fd32 ce3d fd92 913c
00000330: d5d9 39be 3ee3 60be b57e c8be fc73 a53c
00000340: d5e1 383c cf99 07bf aac1 233f 88f2 0f3d
00000350: 1230 163d 8784 86bd c7df 37bd 4413 8b3d
00000360: 2c58 8fbe e3b6 2a3d 3baf a23c 10db 4b3c
00000370: e313 5c3b 5a6e 4fbe c935 823e fd23 003e
00000380: d970 c6bd d7de 7dbd 7887 943e 72d1 48be
00000390: 0ae4 e83c 415b c73e 351c 483e 66e3 073e
000003a0: d8f8 4e3d 0f1c e7bb 023a 0f3d 3f02 ed3d
000003b0: d48d a73e 353e 86be 17a2 1bbf 29f8 e33e
000003c0: 3a60 683d d2b3 893b cf94 ae3c e2a1 adbd
000003d0: 327f 313e 296e a93d 01c5 8d3c d00e 493e
000003e0: aa5d a3bc 2f6f eb3a 62c4 503c 7045 fcbd
000003f0: e93f 133c 209f 93bd a162 2abe 61c1 8d3e
-0.045252573 -0.27046612 0.10589742 -0.07948208 -0.22370493 -0.085550204 0.3056383 -0.03752245
0.2597989 -0.010779145 -0.33561534 0.060635317 0.1312346 0.2946542 -0.020708572 -0.12109475
-0.1501827 -0.0020252073 0.01171748 -0.2107173 -0.15980467 -0.0698658 0.15741548 -0.10960472
-0.121015295 0.19699812 0.2873624 -0.014066871 0.115143746 -0.15629566 0.036839783 -0.033469908
-0.07033969 -0.057778 0.13192903 -0.41699088 -0.27832964 -0.034514606 0.22946052 -0.18995844
-0.04174404 -0.1972096 0.21382327 0.016379004 -0.34244707 -0.09086308 0.03365946 0.08187804
-0.012167284 0.22513813 -0.18374266 0.22402337 0.0148941185 -0.07216128 -0.19829933 -0.2062729
-0.2523858 0.08963004 0.34072646 0.18617111 0.23908122 -0.112028606 -0.048157033 -0.3255885
0.15879555 0.21635255 -0.37909153 0.026511272 -0.02379573 -0.35619983 -0.4342213 -0.15732808
-0.3078051 -0.07104575 0.2502513 -0.19682325 -0.09972254 -0.7490495 -0.13208756 0.044831097
1.5109173 -0.15898459 0.017272951 0.24762924 0.13995469 -0.039760046 0.087038554 0.13662486
0.2003488 0.3551169 -1.1359344 0.10636712 0.04371419 -0.19178309 -0.046885956 0.37128875
0.007866568 0.5458889 -0.13560532 0.021114457 0.29973513 0.038514394 -0.11251295 0.24716622
-0.0730755 0.3688615 0.061537437 -0.20289391 0.52384084 0.07852457 0.17293172 0.19603595
0.19684866 -1.2802706 -0.11042478 -0.0967871 0.49008173 0.14190772 0.13181578 0.28537005
-0.29414198 0.0024122617 0.17977321 0.049286507 -0.8052269 -0.86027896 0.044101674 -0.2688861
0.04706648 -0.33028755 0.23396595 -0.2569654 0.02680755 0.1804258 0.006261837 -0.03975989
0.011586222 0.06200954 -0.15414882 0.09017 0.16296984 0.28119424 -0.073217504 0.07464848
-0.13997334 0.3224982 -0.1635348 -0.1033178 -0.03204946 0.22602141 0.11525182 0.05991651
0.02617267 0.07593603 0.65020907 0.05303574 -0.060517605 0.15294659 -0.19309933 -0.19885543
0.056046072 0.1766732 -0.38633916 -0.024808923 -0.3876892 -0.10621333 -0.02865955 -0.04445951
-0.07799095 -0.09311363 0.05276953 -0.065304026 -0.46023208 0.032041054 -0.359146 -0.25570875
-0.30814156 -0.2553624 0.049553793 0.16756374 0.4420536 0.000640865 -0.19098438 -0.055584125
-0.3478752 0.051139683 -0.13762812 0.14061287 0.1453981 -0.10852495 0.12776011 0.042945076
-0.07304402 0.1295605 -0.2363576 -0.16038962 0.4155074 0.0070330286 -0.011614605 0.01789946
-0.43996263 0.07234702 0.10068319 0.017770285 -0.18149503 -0.21961686 -0.3915917 0.020196907
0.011284311 -0.5296907 0.6396738 0.035143405 0.036666937 -0.06568246 -0.044891145 0.06790784
-0.27996957 0.04167832 0.019858947 0.012442365 0.003358119 -0.2025694 0.2543166 0.12513728
-0.09689493 -0.061980095 0.29009604 -0.19611147 0.02842905 0.3893681 0.1954201 0.1327034
0.050530285 -0.0070529054 0.03496743 0.11572694 0.32725394 -0.26219335 -0.60794204 0.4452527
0.056732394 0.0042023445 0.021311192 -0.08478142 0.17333677 0.082729645 0.017305853 0.19634557
-0.019942123 0.0017962212 0.012742134 -0.12317932 0.008987405 -0.07208085 -0.16639186 0.276866

dynamicsFunction.startBlock.2.bias f4 [32]
00000000: de86 2a3d 50f9 dbbe fe61 c33d 6ed9 3ebe
00000010: 0568 65bd 4029 e13c 2d35 263d 46c3 f53c
00000020: 7713 5dbe 1ad6 2a3e f3d6 343e 1aa6 f6bd
00000030: fd4c 3a3e bb46 cabc 4a82 a13d cba8 933e
00000040: 24e2 3e3e 777e c13d 7993 0a3d c869 e23d
00000050: 93fb 3cbe 30d2 28be 5afa 65be 561c 483e
00000060: 4081 f9bd e3fa 0cbe e3ad 383e e670 20be
00000070: 8d64 e23d dee8 5dbc 6567 033e dab4 703d
0.041632526 -0.42963648 0.09540175 -0.1863763 -0.056007404 0.02748549 0.040578056 0.03000034
-0.21589456 0.16683236 0.17660122 -0.120434 0.18193431 -0.02469193 0.07886179 0.28839716
0.18640953 0.094479494 0.033832047 0.110553324 -0.18455343 -0.1648643 -0.22458783 0.1954206
-0.121828556 -0.1376758 0.18035083 -0.15668067 0.11054335 -0.013544289 0.1283241 0.058766223
