AlphaGo/foersterrobert_MuZero/Environments/CartPole/Models/model_18.pt (torch, 84274 bytes, 20 tensors)

predictionFunction.startBlock.0.weight f4 [64, 32]
000000 f5 47 c1 bd 48 61 2e 3f 7c 0b a0 be e5 a4 a5 be
       -0.09437553 0.6811719 -0.31258762 -0.32352367
000010 fa 52 ae be d5 aa ee bd 40 71 26 bd 2e c0 5d 3e
       -0.3404768 -0.116536774 -0.040635347 0.21655342
000020 da 9f 0e 3e 38 ee 54 be 94 c8 7b be 65 6e 8f be
       0.13928166 -0.20793998 -0.24588233 -0.28013912
000030 7b 4e ea be c7 e8 dd 3e 36 30 32 3d 0e ee 86 be
       -0.45763 0.43341658 0.04350301 -0.26353496
000040 b7 67 12 be 8a 26 83 3e 57 c7 10 bf e8 63 b1 3e
       -0.14297377 0.2561534 -0.5655417 0.34646535
000050 6a 05 01 3f 20 ea 4a 3f 7b 2b 1b 3d 1b 73 03 3d
       0.50398886 0.79263496 0.037883263 0.032092195
000060 7f 61 c7 bc 41 f0 e8 3d b6 e8 27 3c 2f 65 31 3d
       -0.024338482 0.1137395 0.010248354 0.043309387
000070 f5 7a 16 3e cd 14 08 3e b7 a7 86 be bc 34 f3 3c
       0.14695342 0.13289185 -0.2629983 0.029688232
000080 c6 23 61 bd 9b 2f 8c be ea bf 65 be 5e 24 ff bd
       -0.054965757 -0.2738007 -0.2243649 -0.12458108
000090 dc d2 81 be 9a 2f aa bd 04 34 6c be 7a dc 84 3e
       -0.25356185 -0.083098605 -0.23066717 0.2594946
0000a0 fb ab e6 3d 99 61 9c be 5a fd b7 bd 92 b8 cb bc
       0.112632714 -0.3054321 -0.0898387 -0.024868283
0000b0 db d5 0d 3d 11 82 d8 bc e9 de dc bd 74 ba 65 3d
       0.034627777 -0.026429208 -0.10784704 0.05608602
0000c0 af b0 9f be 97 c3 46 be e1 cd fd 3d a4 84 77 3e
       -0.31189486 -0.19410549 0.12392784 0.24171692
0000d0 7b 13 83 3e 66 41 26 3e 68 0a 17 3e 6d 40 fd be
       0.256008 0.16235885 0.14750063 -0.49463215
0000e0 b1 05 f4 3c 2e 1c a5 bc 67 1b 40 3d 86 ea 87 3d
       0.02978787 -0.020155039 0.046901133 0.06636529
0000f0 0e 65 ff bc 0a 43 c2 3e 6a ef 5a bf ef c3 91 be
       -0.031176116 0.37941772 -0.85521567 -0.28469798
000100 fa d2 bb be 6f ca 01 3e af 74 e8 bf ec b3 fb 3d
       -0.366844 0.12674879 -1.8160609 0.12290177
000110 de d0 61 3d 83 09 1f 3f 92 7b 8e bd df 42 bb be
       0.055130832 0.6212389 -0.06957163 -0.36574456
000120 ec 05 aa be 72 62 b9 3d fd cb fd be 71 da 41 3e
       -0.33207643 0.0905198 -0.49569693 0.18930985
000130 f3 53 3b 3f 9a c0 83 3d f6 28 64 3e 73 ce b6 3e
       0.7317497 0.0643322 0.2228125 0.35704383
000140 8a 50 12 bf 42 67 89 3e 2c d3 8f 3d 6e c4 95 bd
       -0.5715414 0.26836592 0.070227 -0.073128566
000150 ed ea 97 3e 76 99 ba 3d ba ef a5 3f 3f 00 55 3e
       0.29671422 0.091113016 1.2963784 0.20800875
000160 a9 6f 9c 3e 73 54 d4 3e df 59 04 3f bb b6 8d 3e
       0.3055394 0.4147068 0.5169963 0.27678475
000170 23 de 20 3e d7 cc 06 40 d2 80 96 bf e1 50 c9 3e
       0.15709738 2.1062524 -1.1758063 0.39319518
000180 25 51 9e 3d 4a d5 cb 3e 98 9a 19 bf 81 ea c7 3b
       0.07730321 0.39811164 -0.60001516 0.006100953
000190 1c d2 45 bc fa 0e 08 3f 7d 59 12 bd 3c cb 67 be
       -0.01207402 0.5314785 -0.035729874 -0.22636122
0001a0 80 cd a1 be 0d d2 d5 bc 15 7f af bd 99 97 a6 be
       -0.31602097 -0.026101137 -0.08569161 -0.32537535
0001b0 45 9e 6f 3e 20 83 4c bd 90 ec 20 3b b6 92 bd 3e
       0.23400219 -0.049929738 0.0024555065 0.37025994
0001c0 24 e6 ff 3c 25 4e 3c 3e 7c b4 ad be af 4c 91 bc
       0.03123767 0.18389185 -0.3392676 -0.01773676
0001d0 c5 21 ba bc ac 00 9d 3e b3 9f 2a 3e 5a 1d ad 3e
       -0.02272118 0.30664575 0.16662483 0.33811456
0001e0 2e 57 c1 3e 02 d1 c3 bc 0e f9 a2 3d 7f c3 20 3e
       0.37761825 -0.023903374 0.0795766 0.15699576
0001f0 58 66 97 3e af 5a eb 3d 6a 54 d2 be 5a aa 17 3f
       0.2957027 0.11491906 -0.41080028 0.5924431
000200 2f 38 bd be b6 ed 50 bf c1 ee 7d be ff e3 c6 3e
       -0.36956927 -0.8161272 -0.24798109 0.38845822
000210 62 be 93 bd 72 34 72 bd e4 de 21 be 61 05 3e be
       -0.07214047 -0.059132047 -0.15807682 -0.1855674
000220 ae a3 a5 bd fb 91 a2 bb d6 ac f8 3c c8 ee 3b 3f
       -0.0808786 -0.00496125 0.030355852 0.73411226
000230 8d 51 4a 3f 80 13 10 3f b1 59 3d be 84 79 83 be
       0.79030687 0.56279755 -0.18491246 -0.25678647
000240 74 c2 fb be e2 d1 27 bf ad 26 c1 bc d2 33 28 be
       -0.49171793 -0.6555463 -0.023578012 -0.16426018
000250 39 c2 90 bc 53 62 35 be 52 63 fd 3d 49 6e 13 bf
       -0.017670738 -0.17713289 0.123724595 -0.57590157
000260 86 7c 1d 3e 84 2b 11 3f a0 aa 9a 3c 41 b9 a4 3d
       0.15379533 0.56707025 0.018880188 0.08043147
000270 46 9a 5f be 24 48 fe 3e 9b ca 7b bf 5e 63 44 3e
       -0.21836194 0.49664414 -0.98356026 0.1917853
000280 09 08 1a be 52 f6 46 be 5b ac b9 bb fa 28 96 be
       -0.15042128 -0.19429901 -0.0056662983 -0.29328138
000290 7a e6 07 3e a1 37 16 bf 0a 12 c6 bd 4e df 97 3e
       0.13271514 -0.5867863 -0.096714094 0.29662555
0002a0 d3 c7 b0 bd 82 e0 0d be 6b 63 00 be a7 1a 9d 3e
       -0.086318634 -0.13855174 -0.12537925 0.30684397
0002b0 7d bb 9a 3e 9b 01 8f 3c 06 6f a2 bd 66 30 86 3d
       0.30221167 0.01745682 -0.07931332 0.065522
0002c0 7a 53 f7 bc d7 2f da bd 32 40 02 3f ad e8 89 bb
       -0.030191172 -0.10653656 0.50879204 -0.0042086453
0002d0 7c 4e 6e bd 35 10 a2 bd b7 4d 81 3e 75 9d 55 bd
       -0.058180317 -0.079132475 0.25254604 -0.052152116
0002e0 45 aa 15 bd 69 21 51 3d d7 f2 f1 bd fc 72 77 be
       -0.036539335 0.051057253 -0.11813896 -0.24164957
0002f0 b1 dc 09 bf 3f e4 2a 3e 89 c1 e7 3d 79 96 c1 3d
       -0.53852373 0.16688631 0.11316211 0.094525285
000300 f4 39 12 be 7b c9 9f bd 25 65 7b bd 67 bc 35 be
       -0.1427992 -0.07802101 -0.061375756 -0.17747651
000310 23 c4 ad bd 0f 9d 32 3e 68 4f 05 bf 24 93 b0 3e
       -0.08484676 0.17442726 -0.5207429 0.3448726
000320 c9 80 a4 bc 0b 9a c2 3e d0 f4 18 bf e1 f7 cc bd
       -0.02008094 0.3800815 -0.59748554 -0.10008217
000330 75 b6 48 bd 67 63 91 ba a5 03 85 3e b0 72 37 3e
       -0.04900213 -0.0011092246 0.25979343 0.17914844
000340 53 70 46 3d b9 d5 01 be 56 39 9a 3e 8d 12 d4 3d
       0.048446964 -0.12679185 0.3012187 0.10355101
000350 98 d3 b7 3c 44 45 9d 3d 5b 06 cf 3d a0 c5 2e be
       0.022439763 0.07679227 0.10108634 -0.17067575
000360 b4 62 6a be 94 5c 55 3e 47 2a 15 be 7b f5 e6 be
       -0.22889215 0.20836097 -0.14566909 -0.45109162
000370 f4 6b 9d be 5c 68 4a 3e dd f6 4b bd ba cc 7c 3d
       -0.30746424 0.19766372 -0.049795974 0.06171868
000380 4b 18 69 be c2 50 d7 3d 85 55 36 bf b7 e5 70 3e
       -0.22763173 0.1051345 -0.7122424 0.2352513
000390 7d f8 ea bd 86 35 1e 3c aa 69 dd bc a3 d2 32 3e
       -0.11473177 0.009656316 -0.027027924 0.17463164
0003a0 0d 0b a1 3d 52 46 fa 3c e5 fc a1 3d f9 9d c1 bd
       0.07863436 0.03055111 0.07909564 -0.09453959
0003b0 e9 e6 bd 3e fa f1 c8 bd f9 de 4c be 9c 4f bb 3e
       0.37090233 -0.09811778 -0.20006932 0.36584175
0003c0 cd e8 3e bd 0d 4f 16 3e 25 2c 9f bc 0d df 00 3e
       -0.046608735 0.14678593 -0.01943023 0.12585087
0003d0 0c 67 9c 3e fb ca ea 3c f5 0e 40 3f a5 ed 1b be
       0.3054737 0.028661242 0.7502282 -0.15227373
0003e0 0f 4c 77 3e 63 8f 7b 3e 2d 17 8b 3e f7 b7 ae 3e
       0.24150108 0.24566416 0.2716612 0.3412473
0003f0 de fd 0f 3e b0 ef 27 3f d6 b0 22 bf c0 fa 30 be
       0.14061686 0.6560011 -0.6355108 -0.17283154

predictionFunction.startBlock.0.bias f4 [64]
000000 62 ed fc bb 01 82 85 be ad 00 9d be c6 3e 9a 3c
       -0.007718728 -0.26075748 -0.30664578 0.01882876
000010 be 4f 86 be dc e0 01 bc b9 b1 cb 3d 79 99 c9 bd
       -0.26232713 -0.007927146 0.09946007 -0.09843726
000020 8f e6 09 3e 1a 6c 54 3d bd aa 86 be b9 01 c1 bd
       0.13466857 0.051860906 -0.26302138 -0.09424157
000030 79 a2 3a be 71 63 20 bd de a0 1d be e7 5a 4c be
       -0.18226041 -0.039157335 -0.15393397 -0.19956551
000040 dc b4 2e be a0 33 b0 3d 62 63 97 be 5e fa 02 be
       -0.1706118 0.08603597 -0.2956801 -0.1279082
000050 78 7c aa be 64 4a 0a be bc 01 69 bd 40 c3 44 be
       -0.33298087 -0.1350494 -0.05688642 -0.19215107
000060 f1 47 b2 bd 77 eb 2e be e6 8f e5 3c 13 f1 f5 bd
       -0.08705128 -0.1708201 0.028022718 -0.12008872
000070 f6 e3 03 be 80 54 da bd be 33 0b be 97 3e 75 be
       -0.12879929 -0.10660648 -0.13593957 -0.23949657
000080 18 39 95 3d 74 5b 97 be 00 1b 26 be 2d 49 a9 bc
       0.072862804 -0.2956196 -0.16221237 -0.020664776
000090 a9 23 7e bd 08 11 84 be 18 f8 1a be 75 a8 83 be
       -0.062045727 -0.25794244 -0.15133703 -0.2571446
0000a0 b4 89 d9 bd 4d 89 2e be ac 40 af be 32 38 0e be
       -0.10621968 -0.17044564 -0.34229028 -0.13888624
0000b0 09 a1 e8 bc 46 e1 86 be ac e8 93 3c e0 c6 9d be
       -0.0283971 -0.26343745 0.018055283 -0.30815792
0000c0 7c c0 1c be cd fb 04 3e 83 4c 09 be 99 22 38 bd
       -0.15307802 0.1298668 -0.13408093 -0.04495487
0000d0 69 31 01 be 26 27 74 be e2 62 92 be 73 9c 05 3e
       -0.12616505 -0.23843059 -0.28591067 0.13047962
0000e0 f3 e3 95 bb 5b 90 c2 3d 6a 7d 00 be 00 6f 06 3d
       -0.004574293 0.0950019 -0.12547842 0.0328207
0000f0 fc 0e a0 3d 69 40 4c 3e 43 f2 49 be dc f2 bb 3d
       0.07815358 0.19946446 -0.19721322 0.09177181

predictionFunction.startBlock.2.weight f4 [64, 64]
000000 0e 9b 89 bd 2e 5c fc bd ec 0c 7b 3e 8e 5b 73 be
       -0.067190275 -0.123222694 0.24516648 -0.23765394
000010 e3 05 77 be 3f 9b 0c bf 67 83 86 3e 81 6d 9d 3e
       -0.2412334 -0.54924387 0.26272127 0.30747607
000020 07 da 16 bf 65 c0 0d bd d4 66 e0 bd f7 b1 e0 bc
       -0.58926433 -0.03460731 -0.10957113 -0.02742861
000030 60 2b 87 3e 30 23 02 3f 81 b6 10 3e b4 74 b4 3e
       0.2640028 0.5083494 0.1413212 0.35245287
000040 8d a9 d0 3d cd 73 4e be 47 af 15 bf 32 ee a6 be
       0.10188589 -0.20161362 -0.58470577 -0.32603604
000050 1f 48 9f bd 44 1e bd 3d d1 fd c2 3e aa c3 5f 3e
       -0.07777428 0.09234288 0.38084272 0.21851984
000060 88 70 24 bf 3a 6d 42 be fe 0a 6f 3f e4 cf e8 bd
       -0.6423421 -0.18986979 0.9337615 -0.11367777
000070 0a 05 82 be 2f b5 1f 3e 17 e1 8f be 5d 68 72 bd
       -0.2539447 0.1559646 -0.28101417 -0.05918156
000080 10 5e 04 bf 8d 70 50 3e 63 83 84 3d d7 51 a6 be
       -0.5170603 0.20355435 0.064703725 -0.32484314
000090 1d f8 27 bd dc fd a8 3e 68 4f 7c bd 53 b2 09 3d
       -0.041008104 0.3300618 -0.061599165 0.03361733
0000a0 1a c9 43 3d e0 9d 61 bd 19 e2 25 3e 3a fb 19 3d
       0.047799207 -0.055082202 0.1619953 0.037593104
0000b0 7c 98 13 be 14 04 2f be b7 ae b2 be 45 3d 67 be
       -0.14413637 -0.170914 -0.34898922 -0.22581966
0000c0 9c 57 8e be 89 ae fd be bf 2a 7f be 91 91 d5 be
       -0.27801216 -0.49547222 -0.2491865 -0.4171262
0000d0 b5 db 12 3c 6e 71 34 be 4f 3c e0 3e fe 07 95 be
       0.008963515 -0.17621395 0.43796012 -0.2910766
0000e0 43 79 b5 be 0d 03 de bd 66 7a 41 be 32 d8 a9 3e
       -0.35444078 -0.10840426 -0.18894348 0.33172756
0000f0 ab c3 05 3d 8d 51 5f be 62 5d a7 bd d4 f6 c7 be
       0.032657307 -0.21808453 -0.08172108 -0.39055502
000100 bb 8b 53 be bd 5c 85 be ec b7 3d 3e 79 e1 2d be
       -0.20658772 -0.26047316 0.18527192 -0.16980542
000110 ea f9 ad 3e ec 27 83 bd 3c ee c1 3e 42 48 e9 3e
       0.33979732 -0.06404099 0.3787707 0.4556294
000120 5b 59 0d bf 0a b3 b3 3d a6 07 16 3e ff 43 78 be
       -0.5521447 0.08774383 0.14651355 -0.24244688
000130 61 74 07 3f d1 e0 da 3e 3f c2 b0 3e 2a 01 88 be
       0.52911955 0.42749646 0.34523198 -0.26563388
000140 83 0e 30 3e c5 0d 43 be f2 97 10 bf da d4 0c bb
       0.17193036 -0.19048221 -0.5648185 -0.0021489174
000150 3a 40 3b bd eb ed 5f bd 25 a6 96 bd 47 ad b9 3e
       -0.045715548 -0.054670256 -0.07355908 0.36265013
000160 d8 a0 8f be a3 de 4f be 99 bc 01 3f 90 b6 1b be
       -0.28052402 -0.20299773 0.506784 -0.15206361
000170 fa d1 de be 8d 27 23 3d 10 13 ea bd d1 77 46 be
       -0.43519574 0.03983264 -0.11429417 -0.19381644
000180 58 b2 eb be a0 f1 da 3e 7b 04 7b 3e 2d d0 61 be
       -0.46034503 0.4276247 0.24513428 -0.22052069
000190 65 37 08 3e a0 83 da bd 1f fb 6f be e9 57 29 3e
       0.13302381 -0.10669637 -0.23435639 0.16537441
0001a0 81 fc 6a 3e 1c 1f b2 3d d8 a2 c9 3c c7 2f b7 3d
       0.22947885 0.0869734 0.024613783 0.0894466
0001b0 2b 3f 4a 3e 38 97 3b 3d 49 68 af be f5 b3 ac bd
       0.19750659 0.04579851 -0.3425925 -0.084327616
0001c0 09 f2 72 be 6f 3a 76 be 68 b9 29 be d0 fb c5 bd
       -0.23725142 -0.24045728 -0.16574633 -0.0966717
0001d0 4a 4d 70 3e bc 6d c0 3d d9 14 36 be a6 1d 94 be
       0.23466983 0.0939593 -0.1778139 -0.2892887
0001e0 ef 90 f1 be 95 da e5 3d 8e fc 1a bd 17 d4 2b 3f
       -0.47180888 0.11223332 -0.03783851 0.671205
0001f0 d4 79 08 3f 35 75 4a bd ea 50 97 be a4 44 4d be
       0.53310895 -0.049428184 -0.2955392 -0.20045716
000200 25 4f 36 bd 5b c5 6b bd ac ca b5 3e e8 51 40 bc
       -0.04450907 -0.05756126 0.3550619 -0.011738278
000210 d0 d8 d6 be b9 f6 e3 be 6c be 50 3e 18 f4 9f bc
       -0.4196229 -0.44524172 0.2038514 -0.019525573
000220 de b9 43 be be 2d 94 be 55 44 29 3d 09 c9 30 3f
       -0.19113871 -0.2894115 0.041324932 0.69056755
000230 c5 a7 ef 3d 5d 95 d1 3d 07 4d 6c bc f9 91 53 be
       0.117019214 0.10233567 -0.014422662 -0.20661153
000240 98 e5 23 3e bb 66 eb 3c fe c9 03 be 7e a9 66 bb
       0.16005552 0.02873551 -0.12870023 -0.003519624
000250 e0 a6 30 3c 5c ca d4 be 8f 45 c7 3d 50 87 e9 3c
       0.010781974 -0.41560638 0.09730064 0.028506905
000260 d2 91 b9 3d 04 af 8f be c0 b7 ca bc 4b 8f bf bd
       0.09061016 -0.28063214 -0.024745822 -0.09353503
000270 a1 66 5c bd 7c 0c dd bd ac 46 92 3e 96 f9 5a 3e
       -0.053808812 -0.10793397 0.28569543 0.21384272
000280 5a c1 fb bd 04 03 b5 3a b0 f7 4c 3e 35 de 2a 3b
       -0.12292738 0.0013810103 0.2001636 0.0026072387
000290 d6 22 82 3e f9 72 35 be ca de 02 be 85 dd cf bc
       0.25417203 -0.1771964 -0.127803 -0.025374183
0002a0 e4 65 ad 3e 17 d6 06 be ea d1 bd bd 1a 24 34 be
       0.338668 -0.13167606 -0.092685536 -0.17591897
0002b0 e8 fe 07 3f a7 26 f1 be 20 02 3e bf 24 9b 66 be
       0.5312333 -0.47099802 -0.7422199 -0.22520119
0002c0 ff 1a 76 be d6 3c 9f be 6f 47 e0 3c cc 76 fa be
       -0.24033736 -0.31101102 0.027377812 -0.4891876
0002d0 44 9b 3e bc ca 04 1b bd 6f 8d a4 3b dc 08 87 be
       -0.011633698 -0.037846364 0.005021743 -0.26373947
0002e0 e3 65 e9 3d 37 f5 10 be 63 ab ac 3e 33 86 22 be
       0.113963865 -0.14156042 0.33724508 -0.15871505
0002f0 a8 3f 88 3c 44 26 43 be 9c 66 fc bd 23 5d 25 3c
       0.016631916 -0.19057566 -0.12324259 0.010093006
000300 26 33 90 be c8 8c cd bc 10 66 e9 3d 96 04 9f 3e
       -0.28164023 -0.025091544 0.1139642 0.31058186
000310 32 da 29 3e 57 25 0e 3d 2a 11 74 bd 3d c7 38 3c
       0.16587141 0.03470358 -0.05958668 0.011277971
000320 c8 f1 97 be e8 04 c5 3e aa 7d e7 be c0 85 4a 3d
       -0.29676652 0.38480306 -0.45213062 0.04944396
000330 49 3c ae 3e 0e 4f 1b 3c 19 7e ca 3d 31 a6 41 3e
       0.3403037 0.009479297 0.098873325 0.18911053
000340 d7 8c e6 3d d4 9f 5b 3d 2d 30 19 be c8 40 8a bd
       0.11257332 0.05361922 -0.14959784 -0.06750637
000350 fb 1b ba bc 63 48 c7 be 23 c6 2a 3e bf 13 24 3e
       -0.02271842 -0.38922414 0.16677146 0.16023158
000360 b3 34 8a bd bb b9 81 3e f5 51 f3 3d ba f1 9f be
       -0.06748333 0.25337014 0.118808664 -0.3123911
000370 75 5a 7c 3e 64 b7 b3 bb e4 62 bf bd 1d 69 84 be
       0.24643882 -0.0054845084 -0.09345034 -0.25861445
000380 a9 5a ea 3d 35 8c a8 3d 3a 75 a2 3e 71 68 d8 be
       0.11443073 0.08229867 0.31730062 -0.42267182
000390 68 7f d0 3d df 4a c0 bd fa f5 65 bf ad 2e 00 3e
       0.10180551 -0.093892805 -0.89828455 0.12517805
0003a0 65 8a e3 3e b1 11 9e be 84 8b 34 bd fd 90 9d 3e
       0.44441524 -0.30872872 -0.044078365 0.3077468
0003b0 c2 43 55 3e fd 3a cb be c1 9f 7b bd 5e ac 0d bf
       0.20826629 -0.39693442 -0.06143165 -0.55341136
0003c0 84 48 ca 3e e1 3a 49 c0 43 a2 f3 3c c7 53 33 be
       0.3950845 -3.1442187 0.029740458 -0.17512427
0003d0 53 a9 41 3e 29 fb 60 3e 9f df 3d 3e 1c 0f ad bd
       0.18912248 0.2197081 0.18542336 -0.084501475
0003e0 d6 98 3c be 6a 5a 94 3e 88 ab 08 bd b2 a5 09 bf
       -0.18417677 0.2897523 -0.03336671 -0.53768456
0003f0 dd 2b 08 bf 82 c6 fa bd d2 4b 0d 3e 09 fe b1 3d
       -0.5319193 -0.122448936 0.13798454 0.086910315

predictionFunction.startBlock.2.bias f4 [64]
000000 e2 25 2e be 43 58 73 be 8d 3b 22 be 88 e5 88 3d
       -0.17006639 -0.23764138 -0.1584303 0.066844046
000010 0c 07 b5 be 57 96 99 be 7c 73 43 bd 49 b7 bc be
       -0.3535694 -0.29997513 -0.047717556 -0.36858585
000020 50 64 4d be 09 4c ae bc 6c 03 3b be c6 02 b6 bd
       -0.20057797 -0.02127649 -0.18263024 -0.08887248
000030 89 d3 b6 3d 33 f7 4f 3e 48 d7 a2 3e 4a 01 08 bd
       0.08927066 0.20309143 0.31804872 -0.033204354
000040 e9 de 30 be 5f f4 25 be 7d fd f8 be b8 56 97 3a
       -0.17272533 -0.16206501 -0.48630896 0.001154623
000050 08 75 f0 bd de c4 31 be 7f b0 eb bd 33 8a 19 3e
       -0.11741072 -0.17360255 -0.11508273 0.14994125
000060 1f 7e 00 be b5 03 55 be 83 59 a6 bd 4e af 3a be
       -0.12548111 -0.20802195 -0.08122542 -0.18230936
000070 98 19 f4 bd 03 06 bf 3d d9 a3 01 be 08 a0 a3 bd
       -0.11918944 0.093273185 -0.12660159 -0.07989508
000080 5f 59 20 be 2d 73 8b bd e4 f5 3e bd 98 95 e6 ba
       -0.15659092 -0.068090774 -0.04662122 -0.001759219
000090 e7 d4 ed bd 68 b4 dd bd 57 ce 20 be d5 f1 24 3c
       -0.116128735 -0.108254254 -0.15703712 0.010067423
0000a0 88 b8 a2 be 65 81 21 3e 03 86 5b 3e e5 da 5a be
       -0.3178141 0.15772016 0.2143784 -0.21372564
0000b0 f9 fa ec 3d 66 61 e9 bd a8 dc d0 3d 64 c1 f6 be
       0.11571307 -0.113955304 0.10198337 -0.4819442
0000c0 b0 f7 1e be 5e fa 7d be 39 f4 6a bd d6 95 34 be
       -0.15524173 -0.24802539 -0.057361815 -0.17635283
0000d0 19 bb 9c 3c 25 99 34 be d4 6a b1 be 75 c8 e2 3e
       0.019132184 -0.17636545 -0.34651816 0.44293562
0000e0 49 cc 56 3d 2c 11 81 be ea 64 35 3e 85 db 03 3e
       0.052440915 -0.25208414 0.17714277 0.12876709
0000f0 0d c7 2d 3e ea 08 1c 3d e1 aa 0d be 9a f0 74 bd
       0.16970463 0.03809444 -0.13834716 -0.059799768

predictionFunction.policy_head.0.weight f4 [2, 64]
000000 5a 25 4c 3d 60 52 a1 bd 29 8f a1 3e 85 67 8c 3e
       0.04984031 -0.0787704 0.31554535 0.2742273
000010 ca e2 1c be b5 7b e2 bc ab 1d 2d 3e cc d3 00 3f
       -0.15320888 -0.027646879 0.16905849 0.50323176
000020 05 13 84 be 73 45 f3 3c 91 3f 17 3d 26 2d 0e 3e
       -0.2579576 0.029696202 0.036925856 0.1388441
000030 ee 83 b3 bd 8e ec 0a be 49 31 1b 3c c7 a8 88 bd
       -0.08765398 -0.13566801 0.0094722 -0.06672817
000040 9e d9 f7 3d 58 6c 24 3e 54 e7 c9 be 26 fc 76 bd
       0.12102054 0.16056955 -0.39434302 -0.06029906
000050 3c 5b 59 3e 83 1c 95 3e ae ea 96 3c cf 20 01 3e
       0.2122621 0.29123315 0.01842245 0.12610172
000060 87 e3 bc 3d 7a e5 67 be b0 db a3 3d 72 e2 ed be
       0.09223085 -0.22646132 0.080008864 -0.46461827
000070 50 54 6a 3d d6 00 be be 72 f6 71 3b e1 27 54 3d
       0.057209313 -0.37110013 0.0036920574 0.051795844
000080 7b c6 cc 3d 23 a7 8c bc 85 1c 5e be 8f 31 86 bd
       0.09998795 -0.01716954 -0.21690567 -0.06552421
000090 3d 9e 5d be be f9 c5 3e c9 ca 83 be 1b b9 23 3d
       -0.21642394 0.386671 -0.2574065 0.039971452
0000a0 1f c5 13 3f 65 7d 85 3e d7 21 36 3e 8f e0 21 bf
       0.5772266 0.2607223 0.17786346 -0.63233274
0000b0 be df 05 be 73 17 27 bd 99 a0 4c be fb ec ac 3e
       -0.13073632 -0.040793847 -0.19983138 0.33774552
0000c0 49 31 e3 3e ee b2 c4 3e b6 dc 00 be cf 07 0f 3c
       0.4437354 0.38417763 -0.12584195 0.008729889
0000d0 21 d2 a4 be 65 d4 bf 3c 4b 81 ad 3e 39 c2 71 bd
       -0.32191566 0.023416707 0.33887705 -0.059023116
0000e0 9a fa 09 3d 86 39 a3 be f2 f0 64 3d e2 a9 ed bd
       0.033686258 -0.31879824 0.055893846 -0.11604668
0000f0 6b 12 e3 3d e2 97 05 3c e0 22 46 3e fb 1d a9 3d
       0.11087497 0.008153887 0.19349241 0.082576714
000100 76 df b0 bc 49 d3 e0 bd 50 dc 9f be 51 43 99 be
       -0.02159093 -0.109777994 -0.31222773 -0.2993417
000110 7a cd 62 bd dc e9 2a 3e 95 2f 9b 3c 72 63 c6 be
       -0.05537174 0.16690773 0.018943587 -0.38747746
000120 bc 7b 96 3e f9 28 fb bc 39 ef 17 3d cf 4a 02 be
       0.29391277 -0.030659186 0.037093375 -0.1272385
000130 d1 58 5c 3e 62 aa 2e 3e c0 2c a3 3c 32 77 2b 3e
       0.21518256 0.17057183 0.0199188 0.16744688
000140 43 7b 9a bd 4c 84 ab be 26 e6 c4 3e a5 c5 33 bd
       -0.075430416 -0.33499372 0.3845684 -0.04388966
000150 d1 24 cf bd b4 94 34 be 78 e3 b4 bc cc ff f3 bd
       -0.10114444 -0.1763485 -0.022081122 -0.11914024
000160 83 ad a6 3d 3d 4a 65 3e 38 c8 6b 3d c8 d7 eb 3e
       0.081385635 0.22391601 0.05756399 0.46063066
000170 95 a3 b6 3b 5e 3c d9 3e c1 66 c2 3d f5 24 0a 3d
       0.0055736997 0.4242887 0.09492255 0.03372665
000180 f8 69 39 be f5 f5 ca bd ff e0 6c 3e 5a 4f 90 3c
       -0.1810683 -0.09910194 0.23132704 0.017615963
000190 07 8d 1a 3e 56 17 b5 be 58 b8 bb 3e 4c 3e c6 3d
       0.1509286 -0.35369366 0.3666408 0.09679851
0001a0 e5 c4 13 bf af be 35 be a4 3d c2 bd 83 05 0e 3f
       -0.5772231 -0.17748521 -0.09484413 0.5547716
0001b0 56 01 02 bd ec 64 d9 bc 27 fd c6 3d 1a 65 bd be
       -0.031739555 -0.026537381 0.09716254 -0.36991197
0001c0 f3 5a 03 bf 3d 70 b1 be d8 17 d3 3d 85 ae 1f 3d
       -0.5131065 -0.34655944 0.10307282 0.038984794
0001d0 58 78 57 3e c3 a8 2f 3e 70 fe 8a be 1d b7 09 3d
       0.21042001 0.17154221 -0.27147245 0.033621896
0001e0 8d f6 6f 3d ca 9c 2a 3e 73 21 52 be f4 c5 4f bd
       0.05858474 0.16661373 -0.20520572 -0.050725892
0001f0 46 44 69 3c ee 71 59 3e 81 9a 5d be ce 17 0e 3d
       0.014237469 0.21234867 -0.2164097 0.03469067

predictionFunction.policy_head.0.bias f4 [2]
000000 64 94 29 bd fd 3a df 3c
       -0.041401282 0.027249807

predictionFunction.value_head.0.weight f4 [64, 64]
000000 ac b8 99 bd 33 ba ac bc a3 0e 0a bc f5 e6 6a 3d
       -0.075059265 -0.02108488 -0.008426341 0.057349164
000010 09 0f 07 3d 99 e3 5f bd df 56 61 3d 11 34 9c bd
       0.032973323 -0.054660413 0.055014487 -0.076271184
000020 a7 f8 69 bd c3 b8 0f be 27 f2 13 3d e6 38 0a bd
       -0.0571219 -0.14035325 0.036119606 -0.03374567
000030 6c d7 d4 bd a4 9e eb bd 6b a8 90 bd 5f 31 cc bd
       -0.10392651 -0.11504868 -0.07063373 -0.09970354
000040 84 a5 50 bd fd 99 d8 bd 6a 51 b9 bd 8f d8 0a 3d
       -0.050939098 -0.10576246 -0.090487316 0.033897933
000050 73 2d a2 bd 00 67 50 3d d0 7b 0b 3c 88 f3 9c bd
       -0.07918825 0.05087948 0.008513406 -0.076636374
000060 0b 5f ad 3c 40 0a 9c 3d 1e b4 73 bc 90 03 5e 3c
       0.021163484 0.076191425 -0.014874486 0.013550654
000070 20 cd cf 3d 42 67 3c bd 20 14 e1 3c 0a 19 52 3d
       0.10146546 -0.04599691 0.027475417 0.05129341
000080 3e bc 12 be 7e 29 97 3d c3 84 ca bd a0 60 d2 bb
       -0.14329621 0.07380961 -0.098886035 -0.00642021
000090 4a 7a ba bd cc 15 ce 3c ac e6 cd bd cb fd 99 bd
       -0.09105356 0.025156878 -0.10053763 -0.0751911
0000a0 80 ed b0 3c 97 9f be bd 3d 80 ef bc 0b 83 98 3d
       0.021597624 -0.09307783 -0.029235953 0.074468695
0000b0 7e 39 22 be 16 57 a6 bd fe 1f f0 bd 0b 23 ab 3d
       -0.15842244 -0.08122079 -0.11724852 0.08356293
0000c0 a7 15 9a 3b 12 ca d6 bd 29 6a 0f be 38 4d 84 3d
       0.004702288 -0.104877606 -0.1400534 0.06460041
0000d0 ab b4 55 3d 9c 88 dc bd f5 58 ca bb c8 24 7a bd
       0.05217425 -0.10768244 -0.0061751553 -0.061070234
0000e0 ff c1 82 3c 08 c1 f0 bd a4 88 04 3d 1f 4e a4 3d
       0.015961645 -0.11755568 0.032356873 0.08022713
0000f0 32 04 b4 3b 13 c1 99 bd 2c 04 5e bc 04 eb 5c 3d
       0.005493664 -0.07507529 -0.013550799 0.053935066
000100 c1 74 20 be f0 c8 fb bd 40 ff d4 bd 9c d3 51 3c
       -0.15669538 -0.12294185 -0.104002476 0.012806799
000110 42 17 14 be 0d ca a5 bd 85 86 64 bd d3 d1 cb be
       -0.14461997 -0.08095179 -0.05579235 -0.3980852
000120 3d 82 50 3d af c9 1d 3d 53 b3 02 be e8 bd 94 bd
       0.050905455 0.03852242 -0.1276372 -0.07262784
000130 cf 1f 02 be f9 f2 27 be 90 d7 3f be 8d 3f 63 bd
       -0.12707447 -0.1640128 -0.18734574 -0.05548053
000140 d8 f9 92 be 10 b8 c9 be 52 8d ad bd 8c 08 0b bd
       -0.2870624 -0.3939824 -0.0847422 -0.033943698
000150 7e 53 0d bb 7c d6 2f 3d e8 59 2e bd e9 e2 03 be
       -0.0021564658 0.042929158 -0.04256621 -0.12879528
000160 ed 34 d8 3e f7 7f 7a 3e c9 c4 88 3d d0 95 ad bc
       0.4222788 0.24462877 0.06678159 -0.0211896
000170 5c f0 e4 3d 00 09 29 be 2f 55 25 be 48 23 d0 bd
       0.111786574 -0.1650734 -0.16145776 -0.10162979
000180 ba ce f2 be ac 5a 94 be e3 c7 d1 bd 70 39 f4 3c
       -0.47423345 -0.28975427 -0.102432035 0.029812545
000190 40 22 5c 3d 64 be 88 3b 35 ba 65 bc 07 53 54 3e
       0.0537436 0.004173087 -0.014021446 0.20734797
0001a0 15 af 5c be 31 32 75 bd b7 f5 fc bd ad 30 bc be
       -0.21551163 -0.05986232 -0.12351554 -0.36755887
0001b0 51 8a c1 be 5a 4c eb 3d 93 a1 6f be 75 c8 18 be
       -0.3780084 0.11489172 -0.2340148 -0.14920218
0001c0 6a 6f 63 3e 9a d8 52 bd da c7 fc bd c7 4d 0e 3d
       0.2221047 -0.0514761 -0.12342806 0.034742143
0001d0 75 38 c6 bd c6 99 b0 be 2e 97 c3 bd 52 4c 39 3e
       -0.09678737 -0.3449232 -0.095503196 0.1809552
0001e0 c3 b3 74 bd cc 31 e2 bb e9 68 0b 3e 40 23 60 3d
       -0.059741747 -0.006902909 0.13614239 0.054721117
0001f0 dd d6 e3 bd f4 25 ff 3d 51 4d 81 be 30 5f 97 bd
       -0.11124966 0.12458411 -0.252543 -0.073912024
000200 d3 4d 4d 3e 13 45 0d 3e 2d d7 c2 3d 80 64 f9 ba
       0.20049219 0.13795881 0.09513698 -0.0019027144
000210 a1 be b2 3d e8 1b 91 bd ba 08 98 3d 2a e4 3c be
       0.08727766 -0.07085401 0.074235395 -0.18446413
000220 bd 6e 6b be 32 7e 3e 3e 94 46 0b be ad 14 a5 3d
       -0.22991462 0.18602827 -0.13601142 0.08060584
000230 1a ee dd be 8b 4b c8 3d 19 50 7b be 81 9c 36 3e
       -0.4334572 0.09780034 -0.24542274 0.17833139
000240 bf 2c 86 be 76 42 1e bf 4a 24 68 3d 20 57 ad 3e
       -0.26206014 -0.6182016 0.056675233 0.33855534
000250 ba 14 fa be d8 4e 16 3e cb e4 b8 bd 6e 72 88 be
       -0.48843938 0.14678514 -0.09028014 -0.26649803
000260 36 ce 90 3e 83 55 64 be b0 a2 2c 3c fe ea 75 3d
       0.28282326 -0.22298245 0.010536835 0.06003856
000270 ad b5 11 3e 5f 68 03 bf ad 7f 47 bd 39 4b 96 3d
       0.1422946 -0.5133113 -0.048705745 0.07338566
000280 62 e3 8d be da dc 8b bd 25 1b 88 bd 4c 5d e4 bd
       -0.27712542 -0.068292335 -0.066458024 -0.111506075
000290 9b 38 c3 3e e0 22 85 3e e6 2b 1f bf 25 83 30 3e
       0.38129124 0.2600317 -0.6217636 0.17237528
0002a0 71 ed 7f 3e 42 d7 e2 bd f9 14 8d 3d 63 67 a8 bd
       0.2499292 -0.110762134 0.06888766 -0.082228445
0002b0 f1 dc b6 be e8 85 ec bd c0 ec 2b be 35 59 ea be
       -0.3571544 -0.11548978 -0.16789532 -0.45771185
0002c0 4e c5 11 bf 29 7a 07 3f a9 ed 80 3d 42 8d ea 3d
       -0.5694169 0.52920777 0.0629533 0.11452724
0002d0 46 aa 35 3e e5 7b 46 bf 74 7e f0 bd 29 4c 96 3c
       0.17740735 -0.775328 -0.11742869 0.018346863
0002e0 6c c8 a3 3e 73 70 4b be 89 57 07 be 8d 60 69 3e
       0.31988847 -0.19867115 -0.13216986 0.22790737
0002f0 3a 10 82 3e 5d 8b 5e bd c6 2f 6f bd da 81 9a 3d
       0.25403005 -0.054332126 -0.05839517 0.075442985
000300 a2 e1 91 bc bd 8e 77 3e 35 16 ff bd e9 9c f4 bd
       -0.017807785 0.24175544 -0.124554075 -0.11943991
000310 d3 b5 42 3e e2 2c 83 bc a6 0e f3 bd f1 38 1e 3c
       0.19014673 -0.016012613 -0.11868028 0.009657131
000320 ff 0f 21 bf 48 ed ae 3d a9 bd d0 be 46 f4 3e be
       -0.62915033 0.085413516 -0.407697 -0.1864787
000330 09 5f 39 bf f0 61 20 3d 30 a9 ec bd ff 57 09 be
       -0.7241064 0.0391559 -0.115557075 -0.13412474
000340 db 8c 2f 3f ba 61 0d 3e aa dd 00 bf 42 99 ee be
       0.68574303 0.13806811 -0.5033823 -0.466013
000350 0e 5d 17 3d 8f ee 37 3c d5 2d da bd 8d a4 16 be
       0.03695398 0.01122631 -0.10653273 -0.14711209
000360 a9 82 b1 bd 49 00 bb 3d bd d2 a3 bc ba 1c 8c be
       -0.086674996 0.09130914 -0.019997949 -0.27365667
000370 4e 11 c2 bd cd a5 22 3e ce 7f d1 3d 27 1e 2c bc
       -0.09475957 0.1588356 0.10229455 -0.010505236
000380 88 10 cf 3d b5 97 36 bf fe 11 e2 3d c2 cb 11 bd
       0.10110575 -0.71325237 0.11038588 -0.03559471
000390 2e 65 fa 3e 80 ee 14 bd 78 07 07 be 2d 0a 20 bd
       0.4890532 -0.036360264 -0.13186443 -0.039072204
0003a0 34 3f 16 3f f3 b7 9d 3d 8a 40 08 3e b5 98 63 be
       0.5869019 0.07701101 0.1330587 -0.22226222
0003b0 66 0b 9c 3e 1e 58 99 3d 94 29 34 bf ea 85 2e 3e
       0.30477446 0.0748751 -0.70375943 0.17043272
0003c0 7a f2 72 3e 12 b9 7d be a3 56 d7 bd f4 24 9b 3e
       0.2372531 -0.2477763 -0.105145715 0.3030163
0003d0 17 5d cf be ba b9 eb be 35 66 7f 3e ae ab d4 be
       -0.4050071 -0.46040136 0.24941333 -0.4153723
0003e0 83 b1 0b 3e 07 5d 57 3e 15 34 0a bf fa e3 57 3d
       0.13641934 0.21031581 -0.5398572 0.05270765
0003f0 9e 4f 41 be ba cb 27 be df be 00 3e 9d a3 a4 bd
       -0.18878028 -0.1638631 0.12572812 -0.08039019

predictionFunction.value_head.0.bias f4 [64]
000000 f7 ad 14 be f5 dd 2e be ff 80 83 bc 50 87 ff bd
       -0.14519487 -0.17076857 -0.016052721 -0.12476981
000010 d6 fb 14 be 20 90 ea bd 74 30 5e 3d 5c d9 a9 be
       -0.14549193 -0.11453271 0.054245427 -0.33173645
000020 15 e2 a7 3d 4a b5 2c be aa f0 9f bd d6 d5 ae be
       0.081974186 -0.16866031 -0.07809575 -0.3414752
000030 8a 02 85 3c 17 4a 82 be 0c cd b5 bd 1b 2f c7 be
       0.016236562 -0.2544715 -0.08877 -0.38903126
000040 86 bf a4 bd 64 99 8e bd f9 da 89 bd 46 85 c5 3e
       -0.08044343 -0.06962851 -0.06731219 0.38578242
000050 0a 1a 89 bd 18 ff ce bd 2e b6 95 3e df af 67 be
       -0.0669442 -0.10107249 0.29240555 -0.22625683
000060 08 5c 9e be c9 ba 33 be d8 07 06 be 81 f1 c3 bd
       -0.3092959 -0.17551722 -0.1308893 -0.095675476
000070 0f 39 0a bd 7a 42 78 be f7 be d0 bd e6 9c 4f bd
       -0.03374582 -0.24244109 -0.10192674 -0.05068674
000080 05 34 59 be 2e e9 c8 3d d2 fe e0 3e 27 c1 9c be
       -0.2121125 0.098101005 0.43944412 -0.30616114
000090 63 5c 80 be 15 6b 87 bd a8 7e d6 3d ef e6 25 be
       -0.25070485 -0.06612221 0.104733765 -0.16201375
0000a0 90 50 5c be 4d 19 ba bc e6 4e 1f be 8a 8f 27 be
       -0.21515107 -0.022717142 -0.15557441 -0.1636335
0000b0 fb ae 54 3d c9 c0 f5 3d af a3 75 be 45 c6 0d be
       0.051924687 0.119996615 -0.23988222 -0.13845165
0000c0 2d 15 4d be a6 e9 65 bd 6f a4 1c be b0 2f 2f 3d
       -0.20027609 -0.056131028 -0.15297101 0.042770088
0000d0 99 f6 2b be 79 eb 2d 3e ca 8b 4e be 1c 81 e0 3e
       -0.16793288 0.16984357 -0.20170513 0.43848503
0000e0 3b 27 d7 3d f3 c1 45 3e 22 2b 0f be 19 d7 e2 be
       0.105055295 0.19312267 -0.13981298 -0.4430473
0000f0 05 62 dc 3e d4 ae f9 3d 00 d7 a4 3e ea fc a5 be
       0.43043533 0.12191549 0.32195282 -0.3241952

predictionFunction.value_head.2.weight f4 [41, 64]
000000 47 72 9b bd 25 48 2d bf d1 4b 95 be 58 f1 2b bf
       -0.07590156 -0.6768821 -0.29159406 -0.67165136
000010 0a 45 92 bf 5a d8 41 bf 1d 55 d5 bf 5e 9c 45 bf
       -1.1427319 -0.7572075 -1.66666 -0.7719172
000020 50 41 e9 bf 47 82 d0 be 80 af 0e 3d 7d c0 15 be
       -1.8223057 -0.40724394 0.03483534 -0.1462421
000030 6b bd 65 bf ba c8 00 bf 0b af b9 bf 9c b3 ed bf
       -0.89742154 -0.50306284 -1.4506544 -1.8570437
000040 72 3e b1 be d2 e8 64 be 9d 2d 99 bf 34 10 13 c0
       -0.34617954 -0.22354439 -1.1967045 -2.297864
000050 cf f7 ea bd 1b 21 0e bf ee 9e e2 bf 8b 3c 6f bf
       -0.11473047 -0.55519265 -1.7704751 -0.93451756
000060 23 99 22 bf 94 4a 9c 3d 11 b4 21 3b 50 55 3d bd
       -0.6351492 0.07631412 0.0024673978 -0.04622394
000070 e5 56 38 be c4 bd 59 bf ed 87 c1 bf 8a 7e e3 bf
       -0.18001898 -0.85055184 -1.5119606 -1.7772992
000080 93 98 e6 be d9 9f 8d bf 27 6d 1a c0 6b 02 1c bf
       -0.4503828 -1.1064407 -2.4129121 -0.6094119
000090 a3 b5 1d bf 93 1a a2 be 10 df ff bf e4 54 8d be
       -0.6160528 -0.316609 -1.9989948 -0.2760383
0000a0 09 18 95 be 1f 4a 57 bf 53 2b bf bd 91 c0 11 bf
       -0.291199 -0.84097475 -0.09334435 -0.5693446
0000b0 33 0d fa bf 53 ce ba bf 03 e2 47 be 9f 32 a7 3d
       -1.9535278 -1.4594215 -0.1951981 0.08163952
0000c0 6b b4 35 3c 50 09 bc bf 66 21 e1 bf 84 54 96 bf
       0.011090378 -1.4690342 -1.7588317 -1.1744542
0000d0 bf 67 04 bd 5b 7c 6c bf e7 7a da be 3d a0 0c c0
       -0.032325502 -0.9237725 -0.42671892 -2.1972802
0000e0 42 a4 f1 bf 96 c8 6c bf ca 22 e9 bd da 46 b7 bf
       -1.8878253 -0.9249357 -0.113835886 -1.4318497
0000f0 6c 7f 04 c0 a1 06 c7 be 33 73 dc bf f0 9e f3 be
       -2.0702772 -0.38872245 -1.7222656 -0.47582197
000100 70 25 b1 bc ef a6 3e bf d7 60 02 be e6 2d 27 bf
       -0.021624297 -0.7447347 -0.12732254 -0.6530441
000110 e6 02 90 bf 92 d0 4f bf 83 66 c7 bf 5c 43 2b bf
       -1.1250885 -0.8117763 -1.5578159 -0.6689966
000120 95 ed e6 bf 64 84 fb be 3d 33 87 bd 93 54 a1 be
       -1.8041254 -0.49124444 -0.0660157 -0.31509838
000130 35 e6 89 bf 4c c6 0a bf 1f a2 b3 bf b6 60 f2 bf
       -1.0773379 -0.54208827 -1.403385 -1.8935764
000140 1f 1a 45 be 5e 84 3a be 4c 13 ad bf e0 14 0f c0
       -0.19248246 -0.18214557 -1.3521514 -2.235649
000150 aa c1 8a bd 3a 6f 02 bf a5 74 f0 bf e0 d7 71 bf
       -0.0677522 -0.5095097 -1.8785597 -0.94470024
000160 f0 c6 04 bf e7 45 42 3d 51 89 0e bc eb 0b 7d 3c
       -0.51866055 0.047429945 -0.008699731 0.015444736
000170 23 7f 97 bd 86 3b 2a bf 0a 4a bf bf ff d8 d9 bf
       -0.07397296 -0.66497076 -1.494447 -1.7019347
000180 17 78 86 be eb d4 91 bf 65 81 1a c0 ee 0d 15 bf
       -0.26263496 -1.1393102 -2.4141476 -0.5822438
000190 f8 2e 3b bf d5 8b db be 82 d6 f7 bf 9c d6 14 be
       -0.73118544 -0.4288012 -1.9362338 -0.14534992
0001a0 f3 77 2f be fc d8 2b bf 2d 2e 16 bd be 56 21 bf
       -0.17135601 -0.67127967 -0.03666513 -0.63022983
0001b0 22 ea f6 bf 3b 3b c5 bf 4b 09 01 bf e7 39 97 bd
       -1.9290202 -1.5408701 -0.50404805 -0.07384091
0001c0 71 87 c0 3c c5 4d cd bf 3f b7 dd bf 05 6a 8b bf
       0.023502083 -1.6039358 -1.7321547 -1.089173
0001d0 2e 52 b7 3c f1 dc 34 bf 88 99 14 bf fc 90 0c c0
       0.022378054 -0.7064963 -0.5804677 -2.1963491
0001e0 5e bf f1 bf 51 a0 6d bf 77 aa 36 be fb b1 b0 bf
       -1.8886526 -0.9282275 -0.17838465 -1.3804315
0001f0 fb bb 06 c0 ce 92 bf be ab 54 e4 bf 79 4d c5 be
       -2.1052234 -0.3741669 -1.7838339 -0.3853567
000200 30 11 7a bd d4 7a 46 bf 13 b7 43 be f4 38 2d bf
       -0.061051548 -0.7753117 -0.19112806 -0.6766503
000210 05 40 a0 bf 62 73 44 bf b5 74 d1 bf 9b 7d 1e bf
       -1.2519537 -0.7673856 -1.6363741 -0.6191041
000220 6a 5c e2 bf 2a a9 f2 be 96 cc 69 3d 42 93 6c be
       -1.7684453 -0.47394687 0.057079874 -0.2310305
000230 a6 e2 78 bf fe 7f f0 be b2 39 c0 bf 99 27 f5 bf
       -0.9722084 -0.4697265 -1.5017607 -1.9152709
000240 3b 7a b0 be 7c 84 90 bd 2e f2 a1 bf ed c1 08 c0
       -0.34468254 -0.070565194 -1.2652032 -2.1368363
000250 6e e2 b6 3c 5b 08 cd be 12 05 f4 bf ea b8 7a bf
       0.022324767 -0.40045437 -1.9064047 -0.97938406
000260 dd 2c 12 bf 00 2e c1 3d a3 54 81 3c c8 6b b0 bd
       -0.57099706 0.09432602 0.015787428 -0.08614308
000270 8c b8 2e be 80 4d 53 bf d6 a2 c8 bf 5b ea d3 bf
       -0.17062587 -0.8254013 -1.5674694 -1.6555895
000280 a3 99 82 be 63 41 9d bf 89 84 18 c0 84 b4 e9 be
       -0.2550784 -1.228558 -2.3830893 -0.45645535
000290 5e b7 2a bf 4b 1e ca be 80 4e ff bf a1 de fb bd
       -0.66686046 -0.39476237 -1.9945831 -0.122983225
0002a0 4e 6b 44 be ba 99 40 bf e6 86 8c bd 40 c5 40 bf
       -0.19181558 -0.7523457 -0.06861667 -0.7530098
0002b0 14 2d f3 bf 5f 16 c9 bf a9 4c 85 be b1 3c b5 3d
       -1.8998132 -1.5709952 -0.2603505 0.088494666
0002c0 15 a8 84 bd 89 00 be bf e7 da f4 bf 76 19 91 bf
       -0.064773716 -1.4843913 -1.9129304 -1.1335895
0002d0 5b 85 e3 3d bd ea 3e bf 71 ed 00 bf 96 3f 0b c0
       0.1110942 -0.7457693 -0.50362307 -2.175756
0002e0 38 88 eb bf 98 aa 66 bf 34 b9 65 be 05 e7 b5 bf
       -1.8400946 -0.90104055 -0.2243393 -1.4211127
0002f0 3c d1 08 c0 a4 8a 01 bf c5 66 e2 bf c5 46 05 bf
       -2.1377707 -0.50602174 -1.7687613 -0.5206111
000300 3b d5 94 bd 6f 64 1e bf 8f ea a6 be 07 9f 2c bf
       -0.07267233 -0.61872 -0.3260083 -0.67430156
000310 31 3a 91 bf e5 60 54 bf a3 30 c3 bf a8 ac 25 bf
       -1.1345884 -0.8296035 -1.5249218 -0.6471658
000320 ae e9 de bf a9 f5 f1 be e3 d2 15 bc 02 3b 0a be
       -1.7415063 -0.47257736 -0.009144518 -0.13499072
000330 9b d4 7b bf 4a 58 f5 be 55 44 b5 bf 00 c1 07 c0
       -0.98371285 -0.47918922 -1.4161478 -2.1211548
000340 cc 40 59 be f6 5c 05 be 1f 28 b0 bf 60 c3 0b c0
       -0.21216124 -0.13023743 -1.3762244 -2.1837997
000350 b7 40 b7 bd f1 d9 ef be 65 4e f2 bf 98 f6 5b bf
       -0.0894789 -0.46845964 -1.8930174 -0.8592315
000360 aa 33 e4 be cd 87 20 bd 1f 92 0d 3d d9 55 60 3b
       -0.44570667 -0.03919201 0.03456318 0.0034230857
000370 a1 dc 2e be 32 6c 42 bf f1 98 b0 bf b8 df e7 bf
       -0.17076351 -0.7594634 -1.3796674 -1.8115149
000380 dc 62 92 be ae e3 86 bf 63 a6 1a c0 a8 ae 0c bf
       -0.2859105 -1.0538232 -2.4164054 -0.54954004
000390 4a 58 31 bf c0 6e 5f be c9 81 03 c0 2b 28 12 be
       -0.69275343 -0.21819592 -2.0547965 -0.14273135
0003a0 f8 d3 ae be 8f 61 55 bf 41 02 c1 3d da c1 25 bf
       -0.34146094 -0.8335199 0.09424258 -0.6474892
0003b0 d1 c6 fc bf a1 bf ba bf b7 9e fa be 07 a8 d8 3d
       -1.9748174 -1.458973 -0.48949215 0.10578924
0003c0 28 64 86 bd 4b 58 cc bf 63 80 e3 bf 7a da 96 bf
       -0.06562072 -1.5964445 -1.7773556 -1.1785424
0003d0 00 8f eb b9 ee dc 63 bf f1 e9 e2 be 98 b6 0a c0
       -0.00044929236 -0.89008987 -0.44319108 -2.1673946
0003e0 7e 1f f7 bf 62 41 6d bf 43 b9 7d be 4c 0b a9 bf
       -1.9306486 -0.9267789 -0.24777703 -1.3206573
0003f0 7d 30 09 c0 88 e8 0a bf f9 36 dc bf 30 37 c8 be
       -2.1435845 -0.54261065 -1.7204276 -0.39104605

predictionFunction.value_head.2.bias f4 [41]
000000 ef 69 16 c0 85 00 18 c0 48 70 11 c0 9b 61 14 c0
       -2.3502157 -2.3750317 -2.272478 -2.3184574
000010 18 e6 16 c0 b6 2f 18 c0 45 a5 11 c0 cd 60 10 c0
       -2.3577938 -2.377912 -2.2757123 -2.2559083
000020 86 85 17 c0 72 6d 0e c0 61 05 10 c0 03 de 11 c0
       -2.3675246 -2.22543 -2.2503283 -2.2791755
000030 7c 38 13 c0 12 99 1b c0 99 f1 19 c0 5a b4 18 c0
       -2.3003225 -2.4312177 -2.405371 -2.3860078
000040 03 d5 0d c0 36 b8 15 c0 5b 18 1c c0 85 ae 1b c0
       -2.2161262 -2.3393683 -2.4389865 -2.4325268
000050 09 9d 6c bf 79 2a 37 bf 92 c3 da be 31 73 80 bf
       -0.92427117 -0.71549183 -0.42727333 -1.0035154
000060 a1 c3 7d be 1b 20 90 be 5b f3 d8 be 04 c9 08 bf
       -0.24781658 -0.28149495 -0.42373165 -0.53431726
000070 48 c3 b8 be 3e f9 ae be e6 35 6b 3b 1b 5a 8a 3d
       -0.36086488 -0.34174532 0.003589028 0.067554675
000080 a6 38 b5 be 6d 7c 14 c0 9b 54 1b c0 94 b6 16 c0
       -0.35394782 -2.3200943 -2.427039 -2.3548937
000090 df 90 17 c0 5b ef 19 c0 8b 35 16 c0 7a 6f 1a c0
       -2.3682172 -2.405234 -2.347018 -2.413054
0000a0 91 fd 17 c0
       -2.3748515

dynamicsFunction.startBlock.0.weight f4 [64, 34]
000000 1b 58 68 3e 5a ea c3 3e e1 18 8e bd c3 0c e2 3d
       0.2268986 0.38264734 -0.06938339 0.1103759
000010 9c 04 3f 3e 7d 5a 41 3e fc 6d af bc 53 a7 ac bd
       0.18654102 0.18882175 -0.02141475 -0.08430352
000020 f1 91 50 bd a2 f6 39 be 2d f1 92 3e 3b d7 bc 3d
       -0.05092043 -0.18160489 0.28699628 0.092207395
000030 8e e2 1d 3d 99 88 1c 3e e0 b1 37 ba 4a 4b ae 3e
       0.038546138 0.15286483 -0.00070074014 0.34041816
000040 57 66 46 3e 60 f4 a5 3d 29 87 ab 3c 85 9e 88 3e
       0.19374977 0.081032515 0.020938473 0.2668344
000050 b5 aa 61 3e 3d cd a7 3e 9b d5 11 be f3 58 de 3d
       0.22037776 0.32773772 -0.1424164 0.108568095
000060 6e b6 83 3e fa 50 ce 3d 53 80 88 3e 68 3c 8a 3c
       0.2572512 0.10074039 0.26660404 0.016874507
000070 bf 16 2d 3e 0c a2 0a bc 36 d1 10 be 48 d4 76 3e
       0.16903208 -0.008461487 -0.14142308 0.24104416
000080 16 2b ae 3e 69 18 d5 be 64 0f c5 be 6b 54 16 3e
       0.34017247 -0.41620186 -0.38488305 0.1468064
000090 83 9c 43 be 8a 46 02 bd 0c d5 c6 bd a3 b5 d6 3e
       -0.19102673 -0.031805553 -0.09708604 0.41935453
0000a0 a7 4b 86 be 9a 19 f1 bd 64 96 9a bd 5d 4b cb 3e
       -0.26229593 -0.11772461 -0.07548216 0.39705935
0000b0 a3 dd 68 be bf a6 82 3d ce dd 8a 3e d3 61 b1 3e
       -0.22740798 0.063794605 0.2712235 0.34644946
0000c0 f1 cd 5b 3e d3 5c f0 3d a6 cf 19 bd 69 42 ff 3d
       0.21465279 0.11736455 -0.037551545 0.124638386
0000d0 df 06 81 be 4c 07 71 bd 55 0d 84 bd c8 8b f5 3c
       -0.25200555 -0.05884485 -0.064478554 0.02997388
0000e0 d1 c0 b1 3d 18 30 15 3e 2d 5b 81 3e ce f3 20 3e
       0.08679355 0.14569128 0.25264874 0.15718004
0000f0 2d 5e 66 3d 74 93 cf 3e 0b ce d9 bd 68 1f 52 3c
       0.056242157 0.40542185 -0.10635003 0.012824871
000100 5e a6 de bd 76 f2 94 3d 4d 06 ae 3e 32 78 02 bf
       -0.10871576 0.07272808 0.33989182 -0.50964653
000110 3f df 24 3e d4 84 9e be dc 64 05 3f f8 d7 92 be
       0.16100787 -0.30960715 0.52107024 -0.28680396
000120 9f ec 93 3d 4f eb 1d be 79 db 93 3d 29 e8 60 bd
       0.07222866 -0.15421794 0.072195955 -0.054908905
000130 34 9d e1 3d 80 ae 68 be 45 a8 09 3e 94 d5 17 3e
       0.11016312 -0.22722816 0.13443096 0.14827567
000140 4f 47 b0 be dc a5 8a be fe b3 72 bd 6d df 7b be
       -0.34429404 -0.27079666 -0.059253685 -0.24596949
000150 e4 52 2d be 9a 68 6c bc 5b c1 24 be aa 21 eb 3d
       -0.16926152 -0.014429236 -0.16089384 0.1148103
000160 be f1 25 3e dc 5f 73 be 77 97 95 be 58 87 28 be
       0.16205499 -0.23767036 -0.2921712 -0.1645788
000170 80 aa 9d be 72 38 4a be d7 8f 99 be 23 35 10 bf
       -0.30794144 -0.19748095 -0.29992554 -0.5633108
000180 cb 26 dc 3d 9b 6d e6 be 0a 3c 23 3f 2b 2c 7b 3d
       0.10749587 -0.45005497 0.6376349 0.06132142
000190 83 ad ab be 95 0f 9d 3e aa 7f bf 39 c4 41 99 be
       -0.33530816 0.3067595 0.00036525476 -0.29932988
0001a0 ae 3a ff 3c 7c da ff 3e b8 9b 4e 3f 6e 43 01 be
       0.03115591 0.49971378 0.8070636 -0.12623379
0001b0 73 6e 2f 3e 4f 7d 19 be db 0b f6 3e 5c a9 cc 3d
       0.17131977 -0.14989208 0.4805592 0.0999324
0001c0 f2 d2 c8 bc 8f dc cf 3e 81 c7 77 be ad 0a 22 bd
       -0.024514649 0.4059796 -0.24197198 -0.039560962
0001d0 c5 55 d1 bd 0d 21 26 bf 9e b7 3f bd 2d 29 a1 be
       -0.10221437 -0.6489418 -0.04680597 -0.31476727
0001e0 18 cb 68 3e 31 5e 50 bf 67 a2 2c be 50 ea ed be
       0.22733724 -0.81393725 -0.16858827 -0.4646783
0001f0 db 56 05 3e c6 59 9d bd 99 51 23 3d b8 19 76 3c
       0.13021414 -0.076831385 0.03987274 0.01502078
000200 83 8b cb be f8 f5 2d 3e 2b 14 c5 be ed 46 8c 3e
       -0.39754876 0.16988361 -0.3849195 0.27397862
000210 07 1d 91 bd a5 8c b3 be 1d 99 4b bd c7 a7 00 be
       -0.07085615 -0.3506824 -0.049706567 -0.12564002
000220 66 ca bc bd ff 00 d0 bd c2 9f 8d be 9b 2f 2c 3f
       -0.09218292 -0.1015644 -0.27660948 0.6726014
000230 1e 13 dd 3e 51 a9 02 be cc 27 be 3d e1 58 2c bf
       0.43178648 -0.12759902 0.092849344 -0.6732312
000240 c5 e9 00 be 18 ed 3f bd 00 5a a3 3c 4e 48 7d bd
       -0.12589176 -0.04685697 0.019940376 -0.061836533
000250 de c0 91 3d f9 04 2a 3b 4f 5c 1a bf 53 6a 1d 3e
       0.071168646 0.0025942905 -0.602971 0.1537259
000260 1f f0 73 bd b2 12 56 bd f4 da b1 be ed b4 81 be
       -0.05955517 -0.052263923 -0.3473736 -0.25333348
000270 68 7e 8e be 06 f6 6f 3d 74 8c 23 bc 1a 4d 48 bd
       -0.27830815 0.058584236 -0.009982217 -0.048901655
000280 d9 d2 f2 3e 6e 1d 43 3e 5f 10 50 3e ca 65 ea 3e
       0.4742649 0.19054195 0.20318745 0.45780784
000290 4c 8d 87 3d 24 28 87 bd 2e aa 42 3e f4 8b 43 be
       0.06618747 -0.06599453 0.19010231 -0.19096357
0002a0 44 ff 2a be cb d7 0b be 00 dc 57 bd 1f 27 8b be
       -0.16698939 -0.13656537 -0.052700043 -0.27178285
0002b0 5a 13 3c 3e 7b 46 78 bc e6 13 d5 bd de 3a bb bd
       0.18366757 -0.015153523 -0.10404186 -0.091420874
0002c0 1e 6f b7 bd fd 97 ec bd 7f 23 08 3d a4 6a a4 3d
       -0.08956741 -0.11552427 0.033236977 0.080281526
0002d0 06 6d 55 3d 54 4b 6a 3e 19 ca 6f 3e 42 1a 3d 3c
       0.052105926 0.22880298 0.23416938 0.011541905
0002e0 af af d7 3d e5 1f 46 be cd 6f 64 be 7c 6f 98 3e
       0.10531556 -0.19348104 -0.22308274 0.29772556
0002f0 0c 0f 08 be 56 4d 11 bf fa 69 d8 bd fc f5 51 be
       -0.1328699 -0.5675863 -0.105670884 -0.20503992
000300 8c 9a 7e 3d 28 10 49 be 41 61 3d be dd f6 49 be
       0.062159106 -0.1963507 -0.1849413 -0.19723077
000310 9a b4 a8 b9 12 65 9d 3e 94 de 4b 3d 79 2a 6e 3e
       -0.00032178016 0.30741173 0.049772814 0.2325839
000320 de 43 89 3e 80 10 63 3d a1 7a 70 bd 80 7d 3b bb
       0.2680959 0.055435658 -0.058710698 -0.002860874
000330 d2 0d a8 3e 84 2c 8f 3c 1e 65 46 3d a2 9b 37 bd
       0.32823044 0.017477281 0.048436277 -0.044826157
000340 f0 7e 7d 3e 5c 0d 6b be aa 52 18 be fa be 95 be
       0.24755454 -0.22954315 -0.14875284 -0.29247266
000350 20 fa 21 3e b1 97 c7 3d bc 57 9f 3b 66 12 10 3e
       0.15818071 0.0974573 0.0048627537 0.14069518
000360 22 6a b6 be 65 b8 b0 be 0c 27 12 be 10 25 08 be
       -0.35627848 -0.34515682 -0.14272708 -0.13295388
000370 83 39 a5 3d c4 9f dd bd de d5 32 be 52 53 8d bc
       0.0806761 -0.108214885 -0.17464396 -0.017251644
000380 47 96 ad 3d b2 08 59 3e 48 22 9b be 15 ca 8d 3d
       0.08475929 0.21194723 -0.30299592 0.0692331
000390 d6 62 c6 3d ad 67 73 be bc c5 01 be 4b 93 3d be
       0.0968682 -0.23770018 -0.12673086 -0.18513219
0003a0 0e 82 55 3e a3 ec 7a bd ca a8 83 3c e4 7a 45 be
       0.20850393 -0.06126083 0.016071696 -0.1928516
0003b0 2b 3b 28 bf 8f e8 28 3f 7f fc 61 3d 53 3c bb bd
       -0.65715283 0.65979856 0.05517244 -0.09142365
0003c0 50 b0 42 3e 0c 19 55 3d 7c 25 bd bd 05 20 62 3d
       0.1901257 0.05202584 -0.09235665 0.055206317
0003d0 d1 d8 5d bd 98 07 fe bd 45 aa fb 3d 2c 2c 9b bd
       -0.05416185 -0.12403792 0.12288336 -0.075767845
0003e0 93 89 92 bc 55 6c 96 bd 52 e1 5e 3d 39 f5 0c be
       -0.017887866 -0.073448814 0.0544141 -0.1376542
0003f0 90 1d 8d bb 02 f5 14 3e cc 97 35 3e d3 3c 21 3e
       -0.0043065026 0.14546588 0.17733687 0.15745859

dynamicsFunction.startBlock.0.bias f4 [64]
000000 26 8e 93 3d 5e 27 86 3d 63 b4 c4 3d d5 e2 78 be
       0.07204847 0.065504774 0.096047185 -0.2430528
000010 9b c7 3d be ae fd 0f be 2d 86 5d 3e 32 16 ec bc
       -0.18533175 -0.14061615 0.21633215 -0.028819177
000020 36 37 4f 3e 29 e4 26 bb 20 a1 ed bd 3c bc 11 3e
       0.20235905 -0.0025465584 -0.11602998 0.14231962
000030 c5 3a 7a 3c 4f fd 44 3e fd b6 71 3d 7b 85 58 be
       0.015272801 0.19237255 0.0590124 -0.21144669
000040 ef 83 86 be 6e f6 8e 3e ab 53 13 be 58 c4 84 be
       -0.26272532 0.27922386 -0.14387386 -0.25931048
000050 fe 11 06 be 8f b3 90 3d c3 98 30 be 92 5d ca bd
       -0.13092801 0.07065498 -0.17245774 -0.09881128
000060 ae d5 46 bd 91 94 f5 3d 7b c7 a0 3e 0a 07 16 be
       -0.048543625 0.119912274 0.31402192 -0.14651123
000070 4c d5 70 be 6e 5b 1b 3e 6b 29 09 bd 13 60 05 be
       -0.23518866 0.15171596 -0.033486765 -0.1302493
000080 fd 5d f5 3d fd d6 10 3d d2 d8 cd 3d 1f 43 c1 3d
       0.119808175 0.03536128 0.10051121 0.094366305
000090 12 c5 e0 3c 58 e8 b5 bd 11 27 14 3a 07 cd 83 be
       0.02743772 -0.08882207 0.00056515733 -0.2574236
0000a0 49 89 31 3d 6e 86 2e 3d ae cc 32 be e7 5a 7a 3e
       0.043343816 0.04260867 -0.17460892 0.24448739
0000b0 c0 f3 d2 bd d9 b3 b2 3d 99 6e 8b bd c1 48 01 be
       -0.10300398 0.087257095 -0.06808204 -0.1262541
0000c0 2a 77 1c 3e 58 eb 3d 3e 40 fb 3c bb 84 e4 53 be
       0.15279832 0.18546808 -0.002883628 -0.2069264
0000d0 a1 17 dc 3b 60 b6 da bc a8 ee 09 bd 73 20 e0 bd
       0.006716684 -0.026698291 -0.033674866 -0.10943689
0000e0 ca d5 b0 ba 50 d0 1c 3e 84 57 00 bd 8a 35 1f 3e
       -0.0013491448 0.1531384 -0.03133346 0.15547767
0000f0 47 3f 39 3e c1 30 08 3d 5f a5 11 3e d7 f9 d3 3d
       0.18090545 0.03324962 0.1422324 0.103503875
