AlphaGo/foersterrobert_MuZero/Environments/CartPole/Models/model_0.pt (torch, 83738 bytes, 20 tensors)

predictionFunction.startBlock.0.weight f4 [64, 32]
-0.06463648 0.39640257 -0.31142128 -0.28226787 -0.23983221 -0.0822305 -0.028766066 0.22329505
0.13480853 -0.10994835 -0.18614 -0.18726413 -0.37193948 0.11787922 -0.057757217 -0.1915803
-0.03428516 0.1791038 -0.32007778 0.19775344 0.2750874 0.61810637 0.038679216 0.040732298
-0.029483989 0.085161075 0.030959297 -0.031222038 0.015985074 0.11219704 -0.23493503 0.024273176
-0.19948925 -0.11681698 -0.21186894 -0.1851678 -0.19383508 0.04040347 -0.15465023 0.2514169
0.074858084 -0.24237168 -0.12750196 0.087465666 -0.13604909 0.06490668 0.09500097 0.022824185
-0.28765467 -0.25278658 0.05914051 0.18421763 0.18546766 0.030936163 0.13107352 -0.38717937
-0.011426317 0.007019014 -0.115878575 -0.097125016 -0.09442951 0.2902208 -0.3227138 -0.08441188
-0.2558499 0.1798092 -1.298827 0.040250525 0.059449855 0.5361283 -0.015321917 -0.40711394
-0.35679656 0.18940148 -0.28013918 0.13244417 0.3838308 0.07723855 0.26278132 0.14478527
-0.45261765 0.32858855 0.037138723 -0.1714942 0.277878 0.12586345 0.6989323 0.10622127
0.20328727 0.1067934 0.37614813 0.19594947 0.21650998 1.3598222 -0.81946677 0.2928478
0.07390067 0.28164375 -0.5900387 -0.16413973 0.08659574 0.25719842 0.034751788 -0.20881045
-0.3581452 0.16262025 -0.09924831 -0.16655612 0.25048995 0.05331518 -0.008556646 0.4333258
-0.02167281 0.22555633 -0.13100007 0.007389861 -0.05389673 0.42928803 0.20647869 0.3377404
0.20382446 0.02626003 0.12846155 0.30258128 -0.047100674 0.0907249 -0.43910697 0.31008056
-0.5389665 -0.21896334 -0.21530704 0.2662434 0.09450679 0.121379256 -0.005456616 -0.21355082
-0.020717125 -0.071169265 -0.06690565 0.7125796 0.26386917 0.63272834 0.075553514 -0.31597885
-0.48540446 -0.47097364 0.0073478273 -0.3455056 0.06989887 -0.37898836 0.0709259 -0.23336953
0.09775846 0.4242337 -0.10618227 -0.08493645 -0.1801548 0.28831506 -0.049878474 0.32363078
-0.10662999 -0.12913173 -0.014938715 -0.24896882 0.36977413 -0.1576281 -0.29331183 0.25659332
-0.040868968 0.057597257 0.14860843 0.10498262 0.21946846 0.037917472 0.042010583 0.01748126
-0.11862639 -0.114753924 0.49712858 -0.076421864 -0.020091252 -0.107834406 0.22672842 -0.067480534
0.033559803 0.07587592 -0.06313611 -0.23502542 -0.7059998 0.2032039 0.11096559 0.12851399
-0.18297365 -0.03173837 -0.078523606 -0.15053463 -0.12298488 0.17373942 -0.47749275 0.31825924
-0.015867833 0.29056418 -0.6053112 -0.16923052 -0.014004442 0.047798987 0.19259895 0.19947158
0.035454262 0.010807557 0.30390552 0.0892632 0.030500073 -0.05072057 0.074471906 -0.042458117
-0.2094071 0.030293988 0.026604274 -0.45411575 -0.16816732 0.25827757 -0.076916344 0.038620487
-0.21629108 0.15820831 -0.42532226 0.13899317 -0.07682479 -0.078766204 0.04276825 0.118526526
0.12898587 0.16358559 0.21675281 -0.1275204 0.20977663 -0.13335176 -0.23204827 0.36987182
0.14491872 0.13373785 0.0017072011 0.05718505 0.21416289 0.075630024 0.54616714 -0.17062007
0.16454992 0.07543075 0.21459475 0.36694965 0.16394007 0.26651403 -0.4486933 -0.24564311
00000000: 2160 84bd 47f5 ca3e 9c72 9fbe 6a85 90be
00000010: 9396 75be 7768 a8bd d0a6 ebbc 75a7 643e
00000020: 3f0b 0a3e 9a2c e1bd 7c9b 3ebe 2bc2 3fbe
00000030: da6e bebe a96a f13d d592 6cbd a02d 44be
00000040: 996e 0cbd fd66 373e 3ce1 a3be e17f 4a3e
00000050: 41d8 8c3e 383c 1e3f 196e 1e3d e9d6 263d
00000060: 6888 f1bc ee68 ae3d 5a9e fd3c 5cc5 ffbc
00000070: 21f3 823c 90c7 e53d cf92 70be 8ad8 c63c
00000080: e946 4cbe be3d efbd 2cf4 58be a19c 3dbe
00000090: b47c 46be 1c7e 253d a15c 1ebe b7b9 803e
000000a0: 324f 993d 4830 78be e08f 02be 3321 b33d
000000b0: 7450 0bbe cbed 843d de8f c23d c9f9 ba3c
000000c0: 7947 93be 3e6d 81be 523d 723d 8ca3 3c3e
000000d0: 3ceb 3d3e d66d fd3c 2338 063e 603c c6be
000000e0: 7235 3bbc c2ff e53b bf51 edbd 7be9 c6bd
000000f0: 4264 c1bd d297 943e be3a a5be 23e0 acbd
00000100: c2fe 82be e71f 383e f73f a6bf bcdd 243d
00000110: b181 733d b43f 093f c708 7bbc 3d71 d0be
00000120: 0aae b6be 76f2 413e 676e 8fbe 729f 073e
00000130: 7885 c43e 3f2f 9e3d 468b 863e 9742 143e
00000140: 80bd e7be c23c a83e c61e 183d 2d9c 2fbe
00000150: 0646 8e3e 59e2 003e 3aed 323f 8a8a d93d
00000160: 8a2a 503e 80b6 da3d 7d96 c03e faa6 483e
00000170: cbb4 5d3e a70e ae3f 93c8 51bf 26f0 953e
00000180: 3c59 973d 9c33 903e c70c 17bf 3f14 28be
00000190: 1b59 b13d 83af 833e e457 0e3d 68d2 55be
000001a0: cf5e b7be ec85 263e b342 cbbd b08d 2abe
000001b0: 3840 803e 0561 5a3d 2d31 0cbc e1dc dd3e
000001c0: 2d8b b1bc 3df8 663e e224 06be a626 f23b
000001d0: d1c2 5cbd a4cb db3e 266f 533e 4fec ac3e
000001e0: 5cb7 503e 461f d73c 6d8b 033e efeb 9a3e
000001f0: a3ec 40bd facd b93d a1d2 e0be e1c2 9e3e
00000200: b5f9 09bf ed37 60be 7379 5cbe 0e51 883e
00000210: c78c c13d b095 f83d 6acd b2bb 11ad 5abe
00000220: f6b6 a9bc 31c1 91bd d405 89bd 9e6b 363f
00000230: dc19 873e 7cfa 213f cdbb 9a3d fbc7 a1be
00000240: ef86 f8be 7523 f1be 0bc6 f03b 1ce6 b0be
00000250: 2427 8f3d c30a c2be 9941 913d 6cf8 6ebe
00000260: 9635 c83d 2935 d93e 1776 d9bd 29f3 adbd
00000270: 807a 38be 089e 933e 5f4d 4cbd efb2 a53e
00000280: d360 dabd 1c3b 04be 83c1 74bc aff1 7ebe
00000290: 0953 bd3e 4369 21be f82c 96be 3360 833e
000002a0: 3866 27bd 1aeb 6b3d cf2c 183e 2101 d73d
000002b0: 57bc 603e 5a4f 1b3d 4a13 2c3d dc34 8f3c
000002c0: 65f2 f2bd 1b04 ebbd a387 fe3e 1183 9cbd
000002d0: 6996 a4bc 49d8 dcbd 7f2b 683e 3c33 8abd
000002e0: 0176 093d d664 9b3d 814d 81bd 81aa 70be
000002f0: 67bc 34bf af14 503e ed41 e33d 2c99 033e
00000300: 725d 3bbe 1800 02bd fcd0 a0bd c025 1abe
00000310: 7fdf fbbd bfe8 313e ee79 f4be e0f2 a23e
00000320: 42fd 81bc d4c4 943e adf5 1abf c44a 2dbe
00000330: e372 65bc dfc8 433d a938 453e 4742 4c3e
00000340: 7d38 113d 2e12 313c 8199 9b3e a0cf b63d
00000350: 4adb f93c 5fc0 4fbd ba84 983d 90e8 2dbd
00000360: d16e 56be 192b f83c 35f1 d93c dc81 e8be
00000370: 0e34 2cbe f53c 843e 5186 9dbd 8430 1e3d
00000380: 697b 5dbe 5c01 223e d7c3 d9be 3a54 0e3e
00000390: 5156 9dbd 2d50 a1bd c32d 2f3d 09be f23d
000003a0: df14 043e fb82 273e 73f4 5d3e b594 02be
000003b0: afcf 563e 5d8d 08be 109e 6dbe d75f bd3e
000003c0: 9365 143e 93f2 083e 2ac4 df3a df3a 6a3d
000003d0: 844d 5b3e eae3 9a3d 9cd1 0b3f 07b7 2ebe
000003e0: c67f 283e 707b 9a3d babe 5b3e d3e0 bb3e
000003f0: e8df 273e 8774 883e 21bb e5be de89 7bbe

predictionFunction.startBlock.0.bias f4 [64]
-0.042159308 -0.16331905 -0.19106525 0.032793034 -0.15791407 -0.0012257367 0.06721095 -0.06448788
0.19035335 0.088850215 -0.2193914 -0.10287645 -0.10438288 0.0021758282 -0.1064054 -0.048096605
-0.09405955 0.11550941 -0.18323863 0.017498884 -0.21410015 -0.06263379 -0.018849792 -0.05769866
-0.0041488023 0.00061388547 0.09242542 -0.09312009 -0.030127488 -0.20377855 -0.0011028143 -0.17148003
0.05226081 -0.19964258 -0.1939624 0.060323462 -0.070925996 -0.13164352 -0.09962819 -0.056134418
-0.14535874 -0.10708323 -0.25437355 -0.078200094 0.061168503 -0.23942393 0.021936562 -0.122305706
0.044286367 0.110041246 -0.109698236 0.028697802 -0.17189413 -0.03954378 -0.12973994 0.1291062
-0.01600924 0.06505915 -0.06964878 0.022631472 0.14359571 0.17577928 -0.12115694 0.062638
00000000: 3daf 2cbd 1c3d 27be 9ca6 43be fd51 063d
00000010: 3ab4 21be e6a8 a0ba e5a5 893d 3912 84bd
00000020: fdeb 423e 1af7 b53d 24a8 60be e3b0 d2bd
00000030: b1c6 d5bd 5798 0e3b 13eb d9bd f200 45bd
00000040: 4ba2 c0bd 3390 ec3d e8a2 3bbe d259 8f3c
00000050: 123d 5bbe 2546 80bd e16a 9abc 6e55 6cbd
00000060: adf2 87bb 28ed 203a 8a49 bd3d bfb5 bebd
00000070: eccd f6bc 53ab 50be 4f8c 90ba 7698 2fbe
00000080: 6e0f 563d 1b6f 4cbe 149e 46be bc15 773d
00000090: a641 91bd 8fcd 06be dd09 ccbd 34ed 65bd
000000a0: ecd8 14be 744e dbbd 403d 82be 5f27 a0bd
000000b0: d38b 7a3d 8c2b 75be 4eb4 b33c 6a7b fabd
000000c0: 9f65 353d 4e5d e13d 78a9 e0bd a717 eb3c
000000d0: 0405 30be a9f8 21bd 8cda 04be 6a34 043e
000000e0: cf25 83bc bb3d 853d 05a4 8ebd a365 b93c
000000f0: c10a 133e 7cff 333e 2121 f8bd 5a48 803d

predictionFunction.startBlock.2.weight f4 [64, 64]
-0.21214432 0.010721166 0.22401442 -0.0828504 -0.15323114 -0.3356004 0.21546349 0.08708399
-0.5994236 -0.22103725 -0.23478512 -0.028039167 0.14563254 0.46770576 0.08439947 0.11624319
0.13334514 -0.3436943 -0.47394162 -0.19723843 -0.1069439 0.009261147 0.31409955 0.21962668
-0.42339092 -0.07447244 0.7958528 -0.019528242 -0.14571434 0.35862577 -0.16444442 -0.047608547
-0.32872346 0.058468603 0.036781985 -0.21520518 -0.17265585 0.3756819 -0.17945218 -0.03308392
-0.3515943 0.09531306 0.1619953 0.06945171 -0.052444514 -0.12100427 -0.14946365 0.011656051
0.14316808 -0.59280854 -0.24339978 -0.34347638 -0.003342946 -0.13156323 0.51143306 -0.34110343
-0.39670253 0.05442024 -0.26744926 0.32933936 0.04873365 -0.07770668 0.13280094 -0.11421078
-0.17016247 -0.07940348 0.12757061 -0.12404105 0.35444295 -0.09229344 0.2386835 0.12792112
-0.50980324 0.2823787 -0.008497787 0.13407671 0.5325084 0.27403745 0.077779844 -0.21340433
0.21408351 -0.14999942 0.12542582 0.029791666 0.0289158 -0.09272214 0.015499525 0.19670214
-0.12618153 -0.3297817 0.47560862 -0.14211197 -0.42210376 0.05579447 -0.13739422 -0.012118876
-0.33509988 0.1198533 0.2826664 -0.10780126 0.26072595 -0.08500026 -0.29386932 0.044103008
0.1935684 0.09233053 0.028742189 0.2383535 0.37190866 0.06824748 -0.2601211 -0.026001047
-0.122320786 -0.21106465 -0.06352376 -0.16187023 0.22694725 -0.056891132 -0.28836375 -0.25392103
-0.06143595 -0.011318412 -0.26318473 0.66516936 0.2958622 0.084265605 0.13141017 -0.10156925
-0.27342376 -0.015061579 0.27754915 -0.08130306 -0.17804244 -0.13117698 0.14545399 -0.017382488
-0.061195545 -0.36486822 0.008694184 0.29418713 0.117019214 0.10233567 -0.08037873 -0.014749966
0.10831122 0.013044448 -0.110241726 0.019680057 0.08263342 -0.19670984 0.09730064 0.028506905
0.12098224 -0.27599323 0.012527526 0.07257869 -0.29175916 -0.08081934 0.061400652 0.032476857
-0.026463846 -0.006487432 -0.36351255 0.019489797 -0.03502208 -0.1771964 -0.0035923 -0.07384405
0.0765322 -0.073809974 -0.092685536 -0.32211247 0.22739033 -0.27654815 -0.18567385 -0.23515016
-0.183126 -0.12637614 0.12539737 0.020911014 0.011908186 -0.107628696 0.005021743 -0.044805553
0.12128847 -0.1533986 0.023011567 -0.20181978 -0.11625484 -0.14509784 -0.14789285 0.15913165
-0.6461367 -0.1924607 0.08252535 0.20774671 -0.1077221 0.14088541 -0.021903597 0.13003679
-0.65757823 0.2057963 -0.18810508 -0.11950674 0.12645623 -0.13928267 0.08370399 0.08434124
0.009027475 -0.10501999 -0.1002534 -0.09580871 -0.08546748 -0.32257327 -0.067944415 -0.027258877
-0.08695931 -0.17843331 0.06408122 -0.3024785 0.27076736 -0.14850783 0.13111944 -0.10870156
0.06932631 0.13930677 0.037696708 -0.29310444 0.1714328 -0.049279615 -0.902433 0.15251392
0.5456309 -0.27451268 0.025730772 0.4863072 0.20988919 -0.25438228 0.015904993 -0.5108605
0.24550979 -1.5448029 0.05402995 -0.0977591 0.22735803 0.13978645 0.14447086 0.06519891
-0.47352323 0.10371783 0.1996972 -0.123299554 -0.46876314 -0.12826544 0.12319064 0.06329634
00000000: 5c3c 59be d4a7 2f3c 0964 653e 78ad a9bd
00000010: a0e8 1cbe d1d3 abbe 76a2 5c3e 1759 b23d
00000020: d373 19bf 9757 62be 836b 70be 65b2 e5bc
00000030: b220 153e 2177 ef3e a1d9 ac3d e910 ee3d
00000040: a18b 083e b3f8 afbe 7aa8 f2be dff8 49be
00000050: 6705 dbbd 11bc 173c a8d1 a03e d1e5 603e
00000060: b2c6 d8be 0285 98bd 02bd 4b3f b1f9 9fbc
00000070: 2436 15be cc9d b73e 1e64 28be 2e01 43bd
00000080: 714e a8be c67c 6f3d b5a8 163d bf5e 5cbe
00000090: b2cc 30be 6159 c03e 50c2 37be 0183 07bd
000000a0: 2b04 b4be 7e33 c33d 19e2 253e b33c 8e3d
000000b0: 0fd0 56bd 16d1 f7bd 000d 19be 05f9 3e3c
000000c0: a79a 123e 4dc2 17bf cb3d 79be 23dc afbe
000000d0: 5415 5bbb 83b8 06be 47ed 023f 1ca5 aebe
000000e0: 981c cbbe c2e7 5e3d 1cef 88be 2b9f a83e
000000f0: f09c 473d ae24 9fbd f8fc 073e 57e7 e9bd
00000100: 123f 2ebe 4b9e a2bd dfa1 023e 3c09 febd
00000110: 8c79 b53e 5804 bdbd 7369 743e c1fd 023e
00000120: 7782 02bf f193 903e 4d3a 0bbc 684b 093e
00000130: 7852 083f a34e 8c3e 0a4b 9f3d aa86 5abe
00000140: b538 5b3e 7399 19be a06f 003e a70d f43c
00000150: d4e0 ec3c 1be5 bdbd b8f1 7d3c 496c 493e
00000160: bb35 01be 26d9 a8be f982 f33e cd85 11be
00000170: fc1d d8be be88 643d 12b1 0cbe 408e 46bc
00000180: 3692 abbe a675 f53d a6b9 903e e8c6 dcbd
00000190: df7d 853e 9e14 aebd 0a76 96be 5ba5 343d
000001a0: cb36 463e ca17 bd3d bd74 eb3c f112 743e
000001b0: d06a be3e 56c5 8b3d 982e 85be 2600 d5bc
000001c0: 5283 fabd 5521 58be bf18 82bd 4fc1 25be
000001d0: dc64 683e ad06 69bd 6aa4 93be f001 82be
000001e0: 43a4 7bbd dc70 39bc 26c0 86be 8a48 2a3f
000001f0: 407b 973e 7293 ac3d 6390 063e 8a03 d0bd
00000200: 33fe 8bbe d7c4 76bc ec1a 8e3e 3882 a6bd
00000210: c250 36be 4253 06be e4f1 143e b865 8ebc
00000220: 2ea8 7abd 02d0 babe 0d72 0e3c b29f 963e
00000230: c5a7 ef3d 5d95 d13d 9b9d a4bd d7a9 71bc
00000240: 46d2 dd3d 61b8 553c 6ac6 e1bd 1238 a13c
00000250: b63b a93d 4e6e 49be 8f45 c73d 5087 e93c
00000260: 89c5 f73d fc4e 8dbe 4140 4d3c 23a4 943d
00000270: 7561 95be 9c84 a5bd 407f 7b3d 7406 053d
00000280: b5ca d8bc 8694 d4bb 511e babe 11a9 9f3c
00000290: 5073 0fbd f972 35be cb6c 6bbb 8d3b 97bd
000002a0: eabc 9c3d af29 97bd ead1 bdbd edeb a4be
000002b0: 03d9 683e b897 8dbe 4921 3ebe 34cb 70be
000002c0: 6285 3bbe bf68 01be 2b68 003e 934d ab3c
000002d0: 8d1a 433c 6f6c dcbd 6f8d a43b 0786 37bd
000002e0: 1766 f83d 8614 1dbe c182 bc3c d8a9 4ebe
000002f0: 0417 eebd 8794 14be 3971 17be 68f3 223e
00000300: 3769 25bf 6b14 45be 0d03 a93d 8ebb 543e
00000310: 689d dcbd 4444 103e 2c6f b3bc 5d28 053e
00000320: 0c57 28bf 44bc 523e 9e9e 40be f3bf f4bd
00000330: be7d 013e 1ea0 0ebe ff6c ab3d 1abb ac3d
00000340: f9e7 133c b814 d7bd a851 cdbd 5b37 c4bd
00000350: 9309 afbd 5328 a5be 7126 8bbd 024e dfbc
00000360: b917 b2bd 39b7 36be 043d 833d 76de 9abe
00000370: 05a2 8a3e 7012 18be 2d44 063e ec9e debd
00000380: f4fa 8d3d 6fa6 0e3e dd67 1a3d c911 96be
00000390: 148c 2f3e 6cd9 49bd d905 67bf 9c2c 1c3e
000003a0: 77ae 0b3f ed8c 8cbe 57c9 d23c 42fd f83e
000003b0: 31ed 563e 653e 82be 304b 823c c1c7 02bf
000003c0: eb66 7b3e 1abc c5bf 824e 5d3d ec35 c8bd
000003d0: 8bd0 683e 2e24 0f3e 2bf0 133e 0287 853d
000003e0: a371 f2be 036a d43d 6c7d 4c3e 7a84 fcbd
000003f0: b901 f0be 0458 03be 604b fc3d 83a1 813d

predictionFunction.startBlock.2.bias f4 [64]
-0.0981685 -0.119021386 -0.063255504 0.1277559 -0.19784123 -0.15946335 0.005689996 -0.26716685
-0.13027965 -0.02127649 -0.11206209 0.082319796 0.1382311 0.13381891 0.23787327 0.0155876195
-0.14218834 -0.10140743 -0.33717075 0.043330096 0.026044123 -0.110434435 -0.07723324 0.11619855
-0.09439796 -0.115570605 -0.0609624 -0.107671164 -0.09619608 0.10838943 -0.12660159 -0.008738975
-0.06967578 -0.017733859 0.033802237 -0.001759219 0.0035529395 -0.1038347 -0.035972707 0.020347876
-0.12964953 0.19966938 0.16586538 -0.1108453 0.06934481 -0.113955304 0.09003847 -0.38812217
-0.021520855 -0.18754973 -0.02502066 0.07135759 0.22695558 -0.11484331 -0.2075653 0.36597353
-0.0504651 -0.0950799 0.10643084 0.13887557 0.087219834 0.14453503 -0.044455204 -0.059799768
00000000: 910c c9bd 7cc1 f3bd 1a8c 81bd 71d2 023e
00000010: e496 4abe 5c4a 23be 2573 ba3b 18ca 88be
00000020: 0768 05be 094c aebc cf80 e5bd 4897 a83d
00000030: 748c 0d3e d307 093e 0d95 733e 3763 7f3c
00000040: d299 11be b3ae cfbd a5a1 acbe e67a 313d
00000050: 7c5a d53c 732b e2bd 762c 9ebd 81f9 ed3d
00000060: b853 c1bd 48b0 ecbd b6b3 79bd b382 dcbd
00000070: 7302 c5bd 47fb dd3d d9a3 01be eb2d 0fbc
00000080: 2db2 8ebd 9946 91bc 3774 0a3d 9895 e6ba
00000090: 6fd8 683b 4aa7 d4bd 1e58 13bd 97b0 a63c
000000a0: d9c2 04be 2176 4c3e 9dd8 293e dc02 e3bd
000000b0: a704 8e3d 6661 e9bd 1766 b83d f3b7 c6be
000000c0: 814c b0bc 090d 40be 21f8 ccbc ee23 923d
000000d0: 0b67 683e f832 ebbd ff8b 54be e260 bb3e
000000e0: 7eb4 4ebd 40b9 c2bd 6af8 d93d 6635 0e3e
000000f0: 50a0 b23d fe00 143e a916 36bd 9af0 74bd

predictionFunction.policy_head.0.weight f4 [2, 64]
-0.10590713 -0.07659028 -0.08776436 0.13585337 -0.14958137 0.087476104 0.12782508 0.5323669
0.05290254 0.029696202 0.12259791 0.05201343 0.005203159 -0.106657945 0.026828516 -0.03500341
-0.057021145 0.05282823 -0.37404603 -0.11799311 0.088750556 0.0926047 0.033809636 0.13664454
0.07695729 -0.26630187 0.16730182 -0.27727678 0.046534956 -0.11506847 0.0036920574 0.1270768
-0.023390451 -0.0045666 -0.2176977 -0.06552421 -0.06815502 0.2992107 0.050461154 0.020319695
0.24244891 0.29232132 0.056145746 -0.35981512 -0.1068749 -0.040793847 -0.18510506 0.12885596
0.30374694 0.3029032 -0.16533032 0.08873516 -0.07660202 0.07736364 0.15175377 -0.014849184
0.052372366 0.017366694 0.0062970566 -0.0944174 0.024039175 -0.0011983435 0.054825537 0.082576714
0.13415734 -0.111956134 0.0910894 -0.16095382 -0.058998875 0.051794026 0.060179833 -0.41661328
-0.016939905 -0.030659186 -0.04857549 -0.040397156 0.12234543 0.14158258 0.0025931955 0.13574418
0.102614015 -0.22725204 0.36427343 0.013832686 0.022372257 0.022282144 -0.037468128 -0.1296563
0.09665919 0.2637568 -0.029728929 0.27329087 0.01624804 0.16826518 0.09492255 -0.041529633
-0.05768677 -0.111695 0.23211926 0.017615963 0.0026696005 -0.2662322 0.058773648 0.116450235
-0.24244557 -0.20906049 0.026892975 0.2822558 -0.055577718 -0.026537381 0.08246235 -0.16102037
-0.3731152 -0.26528496 0.14257507 -0.041010745 -0.03487413 0.11760637 -0.08435225 -0.01052216
0.03992809 -0.16954812 -0.15559103 -0.072337 0.1011025 0.22171842 -0.07772936 0.03469067
00000000: d6e5 d8bd 5ddb 9cbd cdbd b3bd 251d 0b3e
00000010: dc2b 19be ac26 b33d 94e4 023e 3249 083f
00000020: 55b0 583d 7345 f33c 9d14 fb3d 090c 553d
00000030: 437f aa3b 7b6f dabd 7ac7 db3c bc5f 0fbd
00000040: 018f 69bd 6a62 583d f682 bfbe 5fa6 f1bd
00000050: dac2 b53d 88a7 bd3d f97b 0a3d 8cec 0b3e
00000060: c99b 9d3d b858 88be 2b51 2b3e 39f7 8dbe
00000070: 709b 3e3d 05a9 ebbd 72f6 713b 6c20 023e
00000080: 559d bfbc 6ba3 95bb 25ec 5ebe 8f31 86bd
00000090: dc94 8bbd 2532 993e 5bb0 4e3d 7d75 a63c
000000a0: 8744 783e 24ab 953e 15f9 653d b039 b8be
000000b0: 3ae1 dabd 7317 27bd 2e8c 3dbe d1f2 033e
000000c0: b884 9b3e 2116 9b3e 5a4c 29be c8ba b53d
000000d0: 85e1 9cbd d470 9e3d 5765 1b3e fe49 73bc
000000e0: 6884 563d 9944 8e3c 8a57 ce3b e95d c1bd
000000f0: ceed c43c bc11 9dba be90 603d fb1d a93d
00000100: 8b60 093e 4249 e5bd 148d ba3d 14d1 24be
00000110: cea8 71bd f925 543d 217f 763d 564e d5be
00000120: 8ec5 8abc f928 fbbc 18f7 46bd 7d77 25bd
00000130: 3e90 fa3d 06fb 103e 9af2 293b 8600 0b3e
00000140: 4c27 d23d c2b4 68be 0c82 ba3e 7da2 623c
00000150: 0646 b73c 0b89 b63c 2e78 19bd 9fc4 04be
00000160: 41f5 c53d 220b 873e 158a f3bc c8ec 8b3e
00000170: 9c1a 853c b54d 2c3e c166 c23d fa1a 2abd
00000180: f648 6cbd 59c0 e4bd acb0 6d3e 5a4f 903c
00000190: 77f4 2e3b 964f 88be a3bc 703d 767d ee3d
000001a0: a743 78be f413 56be a84e dc3c d583 903e
000001b0: 76a5 63bd ec64 d9bc 05e2 a83d 86e2 24be
000001c0: f508 bfbe 6ed3 87be 33ff 113e e2fa 27bd
000001d0: 2dd8 0ebd 9cdb f03d dfc0 acbd 2365 2cbc
000001e0: a38b 233d 069e 2dbe 4153 1fbe 6c25 94bd
000001f0: d40e cf3d 270a 633e 9230 9fbd ce17 0e3d

predictionFunction.policy_head.0.bias f4 [2]
0.0062720953 -0.020394405
00000000: 2686 cd3b 2b12 a7bc

predictionFunction.value_head.0.weight f4 [64, 64]
-0.075059265 -0.02108488 -0.008426341 0.057349164 0.032973323 -0.054660413 0.055014487 -0.076271184
-0.0571219 -0.14035325 0.036119606 -0.03374567 -0.10392651 -0.11504868 -0.07063373 -0.09970354
-0.050939098 -0.10576246 -0.090487316 0.033897933 -0.07918825 0.05087948 0.008513406 -0.076636374
0.021163484 0.076191425 -0.014874486 0.013550654 0.10146546 -0.04599691 0.027475417 0.05129341
-0.14329621 0.07380961 -0.098886035 -0.00642021 -0.09105356 0.025156878 -0.10053763 -0.0751911
0.021597624 -0.09307783 -0.029235953 0.074468695 -0.15842244 -0.08122079 -0.11724852 0.08356293
0.004702288 -0.104877606 -0.1400534 0.06460041 0.05217425 -0.10768244 -0.0061751553 -0.061070234
0.015961645 -0.11755568 0.032356873 0.08022713 0.005493664 -0.07507529 -0.013550799 0.053935066
-0.15669538 -0.12294185 -0.104002476 0.012806799 -0.14461997 -0.052008577 -0.05579235 -0.3980852
0.050905455 0.03852242 -0.1276372 -0.07262784 -0.09544338 -0.1640128 -0.12451291 -0.05548053
-0.2870624 -0.3939824 -0.0847422 -0.0034667118 -0.0021564658 0.042929158 -0.04256621 -0.09717174
0.4222788 0.24462877 0.06678159 -0.0211896 0.111786574 -0.1650734 -0.16145776 -0.039281514
-0.47423345 -0.2339669 -0.102432035 0.029812545 0.11403128 0.004173087 0.016992478 0.20734797
-0.21551163 -0.05986232 -0.0923713 -0.36755887 -0.3780084 0.11489172 -0.19034666 -0.14920218
0.2221047 -0.0514761 -0.093415946 0.06391497 -0.072834246 -0.3449232 -0.095503196 0.2438582
-0.03034087 -0.006902909 0.16782454 0.054721117 -0.11124966 0.13976127 -0.23491256 -0.073912024
0.035466 0.06992109 0.12848186 -0.095888056 -0.11925566 -0.074495025 0.074235395 -0.15191215
-0.060582187 0.18602827 0.04130417 -0.15807147 -0.11670366 -0.0022741596 0.0383772 -0.1128712
-0.10065396 -0.23917134 -0.08987937 0.07481074 -0.06027122 -0.07379633 -0.09028014 -0.1680158
0.28282326 -0.10930243 0.010536835 0.05852828 0.1422946 -0.25083655 -0.048705745 0.028706374
-0.20368795 -0.24963598 -0.12878022 -0.111506075 0.016772164 -0.01659309 -0.15477693 0.14316712
0.08898058 -0.019555693 -0.0013751693 -0.26824972 -0.3294893 -0.11548978 0.0023601567 -0.21595867
-0.06851923 0.15363976 -0.07901579 -0.011581267 -0.033010073 -0.23925976 -0.07203598 -0.03743221
0.13141407 -0.011250974 0.1484469 0.09138358 0.065348335 -0.14943227 -0.18922839 0.075442985
0.38793805 0.1402463 0.051371202 -0.22240995 0.35434538 0.18969989 -0.091568194 -0.025134375
-0.26769918 0.085413516 -0.07603316 -0.31599054 -0.27990252 0.15572895 0.11892958 -0.010690272
0.7822119 0.082817845 -0.11593605 -0.24676129 0.031772893 -0.04204929 -0.073949166 -0.17724957
-0.086674996 -0.03338488 -0.019997949 -0.031333674 -0.09475957 0.2198651 0.10229455 -0.25927186
0.33859384 -0.5578665 0.24052496 -0.03559471 0.041125644 0.0127175385 -0.03626677 -0.039072204
0.29209366 -0.0030015185 0.098500654 -0.10013365 0.16070423 0.0748751 -0.20961276 -0.15162781
-0.20005606 -0.10206291 0.10687359 -0.0018750688 -0.12358425 -0.34143555 0.14161657 -0.094229124
-0.065287344 0.204966 0.08360366 -0.09837527 -0.0068344087 -0.031200375 0.2720614 -0.08039019
00000000: acb8 99bd 33ba acbc a30e 0abc f5e6 6a3d
00000010: 090f 073d 99e3 5fbd df56 613d 1134 9cbd
00000020: a7f8 69bd c3b8 0fbe 27f2 133d e638 0abd
00000030: 6cd7 d4bd a49e ebbd 6ba8 90bd 5f31 ccbd
00000040: 84a5 50bd fd99 d8bd 6a51 b9bd 8fd8 0a3d
00000050: 732d a2bd 0067 503d d07b 0b3c 88f3 9cbd
00000060: 0b5f ad3c 400a 9c3d 1eb4 73bc 9003 5e3c
00000070: 20cd cf3d 4267 3cbd 2014 e13c 0a19 523d
00000080: 3ebc 12be 7e29 973d c384 cabd a060 d2bb
00000090: 4a7a babd cc15 ce3c ace6 cdbd cbfd 99bd
000000a0: 80ed b03c 979f bebd 3d80 efbc 0b83 983d
000000b0: 7e39 22be 1657 a6bd fe1f f0bd 0b23 ab3d
000000c0: a715 9a3b 12ca d6bd 296a 0fbe 384d 843d
000000d0: abb4 553d 9c88 dcbd f558 cabb c824 7abd
000000e0: ffc1 823c 08c1 f0bd a488 043d 1f4e a43d
000000f0: 3204 b43b 13c1 99bd 2c04 5ebc 04eb 5c3d
00000100: c174 20be f0c8 fbbd 40ff d4bd 9cd3 513c
00000110: 4217 14be f206 55bd 8586 64bd d3d1 cbbe
00000120: 3d82 503d afc9 1d3d 53b3 02be e8bd 94bd
00000130: d277 c3bd f9f2 27be a000 ffbd 8d3f 63bd
00000140: d8f9 92be 10b8 c9be 528d adbd c631 63bb
00000150: 7e53 0dbb 7cd6 2f3d e859 2ebd fa01 c7bd
00000160: ed34 d83e f77f 7a3e c9c4 883d d095 adbc
00000170: 5cf0 e43d 0009 29be 2f55 25be a7e5 20bd
00000180: bace f2be 0595 6fbe e3c7 d1bd 7039 f43c
00000190: 3b89 e93d 64be 883b cf33 8b3c 0753 543e
000001a0: 15af 5cbe 3132 75bd 2a2d bdbd ad30 bcbe
000001b0: 518a c1be 5a4c eb3d 3cea 42be 75c8 18be
000001c0: 6a6f 633e 9ad8 52bd dc50 bfbd dae5 823d
000001d0: 1f2a 95bd c699 b0be 2e97 c3bd f7b5 793e
000001e0: 6b8d f8bc cc31 e2bb 32da 2b3e 4023 603d
000001f0: ddd6 e3bd 941d 0f3e eb8c 70be 305f 97bd
00000200: cc44 113d ca32 8f3d c090 033e f560 c4bd
00000210: 503c f4bd d990 98bd ba08 983d dc8e 1bbe
00000220: 0725 78bd 327e 3e3e 902e 293d 7ddd 21be
00000230: 5402 efbd 110a 15bb 6931 1d3d 0429 e7bd
00000240: aa23 cebd 55e9 74be ad12 b8bd 6036 993d
00000250: f4de 76bd 8822 97bd cbe4 b8bd 550c 2cbe
00000260: 36ce 903e f4d9 dfbd b0a2 2c3c 5abb 6f3d
00000270: adb5 113e a66d 80be ad7f 47bd a129 eb3c
00000280: 9393 50be 93a0 7fbe f6de 03be 4c5d e4bd
00000290: c765 893c 3bee 87bc d87d 1ebe 679a 123e
000002a0: 733b b63d 4333 a0bc 063f b4ba 0758 89be
000002b0: d2b2 a8be e885 ecbd dcac 1a3b 4524 5dbe
000002c0: cf53 8cbd be53 1d3e 08d3 a1bd 5bbf 3dbc
000002d0: 9235 07bd 8300 75be 9a87 93bd 8452 19bd
000002e0: 6991 063e 0156 38bc 7702 183e 5027 bb3d
000002f0: 59d5 853d c604 19be 16c5 41be da81 9a3d
00000300: d19f c63e ba9c 0f3e 9c6a 523d 6fbf 63be
00000310: c26c b53e b040 423e 1b88 bbbd 9be6 cdbc
00000320: de0f 89be 48ed ae3d 46b7 9bbd 83c9 a1be
00000330: 624f 8fbe 6977 1f3e 5a91 f33d 4026 2fbc
00000340: 0a3f 483f 679c a93d e16f edbd feae 7cbe
00000350: 4b24 023d e03b 2cbd a972 97bd e980 35be
00000360: a982 b1bd 95be 08bd bdd2 a3bc bd57 00bd
00000370: 4e11 c2bd 5124 613e ce7f d13d 48bf 84be
00000380: 2c5c ad3e 57d0 0ebf 2d4c 763e c2cb 11bd
00000390: 5d73 283d 395d 503c 778c 14bd 2d0a 20bd
000003a0: 4d8d 953e 20b5 44bb b6ba c93d df12 cdbd
000003b0: a68f 243e 1e58 993d baa4 56be 5244 1bbe
000003c0: 7fdb 4cbe 5c06 d1bd 8ae0 da3d dec4 f5ba
000003d0: bd19 fdbd a4d0 aebe ef03 113e 33fb c0bd
000003e0: 5fb5 85bd 9be2 513e 6538 ab3d f978 c9bd
000003f0: 2df3 dfbb ee97 ffbc a24b 8b3e 9da3 a4bd

predictionFunction.value_head.0.bias f4 [64]
-0.14519487 -0.10859572 0.0507183 -0.14476155 0.17046301 0.03554633 -0.02733331 -0.2417361
0.17317441 -0.050761748 -0.07809575 -0.039057583 0.055203747 -0.19165738 -0.098453015 -0.19713548
-0.13649955 -0.06962851 -0.0032674402 0.39028358 -0.050138086 -0.15583357 0.3282841 -0.07408461
-0.024153084 -0.17551722 -0.09935967 -0.066342115 -0.03374582 -0.078042395 0.118506886 0.14269666
-0.101492606 0.017238822 0.1951388 -0.004976325 -0.19922113 -0.024899362 -0.027618017 -0.13108386
-0.17548239 -0.013333096 -0.12394316 -0.07736515 0.100858256 0.0644794 -0.14139491 -0.11739037
-0.15987267 -0.17689261 -0.034855373 0.06038817 -0.16793288 -0.007519785 -0.17198494 0.24889041
0.09500898 -0.045920644 -0.104796655 -0.13277546 0.29012913 0.045884836 0.24194807 -0.25894564
00000000: f7ad 14be 6f67 debd febd 4f3d 5f3c 14be
00000010: db8d 2e3e 0799 113d 1bea dfbc ab89 77be
00000020: a254 313e 8deb 4fbd aaf0 9fbd d8fa 1fbd
00000030: 531d 623d d541 44be bca1 c9bd e2dd 49be
00000040: 8ac6 0bbe 6499 8ebd 8d22 56bb 40d3 c73e
00000050: 985d 4dbd d692 1fbe db14 a83e acb9 97bd
00000060: b0dc c5bc c9ba 33be 157d cbbd 60de 87bd
00000070: 0f39 0abd b1d4 9fbd bdb3 f23d 131f 123e
00000080: 5bdb cfbd 6e38 8d3c 77d2 473e 7110 a3bb
00000090: a000 4cbe bff9 cbbc 2e3f e2bc d93a 06be
000000a0: a8b1 33be 0f73 5abc e9d5 fdbd 9f71 9ebd
000000b0: c68e ce3d c70d 843d d4c9 10be 5d6a f0bd
000000c0: a9b5 23be 5623 35be 82c4 0ebd 9659 773d
000000d0: 99f6 2bbe 8768 f6bb d21c 30be 21dd 7e3e
000000e0: 1194 c23d 4917 3cbd a19f d6bd 4af6 07be
000000f0: ce8b 943e bdf1 3b3d 3cc1 773e 8694 84be

predictionFunction.value_head.2.weight f4 [41, 64]
-0.07590156 -0.6768821 -0.26320368 -0.38482812 -0.84327894 -0.6362033 -0.7641481 -0.7718455
-0.9111457 -0.2215326 0.03483534 -0.1436251 -0.43853042 -0.50306284 -0.8478651 -1.8566844
-0.27119154 -0.22354439 -0.94868267 -1.1534822 -0.114721514 -0.43495986 -1.0631437 -0.91990364
-0.57049614 0.07631412 0.002467398 -0.04622394 -0.18001898 -0.7602868 -0.9553082 -1.255468
-0.32440412 -0.21136479 -0.7690819 -0.38885853 -0.3990115 -0.316609 -1.2713675 -0.2760383
-0.28626108 -0.7787203 -0.09334435 -0.5693446 -0.8933055 -0.8159846 -0.15531504 0.08163952
0.011313731 -0.81668377 -0.52251077 -0.68626374 -0.032325502 -0.7797674 -0.42671892 -0.83319014
-0.91083896 -0.042208105 -0.113835886 -1.131649 -0.6716106 -0.29592812 -0.89184374 -0.4758124
-0.021624297 -0.7447347 -0.09866124 -0.37231562 -0.8206798 -0.6961705 -0.6686742 -0.6689136
-0.90255284 -0.3056735 -0.0660157 -0.31314588 -0.6353784 -0.54208827 -0.79983 -1.8932703
-0.11099066 -0.18214557 -1.1015987 -1.0727545 -0.06774264 -0.3895609 -1.1644796 -0.92953736
-0.44659197 0.047429945 -0.008699731 0.015444744 -0.07397296 -0.5630219 -0.9268879 -1.1520762
-0.12203034 -0.23915498 -0.7922288 -0.35181013 -0.53831065 -0.4288012 -1.1753008 -0.14534992
-0.16622236 -0.61316663 -0.03666513 -0.63022983 -0.8564827 -0.93686813 -0.48069316 -0.07384091
0.023690255 -0.99849355 -0.4803714 -0.62885624 0.022378054 -0.552454 -0.5804677 -0.83780855
-0.8946872 -0.046610527 -0.17838465 -1.0895559 -0.7247011 -0.28469265 -0.96951807 -0.3853464
-0.061051548 -0.7753117 -0.16080569 -0.4093081 -0.94692 -0.65644866 -0.7800256 -0.61903286
-0.88704187 -0.31056044 0.057079874 -0.22857511 -0.5243454 -0.4697265 -0.967358 -1.9149249
-0.27728072 -0.070565194 -1.0098103 -0.9769072 0.022335082 -0.29140958 -1.2202814 -0.962744
-0.511787 0.09432602 0.015787428 -0.08614308 -0.17062587 -0.7436366 -0.98295814 -1.1079335
-0.13679646 -0.3795626 -0.81652236 -0.24125102 -0.46642336 -0.39476237 -1.261699 -0.122983225
-0.18699764 -0.6924375 -0.06861667 -0.7530098 -0.8485618 -0.94091445 -0.22938052 0.088494666
-0.0645528 -0.8580438 -0.7045481 -0.6585411 0.1110942 -0.6135461 -0.50362307 -0.8329222
-0.84034634 -0.06660917 -0.2243393 -1.12382 -0.7681621 -0.41797698 -0.9505211 -0.52060586
-0.07267233 -0.61872 -0.30033103 -0.3843618 -0.8302196 -0.71174496 -0.62142813 -0.64710176
-0.8519284 -0.28081176 -0.009144518 -0.13245293 -0.53476024 -0.47918922 -0.8376421 -2.1209047
-0.12794854 -0.13023743 -1.1232558 -1.030532 -0.089468315 -0.3378156 -1.2049235 -0.8442491
-0.3657609 -0.03919201 0.03456318 0.0034230992 -0.17076351 -0.6523656 -0.8011307 -1.2685648
-0.13623177 -0.15744191 -0.7960633 -0.3110629 -0.48587978 -0.21819592 -1.3316506 -0.14273135
-0.33662271 -0.7762103 0.09424258 -0.6474892 -0.925535 -0.80986506 -0.46341756 0.10578924
-0.06539359 -0.96559066 -0.5447415 -0.7047222 -0.00044929236 -0.7550076 -0.44319108 -0.86900866
-0.95399785 -0.1049175 -0.24777703 -1.0148593 -0.7412233 -0.45501322 -0.89022046 -0.39103416
00000000: 4772 9bbd 2548 2dbf a2c2 86be 3108 c5be
00000010: 21e1 57bf 38de 22bf 369f 43bf ab97 45bf
00000020: d840 69bf 71d9 62be 80af 0e3d 7512 13be
00000030: 0f87 e0be bac8 00bf b00d 59bf d6a7 edbf
00000040: 9ed9 8abe d2e8 64be dedc 72bf 4ea5 93bf
00000050: 1df3 eabd 0fb3 debe 1815 88bf ce7e 6bbf
00000060: 090c 12bf 944a 9c3d 12b4 213b 5055 3dbd
00000070: e556 38be 28a2 42bf 148f 74bf 2db3 a0bf
00000080: 4c18 a6be 0370 58be 8de2 44bf 7718 c7be
00000090: 3c4b ccbe 931a a2be 2cbc a2bf e454 8dbe
000000a0: d090 92be 375a 47bf 532b bfbd 91c0 11bf
000000b0: abaf 64bf 5ee4 50bf e80a 1fbe 9f32 a73d
000000c0: 3a5d 393c 3012 51bf 44c3 05bf fbae 2fbf
000000d0: bf67 04bd d69e 47bf e77a dabe f34b 55bf
000000e0: be2c 69bf 68e2 2cbd ca22 e9bd e0d9 90bf
000000f0: acee 2bbf e483 97be df4f 64bf af9d f3be
00000100: 7025 b1bc efa6 3ebf e70e cabd 27a0 bebe
00000110: 1218 52bf 3b38 32bf 3b2e 2bbf ec3d 2bbf
00000120: b40d 67bf 3d81 9cbe 3d33 87bd a854 a0be
00000130: 29a8 22bf 4cc6 0abf a9c1 4cbf ae56 f2bf
00000140: 124f e3bd 5e84 3abe 3001 8dbf 0550 89bf
00000150: a7bc 8abd 8774 c7be ab0d 95bf 29f6 6dbf
00000160: b4a7 e4be e745 423d 5189 0ebc f40b 7d3c
00000170: 237f 97bd 3422 10bf 8748 6dbf 3c77 93bf
00000180: 0beb f9bd 0be5 74be 82cf 4abf 7520 b4be
00000190: bace 09bf d58b dbbe 4270 96bf 9cd6 14be
000001a0: 3236 2abe 7df8 1cbf 2d2e 16bd be56 21bf
000001b0: 7342 5bbf 97d6 6fbf 6a1d f6be e739 97bd
000001c0: 1112 c23c 469d 7fbf 3df3 f5be b9fc 20bf
000001d0: 2e52 b73c a06d 0dbf 8899 14bf 9f7a 56bf
000001e0: 380a 65bf aeea 3ebd 77aa 36be 9176 8bbf
000001f0: 0386 39bf 3cc3 91be 5632 78bf 204c c5be
00000200: 3011 7abd d47a 46bf 3faa 24be d590 d1be
00000210: 5969 72bf 050d 28bf c2af 47bf f078 1ebf
00000220: 2d15 63bf c701 9fbe 96cc 693d 980f 6abe
00000230: 803b 06bf fe7f f0be c6a4 77bf 421c f5bf
00000240: bdf7 8dbe 7c84 90bd 7741 81bf 9716 7abf
00000250: 10f8 b63c a333 95be 2e32 9cbf 6476 76bf
00000260: 7904 03bf 002e c13d a354 813c c86b b0bd
00000270: 8cb8 2ebe f85e 3ebf 25a3 7bbf c4d0 8dbf
00000280: 5f14 0cbe 0756 c2be 9c07 51bf 820a 77be
00000290: 0bcf eebe 4b1e cabe 5a7f a1bf a1de fbbd
000002a0: 4f7c 3fbe 9643 31bf e686 8cbd 40c5 40bf
000002b0: 593b 59bf c5df 70bf bae2 6abe b13c b53d
000002c0: 4234 84bd c2a8 5bbf 445d 34bf 2696 28bf
000002d0: 5b85 e33d 5b11 1dbf 71ed 00bf 643a 55bf
000002e0: f020 57bf 636a 88bd 34b9 65be 55d9 8fbf
000002f0: 45a6 44bf 1401 d6be 5a55 73bf 6d46 05bf
00000300: 3bd5 94bd 6f64 1ebf fdc4 99be 12cb c4be
00000310: 4689 54bf eb34 36bf ea15 1fbf 76a8 25bf
00000320: fb17 5abf 8fc6 8fbe e3d2 15bc bea1 07be
00000330: 0ce6 08bf 4a58 f5be b66f 56bf e7bc 07c0
00000340: f104 03be f65c 05be d9c6 8fbf 79e8 83bf
00000350: 2a3b b7bd 2bf6 acbe ef3a 9abf b620 58bf
00000360: 0345 bbbe cd87 20bd 1f92 0d3d 1356 603b
00000370: a1dc 2ebe 6f01 27bf e716 4dbf 5560 a2bf
00000380: 5780 0bbe 7438 21be ceca 4bbf a343 9fbe
00000390: 3cc5 f8be c06e 5fbe 8773 aabf 2b28 12be
000003a0: d059 acbe b8b5 46bf 4102 c13d dac1 25bf
000003b0: ddef 6cbf 5153 4fbf 1145 edbe 07a8 d83d
000003c0: 13ed 85bd f330 77bf 2e74 0bbf ad68 34bf
000003d0: 008f ebb9 2e48 41bf f1e9 e2be 5a77 5ebf
000003e0: 3439 74bf fcde d6bd 43b9 7dbe e9e6 81bf
000003f0: cfc0 3dbf 7ef7 e8be 7de5 63bf a135 c8be

predictionFunction.value_head.2.bias f4 [41]
-0.93645674 -0.97270954 -0.8937878 -0.92144907 -0.97410405 -0.96890897 -0.90606827 -0.82845277
-1.0000749 -0.8598964 -0.8712657 -0.87887526 -0.86859226 -1.0332 -1.04825 -1.0059714
-0.81239694 -0.9704243 -1.07366 -1.026707 -0.5625805 -0.54446965 -0.40746227 -0.5801457
-0.25804138 -0.2320946 -0.032037586 -0.17069955 0.026714096 -0.027616613 0.041037276 -0.24366367
-1.0656401 -0.9073387 -1.0236758 -0.9769375 -1.018 -1.0094804 -0.94264394 -1.0666162
-1.0198436
00000000: a1bb 6fbf 7e03 79bf 47cf 64bf 16e4 6bbf
00000010: e25e 79bf 6b0a 78bf 17f4 67bf 7b15 54bf
00000020: 7402 80bf 2c22 5cbf 450b 5fbf f8fd 60bf
00000030: 105c 5ebf e63f 84bf 0e2d 86bf acc3 80bf
00000040: 3ff9 4fbf ba6d 78bf b16d 89bf 236b 83bf
00000050: 4705 10bf 5d62 0bbf e59e d0be 6e84 14bf
00000060: 001e 84be 35aa 6dbe d839 03bd ddcb 2ebe
00000070: 85d7 da3c 3c3c e2bc b416 283d f882 79be
00000080: e566 88bf 5947 68bf cf07 83bf 9318 7abf
00000090: d34d 82bf a736 81bf 1d51 71bf e186 88bf
000000a0: 3c8a 82bf

dynamicsFunction.startBlock.0.weight f4 [64, 34]
0.14857829 0.2613808 -0.044991016 0.0840235 0.13333668 0.19561604 -0.047424357 -0.048292063
-0.05300272 -0.1294131 0.27275 0.04191264 0.010495132 0.13999763 -0.009410525 0.31133845
0.13285123 0.11784202 -0.052203376 0.17435397 0.19139631 0.163737 -0.136969 0.14253058
0.24048097 0.10612902 0.20260526 0.060577434 0.26837656 -0.027344085 -0.107701406 0.050189365
0.23770458 -0.22398055 -0.26457202 0.12417876 -0.14627069 -0.07603679 -0.0938616 0.28299206
-0.25551865 -0.0300903 -0.034482412 0.2498693 -0.150501 0.08144973 0.20897457 0.2637473
0.24280886 0.055414412 -0.065963656 0.10884629 -0.12306373 -0.028279582 -0.04747907 -0.032151636
0.025468245 0.122449145 0.21193296 0.11884701 0.07690151 0.33608902 -0.11896885 -0.029791955
-0.13429798 0.17016894 0.19100188 -0.32791924 0.043270275 -0.06595159 0.40514112 -0.25147733
0.057514448 -0.0888283 0.16769062 -0.0914231 0.060933217 -0.12073753 0.19695356 0.13408318
-0.2021128 -0.18513426 0.032601796 -0.12552859 -0.070881166 0.0021160357 -0.17576997 0.09592182
0.14561763 -0.24483733 -0.18300776 -0.15456827 -0.3209434 -0.25748396 -0.18702197 -0.40171447
0.110645495 -0.30978402 0.50346506 0.216358 -0.11953796 0.1765598 0.0698734 -0.19785847
0.06759845 0.40534815 0.5913069 -0.1848098 0.13584319 -0.08497897 0.28483835 0.15656258
0.023889782 0.23767236 -0.13179012 -0.08373152 -0.0021813228 -0.4024842 0.0029309348 -0.09788226
0.12857941 -0.44767582 -0.12441196 -0.15580353 0.09460044 -0.029348891 -0.011689226 -0.03948802
-0.18807137 0.17111073 -0.27295652 0.11883078 -0.06401987 -0.27392882 0.03410582 0.024423225
0.0036347036 -0.015904812 -0.23014314 0.4791481 0.20305344 -0.077044606 0.028767731 -0.44388458
-0.13012214 -0.050844315 0.0055698557 -0.04916782 0.17325583 -0.04944851 -0.41781986 0.09730379
-0.008740099 -0.022771874 -0.21287273 -0.25792414 -0.2029822 -0.07679478 -0.0785422 -0.07695402
0.19227156 0.20457259 0.18323898 0.39617744 0.056389615 -0.08950838 0.09431535 -0.08191209
-0.16802916 -0.09346353 -0.021898063 -0.19871709 0.17002071 -0.008473585 -0.065140635 -0.15850265
-0.025310911 -0.1800094 0.07168168 0.083670534 0.044017985 0.14220373 0.14666049 0.03908267
0.057181295 -0.20305349 -0.20688067 0.20950465 -0.07117995 -0.40294218 -0.09217104 -0.2414821
0.046494488 -0.15184283 -0.16181959 -0.2324782 -0.024515454 0.24003105 0.055915587 0.14110012
0.22469409 -0.14202467 -0.05550482 -0.0076885223 0.2810774 0.054393545 0.0030359954 -0.025402559
0.21614258 -0.20917664 -0.10572502 -0.16334409 0.12741911 0.013607926 0.0019616906 0.1364669
-0.28460473 -0.22790463 -0.086199395 -0.1059373 0.16319154 -0.08429736 -0.11385872 -0.005844554
0.13296323 0.15591875 -0.25444704 0.0016696966 0.045632925 -0.2614179 -0.10248477 -0.19090453
0.1395065 -0.02548192 0.058939263 -0.16087472 -0.44023854 0.42285913 0.038846746 -0.025669115
0.19603597 0.038798604 -0.07466886 0.022828907 -0.21417344 -0.0039523165 -0.021092314 0.022849506
-0.031855952 0.114370376 0.054604113 -0.03556517 0.022564141 0.06599952 0.04697802 0.12912968
00000000: e824 183e b4d3 853e 8048 38bd 8314 ac3d
00000010: 6989 083e 924f 483e 0b40 42bd e6cd 45bd
00000020: 6119 59bd de84 04be e3a5 8b3e 97ac 2b3d
00000030: c6f3 2b3c 8a5b 0f3e 9a2e 1abc c167 9f3e
00000040: 270a 083e 2857 f13d 35d3 55bd d989 323e
00000050: 65fd 433e acaa 273e 9a41 0cbe 89f3 113e
00000060: a540 763e 2c5a d93d c177 4f3e 0b20 783d
00000070: a768 893e b400 e0bc 8e92 dcbd 5d93 4d3d
00000080: d468 733e 285b 65be fc75 87be 6f51 fe3d
00000090: fcc7 15be 2db9 9bbd 833a c0bd 56e4 903e
000000a0: 57d3 82be ef7f f6bc 6e3d 0dbd bddd 7f3e
000000b0: ef1c 1abe 1ecf a63d 6efd 553e e309 873e
000000c0: e3a2 783e 39fa 623d f417 87bd ceea de3d
000000d0: d608 fcbd 95aa e7bc 6a79 42bd 6fb1 03bd
000000e0: c8a2 d03c 9ec6 fa3d f404 593e 1066 f33d
000000f0: 8a7e 9d3d dc13 ac3e f1a5 f3bd 420e f4bc
00000100: 6985 09be c440 2e3e ff95 433e 08e5 a7be
00000110: 2c3c 313d a111 87bd a86e cf3e a3c1 80be
00000120: 4594 6b3d 9deb b5bd 17b7 2b3e 093c bbbd
00000130: 1c95 793d 3d45 f7bd 32ae 493e 1a4d 093e
00000140: a8f6 4ebe d693 3dbe 7689 053d 918a 00be
00000150: 252a 91bd 30ad 0a3b 0bfd 33be a972 c43d
00000160: ca1c 153e a3b6 7abe 6366 3bbe 2547 1ebe
00000170: b152 a4be f0d4 83be b082 3fbe 85ad cdbe
00000180: 1b9a e23d 039c 9ebe 16e3 003f f48c 5d3e
00000190: 51d0 f4bd 18cc 343e c919 8f3d 699b 4abe
000001a0: 0e71 8a3d cb89 cf3e e45f 173f c83e 3dbe
000001b0: 7a1a 0b3e 7409 aebd 55d6 913e f151 203e
000001c0: 81b4 c33c 6260 733e fdf3 06be 6e7b abbd
000001d0: 86f4 0ebb 6912 cebe ed14 403b 7f76 c8bd
000001e0: 52aa 033e c435 e5be b3cb febd f68a 1fbe
000001f0: e0bd c13d 166d f0bc 2b84 3fbc 31be 21bd
00000200: c895 40be a737 2f3e f5c0 8bbe 8d5d f33d
00000210: d91c 83bd 6640 8cbe 8bb2 0b3d 3713 c83c
00000220: 3534 6e3b cf4a 82bc a5aa 6bbe e652 f53e
00000230: 3eed 4f3e 90c9 9dbd 4eaa eb3c d744 e3be
00000240: bd3e 05be 2142 50bd 5683 b63b 3264 49bd
00000250: fa69 313e 858a 4abd 7cec d5be 3647 c73d
00000260: a232 0fbc 158c babc 4ffb 59be a20e 84be
00000270: 91da 4fbe 9546 9dbd bcda a0bd 129a 9dbd
00000280: d6e2 443e 7a7b 513e 00a3 3b3e c5d7 ca3e
00000290: ccf8 663d 2b50 b7bd 6828 c13d 87c1 a7bd
000002a0: d60f 2cbe cf69 bfbd 9163 b3bc 7e7c 4bbe
000002b0: e919 2e3e cbd4 0abc 7468 85bd 854e 22be
000002c0: d458 cfbc 6254 38be d8cd 923d 755b ab3d
000002d0: 344c 343d db9d 113e 2b2e 163e 2615 203d
000002e0: ef36 6a3d 41ed 4fbe 87d8 53be 6388 563e
000002f0: cbc6 91bd 704e cebe 2cc4 bcbd 1547 77be
00000300: 0171 3e3d b07c 1bbe 09b4 25be c40e 6ebe
00000310: a2d4 c8bc b3ca 753e be07 653d 8d7c 103e
00000320: 3516 663e ea6e 11be 0659 63bd 00f0 fbbb
00000330: 61e9 8f3e c4cb 5e3d 8df7 463b 0719 d0bc
00000340: 7b54 5d3e 6732 56be 5c86 d8bd ac43 27be
00000350: 287a 023e c7f3 5e3c b58f 003b fbbd 0b3e
00000360: b6b7 91be d55f 69be 4f89 b0bd a8f5 d8bd
00000370: af1b 273e 18a4 acbd c32e e9bd ac83 bfbb
00000380: 8327 083e 2aa9 1f3e e246 82be b9d9 da3a
00000390: 97e9 3a3d 91d8 85be 89e3 d1bd 7a7c 43be
000003a0: cbda 0e3e 76bf d0bc 4c6a 713d 58bc 24be
000003b0: f266 e1be fe80 d83e c41d 1f3d 0948 d2bc
000003c0: a7bd 483e 49eb 1e3d fdeb 98bd b003 bb3c
000003d0: 4850 5bbe 6f82 81bb cac9 acbc e32e bb3c
000003e0: 637b 02bd 043b ea3d 90a8 5f3d c9ac 11bd
000003f0: 6fd8 b83c c22a 873d 066c 403d 923a 043e

dynamicsFunction.startBlock.0.bias f4 [64]
0.08120174 0.113199376 0.061128065 -0.12288441 -0.16338484 -0.13754864 0.18492071 -0.041234136
0.1775235 0.039248288 -0.063092336 0.14597718 -0.0016391749 0.1174804 0.06519973 -0.18546824
-0.15902567 0.21244791 -0.029323665 -0.18271902 -0.12044793 0.026610121 -0.1730271 -0.09594729
0.048163164 0.11309613 0.21159701 -0.09322179 -0.19920595 0.117290005 -0.035014544 -0.10567752
0.12856348 0.0046714395 0.121220805 0.06830793 0.065389566 -0.042329777 0.0067776972 -0.24946791
0.027205136 0.04690289 -0.16811965 0.21330999 -0.023924967 0.08162072 -0.02704189 -0.04273156
0.1090674 0.1331943 0.0037626075 -0.112118095 0.009545717 0.02732985 -0.04370592 -0.09375773
-0.014950314 0.09261312 -0.0389672 0.18134621 0.115544304 0.052446667 0.10030257 0.09097532
00000000: 194d a63d 13d5 e73d 6c61 7a3d d2aa fbbd
00000010: 5b4e 27be 8dd9 0cbe db5b 3d3e 20e5 28bd
00000020: b8c8 353e d0c2 203d 8e36 81bd 0b7b 153e
00000030: 95d9 d6ba 9099 f03d 7087 853d 63eb 3dbe
00000040: a0d7 22be f28b 593e 2f38 f0bc b21a 3bbe
00000050: 68ad f6bd 78fd d93c 042e 31be 0380 c4bd
00000060: bd46 453d f29e e73d e3ac 583e 11eb bebd
00000070: a5fc 4bbe be35 f03d 696b 0fbd 756d d8bd
00000080: 25a6 033e e012 993b 9d42 f83d 07e5 8b3d
00000090: f7ea 853d fd61 2dbd 7217 de3b 8474 7fbe
000000a0: 4edd de3c 3f1d 403d 8f27 2cbe ef6d 5a3e
000000b0: 4bfe c3bc c428 a73d f486 ddbc 4a07 2fbd
000000c0: bb5e df3d 1664 083e 1496 763b 2c9e e5bd
000000d0: a465 1c3c d9e2 df3c fb04 33bd 0e04 c0bd
000000e0: 29f2 74bc f3ab bd3d 129c 1fbd d2b2 393e
000000f0: 7ea2 ec3d 51d2 563d 6f6b cd3d 4551 ba3d

dynamicsFunction.startBlock.2.weight f4 [32, 64]
-0.038823385 -0.20719543 0.04735264 -0.064808466 -0.19521175 -0.09059803 0.20578751 0.06684134
0.15758032 -0.0103912 -0.19797298 0.037807114 0.10540806 0.22728176 -0.05051811 -0.10180195
-0.08819131 -0.005788526 0.012894997 -0.18955596 -0.14105222 -0.07286389 0.07160552 -0.08090877
-0.05537867 0.16843082 0.1600738 -0.0052483873 0.10941067 -0.050386187 0.013837673 0.004495103
-0.045442834 -0.041347124 0.07110392 -0.38323098 -0.23811322 -0.024914697 0.22770597 -0.16065353
-0.15269803 -0.17444205 0.2081883 -0.00093028985 -0.24502577 -0.081082866 -0.0022968077 0.10023751
-0.108862564 0.18183324 -0.16453859 0.18723291 0.15428062 -0.06514645 -0.227665 -0.15338984
-0.26024884 0.07689771 0.2979452 0.2032082 0.1358771 -0.12011726 -0.0035622981 -0.26042753
-0.009717675 0.20326716 -0.52330196 -0.06298881 -0.00033761017 -0.25720692 -0.34569833 -0.073782034
-0.27973968 0.065360636 0.20328635 -0.12741452 -0.085404225 -0.7131411 -0.108784296 0.059240323
0.7858344 -0.10801806 -0.0062898756 0.18050043 0.11525672 0.04531604 0.08391605 0.11213401
-0.041528337 0.29365578 -0.55121166 0.106870055 -0.016016975 -0.24650985 -0.11645133 0.27633545
-0.0022381425 0.2104661 -0.009081881 -0.08530928 0.2705269 -0.017679717 -0.026545051 0.15851732
-0.08109159 0.32945764 0.059643224 -0.13146953 0.38481188 0.12241591 0.038884502 0.13631664
0.13286698 -0.8859201 -0.036356334 -0.18457502 0.40609887 0.05240955 0.124876894 0.2816731
-0.016671548 0.09315878 0.045564122 -0.028951626 -0.48889467 -0.7357683 0.088271484 -0.1626153
0.07544249 -0.22194244 0.3624281 -0.30601254 -0.0060605085 0.20683306 0.07791814 -0.11243948
-0.035129484 0.20205015 -0.077322766 0.12491253 0.20209953 0.30381238 0.10162695 -0.08374262
-0.14693296 0.43903866 -0.09218676 -0.13358372 -0.09005537 0.30508846 0.064917885 0.11019054
0.00442797 -0.11880053 0.2316059 -0.06391214 -0.10616603 0.15751353 -0.18253283 -0.16136865
0.1864786 0.0895919 -0.3264571 0.052154228 -0.3065974 -0.120606996 -0.16333883 -0.031705223
-0.10183729 -0.09763884 0.051768426 -0.02368707 -0.34446228 0.06993953 0.048918165 -0.36915532
-0.13812593 -0.0013977544 0.0005764359 0.1202316 0.42464286 -0.034302603 -0.1586107 -0.25419915
-0.32092473 0.08729721 -0.024923667 0.15948734 0.04344818 0.18096206 0.17927441 0.0677705
-0.0757126 0.008920613 -0.13114095 0.06579779 0.31530178 0.105490066 0.007920516 0.022594854
-0.19780794 0.20697679 0.13386978 0.03492951 -0.1520232 -0.1585289 -0.40595955 -0.004186974
0.027548615 -0.3813876 0.34402147 -0.004908609 0.01269133 -0.27001283 -0.11225193 0.08777276
-0.18538144 -0.056984525 0.05097078 0.12560476 0.02329964 -0.13842466 0.18381244 0.106131755
-0.19562805 -0.07811973 0.20196484 -0.14875868 0.07357116 0.3258981 0.123850256 0.0755854
0.022434114 0.014306463 0.02943446 0.11156379 0.24497598 -0.2634103 -0.2801785 0.3519162
-0.13659757 -0.10671752 -0.03078052 -0.11754734 0.12935469 0.078458026 -0.04412887 0.2174313
0.056602273 -0.058977403 -0.023255052 -0.061001852 0.0063561318 -0.055301484 -0.119712904 0.22034201
00000000: 4505 1fbd 0a2b 54be d8f4 413d 4dba 84bd
00000010: 97e5 47be 768b b9bd f6b9 523e 1de4 883d
00000020: bc5c 213e da3f 2abc 6eb9 4abe a2db 1a3d
00000030: 2ee0 d73d 8dbc 683e 14ec 4ebd 8a7d d0bd
00000040: a59d b4bd adad bdbb 8a45 533c f51a 42be
00000050: fe6f 10be aa39 95bd eaa5 923d 7fb3 a5bd
00000060: bfd4 62bd 2179 2c3e 63ea 233e aafa abbb
00000070: b412 e03d bf61 4ebd 68b7 623c a84b 933b
00000080: 4422 3abd 9a5b 29bd ef9e 913d da36 c4be
00000090: f4d3 73be e819 ccbc c12b 693e 5c82 24be
000000a0: df5c 1cbe f0a0 32be 502f 553e b2de 73ba
000000b0: 09e8 7abe c60e a6bd 0a86 16bb 5349 cd3d
000000c0: 56f3 debd 7e32 3a3e ce7c 28be fcb9 3f3e
000000d0: bdfb 1d3e 816b 85bd 0421 69be 3a12 1dbe
000000e0: 563f 85be 8c7c 9d3d 468c 983e cf15 503e
000000f0: 5e23 0b3e 0a00 f6bd 7275 69bb c256 85be
00000100: e236 1fbc 4425 503e 1ef7 05bf 4700 81bd
00000110: 4501 b1b9 a0b0 83be 5fff b0be 091b 97bd
00000120: 0a3a 8fbe ccdb 853d 4c2a 503e f478 02be
00000130: 69e8 aebd 6a90 36bf 4dca debd fba5 723d
00000140: 712c 493f 9338 ddbd 4d1b cebb 1bd5 383e
00000150: b70b ec3d 509d 393d 2edc ab3d 84a6 e53d
00000160: 9e19 2abd 0d5a 963e 351c 0dbf b0de da3d
00000170: 0836 83bc 146d 7cbe 097e eebd d77b 8d3e
00000180: cdad 12bb 6d84 573e 2bcc 14bc a2b6 aebd
00000190: 8082 8a3e 0ed5 90bc 0275 d9bc 5d52 223e
000001a0: 5913 a6bd acae a83e 744c 743d f39f 06be
000001b0: 1006 c53e 31b5 fa3d 5b45 1f3d 9796 0b3e
000001c0: 480e 083e a9cb 62bf 61ea 14bd 3c01 3dbe
000001d0: 31ec cf3e 65ab 563d 75bf ff3d 7537 903e
000001e0: c592 88bc 08ca be3d 72a1 3a3d f62b edbc
000001f0: 6750 fabe 505b 3cbf aec7 b43d a084 26be
00000200: 9881 9a3d e144 63be 2d90 b93e adad 9cbe
00000210: 3b97 c6bb 0ccc 533e 8c93 9f3d ac46 e6bd
00000220: efe3 0fbd 3ce6 4e3e 665b 9ebd 24d2 ff3d
00000230: 2ef3 4e3e 4c8d 9b3e ca21 d03d 4081 abbd
00000240: 9875 16be adc9 e03e 69cc bcbd 2cca 08be
00000250: f36e b8bd 8e34 9c3e abf3 843d 94ab e13d
00000260: 8118 913b b14d f3bd 192a 6d3e 5ee4 82bd
00000270: 936d d9bd 3a4b 213e e3e9 3abe d33d 25be
00000280: 3ff4 3e3e f57b b73d 6325 a7be ac9f 553d
00000290: 56fa 9cbe cd00 f7bd 4b42 27be 56dd 01bd
000002a0: 1290 d0bd dff6 c7bd 210b 543d 630b c2bc
000002b0: 5c5d b0be 753c 8f3d 6a5e 483d ed01 bdbe
000002c0: e270 0dbe db34 b7ba f51b 173a fc3b f63d
000002d0: ca6a d93e e380 0cbd d86a 22be 6426 82be
000002e0: 3f50 a4be e1c8 b23d b82c ccbc a650 233e
000002f0: b8f6 313d 1e4e 393e b693 373e 43cb 8a3d
00000300: 350f 9bbd c327 123c d049 06be fec0 863d
00000310: 3c6f a13e 2d0b d83d 0dc5 013c d818 b93c
00000320: 2a8e 4abe b9f1 533e 2915 093e 3f12 0f3d
00000330: f8ab 1bbe 6655 22be eed9 cfbe e232 89bb
00000340: a2ad e13c 3c45 c3be 9523 b03e 66d8 a0bb
00000350: 4cef 4f3c 1f3f 8abe 57e4 e5bd 34c2 b33d
00000360: a2d4 3dbe 9b68 69bd bdc6 503d 899e 003e
00000370: e3de be3c 32bf 0dbe 5439 3c3e 9b5b d93d
00000380: b852 48be 3dfd 9fbd dfcf 4e3e 3254 18be
00000390: 7aac 963d 1edc a63e 34a5 fd3d 85cc 9a3d
000003a0: bfc7 b73c a865 6a3c 8920 f13c 8e7b e43d
000003b0: fcda 7a3e b7dd 86be 8e73 8fbe 5c2e b43e
000003c0: 3ce0 0bbe b78e dabd 6e27 fcbc a9bc f0bd
000003d0: 8e75 043e 9aae a03d 79c0 34bd 50a6 5e3e
000003e0: c9d7 673d 4a92 71bd 6181 bebc 14dd 79bd
000003f0: 1947 d03b cf83 62bd 0a2c f5bd 56a1 613e

dynamicsFunction.startBlock.2.bias f4 [32]
0.02221344 -0.33105665 0.08549741 -0.1293014 -0.029461272 0.056737285 0.05673315 0.032647066
-0.15120512 0.13810977 0.15935028 -0.08412936 0.15054286 0.020392403 0.091509655 0.20532092
0.1536111 0.012604696 0.053415794 0.10101113 -0.14162888 -0.10322489 -0.04035443 0.1463273
-0.10518868 -0.08650072 0.10649814 -0.1329326 0.11322905 0.041890703 0.10434032 0.0141606815
00000000: f6f8 b53c 4280 a9be 4419 af3d 9667 04be
00000010: c458 f1bc 5b65 683d 0561 683d eeb8 053d
00000020: 84d5 1abe a66c 0d3e b82c 233e 044c acbd
00000030: e827 1a3e f80d a73c 6a69 bb3d a63f 523e
00000040: 3a4c 1d3e ed83 4e3c 85ca 5a3d ecde ce3d
00000050: 2907 11be 9267 d3bd b04a 25bd d3d6 153e
00000060: 2a6d d7bd 4a27 b1bd b21b da3d 7c1f 08be
00000070: a2e4 e73d 9695 2b3d 61b0 d53d 3402 683c
